DQN/final_dqn_against_negaMax2/DQN_AgainstNegaMax_Epochs0_player2.pth (torch, 493435 bytes, 12 tensors)

conv1.weight f4 [32, 1, 5, 5]
00000000: 59ef 283d 0a9a 433d b0ba 7c3d 06f5 7ebd
00000010: 8273 163e 4e68 743d 1cee f6b9 845d 3dbe
00000020: cf56 913e b6c9 c13e 6a65 c3bd 00f5 393e
00000030: a7a6 04be d86c 153e 2516 1a3d 5109 99be
00000040: 474e 423d 228b e3bd f9be 2a3e 300d 833d
00000050: 6964 a3bc d6ac 593e d85b e83d 60bf bbbd
00000060: 1ee4 73be 37df a5bd 8a50 463e c2ba 83bc
00000070: 9dc8 84be 54c2 2abe 08b4 2c3d f26d 923e
00000080: d5ac bdbb d3e4 5cbe 293e 63be fc9d 43bc
00000090: 505c 43be 8ac6 8e3d b38b c93d 480b 51be
000000a0: ac02 dabd 41da dabd 8f98 06be d89b 9c3d
000000b0: d88a d0bc b60d d53d bce6 943e 9877 10be
000000c0: b390 cf3d 57eb b6bd ff24 f9bc c0e6 aa3e
000000d0: 42f2 a3bd 0b6f 00be e136 3fbe 1174 47bd
000000e0: 5a9f 6c3e 7aab 89be 8b51 86be 919e 193e
000000f0: 433b 0b3e b403 073e 8314 713e 535b 5c3e
00000100: fae6 85bc 75f4 c93d bd98 01bd b1f7 59be
00000110: aee1 f9bd 6cf7 3bbe d475 473e 4192 b1bd
00000120: e128 823d cd43 91be b642 06be 13b9 ffbd
00000130: a3dd a0be 5f9f 3ebe ee8e 13be ee6a 2f3e
00000140: 26ad 76bd 9995 2abd 60ec 9a3e dd29 65be
00000150: b50f 60be 49ce 993d 34c5 d2bd b621 953d
00000160: 31d3 fcbd efa7 cf3d 164b 10be 8693 92be
00000170: 77c8 5e3c d6aa 8f3e 5a8f 5fbd 7a51 383e
00000180: 58eb 3bbe 9a90 e63d 2bdc 5fbe a00e 863d
00000190: 2f01 85bb c281 f9bd cfe6 643e e879 81be
000001a0: 27dd d8bd 3795 023e 3823 17bd bb92 943e
000001b0: d328 023e 7808 013e 0048 05be d080 2e3b
000001c0: fc75 b93b 5f41 2abc 494d 2d3e 8651 563d
000001d0: c824 e33d 5ef0 153e f10a 07be 39d7 9abe
000001e0: 9db0 1b3e afc1 2b3d 38b0 9c3d ca32 333c
000001f0: b88a 833e bdb5 fd3d fb9b 2b3e 7bad 883e
00000200: 13e0 2f3e f931 42be 603b 383e 0f3a 903e
00000210: 7482 5b3e afb9 0abe c7f5 b03d f9b6 63bd
00000220: 9638 03bd a764 0fbe 1a86 f23d 1ce1 88be
00000230: 8731 6a3e 3870 933e 9ce9 ed3d 33e1 2f3e
00000240: 89a7 bebd e001 9fbe da8c 133d 19cc 013d
00000250: 81d6 333e c012 923e 016f 19be 1982 e23d
00000260: 5316 6a3e fb5d e0bd 6db8 303e a391 dd3d
00000270: a15f 973e 03e1 0a3e e475 773e 1af4 e0bc
00000280: 43c5 1b3e 23ed dabe 622c 1ebd 0a2c cc3b
00000290: 5a2b 183e 1d9f 87be a316 4fbe 206a a33d
000002a0: 5083 20be f305 c33d 4f27 27be 9cc8 58bc
000002b0: 9a8e 4a3e fdab 4fbe 76d4 523e f241 7cbd
000002c0: 6401 2d3e 15f1 2a3c 6ecb 943e 0945 d43d
000002d0: 35fc 413e d80c a83e 5dae 4dbe 8385 8f3e
000002e0: 7d15 0dbe eb89 353d cc8c 193e 9e13 f7bd
000002f0: 3d3a 053e 6622 a4be f566 273e a3df 8a3e
00000300: 68e4 a93e 1d69 b63c 45e5 473d 3413 6a3e
00000310: 8501 923d 9965 49bd a45b 3dbe 3978 383e
00000320: 589e 18be bf5d 813e 8771 293e f460 3dbe
00000330: 8a44 b7bd a5ba 803e 929d 7d3e f647 503c
00000340: bfd4 7d3e c8b5 56bd f6f9 22be b6fe 9cbb
00000350: b35a a03e b375 033e 376a 6fbe 3ce2 8f3d
00000360: 4957 79bc da76 5c3e f16a 433e f539 a83e
00000370: 6821 ddbc a417 0cbe e7f2 2c3e 2e6f dabd
00000380: 2827 89be f45f 013e 90e0 663e 76d3 59be
00000390: 8e1e 39be d1ff d8bd f114 9f3e 0146 1fbd
000003a0: af45 233e 1577 0d3e cdcc ab3c 49c1 1d3e
000003b0: 950a 03be a85d 1a3e 1678 0bbe 2419 23be
000003c0: 103d 723e 43cf b53d 49d0 133e b8ae acbd
000003d0: e26d 3639 716b 9b3e 20a1 2ebe ac3f ccbd
000003e0: 5760 91bd 5cfa 1d3d 55e1 4fbd ec66 5cbe
000003f0: 4cd2 2ebe 6800 733d f03d 94bc 1873 463e
0.041243885 0.047754325 0.061701477 -0.06224539 0.146925 0.059669785 -0.00047098182 -0.18492705
0.28386542 0.37849206 -0.095408276 0.18159866 -0.12954198 0.14592302 0.037618775 -0.2988992
0.047437932 -0.11110522 0.16674413 0.06399 -0.01994534 0.21257338 0.11345643 -0.09167361
-0.23817489 -0.080992155 0.1936666 -0.016080264 -0.25934306 -0.16675693 0.04216388 0.28599507
-0.0057884254 -0.21571665 -0.22191681 -0.011939522 -0.19078183 0.06971462 0.09841099 -0.2041446
-0.10645041 -0.1068616 -0.13144134 0.07646912 -0.02545683 0.10403006 0.29082286 -0.14108121
0.10135021 -0.08931606 -0.030413149 0.33379173 -0.080051914 -0.1254236 -0.18673278 -0.048694674
0.23107663 -0.2688864 -0.26234087 0.15001895 0.13596825 0.13185006 0.23542981 0.21519212
-0.01634549 0.098610796 -0.031639803 -0.21285893 -0.12201248 -0.18356103 0.19478542 -0.08670474
0.06355453 -0.2837204 -0.13111386 -0.12486472 -0.31419095 -0.18615483 -0.14409992 0.17130634
-0.06022372 -0.041646574 0.30258465 -0.22379251 -0.21880992 0.07510049 -0.1029152 0.072818205
-0.12344969 0.10139453 -0.14091143 -0.28628176 0.013597599 0.28060025 -0.05458007 0.17999831
-0.18351495 0.11258049 -0.21861331 0.06545758 -0.004058979 -0.121829525 0.22353671 -0.2528832
-0.105890565 0.12752233 -0.03689882 0.29018196 0.12710886 0.12600887 -0.13015747 0.0026627071
0.005659817 -0.010391562 0.16924013 0.05232384 0.11091 0.14642474 -0.13187768 -0.30242327
0.15204091 0.041932758 0.076507986 0.010937402 0.25691772 0.123881795 0.1675872 0.26694855
0.17175321 -0.18964376 0.179914 0.28169295 0.21436483 -0.13547395 0.08640628 -0.05559442
-0.032036386 -0.1400324 0.11841984 -0.26734245 0.22870456 0.28796554 0.11616823 0.1717575
-0.093092985 -0.31056118 0.036023 0.031688783 0.17562295 0.2852993 -0.14983751 0.110599704
0.22860079 -0.10955425 0.17257853 0.108187936 0.29565147 0.13562398 0.24166065 -0.027460147
0.15211968 -0.42759046 -0.038616545 0.006230836 0.14860287 -0.2648858 -0.20223479 0.07979226
-0.15675092 0.09522619 -0.16323589 -0.013231423 0.1978096 -0.20280452 0.2058886 -0.061586328
0.16895062 0.010433455 0.29061455 0.1036473 0.18943866 0.328223 -0.20086046 0.2803155
-0.13777728 0.044320982 0.14995116 -0.120642886 0.13010497 -0.32057494 0.16347869 0.27123746
0.33182073 0.022266919 0.048802633 0.22858888 0.07129196 -0.049169157 -0.1849199 0.18014611
-0.14904153 0.25266835 0.16547213 -0.18494016 -0.0894862 0.25142398 0.2476714 0.012712469
0.24788187 -0.052419454 -0.15915665 -0.004791106 0.31319198 0.12837867 -0.23380361 0.07025573
-0.015218564 0.21529713 0.19083764 0.32856718 -0.026993468 -0.13680893 0.16889535 -0.10665737
-0.26787686 0.1263426 0.22546601 -0.21272072 -0.18078062 -0.10595668 0.31070665 -0.03888512
0.15944551 0.13814957 0.02097168 0.15405764 -0.12797005 0.1507479 -0.13620028 -0.15927559
0.23656106 0.08877423 0.14434923 -0.084317625 0.00017397807 0.3035541 -0.17053652 -0.09973082
-0.070984535 0.03856884 -0.050752003 -0.21523637 -0.1707241 0.05932656 -0.01809594 0.19379842

conv1.bias f4 [32]
00000000: 53db 763d f848 4d3e 5b98 c6bd 1881 463e
00000010: 281f 0d3e c4d6 633d dd08 283d bfa5 f43d
00000020: 863a b83d 2680 20be de3a 82bc 2613 633d
00000030: 5913 2c3e e8da f13d 7540 cdbd 5780 0ebe
00000040: 6cc2 703d 39f9 5f3e e082 b23d 6d50 253e
00000050: bdb0 2bbd 7919 01be bdae 643e 8dca c7bd
00000060: 8e85 11be 8437 103e 1609 c2bd 9a41 fd3d
00000070: e295 f63d 8de6 cb3d 6769 bf3d 54c1 353e
0.060267758 0.20047367 -0.09697028 0.19385183 0.13781416 0.05562474 0.041024078 0.11945676
0.089955375 -0.15673885 -0.01589721 0.055438183 0.16804256 0.11809331 -0.1002206 -0.13916145
0.058779165 0.21872415 0.08716369 0.16143961 -0.041916598 -0.12607373 0.22332282 -0.0975543
-0.14211103 0.14083678 -0.09474389 0.12366028 0.12040307 0.099560834 0.09346276 0.1774953

conv2.weight f4 [32, 32, 5, 5]
00000000: 37cd d13b 109b 49bb 4b6f 333d d4ea 983c
00000010: 0bd2 2d3c 0450 033d 2a85 223d d341 8a3d
00000020: 9380 d33b dea9 a6bd 7230 0fbd 144b 74bd
00000030: edd8 a7bd b1ef 453d 4d66 163d 4247 273d
00000040: 4609 a23d 0e19 43ba 16b6 6ebd 0e05 99bb
00000050: 4cdb 713c f3a4 243d a778 6fbd 3091 673c
00000060: 5539 f3bd 274c 403d 2a83 e4bb 938b 9fbc
00000070: 58b8 d3bb 1ff7 2c3c 38cb 163c d039 943d
00000080: 6c8a a23c d027 953c 8518 b93d c5e9 ae3c
00000090: dc03 a03c 45da 373d e864 08bc bd33 a03d
000000a0: 0a64 183d 36f5 c7bb de2f 25bd d155 d93b
000000b0: 630c 053e 101b 013d a6ed 2ebd edb3 253d
000000c0: 33d3 a4bc 8c78 873d e73d 433d 1dec 633d
000000d0: a292 f0bc 228f 7ebd 47dd 4abc fcbc 39bd
000000e0: f841 03bd 25e0 8bbc 81f1 8abd 7d91 75bd
000000f0: 089b 52ba 9507 1abb dae1 33bd f4b0 083d
00000100: 0f0b 213b 4a43 233d 7ef0 93bc b01e cdbd
00000110: 52b8 d4bb ff44 f3bb a25d 31bd 98e5 e3bd
00000120: f1e0 9fba d3e6 fc3d e7ff 8e3d 7124 b13d
00000130: 9d66 3e3d d8a6 25bd 97be 55bd 4f91 5c3d
00000140: c5dd a03c 8f0f 133d 1f7d 873d da85 77bd
00000150: 6d29 f83c a7d7 503d 4d68 a7bb b8ab 71bc
00000160: d5aa 76bd 2f04 6f3c 2d7b 4ebc b8ab 2dbd
00000170: 6b0b 0c3d 8f87 ffbc a243 08bd 4514 8a3c
00000180: e8ea 903c 0349 f13c da52 093c acde 66bc
00000190: 2a95 d6bc 080c 793d c4dd 84bd 8358 33bd
000001a0: 5127 f33c 44cc 423c 1491 263c 3dfa 02bb
000001b0: 0ec5 b03d f907 b73d 4ac5 9cbd bd2a c13d
000001c0: b20a d2ba a049 4ebb 385f 673d 91c3 dbbc
000001d0: 9d2b 0b3d e024 603d 5b14 703c ff4b 123e
000001e0: 022b a1bc 6bb4 e03c ad95 2fbd 003f c7bd
000001f0: cd38 963d 0755 e73c b99b 333d 549c 9fbd
00000200: 64b9 a43b 049f 93bd ba7e cbbc 30aa 3f3d
00000210: 3e80 d7bd 3858 61bc 2fce a43d c978 43bd
00000220: 36dc de3d 2cc6 34bd 9691 dfbc 3bd1 41bd
00000230: a4df 803c 1b9c cf3b 354f 95bc 05ea a73c
00000240: 75df ec3c b5b6 48bd 1329 89bd bb9c e2bc
00000250: 86af af3c 4d77 323c 1159 88bd 9e9c 4bbd
00000260: d4cc 473d 6c83 973c 1ace 103d 1df0 033d
00000270: 6605 353d 2451 9f3d 0a66 163d 295e 003d
00000280: 70d1 113c 8cfa d7bc 423e b23c ba4a 6cbd
00000290: d9e7 cabc 2ad9 debc 9844 dabd bfd0 363c
000002a0: e23c 583d dfcd f0bc 5438 1a3d ffcf dfbc
000002b0: 5e58 b03c a2d9 d5bc c6a1 80bd b608 653d
000002c0: e123 0bbd 4fee 973a 7ba1 28bd 9f45 20bd
000002d0: 27f7 773d cf2f 25bd 36d0 c9bc 5b07 c13d
000002e0: 82c8 cfbc 75e8 603d 4ab7 813d 847c 08bd
000002f0: 8c92 b53d 7c62 933c aad3 523c 6a0b 223c
00000300: 524b 8ebc 1a34 af3d 8a62 ee3c 3e6d cf3c
00000310: 13e2 bbbd af02 123d 433e 223d 7fea aabc
00000320: 6bc8 18bd de7c 91bd 6935 57bd cd85 8fbd
00000330: 3463 773d 8b79 8e39 3241 993d ad0e 62bd
00000340: 925f a9bd 501e 823d d8e0 4ebd 9729 773c
00000350: f963 90bd 062a a4bd 3a4f 09bd 4662 97bd
00000360: 4140 1d3e 82c3 f7bb fe2d 7cbd f113 7c3d
00000370: 0070 86bc e3f0 30bc 3557 683d f0fe a0bd
00000380: 54ac 07bd 06a2 8dbc 318a aa3c 7d9a b33d
00000390: 90f6 78bd fd64 0cbb 96e7 583d b121 33bc
000003a0: 8f5c 0b3c 931b 893d fcdd aebc 1de9 de3c
000003b0: 8c2c 0cbc 2a36 6f3c ce98 37bd 1284 f73b
000003c0: 2d79 83bd 4c56 063c 0882 24bb 4448 923d
000003d0: 79a8 1a3c 5590 45bc 7556 e73c ccf1 ddbd
000003e0: 6cb5 433c 4285 01bd 7e20 8d3b 16b8 113d
000003f0: 03e4 37bd 1732 cf3c d4ef 8fbc 50db 6d3d
0.0064026373 -0.003076259 0.04380731 0.018666662 0.01060916 0.03205873 0.039677776 0.06750836
0.006454536 -0.08137868 -0.03495831 -0.059641913 -0.08195672 0.04832429 0.036718655 0.04083944
0.07911925 -0.0007442393 -0.05827912 -0.004669792 0.014761757 0.04019637 -0.058464672 0.0141337365
-0.118761696 0.046947625 -0.006973644 -0.019475734 -0.0064611845 0.010556965 0.009203725 0.07237589
0.019841395 0.01820746 0.0903788 0.021351704 0.01953309 0.044885892 -0.008324839 0.07822368
0.03720478 -0.0061022295 -0.040328853 0.0066325446 0.12993006 0.03151995 -0.042707108 0.040454794
-0.020120239 0.06614789 0.047666457 0.055645097 -0.029366795 -0.06214822 -0.012381858 -0.045346245
-0.032045335 -0.017074654 -0.067843445 -0.0599532 -0.0008033966 -0.0023503054 -0.04391656 0.03337188
0.0024573242 0.039859094 -0.018059012 -0.10015619 -0.0064916993 -0.0074239965 -0.043302186 -0.11127776
-0.0012197775 0.12348714 0.06982403 0.08649529 0.04648458 -0.040442318 -0.052183714 0.053849515
0.019636998 0.03590351 0.06615662 -0.060430385 0.03029319 0.050986912 -0.005108869 -0.014750414
-0.060221512 0.0145884 -0.01260261 -0.042400092 0.034190577 -0.031192569 -0.033267625 0.016855368
0.017690137 0.02945376 0.00838157 -0.014091175 -0.026194174 0.06080249 -0.06487611 -0.043785583
0.029681833 0.011889521 0.010166425 -0.001998558 0.08631335 0.089370675 -0.076548174 0.0943198
-0.0016024916 -0.003147699 0.056487292 -0.026826652 0.03397714 0.054722667 0.014653291 0.14286803
-0.019673828 0.02742978 -0.04286735 -0.09728813 0.07335053 0.028238786 0.04384968 -0.07793489
0.005026983 -0.07208064 -0.024840701 0.046793163 -0.10522507 -0.013753943 0.08047139 -0.04772261
0.10881846 -0.044134304 -0.0272911 -0.04731868 0.01573164 0.006335748 -0.018226245 0.020497331
0.028915146 -0.049002368 -0.066972874 -0.027662626 0.021446 0.010892701 -0.06657613 -0.04970991
0.048779324 0.018495284 0.035352804 0.03221141 0.0441946 0.07779148 0.036718406 0.031339798
0.008900031 -0.026364587 0.021758202 -0.057688452 -0.024768757 -0.027203161 -0.106576145 0.011158167
0.052792437 -0.029395042 0.037651375 -0.02732086 0.021526512 -0.026104752 -0.06280856 0.05591651
-0.033969764 0.0011591407 -0.041169625 -0.039128896 0.060538437 -0.040328797 -0.024635416 0.09425231
-0.025364164 0.05490919 0.06333788 -0.033321872 0.08865842 0.017991297 0.012867847 0.009890417
-0.0173699 0.085548595 0.029099721 0.025320645 -0.091739796 0.03564709 0.03961016 -0.02086377
-0.03730051 -0.07103895 -0.05254117 -0.07007942 0.06039734 0.00027174907 0.07483138 -0.055189777
-0.08270182 0.06353438 -0.050507396 0.015085599 -0.07050318 -0.08015828 -0.033522822 -0.07391791
0.15356542 -0.007561148 -0.0615673 0.061542455 -0.016410828 -0.010799619 0.056723792 -0.078611255
-0.03312333 -0.017289173 0.020817848 0.08769701 -0.060782015 -0.0021422498 0.052955233 -0.010933326
0.008505954 0.066947125 -0.021346085 0.027210766 -0.008555543 0.014600316 -0.04482346 0.007553586
-0.06419597 0.008199286 -0.0025101919 0.0714269 0.009439581 -0.012058337 0.028239468 -0.10837135
0.01194511 -0.031621225 0.004306852 0.03557595 -0.044895183 0.02529244 -0.017570414 0.05807048

conv2.bias f4 [32]
00000000: e7c9 bf3b abf5 5e3d ffa6 973c d28a 803c
00000010: a130 233d 9110 3c3d 96ad 983b 3294 753d
00000020: c9a8 523d 3719 e6bc 90dc 073d da0f ce3b
00000030: 8bca fc3c 980d 813d 341f 893d 4f9d f93c
00000040: f5d7 223d 6d67 093d afa2 973c 668f 83bc
00000050: 3305 f03b 84fe d23c 9a4d 243d 8e14 a93c
00000060: e2ee 72bb 1054 903c 91bc 6d3c 0218 a2bc
00000070: 8601 06bd 9d7f 15bd 0b1c 033d a289 bd3c
0.005852926 0.054433506 0.018512247 0.015691195 0.039841298 0.045914236 0.004659365 0.059955783
0.051430497 -0.028088195 0.03316933 0.0062885107 0.030858299 0.06301421 0.06695405 0.030470518
0.039756734 0.0335459 0.01851019 -0.016059589 0.0073248385 0.025756128 0.04011307 0.020639684
-0.0037068655 0.01761821 0.01451029 -0.019786838 -0.032716297 -0.036498655 0.032009166 0.023136918

conv3.weight f4 [32, 32, 5, 5]
00000000: 7d1f e6bc 9af9 483b 30f8 263c 6f7b b4bc
00000010: 088f 7ebd ccc7 94bd 673e 0b3c 12d5 8dbc
00000020: 151c 513d 4394 88bd 8f87 863d cbc4 2f3d
00000030: 8ef9 863d 05d9 6d3c 56e2 48bd b35d 923c
00000040: 727c 443d 81dd a83c fb77 d4bb 9426 38bd
00000050: 1ad5 bfbb 4bb6 543c bd17 203d 4e36 d9bc
00000060: b1ec b8bd 3934 db3c a075 6ebd b3e2 9bbb
00000070: 7ac3 e0bc 50ca 1abd 22b7 34bc 37b4 833c
00000080: de67 0c3c d331 44bd 4e7e aa3d 0ce6 5e3c
00000090: 4b80 d33c d065 acbc 349e 9fbb 78b5 f13d
000000a0: 1827 e7bc ac6c 12bd 5e6a f0bb c3a2 a93d
000000b0: f747 0e3e d777 23bd 24c6 073e d7b5 933d
000000c0: cb71 103d a9e8 8c3d 7da5 9abd 67f1 c0bc
000000d0: 2a73 14bd e904 143d 2e46 873d 362f 7dbd
000000e0: c82b e7bb 98a1 433d b869 393d 0b11 593d
000000f0: dd13 14bd ee8b 413b 0a85 e93c 6181 ac3d
00000100: 34b7 7e3d d231 063d 2c00 993d 5ee7 c73d
00000110: 0bf2 8b3c 1a96 34bd c972 843d 5e58 c23c
00000120: a836 2a3d c282 4dbd 4eb1 433c 26ef 933d
00000130: 44c5 393b fb38 bc3d a860 db3c c176 533d
00000140: 53cd 983c ce97 063e 4eda e33c 8d82 8bbc
00000150: e888 c8bc 6deb 73bd 1044 033d 28dd e23c
00000160: 06ad 46bc cd78 81bc 5869 a63d 745d 35bc
00000170: 6ece acbc b411 1abd 329e 0cbd 48b7 b0bd
00000180: f293 aabd d16c 04be ce68 9ebd 5e2d 0c3c
00000190: 520d 74bd 3540 8e3c 9eb0 4bbb c5f6 3c3d
000001a0: 360d 9d3d d4c6 a9bd 75a2 a73d 4840 7b3d
000001b0: 4494 a13d f8b6 d23c a4cd b83c 1c56 3b3c
000001c0: 525a 983d 4347 293d 2382 9ebb 768e a23b
000001d0: 91e9 5bbc 7def 823c ecfc 0fbc 4071 87bd
000001e0: d4c5 2d3d 31c4 a8bd b1c8 a8bd b75a 01bd
000001f0: 24d9 69bd e3f9 453d ef5d eabc 8862 9c3d
00000200: 2d04 293b 1ccb bb3c 225b 653d 0b62 c93d
00000210: d355 acbc 8ad8 9bbd 5d17 7b3d 02da a8ba
00000220: 940b c23b 717b ccbc 1e70 8ebd 9afe f7bc
00000230: 1a10 543c 7e90 84bb a1ca a5bd a372 91bd
00000240: ea7a 95ba 4fcc cbbd 44d4 96bb 087d 72bd
00000250: 96d1 cfbd eb21 933d 2d4c 1c3d 2794 24bc
00000260: ecc1 42bd 168c 0bbd 0395 113d 0b24 3bbd
00000270: bb93 d1bc 72bc 96bd 204e b1bd cf9a 8dbb
00000280: 576d 413d e96c efbd 6708 f83c 8c7a 243c
00000290: 0e2b 16bd a31d adbd 3c5e 613d 51d9 bfbc
000002a0: 67be 51bd 8e92 e13c f14d 72bd 8803 133d
000002b0: 1a48 3ebd 87a1 8c3c a208 2d3d 773b 9ebc
000002c0: 3fe7 323d f665 e43c e46b 7f3d 8172 18bc
000002d0: 2821 abbc 0039 163d e49f 5d3d 37ec ba3c
000002e0: a2f5 c23c 980b 603d 15a6 8f3c c4a8 ad3d
000002f0: 5d62 873d e1b7 b03c d8ad abbb 3150 b43c
00000300: f975 383d 0a27 0a3d d6a6 30bd 4d71 653c
00000310: 4c4d a1bd fbb1 27bd 45d7 f6bd de0f 26be
00000320: 5456 313d e85d e4bc 751f f3bc f3a2 fe3c
00000330: 28a1 b9bc e1fa 5c3c 8004 f1ba 90a4 f43a
00000340: 3f98 683c e358 62bb 76bc f9bd 1fdc 8dbd
00000350: 77b1 c6bc adc5 ffba 445e b33d e943 fe3b
00000360: b492 973b ee7b b2bc 51d7 d13d 6d34 cc3d
00000370: 2c72 b43d 298f 963d 48a3 873d 7e15 7b3c
00000380: 0e2f e43c 6d6b 52bd b4ae c73a b8c2 1dbd
00000390: cd9a 56bc c87d 1a3d 888c 4dbd a9dd dcbc
000003a0: d77d 25bd 5ae8 07bd 3fe9 213d 3570 25bd
000003b0: f16f a8bd 39c1 0fbd 14d4 463d 17c3 963d
000003c0: f1b0 d53c db40 283c 8d92 153d 2293 303d
000003d0: 77ea 34bd 9c52 fe3c 1afb ad3d c848 463b
000003e0: f877 cb3d e38d 803d f749 b63d bfe0 1c3d
000003f0: 3227 423c a09e 74bc 8364 7abb 434f 99bc
-0.028091187 0.0030666352 0.010191008 -0.022031514 -0.062148124 -0.07264671 0.008498765 -0.017313514
0.05105217 -0.06668904 0.065688245 0.042912286 0.065905675 0.0145170735 -0.049043976 0.017866945
0.047970243 0.020613434 -0.0064840293 -0.044958666 -0.005854261 0.012982915 0.03908514 -0.026515152
-0.0902952 0.0267583 -0.058217645 -0.0047572493 -0.02743696 -0.037790596 -0.01102999 0.016077144
0.008569686 -0.04789908 0.08324872 0.013604652 0.02581801 -0.021044642 -0.004871154 0.118021905
-0.028216884 -0.03574817 -0.0073368987 0.082829975 0.1389464 -0.03990921 0.13259178 0.072124176
0.03526477 0.06880314 -0.07551096 -0.02355261 -0.03624264 0.036137495 0.066051826 -0.061812602
-0.0070547797 0.04776153 0.045266837 0.05299477 -0.036151756 0.0029532867 0.02850582 0.084231146
0.062186435 0.032762356 0.07470736 0.09760927 0.017083189 -0.04408846 0.06467206 0.023723777
0.04155603 -0.05017353 0.011944128 0.07223348 0.002834634 0.09190556 0.026779488 0.051626924
0.018652594 0.13143846 0.027814057 -0.017030025 -0.024479344 -0.05955069 0.03204733 0.027693346
-0.012126213 -0.015804673 0.081255615 -0.011069644 -0.021094527 -0.03761454 -0.034330554 -0.08628708
-0.083289996 -0.12932135 -0.07734834 0.008555738 -0.059583016 0.0173646 -0.0031080614 0.046133775
0.076685354 -0.082898766 0.08185283 0.0613406 0.078896075 0.025722012 0.022558995 0.011434104
0.07439102 0.041327726 -0.004837291 0.0049608303 -0.013422386 0.015983338 -0.008788329 -0.066133976
0.04242499 -0.082405455 -0.08241404 -0.031580653 -0.057091847 0.048334014 -0.028609244 0.07635981
0.0025789842 0.022923999 0.055995114 0.09833153 -0.021037018 -0.07609661 0.061301578 -0.0012882354
0.0059217904 -0.024961205 -0.069549784 -0.03027277 0.012943292 -0.004045545 -0.08095289 -0.07101943
-0.0011404429 -0.09951078 -0.0046029408 -0.05920127 -0.10147397 0.07184204 0.038158584 -0.010045088
-0.04754822 -0.034069143 0.0355425 -0.04568867 -0.025583139 -0.07360162 -0.08657479 -0.004321433
0.047223415 -0.11690695 0.030277444 0.010038983 -0.036662154 -0.084529184 0.05502151 -0.023419054
-0.051206972 0.027535703 -0.059156362 0.03589204 -0.04645548 0.017166866 0.04224456 -0.019315464
0.043677565 0.02788065 0.062358752 -0.009304644 -0.020889834 0.036675453 0.05410756 0.022817714
0.023798767 0.054698557 0.017535249 0.08479455 0.06610558 0.021572055 -0.0052392296 0.022010894
0.045034382 0.033728637 -0.043127857 0.014004064 -0.07876071 -0.04094122 -0.12052778 -0.1621699
0.04329522 -0.02787681 -0.029678086 0.03108356 -0.022659853 0.013487549 -0.0018388182 0.0018664766
0.014196455 -0.0034537844 -0.12194149 -0.069267504 -0.024254544 -0.0019513868 0.08758214 0.0077595604
0.0046256427 -0.02178761 0.102461465 0.09970937 0.08810839 0.073515244 0.0662294 0.015324948
0.027854469 -0.05137198 0.0015234561 -0.038515776 -0.013098431 0.03771761 -0.05018285 -0.026961165
-0.040403213 -0.033180572 0.03952908 -0.040390212 -0.08224476 -0.03509638 0.048542097 0.07361429
0.026085349 0.010269369 0.036516715 0.043109067 -0.044168916 0.03104525 0.084951594 0.0030255783
0.099349916 0.06277063 0.089008264 0.038300272 0.011850165 -0.014930397 -0.0038206882 -0.018714553

conv3.bias f4 [32]
00000000: 11d8 453c 9704 c53c 57a8 5ebd 9642 523d
00000010: 2ab5 eabc c521 b83d 6e91 8f3c 5eb7 08bd
00000020: 09ec 04bc 9b08 af3b 36a3 b7bb 3f1a 1bbc
00000030: 8817 82bb 1b63 ee3c 1db3 243d 06cc 4c3d
00000040: 12b1 593d bc3c 1f3d cfad adbc 5acf 673c
00000050: ea69 fd3c e4f7 42bc 25f7 713d f59b 433d
00000060: 3ea3 493d 21c0 a63b 8ba2 ef3c 8c0d 4dbd
00000070: 7449 2b3a 9fd6 6c3c 4d66 8e3c 3cb6 12bc
0.01207544 0.02405004 -0.05435976 0.051333033 -0.028650839 0.08990816 0.017525401 -0.033377998
-0.008112916 0.005341602 -0.005604173 -0.009466707 -0.0039700903 0.029099992 0.04020988 0.04999926
0.053147383 0.03887628 -0.021201042 0.014148558 0.030934293 -0.011899922 0.059073586 0.047756154
0.049227946 0.0050888215 0.029252311 -0.050061747 0.00065340777 0.0144554665 0.017382765 -0.008954581

MLP1.weight f4 [50, 1344]
00000000: f6f4 093b 99f1 013d b36d 233d 83e3 213d
00000010: 3a11 303d a43d 823d f9fd 523d e1a4 c9bc
00000020: 0395 fabc 4291 0a3d 664b 823d d972 e4bc
00000030: d7ff 9b3c a2e5 1bbc 5691 bab9 93d6 883c
00000040: 52fc 0f3c d09e abbc d80c 92bd f5ce 0abd
00000050: daac c7bd 918a 133c a66e 563c 1773 4bba
00000060: 7616 2b3c a8ab 413b fa8e 56bc b4b0 bdba
00000070: c3d6 1b3c ff84 47bb 6d0f ac3c 169a f6bb
00000080: c449 113c 5fed 433d 8941 79bb b693 cabc
00000090: 6fb0 c1bc 9429 bd3c 346d c13b a65a 813c
000000a0: 7f10 ba3c 85a7 f43c 1cda a33b ae8b 223d
000000b0: 30e6 1e3d a57f bc3b 4903 24bc 7568 513b
000000c0: 07b4 143d 8bdf 253d 8113 eeba 5a60 39bd
000000d0: d579 903c 045d 19bd d1d3 f83c 74f2 b83d
000000e0: 3dc7 443c 3416 c23c c8eb f53c 150c ba3c
000000f0: a87c cb3c 2ed1 cc3c ea45 24bc feed 9d3c
00000100: 775e 12bd c921 1f3d 24a2 4c3d a0c0 3dbd
00000110: 1206 793d 18b6 8a3d f991 003e 0a85 b03d
00000120: d41b f4bc e020 9d3d 7967 a1bc a3ce 783c
00000130: 3d60 6e3c 6f02 0abd ade0 e0bb f2f8 b7bd
00000140: 3678 0c3d f6d7 223d 8bc4 fc3d efbb e13d
00000150: 02cd 043e e9fd 0dbe 2eab 19bd c78a c93c
00000160: d524 abbc 42e9 d6ba 28b8 10bb c927 3f3d
00000170: 0ed4 1ebc cee6 363b 7b9d fc3c e48c 863c
00000180: f0e4 b13c 8060 263d f291 073d 1895 f7bb
00000190: b1a2 423c 24d7 aa3c f8db 823c b06e 8e3d
000001a0: e2ff 023d f122 663c de5d 2ebd 3b2d aebc
000001b0: 3216 30bc 173a a1bc 26a2 42bc e56c b23c
000001c0: cd8d 5f3d 581e 9c3b f016 493d d312 3abb
000001d0: d27d 603c af20 c53c 64e7 39bc 53c6 243d
000001e0: f1c7 8ebd d50c 8fbc 5daa acbb 3522 2fbd
000001f0: fc1b 04bd e484 b1bd c6c2 6d3d fa2f 4c3d
00000200: adfb d2bd c137 88bc 6ad0 1e3d 6ee8 6dbc
00000210: 28ef 5dbd bb08 063d 1bb2 9b3d 1216 5c3c
00000220: e13b f23a 09aa 583d 709f fc3b 9176 e23c
00000230: 93e7 e13c 78d8 a83c 4d60 773b 6cee 293d
00000240: 5c3f 9e3c 38fd 0c3d 8604 fdba 4671 5ebc
00000250: 7704 503d 3889 29bd a791 ef3c 4f4b ce3c
00000260: 059c 433c b419 c83c 278e 4bbd d178 c5bc
00000270: 4416 20bd 696c 03bd 9046 783d 8389 483d
00000280: 2ff9 c4bc abca 2f3d 1ed3 2fba 403e 2cbd
00000290: f2f1 ff3b 8ef6 debc 6e2f 36bc cd7b 63bd
000002a0: fcc0 783d c9f4 c23b dba0 0a3c df73 6bbc
000002b0: 9a16 3a3b 1f7d 12bd eff5 283d 77a5 113d
000002c0: d67a 253d 3fbc 263d e862 c43c ce61 703c
000002d0: 0d64 853d e05a ca3b bcbe bbbc b89f 053d
000002e0: e195 6fbc 2753 56bb 1708 e23c 02ad 743d
000002f0: 28a4 003d 7285 d33c 0e47 dfbc c14a bf3c
00000300: 87c1 3c3c c0fd 0b3d 67c9 c13c dd29 a2bc
00000310: e17a 9ebc 11da 1cbd f78b 59bc e0fb 54bd
00000320: e28f ce3c 3ecf d3bc b30a 11bd 06c9 e3bc
00000330: 3612 0d3d 21c0 32bd 9884 f8bc fbc7 7fbd
00000340: 61b0 c53c 6f4b 2dbd f4f9 07bc 9c7d 58bd
00000350: a740 d4bc f467 8bbd 93e0 073d bc0c 47bc
00000360: d1af c8bb d689 96bd 09ea 583c 6472 ea3c
00000370: 0d9d c43c ceb4 0f3c 4ce8 8b3d 6767 8f3b
00000380: be72 403c 18d8 f13a 0102 523b 2487 8ebc
00000390: 617d 033d 6a9e 683c df8a 3a3d 8038 773d
000003a0: 877e 713d 60a6 6e3d dab6 bf3c 58eb c73c
000003b0: f468 4b3d 14b9 f4bb 6e34 91bc 2b35 f43c
000003c0: fc6c 8dbc f7aa fd3c 7c36 713c 5a68 9c3b
000003d0: 4487 5e3c 599c babb edd1 ac3c f6ba 983c
000003e0: e8ec e2bc 88b8 093d bcc1 6f3c e6d0 bd3c
000003f0: 35e5 1b3c 06e7 263c 9938 14bb a151 183c
0.002105055 0.031724546 0.03989954 0.039523613 0.04298518 0.06359413 0.05151174 -0.024614753
-0.030588632 0.033829935 0.06362037 -0.027886795 0.019042892 -0.009515198 -0.00035584968 0.01670388
0.008788185 -0.020949751 -0.07131356 -0.033888776 -0.09749766 0.009005205 0.013087904 -0.0007760985
0.010442367 0.0029551778 -0.013095612 -0.0014472217 0.009511652 -0.0030444262 0.02100345 -0.0075256927
0.008867685 0.047833797 -0.0038033447 -0.024728637 -0.0236437 0.023091115 0.0059029106 0.015790295
0.022712944 0.029865036 0.005000366 0.03968399 0.038793743 0.005752521 -0.010010549 0.003195313
0.0363045 0.04049639 -0.0018163772 -0.045257904 0.017636219 -0.037442222 0.03037444 0.09030619
0.012010393 0.023692228 0.030019656 0.02271084 0.024839714 0.025002088 -0.010026434 0.019278523
-0.03573462 0.03885058 0.049959317 -0.04632628 0.060796805 0.06773013 0.12555684 0.08619125
-0.029798426 0.07672286 -0.01970266 0.015185985 0.014549312 -0.033693727 -0.006862721 -0.089830294
0.03429433 0.039756738 0.12342175 0.110221736 0.1296883 -0.1386639 -0.037516765 0.024602307
-0.020891586 -0.001639642 -0.0022082422 0.0466688 -0.009694112 0.0027908566 0.030836811 0.016424604
0.021715611 0.040619373 0.03309817 -0.007555615 0.011879609 0.02085454 0.01597403 0.06954706
0.03198231 0.014046417 -0.042569987 -0.021261802 -0.010747479 -0.01968102 -0.0118794795 0.02178044
0.05457859 0.0047643594 0.04909414 -0.0028392568 0.013701873 0.024063436 -0.011346672 0.0402282
-0.069717295 -0.017462173 -0.0052693323 -0.04275723 -0.03225325 -0.08667925 0.05804708 0.04985044
-0.103019096 -0.016628148 0.038772978 -0.014520748 -0.054183155 0.03272317 0.0760233 0.013432996
0.001848098 0.052896533 0.007709436 0.027644427 0.027576244 0.020611033 0.0037746609 0.041487142
0.019317321 0.034421176 -0.0019303716 -0.013576811 0.050785508 -0.041390628 0.029244257 0.025182394
0.011939053 0.024426319 -0.049696114 -0.024105461 -0.039083734 -0.03208581 0.06061417 0.048959266
-0.024044601 0.04291789 -0.0006707179 -0.042051554 0.0078108246 -0.027217176 -0.011119707 -0.055537988
0.06073092 0.005949591 0.0084612025 -0.014370888 0.002839482 -0.035763856 0.041250166 0.03555819
0.04040035 0.04070687 0.023972943 0.014671756 0.06513224 0.006175384 -0.022918098 0.032623023
-0.014623136 -0.0032703371 0.027591748 0.059735306 0.03140655 0.025820468 -0.027255561 0.023351075
0.01152075 0.03417754 0.023655606 -0.019795353 -0.019345703 -0.0382939 -0.013277999 -0.05199802
0.025215093 -0.025855657 -0.035410594 -0.027805816 0.034441195 -0.04364026 -0.030336663 -0.062446576
0.024131956 -0.042308267 -0.00829934 -0.052854165 -0.025909735 -0.06806937 0.033173155 -0.012149032
-0.0061244746 -0.07350509 0.013239392 0.028618999 0.024000669 0.008771135 0.068314165 0.00437634
0.011746107 0.0018451242 0.0032044651 -0.017398424 0.032101993 0.014197925 0.045542594 0.060356617
0.058958557 0.058264136 0.02340262 0.024404213 0.049660638 -0.007468352 -0.017725196 0.029810509
-0.017263882 0.030965311 0.014722463 0.004773182 0.0135820545 -0.0056949076 0.021096194 0.018643837
-0.027700856 0.03362325 0.014633592 0.0231709 0.009515096 0.010186916 -0.0022616743 0.009296806

MLP1.bias f4 [50]
00000000: 7f39 263d 5d3a d7bb e5d0 0bbc a9e5 cf3c
00000010: 2c34 853c 4fc3 113c 9a34 31bc 9436 c23b
00000020: 00dc 60bc 52b9 203d 6690 3dbc 26e1 62bc
00000030: ea7e eb3a 37f0 09bd 298e 83bc 6df6 263b
00000040: 5411 2f3d b70e 083d fa5c bcbb cf50 b93c
00000050: 1627 ca3b 5b81 d5bb 12f0 ebbb 849c 27bc
00000060: 6e56 05bd abac f13c ba7e b1bb 64ac 73bc
00000070: 995d 18bd d2e9 603b 0616 bcbc 975a 36bd
00000080: 0b39 373c 3e31 3b3d 1660 393d a7d2 193d
00000090: c3fa 61bc 93e9 76bd 98e5 b9bc 7bc1 b9bc
000000a0: 325f 863c d8ed 7d3c 5909 3dbc 6695 de3c
000000b0: f562 29bd d470 29bc 3cb8 aabb f239 21bc
000000c0: 3bfa 56bb 18fd 0f3d
0.040582176 -0.0065682367 -0.008533691 0.025378065 0.016260229 0.008896663 -0.010815764 0.0059269164
-0.013724327 0.039239235 -0.011570072 -0.013847625 0.00179669 -0.033676352 -0.016058998 0.002547647
0.042741135 0.03321716 -0.0057483884 0.02262154 0.00616921 -0.0065156645 -0.0072002495 -0.010230187
-0.03255313 0.02950128 -0.0054167183 -0.014872644 -0.037198637 0.0034319055 -0.02295972 -0.044519987
0.011183034 0.045701258 0.04525765 0.03755441 -0.013792696 -0.060281347 -0.022692487 -0.022675266
0.016402815 0.015498601 -0.011537873 0.027170848 -0.04135414 -0.010341842 -0.0052099507 -0.009840475
-0.0032802958 0.03515348

MLP3.weight f4 [50, 50]
00000000: 221f 4a3d 1df1 023d ca22 9d3d 66b6 863c
00000010: 98fe c4bd 08d9 ebbd 7e94 ebbb 5e84 413e
00000020: 3a6a 1b3d 4290 0fbe cbd2 01be 3ac4 743c
00000030: 43c1 953d 375c e53d e3d0 6dbd 374a 12be
00000040: b6c4 a53c 4ff9 8a3d 32d4 5f3d a3bc 00be
00000050: 4d89 8a3d 8793 be3d a698 193d c049 953d
00000060: 2a23 14be 6a3a b53b b251 bd3d 5213 b3bd
00000070: 715a 663d 6b96 14be b384 b43b 0b76 78be
00000080: ce67 163e 259d ef3c 610e 35be 256e cdbd
00000090: 0d23 4f3e e9be 92bb a3ee b33c 40e0 13be
000000a0: 26b9 e5bd a7da 6bbc cb63 a7bd 12f1 0a3e
000000b0: 6b63 443d cdad c3bd 1d28 70bd 02e6 a93d
000000c0: f6c0 c13d 142a b83d 00e3 e0bc f996 04bc
000000d0: ac02 1c3c 3164 c4bd 34b0 513d 7001 b33c
000000e0: 810c 673c ca96 893c 976c e63d 69ee e23d
000000f0: d435 57bd 7aef a53d a29d 2e3e b290 acbd
00000100: a4a9 adbd 267c 18bc 5332 51bd e2ca e03c
00000110: a43e 6b3d 5d5d 063e b55e d5bd 77b4 943d
00000120: 4815 87bd 1741 95bd 4154 dfbc 1834 a83d
00000130: ac87 253e e0b8 b4bd dbbb e23b edc7 993b
00000140: 9718 523d 92cc 8dbe c79f 2fbe 5732 b8bc
00000150: f88d e13d d3be 133e 0cdf 0fbe 1ae0 b33d
00000160: d46a 4a3b 7314 953d d1a8 ccbd c3eb e13d
00000170: fbed 963d b7c5 143c 0f5b cdbc 8ede cbbd
00000180: 225a 64be f3d4 f33d ac96 0c3e 1b99 173d
00000190: 5c08 b33d e6c6 883d 7ba5 6cbd 875f bc3d
000001a0: 5f3e a6bd c18c 4f3e 9f30 1c3e 047d 21be
000001b0: b6bd d03d d9f2 aa3d 3fa9 d63d feab 133e
000001c0: ee00 433e bb68 e3bc 3c26 ab3d 4e0d a43d
000001d0: d41f d1bd 746d b43d 5266 00bb e8d7 633d
000001e0: e39b c2bd 3ea2 fa3d e9b0 92be 1204 a5bc
000001f0: 10c8 a23d 6c97 bcbd 4b5c ecbd f806 1fbe
00000200: 1e08 63be 04c1 373d cdd5 e43d a95d 1bbe
00000210: f341 7c3d 852f 7abd 7358 873d 4f66 e1bd
00000220: e6f7 00bd 8caa 8dbd 10b8 1b3e 71f1 323d
00000230: 20d9 bf3d 408a d93d b464 c53d 7062 e63d
00000240: fc0e bebd 0eb7 ea3d b208 35bc 6030 afbc
00000250: 8b9d 163e 3ed2 b1bb e931 9e3d 9ca7 04be
00000260: a1f4 1a3e 722a a83d 07fb cbbc f078 35bd
00000270: 9c6c 2f3d b3a5 4fbd 20c3 12be 5442 0f3c
00000280: 894f 38be 2b57 263e a483 aa3d 676b ea3c
00000290: e16b 493d 44e6 46bd 4fe5 e4bd 3e2c 4ebe
000002a0: c822 a83c 1be4 babd 9f10 9abd de0a c73c
000002b0: a2cc b6bd cfdd d13d adfc bebd b5db 3f3e
000002c0: e2d5 7abb a439 883d 6d66 de3d fbd3 33be
000002d0: 50c9 96bc 29d1 15be ba65 62be 4f8c 053e
000002e0: c460 52be 1af8 c93d 34ec 32be 63c5 19bd
000002f0: e4f5 cebc 3fbe 67be 0eb7 eabd 5397 d93d
00000300: dd14 1b3d 9518 0b3d 1e73 42bd d55a e1bd
00000310: fef8 ba3a 0f4f 7f3d 61d3 cbbd 5408 323e
00000320: 7bfb 98bd 8af6 1cbc 51f8 4dbd ff14 c9bd
00000330: 2fda 6d3d 76bf 60be 8bbe 0d3e 5999 923e
00000340: 7126 e83d b1f2 6fbd 0e98 2a3d 9e1d e33c
00000350: 5f45 78bd 8488 2bbd 56e7 8d3e 0fb6 cebd
00000360: 8e9f 273d 800a 953e ea78 103d ed96 23be
00000370: 4901 1cbc bdec a6bd c62e 5d3e d5a8 8b3d
00000380: be14 e4bd f289 75bc bece 29be 8355 653e
00000390: aad2 993d 8f85 4cbd 0637 65be 0756 73be
000003a0: 4214 bf3d 443c e0bd 84ed f33d f65b 7cbd
000003b0: 31de 493e 1f29 3bbe 6300 4b3e 22fe 65bd
000003c0: 2f9a 593e 8f15 d03d 618a 8dbe 1271 ba3d
000003d0: 92d2 053d c16c 623e 31f7 453e 1fcf 38be
000003e0: fd67 94bd 7174 ed3d ec12 893c d5df c4bc
000003f0: ace7 51be b362 cbbc 2e0d 2d3c ccf9 8abd
0.049346097 0.031968225 0.07672651 0.016444396 -0.096188724 -0.11516005 -0.0071893325 0.1889815
0.037943102 -0.14019874 -0.12678067 0.014939362 0.07312252 0.11199229 -0.058060538 -0.14286123
0.0202354 0.06785833 0.054645725 -0.12571959 0.06764469 0.09305482 0.037499093 0.07289457
-0.14466539 0.005530645 0.09244098 -0.087439194 0.056238595 -0.14510505 0.005508983 -0.2426378
0.14688036 0.029249737 -0.17681266 -0.10030774 0.20228215 -0.0044783247 0.021964377 -0.14441013
-0.11216955 -0.0143953925 -0.08173331 0.13568524 0.047946375 -0.09554634 -0.058632005 0.08295824
0.094606325 0.08992401 -0.027451992 -0.008092635 0.009522121 -0.095894225 0.05119343 0.021851271
0.014102102 0.016795535 0.112511806 0.110806294 -0.05254157 0.08102317 0.1705232 -0.08426036
-0.08479622 -0.009306943 -0.051073384 0.027440492 0.057432786 0.13121553 -0.104184546 0.072609834
-0.06595856 -0.072878055 -0.027261855 0.08213061 0.16165036 -0.088243246 0.006919367 0.0046930225
0.051292982 -0.27695137 -0.17150794 -0.022484941 0.110134065 0.14428262 -0.1404993 0.08782978
0.0030886428 0.07279291 -0.09993137 0.11031296 0.0736961 0.009080342 -0.025067834 -0.09954558
-0.22300008 0.11905851 0.13729352 0.037011247 0.08741829 0.06678562 -0.057775002 0.09197908
-0.08117365 0.20268537 0.15252922 -0.15770346 0.101924345 0.08347101 0.104815 0.14421079
0.19043323 -0.0277599 0.08356902 0.0801035 -0.10211149 0.08809939 -0.0019592238 0.055625826
-0.09502389 0.122379765 -0.28650597 -0.020143542 0.07948315 -0.09208569 -0.11541041 -0.15530002
-0.22171065 0.04486181 0.11173592 -0.15172447 0.06158633 -0.061080474 0.06608667 -0.11005842
-0.031486414 -0.06917295 0.15206933 0.043687288 0.09367585 0.10622072 0.09638348 0.11249244
-0.09280202 0.11460696 -0.011049436 -0.021385372 0.14708535 -0.005426674 0.07724363 -0.12954563
0.15132381 0.08211221 -0.024899973 -0.044304788 0.042828187 -0.050695132 -0.14332247 0.008743841
-0.1799909 0.1624419 0.0832589 0.028615667 0.049175147 -0.048559442 -0.1117655 -0.20134065
0.020524397 -0.09125539 -0.075227015 0.024297174 -0.08925749 0.10247385 -0.09325538 0.18736155
-0.0038274457 0.06651619 0.1085938 -0.17561333 -0.01840654 -0.1463057 -0.22109118 0.13041805
-0.20544726 0.09861775 -0.17472917 -0.03754176 -0.025263734 -0.22631167 -0.11460696 0.10624566
0.037861694 0.03395899 -0.047473066 -0.11003653 0.0014264879 0.062331256 -0.09952427 0.1738599
-0.07469841 -0.009580264 -0.05028564 -0.09818458 0.058069404 -0.21948037 0.13842218 0.2863262
0.11335457 -0.058581058 0.041648917 0.027724084 -0.060613032 -0.04187824 0.27715558 -0.10093319
0.040923648 0.29109573 0.035271563 -0.15975542 -0.009521791 -0.08150623 0.21599874 0.068193115
-0.11136769 -0.014986502 -0.16582772 0.22395901 0.07510884 -0.04993206 -0.22384271 -0.23763286
0.09330036 -0.10948995 0.11910537 -0.06161114 0.19713666 -0.18277405 0.19824366 -0.056150563
0.21250223 0.10160362 -0.27644637 0.09103598 0.03267152 0.22111799 0.19332577 -0.1804776
-0.07246397 0.11594475 0.016732655 -0.024032513 -0.20498532 -0.024827337 0.010562224 -0.06785926

MLP3.bias f4 [50]
00000000: ee24 163c 4a7c 823d 4451 253d fee5 083e
00000010: 7db6 32bc 307f 133d 00a8 a23d 8583 0bbe
00000020: 39e6 3ebd f6de 9f3d 6dd5 dd3c a189 313e
00000030: 9bab d8bd 2210 aebd cda5 a63c 1be6 c73c
00000040: 2c44 573d 918a a5bc 1601 e13d 1dac 043e
00000050: aedd 0cbe 0fba 31bd 1fae c3bd 4bdb c63d
00000060: 9253 0c3d 1260 97bc 3ab1 6dbc 980e 37bd
00000070: 7dd9 7e3d b73c 9f3c 8a47 06bc 03ae 94bd
00000080: a546 b4bb f0f1 b93d df32 8ebd 6f0d c63d
00000090: 2087 093d 826a 393e 0d41 de3d dca8 e33d
000000a0: 5826 92bd ec79 043d 9eb1 e73d 5c11 e43d
000000b0: 5e94 55bd e679 0abe cac3 bebd fb7f dfbd
000000c0: 9773 f63d dcd7 0bbc
0.009164078 0.063713625 0.040360704 0.13368985 -0.010907766 0.036009967 0.079422 -0.1362439
-0.046606276 0.07806198 0.027079308 0.17337658 -0.10579606 -0.08499171 0.020342732 0.024401715
0.05255525 -0.020207675 0.10986535 0.12956281 -0.13756439 -0.04339033 -0.09554695 0.097097956
0.034259386 -0.018478427 -0.014507586 -0.044691652 0.06221913 0.01943813 -0.008195767 -0.072597526
-0.0055015855 0.09079349 -0.06943297 0.09670531 0.03357613 0.18107036 0.10852251 0.11116192
-0.0713622 0.032342836 0.11313175 0.111361235 -0.052143447 -0.13523063 -0.093146876 -0.10913082
0.12033766 -0.008535352

MLP4.weight f4 [7, 50]
00000000: 0628 13bd 7ce2 d3bd 913b 0cbe c885 f43b
00000010: a0e5 22be e194 a7bd 8e2e 66bd 0c8e 05be
00000020: 80fa 6d3e adc9 3cbe 08ca cd3d 159f ef3d
00000030: 8b08 933d f9a0 eb3d 3616 323e b597 39be
00000040: 5f77 20be c6f1 68be 58bd 90bd 53d9 313e
00000050: 6bc4 3b3d 9826 32be f86b 573e c93a 983d
00000060: f803 79bc 2b86 563e baae 163e 2f44 cabb
00000070: 0707 693d aaa3 b0bd 2f30 cabd a82f 993e
00000080: 389b e23d 8e04 fabe c4eb 07be 8f01 3fbe
00000090: 6b12 9bbe 3ed6 033d f254 66bd 39c1 a03d
000000a0: d293 aabc a02f aabd 0f83 593e ca80 6f3d
000000b0: 2b79 833d 7ff2 d8bd c410 28be 8358 79be
000000c0: a605 0ebe de04 cf3d 11d5 7bbd 4ca0 d33c
000000d0: 45de 0abe 99d1 5f3e 4c29 85bc 0fd2 75be
000000e0: e998 be3e c8f6 f4bd 2653 ba3d 4bad a1bd
000000f0: 6642 9fbc 3a27 093d e0d2 223d cec8 02be
00000100: 35f3 6abe fb59 db3c 6b1d c8bc ac14 9ebe
00000110: 3278 ffbb 67ad b4bd cebb 7b3d 505a 033e
00000120: 9b76 f03d ffab 733c e5bd a23e b156 a3bd
00000130: 7b2a 8f3d 8d46 44be ced4 693e 8f7d 213d
00000140: 9836 c63d 4cd9 aebd a106 3f3e 6120 9bbd
00000150: cd64 533e 13f7 b43d 2f21 9ebe 42af df3a
00000160: a392 19bd c830 c1bd 16e0 10be 5ac6 5b3e
00000170: 495e 1b3e 5b20 243e 0fa8 14bb a1c5 77bd
00000180: 2247 6abd 0781 87be 5cdb 343c 7536 36be
00000190: 0b59 3e3e 9e8c ad3d 962c b13c ca77 c63d
000001a0: 52fd 36bd c84d a4be 6f63 fbbd 3a12 fcbc
000001b0: ec90 7f3e cebe e43d e0ce 153e d1cd 9f3d
000001c0: cf1c 0dbe 4163 fe3d 27ca acbe 1c01 0a3e
000001d0: 0c37 3c3e ef6e 053b 4672 0e3e 1806 3d3c
000001e0: 5c44 f03d ad82 593e c4bf 683e 5904 3abe
000001f0: 04de 8bbd b7a7 9cbd bea2 70bc 9b60 a8bd
00000200: 6100 d1bc f75e 293e 8818 083c 26a4 173e
00000210: 802b 343e bbc1 793d ef96 683e 8ec1 88be
00000220: 7466 abbe c17e 05bd 96ca d8bd 6f8f 1ebd
00000230: 9932 9dbe a603 003e 0d18 e63d ac1e c83c
00000240: 2ac1 08be 53ce 843d ebe8 73be 8f7b 033d
00000250: 633d 013e 8bce 063e 5584 083e 3f3f 083e
00000260: b83d afbd 6c90 273e dc22 98be b976 4abe
00000270: 9233 023e 3d66 86bd f816 00be 10da 4f3e
00000280: 1140 483e c940 e23c f330 59be 94d8 653d
00000290: 7fd7 58be ff64 a63c 13d0 283d 0ef7 8fbd
000002a0: dc1f e4bd 7e2d 173e 74d4 23bb 4825 29be
000002b0: c518 8e3e 5532 90be 264d 003e b3e0 fa3d
000002c0: eb59 ad3d bd2d 2dbe ed59 8e3d 0af7 fdbd
000002d0: b2d2 47be 7878 23be 37cd ecbb 6800 183d
000002e0: 066e 92bc 732e e4bd 9bb6 203e 9b16 023e
000002f0: fecd 15be c5ca fb3d 4fc9 79be efb7 f93d
00000300: fbf4 c83c 367c 01bc f7d9 913b 7943 78bd
00000310: f748 233e bec9 243e 88d8 7c3d 2fc0 f53c
00000320: b5f2 523d b19e 213e 4492 fd3d ff13 d73d
00000330: ee60 95be d045 d5bd 4565 a43e 1eba fbbd
00000340: 1469 16be 0931 dbbd 439b 87bd 3b26 b93d
00000350: 569e 3ebe 2ae9 713d 9a6b afbd 46b6 6d3c
00000360: 63ae cebd 512a 49be e413 c13d 90d1 4bbe
00000370: 1328 0b3d 39a7 12bd 9bd6 793d e665 e8bd
00000380: e962 163e 5421 21be 18a3 b73d 98e7 20be
00000390: 4a34 303e b3d4 b3be 17bc 21be bc39 79bd
000003a0: e488 a6bc 32dd 72be 95da 313e 89ca 0ebe
000003b0: 9bdb 4ebe 56ad dd3d cb19 d23d 6f7c 043e
000003c0: 3168 a93d 30b8 e3bd 0fef 2c3e 4a92 d53b
000003d0: 4bd3 293e 62eb 43be f0ab 263e 3dda 6a3e
000003e0: 003e 3d3d e09c 493d e3c1 d5bd c879 233e
000003f0: e221 2c3e ccf4 03be 127e 57be 5732 51be
-0.03592684 -0.10345933 -0.13694598 0.007462237 -0.15907907 -0.08182693 -0.05619674 -0.13042468
0.2324009 -0.18436308 0.100483 0.11700264 0.07179364 0.115053125 0.17391285 -0.18124278
-0.15670536 -0.22748479 -0.070673645 0.17368059 0.045841616 -0.17397535 0.2103728 0.074330874
-0.0151987 0.20949619 0.1471509 -0.006172679 0.056891467 -0.086249664 -0.098724715 0.2991917
0.11064762 -0.488316 -0.13273531 -0.18652938 -0.3028749 0.03218674 -0.056233354 0.07849354
-0.02082244 -0.08309865 0.21241401 0.058472432 0.06419595 -0.105931275 -0.16412646 -0.24350171
-0.13869342 0.1010835 -0.061482493 0.025833271 -0.13561352 0.21857299 -0.016255043 -0.24005912
0.37226036 -0.11961132 0.090978906 -0.07894381 -0.01944084 0.033484675 0.039751887 -0.12771913
-0.22944339 0.026776304 -0.02442809 -0.30875146 -0.007796311 -0.08822136 0.0614584 0.1282742
0.11741372 0.01487255 0.31785503 -0.079755194 0.069905244 -0.19167538 0.22835085 0.039426383
0.09678382 -0.0853754 0.18654872 -0.07574535 0.20643921 0.08836188 -0.30884692 0.0017065781
-0.03749336 -0.094331324 -0.14147982 0.21462384 0.15172686 0.16027968 -0.0022683179 -0.060491208
-0.057196744 -0.26465628 0.0110386275 -0.17794211 0.18588655 0.08474086 0.021627706 0.09690817
-0.04467518 -0.32090592 -0.12274825 -0.03077041 0.24957627 0.111692056 0.14629698 0.07802928
-0.13780521 0.12421275 -0.3374798 0.13476986 0.18380374 0.002036031 0.1391078 0.011537097
0.117317885 0.21241255 0.22729403 -0.18165721 -0.068294555 -0.076491766 -0.014687238 -0.08221551
-0.025512876 0.16540132 0.00830663 0.14808711 0.17594719 0.06097577 0.22713827 -0.2671017
-0.33476603 -0.032591585 -0.10585515 -0.038711008 -0.30702665 0.12501392 0.11235056 0.024428688
-0.13354936 0.06484666 -0.2381932 0.032100257 0.12621073 0.13164727 0.1333173 0.13305376
-0.08556694 0.16363686 -0.29714096 -0.19771852 0.12714985 -0.06562469 -0.12508762 0.20298028
0.1955569 0.027618783 -0.21210079 0.056114748 -0.21175955 0.02031183 0.04121406 -0.07029544
-0.11138889 0.14763448 -0.0024998458 -0.16518128 0.27753273 -0.281634 0.1252943 0.12249889
0.08464416 -0.16911979 0.06950746 -0.124006346 -0.19513968 -0.15963924 -0.007226612 0.037109762
-0.017874729 -0.11141672 0.15694658 0.12703936 -0.14629361 0.122945346 -0.243932 0.12193286
0.024530878 -0.007903149 0.0044510323 -0.060611222 0.15945803 0.16092584 0.061729938 0.029998867
0.051500995 0.15783192 0.123814136 0.10501861 -0.29175514 -0.10413706 0.32108513 -0.122913584
-0.14688522 -0.10702712 -0.06621411 0.09040495 -0.18615088 0.059060253 -0.08565445 0.014508789
-0.100918554 -0.19645049 0.09427622 -0.1990416 0.033973765 -0.035804007 0.06099568 -0.113475606
0.14686169 -0.1573537 0.089666545 -0.15713346 0.17207447 -0.35123214 -0.15794407 -0.060846075
-0.020328946 -0.23717192 0.17368539 -0.13944449 -0.2020096 0.10824077 0.10258826 0.12938093
0.08271826 -0.11119115 0.16888069 0.006517683 0.16584508 -0.1913276 0.16276526 0.22934814
0.046201706 0.049221873 -0.104373716 0.15964425 0.168098 -0.12886351 -0.21044186 -0.2042936

MLP4.bias f4 [7]
00000000: 0bf1 06bd b693 07bd ff4b 443c 7fde 97bd
00000010: 08b7 093e afbf a03d 56a4 eabd
-0.03294472 -0.033099853 0.0119810095 -0.07415485 0.13448727 0.07849061 -0.11457126
