DQN/final_dqn_against_negaMax2/DQN_AgainstNegaMax_Epochs30000_player2.pth (torch, 493491 bytes, 12 tensors)

conv1.weight f4 [32, 1, 5, 5]
00000000: 9f68 573c 3128 7f3d b1d9 60bc a7ee e3bc
00000010: 1434 1f3e a704 d93c c359 053c 0351 50be
00000020: 3cf2 ab3e 94b0 b23e 4110 f2bd ccb7 3e3e
00000030: 2a04 02be cf17 363e 846a 043d 7988 a3be
00000040: dccc 043c 2278 17be 482d 233e aa96 b83d
00000050: 51fa 29bd f104 843e 0578 103e 6040 b5bd
00000060: 39ad 7bbe d1c5 8dbd 4c28 253e 383b d338
00000070: 730e a7be 650c 26be 19ee 0f3d b138 9e3e
00000080: 25c4 da3b 9a7e 3bbe 6f17 90be 9682 e6bb
00000090: 394a 84be 12d7 143d da23 f53d 5566 59be
000000a0: 71b6 bcbd 05c8 e5bd d677 ebbd 96c8 933d
000000b0: 5560 b6bc b1e6 413d c14d a23e dc44 14be
000000c0: fcc5 7b3d 017c b0bd b215 80bc 9b87 b93e
000000d0: ef7a 15be 722a 70bd f1eb 5fbe e2a7 afbd
000000e0: 04e3 a43e 9a8b 84be 9c90 75be b32c 3d3e
000000f0: 2760 2f3e 216f d13d 82d9 6e3e f66b 573e
00000100: d069 9fbb c930 f83d 6a6c 693c fc10 6bbe
00000110: a3fd efbd b27f 53be bd22 5f3e 460e 0cbe
00000120: 7928 923d 098e 92be 9413 37be c636 1cbe
00000130: 07c6 a6be 75c9 22be 905f 3cbe d7d6 4a3e
00000140: a436 00bc af5a 65bd 6f5e ae3e ab7b 86be
00000150: d085 43be b202 8d3d a28c 09be d8fc 573d
00000160: cb4b 18be 157f f43d c45f 20be bb6e 91be
00000170: 93c9 443c 0c9d 913e 818d aebd ee96 0f3e
00000180: 523d 5dbe 9e50 f13d d744 6cbe 1504 9f3d
00000190: f680 183d 5df0 10be f051 ae3e 16da 44be
000001a0: 06fd efbd b41b f13d a3de 78bc b5c0 863e
000001b0: 43d0 063e ed40 c53d 274e 32be 1649 d6bc
000001c0: f78a 05bc 6d17 f53b cdfa 2e3e 6908 2c3d
000001d0: 2bb2 173e 6472 193e bd97 23be 8424 acbe
000001e0: 2185 443e 274a 593d a662 923d fe8b 363c
000001f0: b533 a03e daa5 1d3e aafb 4e3e a8ea 7a3e
00000200: 944d e23d 7c9e 63be 7ec4 443e 398d 943e
00000210: b4d9 4b3e 0453 16be ef8a 823d 209a 51bd
00000220: 4baa c73c 29e8 43be 149a 0f3e 34c4 89be
00000230: c328 7a3e a6ac 953e 5b0c 173e 2e10 283e
00000240: 9f15 04be 8ea1 afbe 990a ba3d 8cf9 c3bc
00000250: e4fc 263e 125c 8d3e bbef b9bd d8fd 103e
00000260: 03f9 463e 1108 9abd 19a5 e73d c7f2 073e
00000270: fca1 8f3e 683a dc3d 67a9 823e 5a27 c6bc
00000280: 402c 013e 3f64 f9be 0297 4ebc c1f9 36bd
00000290: 0ff2 353e e5fc 84be 7855 65be 35ce 9b3d
000002a0: 5b3f 4cbe ac3a 0b3e cce3 27be 7588 13bb
000002b0: 0719 463e 8f01 85be 1b80 5d3e 0c09 bfbd
000002c0: 7561 1b3e de3d b43b 0e2f 8a3e 00b8 a83d
000002d0: b58e 3e3e c3b7 9e3e d65d 12be 842b 9e3e
000002e0: fa9b 2fbe bc64 de3c 20e9 033e dc95 3abe
000002f0: 3dd9 293e 0c94 bebe 6303 3d3e 9ce4 a23e
00000300: 0c94 b73e e5cb 79ba 93f0 193d 9295 733e
00000310: b041 493d 36a0 9abd 5586 0ebe 701d 4e3e
00000320: 488e 64be 3e84 8d3e 8d19 763e 973a 34be
00000330: 7a25 07be 9a9c 8a3e eb64 743e bfca 5ebb
00000340: 8394 7a3e 0129 04bd 5de4 31be 530a 26b9
00000350: bb59 b23e f865 0d3e cdc3 8dbe 7823 ea3c
00000360: fb28 903b fc9c 6a3e 67e8 3b3e 0dba af3e
00000370: 611f 57bd 77d3 15be 18be 293e 7f8b 15be
00000380: 6f9c 8fbe 4a1f fe3c 1fa1 2b3e eb20 66be
00000390: 1006 12be 133d 0bbe 4155 a33e c77f 7abc
000003a0: 2ca2 333e 430f f13d e7be ac3c e82e 0b3e
000003b0: 2296 04be 8d70 113e dd10 0dbe 09d8 1fbe
000003c0: 0b1d 5e3e cbd3 103e 9bdc 213e 6218 f3bd
000003d0: 3e63 69bd 55c1 a83e cf65 72be e3a7 9cbd
000003e0: f9dd 8cbd 23ef a33d fdb3 13bd 2f0a 6cbe
000003f0: 8d8c 4ebe f738 683d 7cd8 00bc be4e 313e
0.013147502 0.06229419 -0.013723777 -0.02782376 0.1554721 0.026491476 0.008139077 -0.20343404
0.33583248 0.34900343 -0.118195064 0.186248 -0.12696901 0.1778252 0.032328144 -0.31940058
0.008105483 -0.14791921 0.15935242 0.09013112 -0.041498486 0.2578502 0.14108284 -0.08850169
-0.24577798 -0.06922496 0.16128653 0.000100722944 -0.3262821 -0.16215666 0.035139177 0.30902627
0.0066762143 -0.18310013 -0.28142878 -0.00703461 -0.25837877 0.03633792 0.11969729 -0.21230443
-0.092144854 -0.11219791 -0.11497466 0.07215993 -0.022262732 0.047339145 0.31699947 -0.14479393
0.06146811 -0.08617402 -0.015635345 0.3623627 -0.14597677 -0.05863423 -0.21867348 -0.08576943
0.3220445 -0.25887758 -0.23980945 0.18474083 0.17126523 0.10226274 0.2332516 0.21037278
-0.0048649088 0.1211868 0.014247039 -0.22955698 -0.11718299 -0.2065418 0.21790595 -0.1367732
0.07136626 -0.2862399 -0.17878562 -0.1525527 -0.32572958 -0.15897162 -0.18395829 0.19808517
-0.007825527 -0.055994686 0.34056422 -0.26266226 -0.19094014 0.0688528 -0.13432553 0.052731365
-0.14872663 0.119383015 -0.15661532 -0.28404793 0.01201095 0.2844013 -0.085230835 0.14022419
-0.21605423 0.11782955 -0.23073135 0.077644505 0.03723236 -0.14154191 0.34046888 -0.19223818
-0.11718182 0.11772862 -0.0151897995 0.263189 0.13165383 0.09631524 -0.17412625 -0.026157897
-0.008150808 0.007479599 0.1708786 0.042000208 0.1481406 0.14985043 -0.15975852 -0.3362161
0.1919141 0.053049233 0.07147722 0.011141775 0.3128945 0.15395299 0.2021319 0.24503577
0.11049953 -0.22228426 0.19215581 0.29013994 0.19907266 -0.14680105 0.06374156 -0.051172376
0.024373194 -0.19131531 0.1402362 -0.26907504 0.24429612 0.29233283 0.14750807 0.16412422
-0.12898873 -0.34302944 0.090840526 -0.023922704 0.16307408 0.27609307 -0.09078928 0.14159334
0.19430928 -0.0752107 0.11310787 0.13276206 0.28053272 0.107533276 0.2551987 -0.024188686
0.12614536 -0.48709294 -0.012609245 -0.044671778 0.1776812 -0.25974193 -0.22395885 0.0760769
-0.19946043 0.135966 -0.16395491 -0.0022511755 0.19345485 -0.25977752 0.216309 -0.093278974
0.15173896 0.005500539 0.26989025 0.0823822 0.18609126 0.30999574 -0.14293608 0.30892575
-0.17149344 0.027147643 0.12881899 -0.1822123 0.16586776 -0.37222326 0.18458323 0.3181504
0.35855138 -0.0009528979 0.037582945 0.23787525 0.04913491 -0.07550089 -0.13918431 0.20128417
-0.22319901 0.27639955 0.24033184 -0.17600475 -0.1319789 0.27072603 0.23866622 -0.0033995358
0.24470715 -0.032265667 -0.1737227 -0.0001583484 0.34834084 0.13808429 -0.27688447 0.028581366
0.0043994165 0.22911447 0.18350373 0.34321633 -0.05252016 -0.14631449 0.16576421 -0.14603995
-0.28049037 0.03102078 0.16760682 -0.22473495 -0.14260125 -0.13597517 0.3190098 -0.015289254
0.17542332 0.11770489 0.021087123 0.13592112 -0.12947896 0.14203091 -0.13775964 -0.15609755
0.21690767 0.14143293 0.1580681 -0.11869885 -0.05697941 0.3296 -0.2367165 -0.07649209
-0.068782754 0.08004596 -0.036060322 -0.2305076 -0.20170803 0.05669495 -0.007864114 0.17315194

conv1.bias f4 [32]
00000000: fe2e 703d 76a4 603e 6607 bebd 6762 5a3e
00000010: cc76 1c3e 9dac 643d 327d 293d 94c6 043e
00000020: ebad be3d 3e71 0dbe fd0b 0fbc 00ac 523d
00000030: 0bb0 493e f179 073e 2e17 83bd 039d 17be
00000040: cc10 773d c62e 803e 2d38 963d f639 3d3e
00000050: 8d30 46bd ee67 edbd d6f3 8d3e a062 c6bd
00000060: 7754 cfbd 9a9a 223e 7809 babd 0648 1a3e
00000070: e3f5 0e3e 9d79 b03d 112d dc3d 150e 503e
0.058638565 0.21937737 -0.09278755 0.213266 0.15279692 0.05582868 0.04137916 0.12966377
0.09310516 -0.1381273 -0.008730886 0.051433563 0.19696061 0.1323011 -0.064009055 -0.14805989
0.060318753 0.25035685 0.073349334 0.18479142 -0.048386145 -0.11592089 0.27725095 -0.0968678
-0.10123532 0.15879288 -0.09083837 0.15066537 0.13960986 0.08616946 0.10750783 0.20317872

conv2.weight f4 [32, 32, 5, 5]
00000000: 1420 ddba d4e6 f9bc 80d7 353d d50e b73c
00000010: b00d 863c dda3 223b 84c3 813d 13e5 ca3d
00000020: ec85 1ebc a911 afbd be0d 8fbc c2f5 17bd
00000030: c097 80bd 4305 6a3d 7e2a e93a 183a 343d
00000040: 4d9e ad3d 5028 a0bc 6ba9 87bd 42fb b0bc
00000050: 2577 563d 3ba6 b03c 6f93 48bd 115c ec3c
00000060: c201 f7bd ee28 8c3d 4b37 92bc 07f7 dfbb
00000070: d2ff acb9 56c9 123c f3bb cabc c724 533d
00000080: 3529 193a 7f4d a53c 5898 a33d 50ee 893d
00000090: b8b9 543d e56e 453d ed9c a43c 0691 f23d
000000a0: 5955 ad3c 3826 dfbc c31b 45bd aa9e c33c
000000b0: e196 023e 5906 7d3c f707 58bc 4f23 6d3d
000000c0: e21c 85bc a475 4c3d 5e02 9b3c 78f8 ac3c
000000d0: e9d5 fabc eb2b aebd 41f5 e93a 75e9 75bd
000000e0: 97db 05bc def4 3c3c 7af4 4dbd 7433 17bd
000000f0: 76ed 1ebd 9f99 ccbc 33f5 4fbd c62c 1a3d
00000100: 6253 d9bc b9e3 a03c 6a2f 95bd d52d 07be
00000110: 5749 03bd 2ad1 4cbb bf1f 8dbd e185 c4bd
00000120: 9759 473c 03e1 003e 3ef9 893d 9bc0 b53d
00000130: be89 333d d8e4 87bd b90b 9abd 7d3a 8b3d
00000140: 8c89 3a3d 21a4 753d 6004 a43d 8c19 a9bd
00000150: 8cc8 f43b 5711 693d 1ef2 5f3c 1eda 45bb
00000160: 4b1f 4dbd c7e5 1d3d 4d05 8fbd bf6c 91bc
00000170: 68f1 3c3d 8ba5 62bd e3d3 11bd eb06 e53c
00000180: a4d2 003d e2c1 213d f02d 9bbc 4b0f dcba
00000190: 56a0 99bc e669 8e3d 4d81 ccbd af7c c3bc
000001a0: cc22 5a3d da5d a8bc 137d f5bc c67a 873c
000001b0: 58bc 8e3d abf9 fa3d 4fa2 9cbd 3f13 cd3d
000001c0: dbdb 933c a129 833c f7c9 7c3c 7a7c efbc
000001d0: 9bca 113d f30a a63d 1e49 003d 3fad e03d
000001e0: 0075 6cbc c848 f93b 739d 95bb aedf b2bd
000001f0: b5e2 853d f9e0 113d 3eae 5d3d 143c 77bd
00000200: 0c00 7a3c fde5 cdbd 3eb3 2fbd 18a8 523d
00000210: 55a0 c0bd 7a13 c8bc b740 9a3d 5982 ecbc
00000220: 26a5 f03d 2eb4 91bd c32f 5cbc 8ba8 1dbd
00000230: 5ff1 6c3c 0071 4bbc f774 47bd 4aa7 f23a
00000240: d7f7 d73c a0ed 5fbd c21c 79bd cae2 afbc
00000250: 3bbf 693c 284f e03c 22ef abbd 6078 90bd
00000260: d96b 873d 7818 b73c 353b 123d cd1f 423b
00000270: 44dc 053d ce4e 983d 274f 013d fa7a 68bc
00000280: b689 013d 77e2 f33b 616c 413d 69cb 9bbd
00000290: e866 42bd 14c2 81bc a6a5 edbd 294a 793b
000002a0: 63a0 123d 24ec 67bd d77c 513d 3ccb f0bc
000002b0: f6d5 093d 2c7d eebc 072e 56bd c068 b03d
000002c0: cc3b 19bd 1827 9bbc 96ff 2dbd 006a 1dbd
000002d0: 40f5 563d 5e3f b9bd c942 adbc d8be d13d
000002e0: 83ce 46bc 41f7 3d3d 566a 913d e1ea 4cbd
000002f0: 52c4 b03d f16c 373d 8890 75bc 9600 23bc
00000300: 1740 49bd 497a c13d 3bc8 4ebb bb4c 503c
00000310: fe65 99bd 5aec 603d cd72 633d 7e6e 4dbc
00000320: 6d07 9bbd ea3c 55bd 0f44 43bd 88b4 abbd
00000330: d3b2 3a3d 546f 5dbc b7e1 7e3d 03ae a2bd
00000340: b654 10be 0ecc 783d 76dd bbbd 63ce ae3c
00000350: 333e 2bbd 5586 0cbe 66de c4bc 58b8 d8bd
00000360: 7737 323e afcd 3abd fa8f a5bd b98f 323d
00000370: e0ac 14bd 839e 51bb 91e4 8a3d 66b2 91bd
00000380: 592e 34bd 7f44 fd3c e981 6c3c 68a5 8e3d
00000390: f0a1 bdbd 03eb f5bb 5f2b 343d f3c4 9abd
000003a0: 0642 c8bb 0311 b73d d9f0 debc 024d 923d
000003b0: 94e9 483d f64e 223c c6c0 d3bd 653b 133d
000003c0: 00dd 16bd 51dc 93bc c633 10bc d29d 783d
000003d0: 80e8 8c3c af66 303c d76e 613d ce6e d0bd
000003e0: f2a5 793c 5dfc a0bc 332a 503b 75a2 7c3d
000003f0: 6308 75bd 0c5e 6ebb e432 113b a76b 4d3d
-0.0016870522 -0.030505575 0.04439497 0.02234594 0.016363949 0.0024816908 0.0633612 0.09906974
-0.009675484 -0.0854829 -0.017462607 -0.037099607 -0.06278944 0.057133924 0.0017789153 0.044000715
0.08477459 -0.019550472 -0.06624111 -0.021604184 0.05235972 0.02156364 -0.04896873 0.028852494
-0.12060882 0.06843744 -0.017848631 -0.006834868 -0.00032996997 0.008959135 -0.024747824 0.051548745
0.0005842627 0.020178555 0.07988042 0.067349076 0.051934928 0.04820146 0.02009436 0.11844067
0.021158861 -0.027239904 -0.04812218 0.023879368 0.12752868 0.015443408 -0.013185493 0.057895
-0.016249124 0.04991688 0.018922027 0.021114573 -0.030619578 -0.085044704 0.0017849581 -0.060037095
-0.00817003 0.01153299 -0.05028198 -0.036914304 -0.03880068 -0.024975596 -0.05077095 0.037640356
-0.026529018 0.019639837 -0.07284434 -0.13201077 -0.032052364 -0.0031252601 -0.06890821 -0.09595848
0.012167356 0.12585835 0.06736992 0.08874627 0.043832533 -0.06635445 -0.07521767 0.06798265
0.04554133 0.05997098 0.08008647 -0.08256826 0.007470196 0.056901302 0.013668565 -0.0030189822
-0.05007867 0.03854921 -0.06983433 -0.01775205 0.04612866 -0.055333655 -0.03560246 0.0279574
0.031450883 0.03949154 -0.018942803 -0.0016789226 -0.018753212 0.06953792 -0.099856 -0.023863165
0.05325584 -0.020552564 -0.029966867 0.016538035 0.069695175 0.12254652 -0.076481454 0.100134365
0.018049171 0.016011061 0.015429012 -0.02923416 0.03559361 0.08107557 0.03131973 0.10970544
-0.014432192 0.007607553 -0.0045658886 -0.0873407 0.065373816 0.03561494 0.05412125 -0.06036003
0.0152588 -0.100536324 -0.042895548 0.051429838 -0.09405581 -0.02442335 0.075318746 -0.028870748
0.117502496 -0.07114445 -0.013439122 -0.038490813 0.014461844 -0.012417078 -0.04869553 0.0018512991
0.026363296 -0.054669976 -0.06081844 -0.021470446 0.014266784 0.027381495 -0.0839522 -0.0705421
0.06612367 0.022350535 0.035700995 0.0029621006 0.032680765 0.07436906 0.031569626 -0.014189476
0.031625472 0.007442768 0.0472225 -0.07607157 -0.04746142 -0.015839614 -0.116038606 0.0038038588
0.035797488 -0.056621686 0.051144447 -0.029393785 0.033651315 -0.029112421 -0.05228999 0.086137295
-0.037410542 -0.01893954 -0.042480074 -0.038431168 0.052479982 -0.090452895 -0.02115001 0.10241479
-0.012134197 0.046378378 0.0710036 -0.050028685 0.08631195 0.04478163 -0.014988072 -0.00994887
-0.049133386 0.09447152 -0.0031552452 0.0127136065 -0.074901566 0.054912902 0.055529404 -0.01253855
-0.07569776 -0.052060045 -0.047672328 -0.08384043 0.045580696 -0.013515312 0.062226977 -0.07943346
-0.14094815 0.060741477 -0.091731 0.021338647 -0.041807365 -0.13723119 -0.02403183 -0.10582036
0.1740397 -0.04560631 -0.08084102 0.043594096 -0.03629768 -0.003198535 0.06781877 -0.07114105
-0.043989513 0.03091645 0.01443527 0.069651425 -0.09259403 -0.007504822 0.043986674 -0.07557096
-0.006111386 0.089387916 -0.027214454 0.07143594 0.049050882 0.009906521 -0.10339503 0.035945315
-0.036831856 -0.018049391 -0.008801406 0.060697384 0.017200708 0.010766669 0.055037346 -0.10177384
0.015237318 -0.019651586 0.0031763434 0.06167837 -0.05982245 -0.0036371974 0.0022155577 0.050151493

conv2.bias f4 [32]
00000000: 47d6 de3c 221c 673d 06c3 e53c ea3e 1b3d
00000010: addc 1a3d 0b57 603d 75ff eeba 3ffc 903d
00000020: 61a0 513d d38b e9bc ec7f 053d 54a3 debc
00000030: f7d3 3d3c a3b7 b53d f26b a03d bf36 5d3d
00000040: e221 2d3d 9d6d 123d 172b da3c 84f0 dbbc
00000050: e148 d43b d573 293d 3005 4b3d e7c0 fe3c
00000060: 70ff 82bb beec 1b3d 5687 d03c deb6 b9bc
00000070: b5a6 45bd 98de 34bd 702c 2c3d cf65 a03c
0.027201785 0.056423314 0.028047096 0.037901796 0.03780811 0.05477051 -0.0018234091 0.07079362
0.05117834 -0.028509056 0.0325927 -0.02717749 0.011586181 0.088729165 0.07833089 0.054007288
0.04226864 0.035749067 0.026631875 -0.026848085 0.0064784144 0.04137023 0.049565494 0.031097842
-0.0039977357 0.03806757 0.025455158 -0.022670206 -0.048254687 -0.044157594 0.042034566 0.019579796

conv3.weight f4 [32, 32, 5, 5]
00000000: 0195 1dbd 9c66 313d ed79 5d3d 87ba 02bc
00000010: 3d0a 8ebd 29ce a6bd 365a bf3c 9046 57bd
00000020: d8c1 fc3c 6906 81bd eef9 963d eef3 3d3d
00000030: be14 823d 732f 353c d626 37bd f63b d43c
00000040: 205b b63d f306 043b 9ea8 c1bb 71a6 27bd
00000050: 90bf 8b3c 7e61 1d3d a6cf 363d f5ca 74bc
00000060: f94d dabc 077c 6c3c e7ef 8fbd 2c7f a0ba
00000070: 01d0 1ebd 878e 49bd b3ed 61bc d7b9 b739
00000080: f25f 8abc 526a a8bd 067c b13d 5820 e83c
00000090: 6d66 b83c 4c49 27bd 5752 fabc 1701 013e
000000a0: d2f6 08bd c74d 89bc 0dfa 32bd 51c2 a73d
000000b0: fded 123e cda1 b6bd 4fcb f53d 8885 bc3d
000000c0: cdd8 463c 92ef 6d3d 867e ccbd 12c2 1bbc
000000d0: 9068 70bd ba5a 953d 0092 ad3d 55ad aabd
000000e0: be28 033d 1327 4e3c ff59 193d 613a 2c3d
000000f0: 0897 8abc 943f 683c 93b1 393d 4994 713d
00000100: c961 2b3d 1f75 fa3c 2757 c03d 3c56 9c3d
00000110: c782 fe3c e583 17bd f147 893d 6e36 5e3d
00000120: b8e3 913d 4718 2dbd 8aa7 a9bc b2fd c63d
00000130: b74b b23c 1fab d13d 8e0a 9abc d0c7 863d
00000140: 373d 6bba f16f 163e d0f3 1f3d b484 553b
00000150: ec1b 93bc f442 86bd 3b9a d73c 3344 f63c
00000160: e0e4 3dbd 5c87 a3bc 2928 af3d c799 873a
00000170: 895f 643a af7d e7bc cbce 96bd 5cc6 d3bd
00000180: 9c97 b5bd 76b4 34be f477 00be a3cb b53b
00000190: dd5c 76bd 1c77 3e3d 42ba 043d 256a a83d
000001a0: 9452 cc3d bd81 56bd 869a cb3d 342d 8c3d
000001b0: 9acb aa3d bccb b63c 2e0c 703d 03b6 033d
000001c0: ee00 d13d 956d 553d 0dc2 9f3a 0254 f4bc
000001d0: 3c63 91bc 7d0a 533c 2c92 d5bc f14e b7bd
000001e0: 8803 603d 3447 dbbd b1bb 98bd 908d 8abd
000001f0: 66cc c6bd 2a84 883d 69d0 fdbc 7aa9 b23d
00000200: 6e28 4c3c b9a8 753c 5de5 7e3d 1516 ac3d
00000210: 2417 b2bd 111b acbd 1555 913d 5d57 ac3a
00000220: 8dbc f0bc 3f11 c0bc 2486 58bd 31e8 c1bb
00000230: cf6c 3bba 8058 39bc a4e3 9abd dd09 92bd
00000240: 94ae d6bc 2a0d c2bd ed57 e0bb 5855 6bbd
00000250: bc22 d9bd 8bd8 b03d f2c9 d03c d6e6 97bb
00000260: 92dc 14bd e05c 92bc d674 4f3d 9a98 26bd
00000270: 5e83 9dbc e9b9 c9bd 6324 aabd e8ca 5bbb
00000280: bcbe 8c3d 7dc9 38be 54b8 e03c 98a6 aa3c
00000290: 805f 70bd 7fc2 edbd 853a 853d 5824 76bd
000002a0: e1a8 0fbe 2cf4 46bc b2fb 4dbd 3559 39bc
000002b0: 3aff e1bc c2ad d63b df63 763d 9fee 13ba
000002c0: c15c 143d cdf9 163d bb4a b43d 2903 b03b
000002d0: 32d1 be3c aaf4 8a3d 31b2 143d d73c 013d
000002e0: 013a 663d 6585 b6bb 65f0 0e3c 3ddb a23d
000002f0: 6236 bb3d e88c 203d a699 27bc 4201 323d
00000300: 3bc7 263d a130 6a3c 5e55 c3bd 6ecd 023d
00000310: 14ce c6bd f6bf 2cbd d4f6 a1bd 70e9 18be
00000320: 2efc ba3d 20b8 0abb 6f24 0abd 9f7c 073d
00000330: 1eda c3bc 76fa 6d3c ed2b e6bc f11e 2f3b
00000340: 3a89 4c3c 0251 c93b cc7e f8bd 5f55 57bd
00000350: fef7 d3bc 2d7c 23bc ac56 903d ee5f 203c
00000360: 983c f2bc 2a26 bbbb 492c f53d 2cb7 d23d
00000370: f5f0 c23d 071b b13d b30c a03d 1ecd 893c
00000380: 532b 553d cb95 0ebd 7d37 8a3b aff0 dabc
00000390: 899f 35bc 8ad2 4c3d 8c42 58bd ac7b 66bd
000003a0: 84c0 fdbc 043d 72bc a291 1c3d 3377 75bd
000003b0: 0ae0 35bd 98d4 61bd 23f1 273d 6cae d43d
000003c0: c23e c13c 535e 933b 4fa3 ca3b 01be 313d
000003d0: 682f 91bd 40e6 f8ba 2767 dc3d 3797 e73c
000003e0: 44b4 b63d cb70 363b 7478 fb3d 6dae 5bbc
000003f0: 98a3 9f3c a444 a53b a967 f33c ce43 d7bc
-0.03847218 0.043310747 0.054071356 -0.007979042 -0.069355465 -0.08144791 0.023358446 -0.052557528
0.03085415 -0.06300051 0.07371889 0.046375208 0.063516125 0.011058676 -0.04471477 0.025907498
0.089040995 0.0020145744 -0.0059099933 -0.040930215 0.017059118 0.038423054 0.044631623 -0.014940967
-0.026648508 0.014433867 -0.070281796 -0.0012244931 -0.038772587 -0.04920819 -0.013789582 0.0003504294
-0.016891453 -0.08223404 0.08666234 0.028335735 0.022509778 -0.040841386 -0.03055684 0.12598072
-0.03343851 -0.01676072 -0.0436955 0.0819136 0.14348598 -0.0891758 0.12001669 0.092051566
0.01213665 0.0580898 -0.0998507 -0.009506719 -0.05869347 0.07292695 0.08475113 -0.08333842
0.032021277 0.012582558 0.037439343 0.042047862 -0.01691772 0.014175314 0.045335364 0.058979306
0.041841302 0.030573426 0.09391623 0.076336354 0.031068219 -0.03699102 0.06703175 0.054251127
0.07123512 -0.04225948 -0.020709772 0.09716357 0.02176462 0.10237717 -0.018803861 0.0658108
-0.00089736603 0.1469114 0.039050877 0.0032580318 -0.01795765 -0.06555739 0.02631866 0.030061817
-0.04636085 -0.019962005 0.08552582 0.0010345512 0.00087117456 -0.028258173 -0.073636614 -0.103405684
-0.08866808 -0.17646965 -0.12545758 0.005547957 -0.060147155 0.04650031 0.03240419 0.082233705
0.09976688 -0.05236982 0.099415824 0.06844559 0.08339615 0.022313945 0.058605365 0.032156
0.102052554 0.05210646 0.0012188569 -0.029825214 -0.017747514 0.012880919 -0.026070677 -0.08950604
0.054690868 -0.1070694 -0.07457674 -0.06765282 -0.09706955 0.06665833 -0.030983167 0.08723731
0.012460811 0.01499384 0.062230457 0.08402649 -0.0869582 -0.084036 0.07096306 0.0013148595
-0.029386783 -0.023445724 -0.0528623 -0.005917572 -0.00071496976 -0.011312604 -0.0756295 -0.071307875
-0.026206292 -0.09475167 -0.006846419 -0.057454437 -0.10602328 0.08635052 0.02548692 -0.004635672
-0.036343165 -0.017866552 0.050648533 -0.040672876 -0.01922768 -0.09849913 -0.083077215 -0.003353769
0.06872317 -0.18045612 0.027431644 0.020831391 -0.058684826 -0.11609363 0.06505302 -0.060093254
-0.14029266 -0.012143176 -0.050288863 -0.0113127725 -0.027587522 0.0065514753 0.06015384 -0.00056431623
0.03622127 0.036859322 0.08803316 0.0053714705 0.023293111 0.06784947 0.03630275 0.031552162
0.05620766 -0.005570101 0.008724307 0.07951973 0.09141232 0.03919688 -0.010229504 0.04345823
0.040717345 0.014293821 -0.09537767 0.031934194 -0.09707275 -0.042175256 -0.07908407 -0.149328
0.09130131 -0.0021166876 -0.033726152 0.033077832 -0.023907717 0.014525047 -0.028097117 0.0026721323
0.012483889 0.00614369 -0.121335596 -0.05257165 -0.025875088 -0.009978336 0.07047781 0.009788496
-0.029569909 -0.0057113366 0.11971337 0.102888435 0.09518615 0.08647733 0.07814922 0.01682144
0.05204327 -0.034810822 0.0042180405 -0.026726095 -0.011085399 0.050005473 -0.05279784 -0.056270286
-0.030975588 -0.014785055 0.038224824 -0.05992813 -0.044403113 -0.055134386 0.04100145 0.10384831
0.023589496 0.0044973283 0.0061840187 0.043394092 -0.0708912 -0.0018989518 0.10761862 0.028270347
0.08921102 0.0027838226 0.12278834 -0.013408286 0.019487187 0.005043583 0.029712515 -0.026277449

conv3.bias f4 [32]
00000000: 48c6 d83c 6797 2b3d b8a1 81bd 5e2c 8d3c
00000010: c0bc d6bc c9e1 da3d 4083 d33b 42c8 78bd
00000020: 48d5 75bc 0678 463c 9627 1bbc 26e2 46bc
00000030: d634 9b3c bfba 1f3d 4c40 8b3d 9746 313d
00000040: 81d4 1a3d 921e 0b3d 38ab c6bc 3f55 2b3c
00000050: 4a97 fa3c c7b8 c3bc 5dcc 9a3d b6db 603d
00000060: e2a7 173d c611 bd3b aaa6 2a3d a9b9 5abd
00000070: ffa2 c4bb 0c59 c33c 6652 3f3c e070 a6bc
0.026461735 0.041892435 -0.063296735 0.01723307 -0.02621305 0.10687596 0.006454855 -0.060737856
-0.0150044635 0.012113577 -0.009469887 -0.012138879 0.018946093 0.038996454 0.06799373 0.04328021
0.037800316 0.0339647 -0.024251565 0.010457336 0.030589718 -0.02389182 0.075585105 0.054897033
0.03702534 0.005769941 0.04166285 -0.053399716 -0.006000876 0.023846172 0.01167736 -0.020317495

MLP1.weight f4 [50, 1344]
00000000: fbdf e2bb 5d5f 3a3c bd84 3e3d 60f1 983d
00000010: 43dc 3c3d 1a8c 463d 5693 353d e527 3fbd
00000020: 0c40 16bd d4fa be3d faf0 4c3d 1550 42bd
00000030: 675c 953c 2906 2ebc 3449 ac3c f24f 183d
00000040: 8d9d 713d d80d 25bd faf4 1cbe c153 273b
00000050: 324c 98bd 7191 a7bc 1821 42bd 258a 623d
00000060: aa94 30bd 6cf5 31bc 2135 cb3c 41c9 b8bc
00000070: 21d0 a5bb b029 1cbc 8eeb 333c d5ff 9dbc
00000080: 3c38 013d 2eec 763d 0337 12bd 709a f4bc
00000090: c7a2 03bd 43e2 1f3d 0363 f5bb a880 d73c
000000a0: f3e6 893d bdd8 213d d719 ae3c a814 7a3d
000000b0: 871d fcbc 198f 99b8 12bb ae3c 3b47 48bc
000000c0: 924e f7bb 0337 3e3c 848e 153d ab73 9dbd
000000d0: fd71 40bd beb6 90bc 1375 31bd 42e0 923d
000000e0: fff8 0a3d 45ee 363d 77d9 2ebd dcc9 fbbc
000000f0: d299 3a3d 8129 5ebd 2e9f 2fbd 718a f8bc
00000100: 386b 91bc eff7 203d d73e 9e3d af0a 2dbd
00000110: 1878 353d 5087 8c3d 9414 d73d 98f7 233d
00000120: 13bf 1dbd ca36 ea3d e4bf 71bd b7fb 1d3d
00000130: dd65 db38 e975 24bd 3111 0cbd 7b55 7dbd
00000140: dd15 ad3c c80d 27bc de2d f83d 59de d23d
00000150: 75ae 223e dd3b ecbd 69bd a3bd 395f b13c
00000160: a4cb 8abc a2e3 023d a857 89ba 5cd0 ad3d
00000170: 216d 2ebb e134 843c 250f 8e3d d3d7 8b3c
00000180: 994a 133d 8b64 3a3d 456b 3a3d de59 c1bc
00000190: 49d7 183d e978 933d 9089 2e3d fe8b 9f3d
000001a0: 1ae9 d9bb 9b12 583d e3c5 16bd ff7d 503c
000001b0: 1e1a bf3b 25fc 35bd aa1f b6bc de62 8b3c
000001c0: f060 953d 759e bc3c 6577 593d 10be 0abd
000001d0: a92f a63b 77a9 ca3c 6f19 00bb b338 6e3d
000001e0: 2c40 96bd e0b2 d7bc f6e7 d4bc 5be9 55bd
000001f0: 320c 2abd 7536 07be e970 c33d 1168 f43a
00000200: 7526 0ebe 707c d83c 187c 553d f967 7fbb
00000210: a6a5 81bd 5f1e 523c d032 a63d ecb4 893d
00000220: d479 b6bc c499 59bc e7cf 043d 4354 763d
00000230: 0d9f 113d 007a da3c d6d8 0b3b 1122 de3c
00000240: 75f9 d93c e46d 773b b59c 623c 3b6c a9bc
00000250: e3e0 ac3d c774 bcbc edfd 803d 944b 9dbc
00000260: b09c fd3b ecf7 12bc 6a1f bcbc bbd1 34bc
00000270: 456a 07bd 3bf1 743a 04c6 703d 2c73 9e3d
00000280: 76e7 06bd 5288 e73c 033a 74bc f0e5 62bd
00000290: d24a 9ebc 0620 15bd ad3d 85bc ea8a a3bd
000002a0: 1adc c83d f8a8 253d 0601 0fbd 85aa 30bd
000002b0: 580c b33c d4a1 e3bc 26cf ccbb 8d42 be3d
000002c0: 3495 8d3d c45f a23c d844 e73d fdbd ee3b
000002d0: 9c4e 273d 1a14 153a a3f3 05bd 431f 7d3d
000002e0: 8ced 49bd 76e1 febc 74a7 fc39 a4b7 593d
000002f0: 6c59 ef3a 2647 893c 0475 e7bc 682f 2d3d
00000300: be89 1f3d b184 583d 9294 383d 00cd abbc
00000310: 349f 03bd eeb6 9abd ad5e f53b 5605 f53b
00000320: 963b 66bd 4ccb 13bd f2df 63bd 7cc5 ecbc
00000330: eca1 163d 4b8b afbd 12f8 d1bd ab78 03bd
00000340: 51d9 c93c 817a e5bc 8bd2 03bd a5ff a7bd
00000350: c98f 4fbd 8245 08be 5ad9 053d e17f 583d
00000360: 4114 95bd 26c9 20bc cd4e 873d 916e 8c3c
00000370: f7ff e93b b3f9 18bc 6caf 313d 2129 3bbc
00000380: 19a6 483c de83 16bd dc4f 9c3d ab39 a8bc
00000390: e807 233d 89ce 8bbc a3e5 733d b74f 593d
000003a0: 675f 933d 14ad d23c 3aae 563d 7332 c53c
000003b0: d463 8e3c 1566 6ebd 17d0 8ebb a2c3 d53d
000003c0: f207 a8bc 1783 b03d 258b 343a 0f9e 35bd
000003d0: 3d47 b43c ef35 b6bc 13e2 f53c 0102 d83b
000003e0: 7b58 66bd 09b6 e13c 996e cfbc 050b 8b3c
000003f0: 890d c93c 1b0f 703d 8c99 cbbb 1d0b 26bd
-0.006923673 0.011375275 0.046513308 0.07467914 0.046108495 0.048473455 0.044329964 -0.046668906
-0.036682174 0.093251854 0.0500345 -0.047439653 0.018232537 -0.010621586 0.021031 0.037185617
0.058988143 -0.040296406 -0.15327826 0.00255321 -0.07436408 -0.020455094 -0.047394842 0.055307526
-0.043110527 -0.010861736 0.024805607 -0.022556903 -0.0050602113 -0.009531423 0.010981454 -0.01928703
0.03154777 0.060283832 -0.035696995 -0.029858798 -0.03213766 0.03903414 -0.0074886098 0.026306465
0.06733503 0.03951334 0.021252556 0.061054856 -0.030775798 -7.3222625e-05 0.021329436 -0.012224014
-0.007547208 0.0116097955 0.036512867 -0.076880775 -0.046983708 -0.017665263 -0.04332454 0.0717168
0.033928867 0.044660825 -0.04268786 -0.030735902 0.04555685 -0.0542388 -0.042876415 -0.030339452
-0.017751321 0.039298948 0.077268295 -0.042246517 0.044303983 0.06861746 0.10501972 0.040031046
-0.0385123 0.114362314 -0.05902089 0.038570132 0.00010461707 -0.04015151 -0.034196083 -0.0618491
0.02112859 -0.010196157 0.121181235 0.10296316 0.15886863 -0.115348555 -0.079951115 0.021651851
-0.016942807 0.03195537 -0.0010478394 0.08487007 -0.002661534 0.016138496 0.06936482 0.017070686
0.035959814 0.04550604 0.045512456 -0.023602422 0.037314687 0.07200796 0.04261166 0.07790373
-0.0066501023 0.05275212 -0.036809813 0.012725352 0.005831971 -0.044429917 -0.022231895 0.017014917
0.0729388 0.023024777 0.05309238 -0.033872664 0.0050715995 0.02473901 -0.001954641 0.05815954
-0.073364586 -0.026330411 -0.025989514 -0.0522245 -0.041515537 -0.13204367 0.0954302 0.0018646737
-0.13881858 0.026426524 0.0521203 -0.0038971885 -0.06330423 0.012824624 0.081151605 0.06723961
-0.022274889 -0.0132812895 0.032424834 0.060138952 0.035552073 0.026669502 0.002133896 0.027115854
0.026608208 0.003775471 0.013831307 -0.020681491 0.08441331 -0.023004903 0.062984325 -0.019201078
0.007739626 -0.008970242 -0.022964198 -0.011036332 -0.03306033 0.00093438075 0.058782592 0.07736811
-0.032935582 0.028263245 -0.014906409 -0.055395067 -0.019322786 -0.036407493 -0.01626476 -0.0798548
0.09807606 0.040444344 -0.034913085 -0.04313137 0.021856472 -0.027787127 -0.00625028 0.09290037
0.06913224 0.019821055 0.11292428 0.007285832 0.040846452 0.00056868943 -0.032703053 0.06179739
-0.049298808 -0.031113368 0.00048189948 0.05315365 0.0018260903 0.016757559 -0.02825404 0.04228154
0.03894972 0.05286092 0.045063563 -0.020971775 -0.03213425 -0.07554422 0.007488093 0.0074774427
-0.05620917 -0.03608255 -0.055633493 -0.028902762 0.036775514 -0.0857149 -0.10252394 -0.0320975
0.024639757 -0.028012516 -0.03218321 -0.08203057 -0.050674234 -0.13307765 0.032677986 0.05285633
-0.07279254 -0.0098135825 0.06606827 0.017142566 0.007141109 -0.009336877 0.043380186 -0.01142338
0.012246632 -0.036746852 0.076324195 -0.02053531 0.03980246 -0.017066257 0.05954517 0.053054538
0.07195931 0.025717296 0.05241225 0.024071908 0.017381586 -0.05820282 -0.0043583023 0.104377046
-0.020511601 0.086187534 0.0006887189 -0.04434019 0.022006625 -0.022242514 0.030015027 0.0065920358
-0.056236725 0.027552621 -0.025321292 0.016973028 0.024542587 0.058608156 -0.0062133726 -0.040537942

MLP1.bias f4 [50]
00000000: 11f6 a93c 0ca9 e33c e5d9 b6bb f3a6 c93c
00000010: aab5 8c3c 6e4b 1e3b 7cd7 4a3c 796e e9bb
00000020: 919b 00bc 2b48 623d 1ebf 90bc 1c94 efbb
00000030: f2ef 04bc 7145 f0bc bfb8 b7bc bb09 cb3b
00000040: bedf 093d 7638 e73c 29e3 16bc 4d3c c43c
00000050: 949b ae3c 0ef8 96bb 26f2 96bc a341 5fbc
00000060: d4cc 5cbd 99df 223d f64e 9bbb 456f cebc
00000070: dadb fbbc e856 68bb ea32 9bbc 80a8 49bd
00000080: 8eff 5a3c ba62 113d dceb 383d 9309 a23c
00000090: c947 99bc 4ea1 84bd 947a eebc 7e0a 94bc
000000a0: ac7f 823c 8279 443c 87ff 13bc 58ba 083d
000000b0: 4187 36bd f97e a3bc 0d0e b3bb 4bcc 273b
000000c0: 92e6 66bc 8bbe 353d
0.020747216 0.027790569 -0.0055801743 0.02461574 0.017176468 0.0024153846 0.012380477 -0.007123765
-0.00784959 0.055244606 -0.017669257 -0.007311357 -0.008113848 -0.029329987 -0.022426961 0.0061962283
0.033660643 0.028225165 -0.009209433 0.023954535 0.02131442 -0.004607207 -0.018426012 -0.013626489
-0.053906277 0.03976402 -0.0047396375 -0.025199542 -0.030744482 -0.003545219 -0.018945176 -0.04923296
0.013366593 0.035494544 0.045146808 0.019779956 -0.018710988 -0.06476079 -0.029111184 -0.01807141
0.01593002 0.01199186 -0.00903309 0.033380836 -0.044562582 -0.019958006 -0.0054643215 0.0025603946
-0.014093058 0.04437117

MLP3.weight f4 [50, 50]
00000000: 7b19 b43d a999 fc3d da98 503d 921c c73c
00000010: b96e 0ebe d6d7 c5bd 871f 9abb c49c 3b3e
00000020: bbed 003b 57c0 28be fe03 0bbe cf2e b53d
00000030: d7d1 e83d d4aa bd3d 11cc fbbd 20d3 2cbe
00000040: ca34 173d 9042 ed3d cbd4 b73d fb32 16be
00000050: 80c4 b6bd 0729 993d 0b7b 173e cf47 cb3d
00000060: 52f3 24be 4675 78bb ab47 ea3d 3590 b3bb
00000070: 3b65 ecbb c0e6 52be 5a18 8a3c e24f 49be
00000080: 559c 313e 8547 693d 6a18 32be 0910 9fbd
00000090: 796f 743e fee1 3ebc 3d0a 663d 61c9 73be
000000a0: 2ddc d2bd 97c4 a63b 8398 b7bd d15e 1e3e
000000b0: 5bff cf3d 5832 cebd e838 54bd da62 503d
000000c0: d1b0 893d 250e cc3d c757 663c 56d7 da3d
000000d0: 5222 1e3d 00d7 9dbd a69d 113d c446 143d
000000e0: a7e4 f93c 4314 e8bb baf1 82bc 3072 f53d
000000f0: 831c 6dbd e1ad f03d a4b2 363e fdc4 bdbd
00000100: 18f2 dfbd e889 9c3c ce5f 1ebd ba14 313d
00000110: 717b 4e3d b5d8 133e 1cfc 5cbe 3bef 953d
00000120: 480f b7bd dc87 82bd e9f6 03bd db9c 963d
00000130: 7e2d 533e 6f37 debd f39f 9c3d 283d 08bc
00000140: c6b7 f23d d9d2 a0be 332c 52be 0c4e 7abd
00000150: eea1 b43d b6bf 223e 51fd 1abe ccdc d33d
00000160: 9c42 2bbd 9184 e93d 4df6 21be 3f1d c03d
00000170: 51d7 cb3c 642b 9abc b5c5 b0bd 73ef e8bd
00000180: fb93 8dbe ea0a 123e f039 0a3e e803 c93c
00000190: 16d7 af3d e5c9 353e ec82 cabd 9670 c53d
000001a0: 71d9 b5bd ea5b 5e3e 5d0b 3c3e 4535 a8bd
000001b0: ee29 f93d 4c0e 0c3e dcf0 c03d 0f8c 153e
000001c0: 44b6 503e 951c 02bd c743 c73d 6cec d63d
000001d0: 4c47 c6bd 875b d23d 0b10 29bc d496 943d
000001e0: f730 353c b698 043e 00a7 9fbe 3c6f 76bd
000001f0: f709 943d 119d 87bd e236 e1bd 1947 45be
00000200: 383d 53be 6fab 903d 844a 1f3e 96a8 1ebe
00000210: c03b 9d3d e401 b2bd fa4a da3d 36a7 09be
00000220: 94a8 6ebc f3a4 a6bd eca0 0a3e 48c2 e83d
00000230: 965e 603d 4f4c 063e d617 023d 46fc 0b3e
00000240: 46ac febd 3b2e 013e d56a a33d 105b bfbb
00000250: 1dd5 273e 6f02 e73b 20bb e03d 9f48 f4bd
00000260: 52b8 3d3e e9ba cc3d 98f4 1fbd 8bef f4bc
00000270: 5e1b d13c df17 d6bd daa8 97be 08f0 a5bb
00000280: 732b 45be fc13 363e a5a8 a53d 7507 063d
00000290: 603d 6e3c 5581 61bd 64ae 02be e9ef 7dbe
000002a0: 9ea7 193d 85f8 8ebd ad5d 16be c12d 0e3d
000002b0: aa0c e0bd 7d4c 093e 7d1c b4bd 089f 443e
000002c0: 5553 5f3d 2aee ce3d 0c09 093e cff6 2abe
000002d0: 9dd4 2fbb 5bdc fdbd 7459 6fbe 2205 4a3e
000002e0: 55ac 5cbe 0e18 053e 351c 61be ff8e 29bd
000002f0: 28e4 01bd 9232 b8be 212c febd 293f e93d
00000300: 58f4 f63d 088a c33c ab2c 4fbb 31f4 04be
00000310: fdf6 37bd af30 c13d 616d bebd a4f8 313e
00000320: 21fa e2bd 4643 eabd 73da d5bd 3468 1dbe
00000330: 7e3d bb3d 6408 8bbe 1c10 ef3d 8ec7 aa3e
00000340: 6cff 943e 4e2b 7dbd 5999 7c3d 1dbf 1e3a
00000350: bda4 79bd 9adf cabc 4458 b53e f9b1 0bbe
00000360: b3dc d13c e8b3 b23e 1f47 033d 54f4 55be
00000370: 6d6d a93d cf5d cfbd 7d72 623e 77c0 573d
00000380: d905 dbbd b792 f0bc cd00 90be 545a 803e
00000390: 92bb 4e3d f738 81bd bfcc 98be aa89 59be
000003a0: c89d d83d 18b5 a6bd 9c49 073e 685e c5bd
000003b0: 7828 783e f107 46be 5dce 663e 50a0 85bd
000003c0: a900 813e 8eb6 da3d 8956 87be 29c8 023e
000003d0: 5a8c 153e d7ae 6d3e d335 a33e 98d0 70be
000003e0: d792 c8bd 9e23 043e f5e4 cb3b 03d5 a8bd
000003f0: b57b 68be 120c c0bc b921 b63b eb7d c1bd
0.087939225 0.12333996 0.05092702 0.024305616 -0.13909425 -0.09660308 -0.0047034654 0.1832152
0.0019672948 -0.16479622 -0.13575742 0.08846819 0.11368149 0.092610985 -0.12294782 -0.16877413
0.036915578 0.115849614 0.08976134 -0.14667885 -0.08924198 0.074785285 0.14793031 0.09925806
-0.16108444 -0.0037911697 0.11439451 -0.0054798373 -0.007214216 -0.20595837 0.016857315 -0.19659379
0.17344792 0.056952972 -0.17392126 -0.0776673 0.23870648 -0.01165056 0.056162108 -0.23807289
-0.102959014 0.0050893533 -0.08964636 0.15465857 0.10156127 -0.10068196 -0.051812083 0.050875522
0.06723178 0.09963635 0.014059014 0.10685603 0.03860695 -0.077070236 0.035550736 0.0362003
0.030504538 -0.0070824935 -0.015984405 0.1198467 -0.05788852 0.11751915 0.17841583 -0.09266088
-0.109348476 0.019108728 -0.038665585 0.043232657 0.05041069 0.14438136 -0.21580547 0.0732102
-0.089384615 -0.06373569 -0.032217894 0.073541366 0.20622823 -0.10850417 0.076476954 -0.008315362
0.11851458 -0.31410864 -0.20524673 -0.061109588 0.08819948 0.15893444 -0.15135695 0.10344848
-0.04181157 0.11402238 -0.15816613 0.09380578 0.024882944 -0.018819518 -0.086314596 -0.11373796
-0.27651963 0.14261976 0.13498664 0.024537995 0.08585946 0.17752798 -0.098882526 0.09640615
-0.08879364 0.2171475 0.1836371 -0.08213285 0.121662006 0.13677329 0.0942094 0.1460421
0.20382029 -0.03176554 0.097297244 0.10494313 -0.096815675 0.10271364 -0.010318766 0.07255331
0.011059037 0.1294888 -0.31182098 -0.060164675 0.07228463 -0.06621755 -0.10996796 -0.19265403
-0.20628822 0.07063948 0.15555769 -0.15493998 0.07677412 -0.08691767 0.10658832 -0.13442692
-0.014566559 -0.0813693 0.1353795 0.11365181 0.054777704 0.13115047 0.031761013 0.13670453
-0.12435202 0.12615292 0.07979361 -0.005839713 0.1638989 0.0070498507 0.10973191 -0.11927914
0.18527344 0.09996588 -0.039051622 -0.02989938 0.025525745 -0.10453772 -0.2962101 -0.0050640143
-0.19254856 0.17781061 0.08088807 0.032721955 0.014541 -0.05505498 -0.12761837 -0.2479855
0.037513368 -0.06980995 -0.14684172 0.034711603 -0.109399155 0.13408084 -0.08794496 0.1920129
0.05452283 0.1010402 0.13382357 -0.16695713 -0.0026829608 -0.12395545 -0.23373967 0.1972852
-0.21550114 0.12997457 -0.21983416 -0.041396137 -0.031711727 -0.35976082 -0.12410761 0.11389
0.120583236 0.02386953 -0.0031612318 -0.12983777 -0.04491328 0.09433114 -0.09298206 0.17380005
-0.110828646 -0.11438613 -0.104420565 -0.15371782 0.09142588 -0.2715484 0.116729945 0.33355373
0.2910112 -0.061808877 0.06166968 0.00060557 -0.060948122 -0.024764825 0.35418904 -0.1364211
0.025617933 0.34902883 0.03205025 -0.20893985 0.082728244 -0.101253144 0.22113986 0.052673783
-0.10694475 -0.029366834 -0.2812561 0.25068915 0.05047185 -0.06309693 -0.2984371 -0.21243921
0.105769694 -0.0814001 0.13211673 -0.09637147 0.24234188 -0.19338967 0.22539659 -0.06524718
0.25195816 0.10679351 -0.2643321 0.12771668 0.14604321 0.23211227 0.31877002 -0.23517072
-0.097936325 0.12904212 0.006222362 -0.08243754 -0.2270344 -0.023443256 0.0055582193 -0.09447845

MLP3.bias f4 [50]
00000000: afb8 1e3c 4940 2f3d 7449 b23d a97e 0a3e
00000010: e050 78bb a7b7 453d 6c21 a93d ac79 e9bd
00000020: 4f3f f5bc 9b8b 6c3d 2aed 2f3c 5695 603e
00000030: 91ae 07be ef41 93bd 8ae7 4e3c 4005 8a3d
00000040: 7fdc 443d b68f a73a de60 093e 13ac 053e
00000050: e7a1 04be b92e 5fbd 1b8c a8bd 794b d43d
00000060: a219 5f3d c891 02bd 9396 a4bc d836 8bbd
00000070: 3b4f 953d 61c5 ad3c 26ed 303c 677e b9bd
00000080: e3e6 54bb 7466 ba3d 974f 81bd 9993 de3d
00000090: 7545 283d 325b 173e cbd7 d33d ae80 0b3e
000000a0: f2cb 6fbd 60ea c63c 3b10 eb3d 7f00 d93d
000000b0: 4fa1 c5b9 d4b2 07be 9488 c8bd 7ced 02be
000000c0: e434 0d3e 00b3 37bc
0.009687587 0.042785916 0.08705416 0.1352488 -0.0037890002 0.048270848 0.08258328 -0.1140016
-0.029937414 0.057750326 0.010737697 0.21931967 -0.13250186 -0.0719031 0.012628445 0.067392826
0.048061844 0.0012783918 0.13415858 0.13053922 -0.12952386 -0.054487918 -0.08229848 0.10365958
0.054467805 -0.03187731 -0.02009133 -0.0679757 0.07290503 0.021212282 0.010798728 -0.090573125
-0.0032486252 0.09101573 -0.06314009 0.10867996 0.041081864 0.14780882 0.103438936 0.13623306
-0.058544107 0.02428168 0.11477705 0.10595798 -0.00037694952 -0.13251811 -0.09791675 -0.12785906
0.13789707 -0.0112121105

MLP4.weight f4 [7, 50]
00000000: 334e bebc 7ff5 69bd 2383 c7bd 8e08 653d
00000010: 577a 83be 7fa4 1bbe 9f63 7fbd e4a2 26bd
00000020: f94b 5e3e 3144 5fbe dce1 193e c7d8 503e
00000030: b423 febc ae67 253e 63c0 043e 9168 b3bd
00000040: a3b7 b3bd b4b7 a8be be93 eebc 5520 6a3e
00000050: e1c3 ae3d 10a3 f2bd 04c4 703e 7f97 90ba
00000060: 5eb5 9a3c 3736 743e f23d 523e dd87 d7bd
00000070: ad61 f13d eb1e babd d42b 6cbd f492 953e
00000080: 8354 193e a191 06bf 6614 1ebd 5031 79be
00000090: bed3 a5be 390d af3d 1ccf 99bd 23a7 0b3e
000000a0: a77d 89bd 1edc f8bc 5d0b 803e f0ce a73d
000000b0: fa9d cf3d 7c59 1abe 8400 2dbe 61db 6dbe
000000c0: 69ac 7bbd 1a4a 043e 25a0 afbd a029 0c3d
000000d0: f8ae 0fbe b13e 8c3e d572 40bc 1ef0 99be
000000e0: 9852 e13e 087b 43be d71c d53d dc4d 52bd
000000f0: ec7d abbb bf16 bb3d d139 c13d e435 e1bd
00000100: 31e5 78be d91c edbd 09e8 1e3d 5e40 a1be
00000110: 7b3b ab3c 3e24 d4bd d2fa ba3d 0395 2f3e
00000120: a09d 273e 9f6c 613d 9dae c83e dc2e edbd
00000130: 9d91 bc3d 63a5 7abe e808 8b3e 4f68 923d
00000140: bc7c c63d ceb4 16bd be8a 5c3e 89af 17be
00000150: 5d4c 7c3e a8b0 b73d 52bf b7be 7b86 453d
00000160: 9975 2ebd e6bf babd 1e0b 17be c7cb 853e
00000170: 4837 4a3e 5a6c 4a3e e396 cc3b 4970 6bbd
00000180: e635 3fbe 3316 b4be 3f64 f63d 34a6 56be
00000190: 0cbc 7d3e 0658 cb3d ed75 553d 7da9 cd3d
000001a0: feef 88bd 5985 aabe 00b0 23be 903c b4bc
000001b0: 264f 7d3e f6a6 9e3d 4194 283e 821c 0f3e
000001c0: f05b 20be 3f67 273e 3ca3 abbe 9d2c 9e3e
000001d0: 2aff 383e f2d9 3bbd c348 343e d9a0 a53c
000001e0: 37fd 043e 983a 773e aaac 803e b854 46be
000001f0: f465 c2bd d2b8 a7bd c8ae a6bb bbe0 ffbd
00000200: f643 b1bc 0c41 283e d4da 043d 970d 133e
00000210: fb69 513e faa5 e83c e76a 983e 2113 9abe
00000220: b0e1 d2be 4137 0bbd e393 efbd 3b60 acba
00000230: dab0 9ebe e3f8 203e 5b55 083e 5010 063d
00000240: f3ce d1bd 200a b83d 8594 84be 992d c3bb
00000250: 7331 b13e 45e3 003e f412 733e 25ed 1f3e
00000260: 8280 04be 05da 673e 6a93 bdbe 4e80 2bbe
00000270: 8661 4d3e d42f 7bbc 19aa 1dbe 4640 a23e
00000280: 3517 8e3e 81b1 153d 68c3 9bbe 568f 453d
00000290: 77d8 8abe c0ee 0fbe 8f67 ef3d a0b1 45bc
000002a0: 06c5 28be 3778 433e 922e acbc 1bb2 8dbe
000002b0: b177 c23e 45f3 bfbe 6383 103d 4f93 6f3e
000002c0: 74bb 8b3d a864 1fbe befb b23d da50 00be
000002d0: d793 a8be 435f 65be 51e3 48bd eb2f ae3d
000002e0: 9cf7 6cbd 8d69 bbbd 4ade 933e add8 653e
000002f0: 4753 1bbe fc51 183e b70e a3be d056 2b3e
00000300: ba87 a83c 0c7e 19bc 6a6a 223c 427f 17bd
00000310: 18dc 983e 2b62 a63e 099e 003e aa69 7d3d
00000320: 0bd0 f43a ba1d 3f3e 136f 233e bbdf 1e3e
00000330: e062 bfbe 68cd 14be 297e b23e 5fd5 58be
00000340: aee5 23be 8a1d 01be 11db edbc b532 363e
00000350: 625c 74be bf36 d13d 1c29 c3bd f24b 1c3c
00000360: 8c78 76bc c756 8fbe f462 e33d 9435 3fbe
00000370: 3007 4d3d c443 c9bc 468d cf3d f7e3 2cbe
00000380: 2c7a 0f3e 4b0b 26be b632 033e 7c5c 6fbe
00000390: fb1b 5a3e f5a9 a9be d47b 4dbe 5baa 8ebd
000003a0: 3a08 93bb d20c 7fbe 2b4e 743e 22a1 31be
000003b0: c9e1 80be f7d8 283e b947 8f3d 4300 433e
000003c0: 9297 a43d 70cb dfbd 013b 463e 1b75 cf3c
000003d0: 25ae 613e 2649 bebe 33c4 0f3e a011 833e
000003e0: a300 c73d 090c 8c3d 0e6a 72be 388f 5b3e
000003f0: 1ebd 5f3e 61c2 0bbe 578d 7cbe 740c 8abe
-0.023230648 -0.05711889 -0.09741809 0.05591636 -0.25679275 -0.15199469 -0.062350865 -0.04068269
0.21708669 -0.21803357 0.15027565 0.20395194 -0.031022884 0.16152832 0.12964015 -0.08760179
-0.0877526 -0.32952654 -0.029123183 0.22863896 0.08533455 -0.11847508 0.23512274 -0.0011031477
0.01888531 0.23848806 0.20531443 -0.10523961 0.11786208 -0.090879284 -0.057658985 0.2921368
0.14973645 -0.5256596 -0.038593672 -0.24335217 -0.3238811 0.08547444 -0.07510206 0.13637976
-0.067134194 -0.030378398 0.2500867 0.08193767 0.101375535 -0.15073198 -0.16894728 -0.23228218
-0.06144372 0.12918893 -0.08575467 0.034219384 -0.14031589 0.2739158 -0.011746128 -0.30066007
0.44008327 -0.19089901 0.104058914 -0.051343784 -0.005233517 0.09135198 0.09434856 -0.10996607
-0.2430618 -0.11577768 0.038795505 -0.3149442 0.020902386 -0.10358475 0.091298714 0.17146687
0.16368723 0.05503523 0.3919572 -0.11581203 0.09207461 -0.24477153 0.27155232 0.071488015
0.0969176 -0.036793523 0.21537301 -0.14813055 0.24638505 0.089692414 -0.35888153 0.048223954
-0.04259262 -0.09118633 -0.14750335 0.26132032 0.1974765 0.19767895 0.006243573 -0.05748013
-0.18672904 -0.35173187 0.12030839 -0.20961839 0.24778765 0.099288985 0.052114416 0.10042093
-0.066864 -0.3330486 -0.15985107 -0.022001535 0.24737224 0.07746689 0.16462804 0.13975719
-0.15660071 0.16347979 -0.33522975 0.30893412 0.18066087 -0.045862146 0.17605881 0.0202183
0.12987219 0.24143445 0.25131732 -0.19368255 -0.09492102 -0.081895486 -0.0050867535 -0.12494036
-0.021638852 0.16431063 0.032435253 0.14360653 0.20450585 0.028399456 0.2976906 -0.3009272
-0.4118781 -0.03398824 -0.11698129 -0.0013151238 -0.30994302 0.15719943 0.1331381 0.0327304
-0.102445506 0.08986306 -0.2589456 -0.0059563634 0.3460804 0.12586696 0.23737699 0.15617807
-0.12939647 0.22641762 -0.3702653 -0.16748163 0.20056733 -0.015331227 -0.15396918 0.31689662
0.2775208 0.036546234 -0.3042252 0.0482324 -0.27118275 -0.1405592 0.11689674 -0.012066275
-0.16481408 0.19088827 -0.0210183 -0.27674946 0.37981942 -0.37490287 0.03528155 0.23396038
0.06822863 -0.15565741 0.08739422 -0.12530842 -0.32925293 -0.2239962 -0.04904491 0.085052334
-0.057853326 -0.091509916 0.2888053 0.22445937 -0.15168487 0.14875025 -0.31847164 0.16732335
0.020572532 -0.009368431 0.009913066 -0.036986597 0.29855418 0.3249677 0.12560286 0.061868347
0.0018677724 0.18663684 0.1596034 0.15515034 -0.37380123 -0.14531481 0.34861878 -0.21175145
-0.16005585 -0.12608925 -0.029035123 0.1779278 -0.23863366 0.1021552 -0.09529325 0.009539591
-0.015043389 -0.27995893 0.11102858 -0.18672782 0.050055683 -0.024568446 0.10134368 -0.16883837
0.14011449 -0.16215245 0.12812313 -0.23375124 0.21299736 -0.3313748 -0.20066768 -0.069660865
-0.0044870647 -0.24907234 0.23857944 -0.17346624 -0.2517226 0.16489016 0.06996102 0.19043069
0.08036722 -0.109274745 0.19358446 0.025324395 0.22039087 -0.37165183 0.14039688 0.25599384
0.09716918 0.06838233 -0.23673269 0.21441352 0.21849486 -0.13648368 -0.24663292 -0.26962626

MLP4.bias f4 [7]
00000000: 6ae1 09bd 0d1c 1bbd 455d 103c e4d3 c0bd
00000010: 8b7f 223e e0ee 943d 8c90 60bd
-0.033662237 -0.03786855 0.0088113 -0.09415415 0.15868966 0.07272124 -0.05482535
