DQN/final_dqn_against_negaMax2/DQN_AgainstNegaMax_Epochs30000.pth (torch, 493315 bytes, 12 tensors)

conv1.weight f4 [32, 1, 5, 5]
0	0x3e159957	0.14609276
1	0x3e57344a	0.2101604
2	0xbd9277a2	-0.071517244
3	0x3e82da36	0.25557107
4	0xbdbea7da	-0.09309359
5	0x3d9cdb3d	0.07659004
6	0xbd7a6d67	-0.06113949
7	0x3dac01cf	0.083987825
8	0x3e5c7fbc	0.21533102
9	0xbeb44ecf	-0.35216376
10	0x3e41457c	0.18874162
11	0x3d895fe6	0.06707744
12	0x3e4de247	0.20105849
13	0x3e23dd4c	0.16002387
14	0x3e9d408e	0.30713314
15	0xbd2dbef9	-0.042418454
16	0x3ea44424	0.32083237
17	0x3cd3c2a1	0.025849642
18	0x3ccbff38	0.024901971
19	0x3def5030	0.116852164
20	0xbd9f6d05	-0.07784466
21	0xbd9eede6	-0.07760219
22	0xbe391f9d	-0.18078466
23	0x3e6716b5	0.22567256
24	0xbe8ac966	-0.2710678
25	0xbd2b7d40	-0.041867495
26	0xbd670a4d	-0.056406308
27	0xbdbd0821	-0.09230066
28	0x3d1fc374	0.039004758
29	0xbe42510e	-0.18976232
30	0x3e24a259	0.16077556
31	0xbe926d07	-0.28598806
32	0x3e1e9d09	0.15489592
33	0xbaeb35a9	-0.0017945069
34	0xbe47c3cd	-0.19508286
35	0x3e04cbd9	0.12968387
36	0x3e084552	0.13307694
37	0x3ea375db	0.31925854
38	0xbb04f075	-0.0020284925
39	0xbdb2240b	-0.08698281
40	0x3e24a6da	0.16079274
41	0xbe0a1599	-0.13484801
42	0x3dacc818	0.08436602
43	0x3e79f925	0.24411447
44	0x3e7a4d6a	0.24443594
45	0xbde1c8f8	-0.1102466
46	0x3d87d7c2	0.066329494
47	0x3dc6ad4c	0.097010225
48	0x3e7874cf	0.24263309
49	0xbe4a43f2	-0.19752482
50	0xbe860e29	-0.26182678
51	0xbe1092dd	-0.14118524
52	0xbe1d0ee9	-0.15337719
53	0x3ec2c15e	0.38038152
54	0xbda057be	-0.078292355
55	0x3e22baa2	0.15891507
56	0x3cb806c4	0.022464164
57	0x3d70d36f	0.05879539
58	0x3e8a7307	0.27040884
59	0xbe6a0eb6	-0.22857174
60	0x3d27a6e0	0.04093063
61	0xbe114e71	-0.1419008
62	0x3deacc27	0.1146472
63	0x3c3457a0	0.01100722
64	0x3e714a6c	0.23563546
65	0xbe1e4bf9	-0.15458669
66	0x3e858678	0.26079154
67	0xbe839c78	-0.25705314
68	0xbe65d51b	-0.22444575
69	0xbdbf7453	-0.09348359
70	0x3e96fc7d	0.29489508
71	0x3e001a06	0.12509927
72	0x3e8bef68	0.2733109
73	0xbe839f55	-0.25707498
74	0xbea1ac07	-0.3157656
75	0xbda9fdd4	-0.08300367
76	0xbe09a856	-0.13443121
77	0x3d6682be	0.05627703
78	0x3b9292f4	0.0044730846
79	0x3e2bc022	0.16772512
80	0xbdaa8f58	-0.08328122
81	0xbe0c1e36	-0.136834
82	0x3e028a88	0.12748158
83	0x3c44f2a2	0.012020739
84	0x3e3d87e7	0.18508874
85	0xbe1e5d3e	-0.15465257
86	0x3db2ba06	0.087268874
87	0xbe853a99	-0.2602127
88	0xbe7cb8bb	-0.24679844
89	0x3e4a50d5	0.19757397
90	0x3e12f6ff	0.14352034
91	0x3ce1227c	0.027482264
92	0x3da35b6a	0.0797642
93	0x3ea6fcfb	0.32614884
94	0xbe571b50	-0.21006513
95	0xbe2a4de5	-0.16631277
96	0x3ea4f9f8	0.3222196
97	0xbdb4189b	-0.087937556
98	0xbe500aa9	-0.20316567
99	0xbed33b9a	-0.4125641
100	0xbe4a3873	-0.19748096
101	0x3c5bcde4	0.013415787
102	0xbd669bc9	-0.056300912
103	0xbe0d73c9	-0.138137
104	0xbd13639c	-0.035983667
105	0xbe253df7	-0.16136919
106	0xbde4fea9	-0.11181385
107	0xbd36623d	-0.04452728
108	0xbe788474	-0.24269277
109	0xbe852910	-0.2600789
110	0x3ea2c1ed	0.3178858
111	0x3e418acd	0.18900605
112	0x3e4e93ab	0.20173518
113	0xbe8c1f4e	-0.27367634
114	0xbe3b0357	-0.18262993
115	0xbe061ee7	-0.13097726
116	0xbd151fda	-0.03640733
117	0xbea79679	-0.3273199
118	0xbdbb3119	-0.09140224
119	0xbe120beb	-0.14262359
120	0x3e2492dd	0.16071649
121	0xbdd43ab5	-0.1036276
122	0xbc7915c7	-0.015202946
123	0xbe0ea93f	-0.1393175
124	0xbe8d12e0	-0.27553463
125	0xbde23673	-0.110455416
126	0x3caecfdb	0.021339348
127	0x3c271d3f	0.010199844
128	0x3e1fb956	0.15598044
129	0xbe867049	-0.26257542
130	0x3e0e15d6	0.13875517
131	0x3ce240d6	0.027618807
132	0xbe92414c	-0.28565443
133	0x3e88a608	0.26689172
134	0xbbd50249	-0.0065005166
135	0xbd000c64	-0.031261817
136	0xbe6be5e1	-0.2303691
137	0xbe7441cc	-0.23853225
138	0x3cfdd4aa	0.030985195
139	0xbce4822a	-0.027894098
140	0x3dfb4eba	0.12270875
141	0xbecccd61	-0.40000442
142	0x3e37fc31	0.17967297
143	0xbe818a74	-0.25300944
144	0xbe340f41	-0.17583944
145	0x3d65adbc	0.05607389
146	0x3e890aad	0.26765957
147	0x3e0e4f95	0.13897546
148	0x3e55396f	0.2082269
149	0xbe078c48	-0.13237107
150	0x3d7efca4	0.062252656
151	0xbc572158	-0.013130508
152	0x3d4932ff	0.0491209
153	0xbd60773a	-0.054801203
154	0x3ea950cb	0.33069453
155	0xbe995b80	-0.2995262
156	0x3e296c8f	0.16545318
157	0x3e9554ef	0.29166362
158	0x3e0c67fb	0.1371154
159	0xbe8c162b	-0.27360663
160	0x3e9c5634	0.30534518
161	0x3dc2dd89	0.09514911
162	0x3e53fca7	0.20701848
163	0xbe9c232d	-0.30495587
164	0x3df0b354	0.11752954
165	0xbd6ef7dd	-0.05834185
166	0xbe14b3d1	-0.1452172
167	0x3ec48f38	0.38390517
168	0xbd00f8e6	-0.031487368
169	0xbddb86fe	-0.10719107
170	0xbddc8bec	-0.107688755
171	0xbe1c0992	-0.15238026
172	0x3e6a4518	0.2287792
173	0xbdedc733	-0.1161026
174	0xbe7d3fad	-0.24731322
175	0xbd248977	-0.04017016
176	0xbe7db5d0	-0.24776387
177	0x3d96d6d5	0.07365195
178	0x3e64c774	0.2234171
179	0xbdf71de2	-0.120662466
180	0x3cf80bf3	0.030279135
181	0x3e58eafb	0.21183388
182	0x3dcc2e8f	0.09969818
183	0xbccdf503	-0.025141245
184	0x3e10aa11	0.14127375
185	0x3dd54826	0.10414152
186	0x3e1a88e4	0.15091282
187	0xbd06ff37	-0.032958236
188	0xbdaa8121	-0.08325411
189	0x3d52962a	0.05141274
190	0xbe411dcf	-0.18859027
191	0xbdd3dd6f	-0.103449695
192	0x3e59a80c	0.21255511
193	0x3e5aae55	0.21355565
194	0xbdb0884e	-0.08619748
195	0x3c9c2e81	0.019065144
196	0xbd43bf04	-0.04778959
197	0x3de82c7f	0.11336612
198	0x3db6cafd	0.08925436
199	0x3d8cbc2d	0.06871829
200	0xbe171cf6	-0.14757141
201	0x3dc986de	0.09840177
202	0x3dee4665	0.116345204
203	0xbc83a075	-0.016067723
204	0xbda4320f	-0.080173604
205	0xbdfd42dd	-0.12366269
206	0xbe8a886e	-0.27057213
207	0xbe96fe86	-0.2949106
208	0xbdeb5779	-0.114912935
209	0x3dd61320	0.104528666
210	0x3e9bea7c	0.30452335
211	0xbbe103f1	-0.006866925
212	0xbe6a1f10	-0.22863412
213	0xbdf67d8c	-0.12035665
214	0xbe1a70dd	-0.15082116
215	0x3ea876a0	0.32903004
216	0xbca85ecf	-0.02055302
217	0xbdc2eff2	-0.09518422
218	0x3e5310db	0.20611899
219	0xbdc48466	-0.095955655
220	0xbe877c6d	-0.26462117
221	0x3e0bbd93	0.13646536
222	0xbdf8d125	-0.12149266
223	0xbdab205c	-0.083557814
224	0xbe59cb75	-0.21269019
225	0x3dcbce9b	0.09951516
226	0x3e6b7c68	0.22996676
227	0x3de05529	0.10953743
228	0xbe748b85	-0.23881347
229	0xbdfac529	-0.122446366
230	0xbeb73306	-0.35781115
231	0x3e509d78	0.2037257
232	0x3de2d79e	0.11076282
233	0x3e7ecbbf	0.2488241
234	0x3de151b2	0.1100191
235	0x3e12ef2c	0.1434905
236	0xbddb698e	-0.10713492
237	0xbeaac42b	-0.3335279
238	0xbe166987	-0.14688693
239	0xbe9acdba	-0.30235082
240	0x3e6c6c02	0.23088077
241	0xbbd407d2	-0.006470659
242	0xbe015cd7	-0.12633072
243	0xbdda008a	-0.10644634
244	0x3d0d5b43	0.034510862
245	0xbd59e93a	-0.053200938
246	0xbd5e14c4	-0.054219022
247	0x3ddc6d5d	0.10763047
248	0xbdb2aa71	-0.08723915
249	0x3e193d44	0.14964777
250	0x3cbf2135	0.023331264
251	0xbe94f1f1	-0.29090837
252	0xbcb2a0fb	-0.021805277
253	0xbe7972c6	-0.24360189
254	0xbdbc52f1	-0.09195507
255	0xbe5e313c	-0.21698469

conv1.bias f4 [32]
0	0xbb85553c	-0.0040689986
1	0x3e0e3bd4	0.1389001
2	0xbd916b8b	-0.0710059
3	0x3e29f0f5	0.16595824
4	0xbd5b476e	-0.053534918
5	0xbe199865	-0.1499954
6	0x3d8e9efb	0.06963917
7	0x3e06f6a6	0.13180026
8	0x3e6a8d94	0.2290557
9	0xbdeec00c	-0.11657724
10	0xbd96eb57	-0.07369106
11	0x3d466f9b	0.04844628
12	0x3e0de5d2	0.138572
13	0x3e10b423	0.14131217
14	0x3e411a4d	0.18857689
15	0xbcd955bc	-0.02653014
16	0x3e29565b	0.16536848
17	0x3e4397fb	0.19100945
18	0xbbd8cb98	-0.006616067
19	0x3e421a3f	0.18955325
20	0x3defbc1f	0.11705803
21	0x3e3c6cba	0.18400851
22	0xbe08cbdb	-0.13359015
23	0xbd37adeb	-0.044843595
24	0xbd52d92b	-0.05147664
25	0x3cfd2d4b	0.030905386
26	0x3e59fcd3	0.21287851
27	0xbdb1916e	-0.08670317
28	0x3e3a138e	0.18171522
29	0xbd987011	-0.0744325
30	0x3e64f9d4	0.22360927
31	0x3c94cc4e	0.018163826

conv2.weight f4 [32, 32, 5, 5]
0	0xbd4f8d0d	-0.050671626
1	0xbc81853b	-0.0158106
2	0xbd9f5b5f	-0.077810995
3	0x3d5933a8	0.05302778
4	0xbd8b2aed	-0.06795297
5	0x3d9bf815	0.07615677
6	0xbd4d7aa9	-0.050165806
7	0xbbbbb1eb	-0.0057279966
8	0xbbef1f01	-0.007297397
9	0xbdb5828e	-0.08862792
10	0xbb8cf0e0	-0.0043011755
11	0xbd862e56	-0.06551807
12	0x3cf2ffd7	0.02966301
13	0xbdb0748a	-0.08615978
14	0x3e09f444	0.13472086
15	0xbc9e1c80	-0.0193007
16	0x3c3af856	0.011411747
17	0xbd947059	-0.07247991
18	0x3bce7892	0.006300994
19	0x3d08cb32	0.033396907
20	0xbd6d0dfd	-0.05787467
21	0x3cdd9b74	0.027051665
22	0xbdd98a5f	-0.10622095
23	0x3c982fdf	0.018577514
24	0xbca9ba5c	-0.020718746
25	0xbbac1683	-0.005251707
26	0x3cf681a8	0.030091122
27	0x3cb286ce	0.021792796
28	0xbcbc7eab	-0.023009619
29	0xbd144031	-0.03619403
30	0x3ca856aa	0.020549137
31	0xbd6dae33	-0.058027457
32	0x3ce08743	0.027408248
33	0xbadc386a	-0.0016801481
34	0x3d9a8a30	0.075458884
35	0x3d2c188d	0.0420156
36	0xbcb0095b	-0.021488836
37	0xbd2f052e	-0.04272955
38	0xbd4fa8d3	-0.050698113
39	0x3dbfe82f	0.093704574
40	0xbd20c120	-0.03924668
41	0xbd29a7ef	-0.04141992
42	0xbd379913	-0.044823717
43	0xbd0f1e41	-0.03494096
44	0xbbbe9f7e	-0.005817353
45	0x3d101902	0.0351801
46	0x3d231cdf	0.039822455
47	0xbd9cddcd	-0.07659493
48	0x3d4654e3	0.048420798
49	0xbd7da010	-0.061920226
50	0x3ce5aed4	0.028037466
51	0x3d7dafd0	0.061935246
52	0x3de74c7e	0.112938866
53	0x3cd0a94b	0.02547135
54	0x3d36a123	0.044587266
55	0xbd341779	-0.043967698
56	0xbdc1acd6	-0.09456794
57	0xbda698d8	-0.081346214
58	0xbd219ec8	-0.039458066
59	0xbe171cca	-0.14757076
60	0x3d088fc7	0.03334024
61	0x3d21efc6	0.039535306
62	0x3d213ba4	0.03936352
63	0x3cb6e237	0.022324665
64	0x3d82cb7a	0.06386466
65	0x3d056ebb	0.032576304
66	0xbd776e52	-0.060407944
67	0xbd568008	-0.052368194
68	0x3d613fa7	0.054992344
69	0x3d90224b	0.07037791
70	0x3dd34ebd	0.103177525
71	0xbc9c594e	-0.019085553
72	0xbdf6aae9	-0.12044317
73	0x3c99f996	0.01879577
74	0x3c0acab5	0.008471181
75	0x3d29c38c	0.041446254
76	0xbbd9ff95	-0.006652782
77	0xbce0e6be	-0.027453776
78	0x3cc38bef	0.023870436
79	0xbdf8a473	-0.12140741
80	0x3dfc6d98	0.12325591
81	0x3d82ae78	0.063809335
82	0x3da77950	0.081774354
83	0x3cc96ef6	0.024589043
84	0xbc2fc2e4	-0.010727618
85	0x3d320984	0.043466106
86	0x3bb1a19e	0.0054208776
87	0x3c362633	0.011117506
88	0xbc350e95	-0.01105084
89	0xbd9417c2	-0.07231094
90	0xbcc57745	-0.024104724
91	0xbb24fda0	-0.0025175586
92	0x3d94a2a0	0.07257581
93	0xbd802f47	-0.062590174
94	0x3d998a84	0.07497123
95	0x3d5fa2aa	0.054598488
96	0x3cb35642	0.021891717
97	0x3b3ab877	0.0028491297
98	0x3dfd26a0	0.12360883
99	0xbc3e6c33	-0.011622476
100	0xbd8dcda7	-0.06923991
101	0xbd7b6425	-0.061374802
102	0xbd1ef43e	-0.038807146
103	0xbdd9b736	-0.10630648
104	0x3c7ae921	0.015314371
105	0x3e6f1145	0.23346432
106	0x3c9b21d7	0.018937035
107	0x3c8ec242	0.017426614
108	0xbcbf8e51	-0.023383291
109	0xbdf39113	-0.11892905
110	0x3cbd8f74	0.023139693
111	0x3df6b66c	0.12046513
112	0x3dd1002b	0.1020511
113	0x3cbde569	0.02318068
114	0x3d9132af	0.07089745
115	0xbdd39897	-0.103318386
116	0x3c38900f	0.011264815
117	0x3d9ac784	0.07557586
118	0xbd1364d1	-0.035984818
119	0xbd271084	-0.040787235
120	0x3e1d6d36	0.15373692
121	0x3d490fa9	0.0490872
122	0x3e343ad9	0.17600574
123	0x3db8edd4	0.09029737
124	0x3cef7d86	0.029234659
125	0x3d089979	0.033349488
126	0x3df29e93	0.11846652
127	0xbd2a85e5	-0.041631598
128	0xbd11b0d1	-0.035569016
129	0x3d1a98ae	0.037743263
130	0x3bb864e7	0.005627263
131	0x3c8fc399	0.017549323
132	0x3d2b4606	0.041814826
133	0xbd8023f1	-0.06256855
134	0x3d853335	0.065039076
135	0x3d0054f9	0.031331036
136	0x3d7bc932	0.06147117
137	0x3b0e6ae1	0.0021731185
138	0x3df6391e	0.12022613
139	0xbd331a5d	-0.043726314
140	0xbd878cfc	-0.066186875
141	0x3e031a9a	0.12803116
142	0x3d839778	0.06425375
143	0x3c04aba1	0.00809756
144	0xbd95e985	-0.07319931
145	0xbc8edba1	-0.017438712
146	0x3ce58ef4	0.028022267
147	0x3e0180e8	0.1264683
148	0x3c7bf664	0.015378568
149	0x3ca5a62d	0.02022084
150	0x3db4a73e	0.088209614
151	0x3cad279a	0.021137048
152	0x3ccf8d42	0.025335912
153	0xbd886ff1	-0.06661976
154	0xbd0d0fe3	-0.03443898
155	0x3dc66e4a	0.09689005
156	0xbcec4c1d	-0.028844887
157	0x3d5acb04	0.053416267
158	0xbcf5db97	-0.030011935
159	0x3c8f4e93	0.017493522
160	0x3c847fb8	0.016174182
161	0xbc1ed84f	-0.009695127
162	0x3d86a94e	0.06575261
163	0x3d13d574	0.036092237
164	0x3b4dd4fa	0.0031407462
165	0xbc954421	-0.018220963
166	0xbcbe249a	-0.023210812
167	0xbe08e9b2	-0.13370398
168	0x3d65ed09	0.056134257
169	0xbcdc4eb0	-0.02689299
170	0x3ced0e04	0.028937347
171	0xbd02dca4	-0.0319487
172	0xbbfe942b	-0.007769128
173	0xbd443a87	-0.04790738
174	0x3daedb06	0.08537869
175	0xbcf93a03	-0.03042317
176	0xbd5f5247	-0.054521825
177	0xbbeac9be	-0.007165163
178	0x3d203d10	0.039120734
179	0xbdc60843	-0.096695445
180	0xbd33ad12	-0.043866225
181	0x3d248aee	0.040171556
182	0xbac81c23	-0.0015267174
183	0x3d65be95	0.056089956
184	0xbcbfaf53	-0.02339903
185	0x3c860953	0.016361868
186	0x3c367c3b	0.011138017
187	0xbc6a05d2	-0.014283614
188	0xbd7bd103	-0.061478626
189	0x3c8d06e5	0.017215202
190	0x3cc86ece	0.024466898
191	0xbd995b59	-0.07488126
192	0x3d9d7c43	0.07689717
193	0xbda65716	-0.08122079
194	0x3d759c00	0.059963226
195	0xbd0b8b57	-0.03406843
196	0x3cc47492	0.023981366
197	0xbdb7b1d2	-0.089694634
198	0xbd22d7d9	-0.03975663
199	0xbdbce638	-0.09223598
200	0x3cc8d82c	0.024517141
201	0xbced8acd	-0.02899685
202	0xbd23eb64	-0.040019408
203	0x3d1d9c6c	0.038479254
204	0xbd94d807	-0.072677664
205	0x3d4ed826	0.050499104
206	0x3ce92245	0.028458724
207	0x3ca0108e	0.019539144
208	0x3c92ead2	0.017934237
209	0x3d15e30b	0.03659348
210	0xbd024832	-0.031807132
211	0xbb9033b0	-0.004400693
212	0x3d34239b	0.04397927
213	0xbc124ca6	-0.008929407
214	0x3cc69887	0.024242653
215	0x3d242ca4	0.040081635
216	0x3c0f2ab3	0.008738208
217	0x3d36fa00	0.044672012
218	0x3d399bd5	0.04531463
219	0x3ca94b1f	0.020665703
220	0x3c733a1c	0.014845397
221	0x3da9d63f	0.08292817
222	0x3d83c69d	0.06434367
223	0x3dc4b098	0.09603995
224	0x3d4f9c6c	0.050686285
225	0x3d8771bf	0.06613492
226	0x3bbc5762	0.0057477215
227	0xbd3b87b3	-0.04578371
228	0xbdb396f1	-0.08769024
229	0x3d031c4a	0.0320094
230	0x3b9036c8	0.0044010617
231	0x3d98ab7e	0.074545845
232	0xbd266406	-0.040622734
233	0x3d84780b	0.06468209
234	0xbcf51e4f	-0.029921679
235	0xbdcd70c2	-0.100312725
236	0xbceaa45e	-0.02864283
237	0x3d18d11d	0.0373088
238	0xbd6e4d0a	-0.05817894
239	0x3c0b1c87	0.008490688
240	0x3df240aa	0.1182874
241	0xbd26130e	-0.040545516
242	0x3c2fc32e	0.010727687
243	0x3d62ad57	0.05534109
244	0x3d0469b3	0.032327365
245	0xbcacb3ac	-0.021081768
246	0x3c79a77f	0.015237688
247	0x3b52daeb	0.0032173942
248	0x3c17a57d	0.009255764
249	0x3d5f00af	0.05444401
250	0x3aa07faf	0.0012245084
251	0xbdff4964	-0.1246517
252	0xbcc6792c	-0.024227701
253	0xbdbe434b	-0.09290179
254	0x3d53c348	0.051699907
255	0xbd0d21e9	-0.034456167

conv2.bias f4 [32]
0	0x3c00e774	0.007867683
1	0x3c952d5c	0.018210106
2	0xbd094bf2	-0.033519693
3	0x3d09c611	0.033636156
4	0x3d552759	0.052039478
5	0x3d4b039e	0.049563996
6	0x3cffd8a7	0.031231238
7	0xbbed9f2e	-0.0072516417
8	0x3c916e1e	0.017752703
9	0xbd36d8f0	-0.04464048
10	0x3bf99280	0.007616341
11	0xbd3d103f	-0.04615807
12	0x3d0aa458	0.033848137
13	0x3d309c52	0.04311783
14	0x3d1d6b0e	0.038432173
15	0x3cc32a9f	0.023824034
16	0xbce7ae00	-0.028281212
17	0x3ce4710f	0.027885942
18	0x3d3af0f1	0.045639936
19	0xbc4fa19f	-0.012672811
20	0xbcec6a20	-0.028859198
21	0x3c6c28d8	0.014414035
22	0xbce4351f	-0.027857361
23	0xbd211eee	-0.039336137
24	0xbb9c3e74	-0.004768187
25	0x3cf6fcd1	0.03014985
26	0x3c3c2d46	0.011485403
27	0x3cc79e68	0.024367526
28	0x3d409302	0.047015198
29	0x3c48b2e1	0.012249679
30	0x3b9e078e	0.004822678
31	0xbd56bb07	-0.052424457

conv3.weight f4 [32, 32, 5, 5]
0	0x3c1ecc39	0.009692245
1	0x3d0d9663	0.034567248
2	0xbc1ef0da	-0.009700978
3	0xbc8d5c39	-0.01725589
4	0x3cb749b9	0.02237402
5	0x3d060235	0.03271695
6	0x3c828afa	0.01593541
7	0xbcc8e7ae	-0.024524536
8	0xba64c21d	-0.0008726435
9	0xbc177f6d	-0.009246689
10	0x3baf7f90	0.005355783
11	0x39c46e78	0.0003746634
12	0x3cc244e8	0.023714498
13	0x3dcb5ee5	0.09930209
14	0xbd4f21a6	-0.0505692
15	0x3b48042b	0.0030520062
16	0x3d178ad9	0.03699765
17	0xbd9e91d1	-0.07742656
18	0x3e20e76d	0.15713282
19	0x3da390d8	0.07986611
20	0x3de58a12	0.112079754
21	0xbd241380	-0.04005766
22	0x3e0bb234	0.13642198
23	0xbddad36c	-0.10684857
24	0x3daec183	0.08533003
25	0x3d4d2073	0.050079774
26	0x3c9fb3a4	0.019494839
27	0x3ca9cadc	0.020726614
28	0x3b299268	0.0025874618
29	0x3c5b39a8	0.013380446
30	0x3ca02b4c	0.019551896
31	0xbc02ea28	-0.0079903975
32	0x3dcdee50	0.1005522
33	0x3c1e79d2	0.009672599
34	0x3d84f94c	0.06492862
35	0x3b9918d2	0.0046721483
36	0xbd02bc1f	-0.031917688
37	0x3daa2001	0.083068855
38	0x3c21d264	0.009876821
39	0x3dac012f	0.08398663
40	0xbc99e1b7	-0.018784387
41	0xbd7fb37e	-0.062427036
42	0x3d980ba5	0.07424096
43	0xbcb2916f	-0.021797864
44	0xbe401281	-0.18757059
45	0xbca4d8f1	-0.020122977
46	0x3cbfe521	0.023424687
47	0xbe0b9159	-0.13629664
48	0x3c175ac3	0.009237948
49	0xbdc324be	-0.095284924
50	0x3d8ce84a	0.06880243
51	0x3c8d5440	0.017252088
52	0xbcdb549d	-0.026773745
53	0x3b94691b	0.004529131
54	0x3b594199	0.0033150672
55	0x3b9be254	0.004757205
56	0xbd03ceeb	-0.032179754
57	0x3cbb7367	0.022882177
58	0x3cecb832	0.028896425
59	0x3cac7c62	0.021055404
60	0xbd90f75f	-0.07078432
61	0xbda8ad3b	-0.08236166
62	0x3cd99463	0.026560014
63	0x3dc37acb	0.09544905
64	0x3d8b09fc	0.06789014
65	0x3a404530	0.00073345285
66	0x3cf20c45	0.029546866
67	0xbc6f89aa	-0.014620224
68	0xbccc0ae4	-0.024907537
69	0xbdbedf71	-0.09319962
70	0xbb5a2ea5	-0.0033291962
71	0xbc8705c4	-0.016482241
72	0xbcae8ccb	-0.02130737
73	0xbc23a84a	-0.009988854
74	0xbd556d9d	-0.05210649
75	0xbd9263db	-0.07147952
76	0x3d7597c2	0.05995918
77	0xbca0b019	-0.01961522
78	0xbd3b8642	-0.045782335
79	0xbe02d9ad	-0.12778349
80	0xbd35305e	-0.04423558
81	0xbddc5f2a	-0.107603386
82	0x3aad4b93	0.0013221375
83	0xbc14e819	-0.0090885395
84	0xbcfe90b2	-0.031074855
85	0x3d3e2bfd	0.04642867
86	0xbd075615	-0.03304108
87	0x3d3ffbff	0.04687118
88	0xbd2eafcd	-0.042648125
89	0xbb5184eb	-0.0031970094
90	0x3de18bcb	0.110129915
91	0xb9ad18ee	-0.00033015705
92	0x3d2188b1	0.039437
93	0x3e2fcaeb	0.17167251
94	0xbd54ea3c	-0.051981196
95	0x3c7903fd	0.015198705
96	0xbbee2f9d	-0.0072688595
97	0xbd9c2ab9	-0.07625336
98	0x3dd852f8	0.105627
99	0xbd88784b	-0.06663569
100	0xbd79d2aa	-0.06099192
101	0xbbbeae58	-0.0058191232
102	0xbc809f19	-0.015700864
103	0xbb1f2afa	-0.002428709
104	0x3bd1c600	0.0064017773
105	0xbc407652	-0.01174696
106	0x3ca43625	0.02004535
107	0xbcbe0f18	-0.023200557
108	0xbd8d3953	-0.06895699
109	0xbc417c1e	-0.011809377
110	0xbcd00f0d	-0.025397802
111	0xbc23d86c	-0.010000329
112	0x3d89463c	0.06702849
113	0x3b77d754	0.0037817555
114	0x3d10560b	0.035238307
115	0x3d6b32ac	0.05742137
116	0x3c61eb80	0.013789058
117	0x3d2c6127	0.04208484
118	0xbc2a8849	-0.0104084695
119	0x3ccea2ef	0.025224177
120	0x3cb679f7	0.022274954
121	0x3d001a24	0.03127493
122	0xbd050e52	-0.03248436
123	0x3e00d92a	0.12582842
124	0x3cc65efe	0.024215218
125	0xbba24a24	-0.004952686
126	0xbd095a74	-0.03353353
127	0x3ccb2aca	0.024800677
128	0x3c00b651	0.007855968
129	0xbc9b521a	-0.018960048
130	0xbcb071ce	-0.021538641
131	0x3c8936ff	0.016749857
132	0x3ca99a18	0.02070336
133	0xbbadfaa1	-0.0053094183
134	0xbd267a42	-0.040643938
135	0x3dd963e6	0.10614757
136	0xbd85fb71	-0.06542099
137	0x3cc8b726	0.024501394
138	0x3d50b308	0.050951988
139	0x3dd220f5	0.10260192
140	0xbd452139	-0.048127387
141	0x3d9a02bf	0.07520055
142	0x3e0f18c9	0.13974299
143	0xbd40bd8c	-0.047055766
144	0x3d8e9734	0.069624335
145	0xbdad19ce	-0.084521875
146	0x3cc1af0e	0.023643043
147	0xbda48108	-0.08032423
148	0x3d481d31	0.048855964
149	0xbd93d0ab	-0.07217535
150	0xbcf312f3	-0.029672122
151	0x3d12532a	0.035723843
152	0xbb8dab9a	-0.004323435
153	0x3cc0ee89	0.023551242
154	0xbd4cb346	-0.049975656
155	0xbd855eb1	-0.065122016
156	0xbce181b6	-0.027527671
157	0x3d4ef53e	0.05052685
158	0x3ce0fae9	0.027463393
159	0xbc887368	-0.016656592
160	0x3d3deb7d	0.046367157
161	0xbc0b45e5	-0.008500551
162	0x3d0a786f	0.03380626
163	0x3b656261	0.0035001265
164	0xbda4720a	-0.08029564
165	0xbd2ccdd1	-0.04218847
166	0xbc1d8a76	-0.009615531
167	0x3e28b44a	0.16475025
168	0xbcc7c30a	-0.024384994
169	0xbd9f5e8c	-0.07781705
170	0x3db4416d	0.088015415
171	0xbdc3c360	-0.09558749
172	0x3c90fc23	0.017698353
173	0x3d29bff0	0.04144281
174	0xbac65987	-0.0015132882
175	0x3d9ccb07	0.07655912
176	0xbc249a2a	-0.010046521
177	0x3ce9a838	0.028522596
178	0x3c8e3c8e	0.01736286
179	0x3cb35fe2	0.021896306
180	0xbd225d41	-0.039639715
181	0x3b390870	0.002823379
182	0x3c8d1574	0.017222144
183	0x3d7b6dbc	0.061383948
184	0x3c97e2e0	0.0185408
185	0xbcd694e8	-0.02619405
186	0x3da2dffc	0.07952878
187	0xbdfae6f2	-0.122510806
188	0xbcf26ff9	-0.029594408
189	0x3cf3caa0	0.029759705
190	0xbcf89215	-0.030343095
191	0x3d79ed84	0.06101753
192	0x3dab53d7	0.083656006
193	0xbd227229	-0.039659653
194	0x3c6b6ee5	0.014369701
195	0xbd6b0b1a	-0.057383634
196	0xbd5f8e97	-0.054579344
197	0x3d850e21	0.064968355
198	0x3c426870	0.01186572
199	0x3dbdd753	0.092695855
200	0x3d005155	0.031327564
201	0x3da3bd15	0.07995049
202	0xbbb8963c	-0.0056331437
203	0x3dc2d457	0.09513157
204	0x3ca5097c	0.020146124
205	0xbc826a0b	-0.015919706
206	0xbc6dbcb3	-0.014510321
207	0xbcb4658e	-0.022021081
208	0xbce7c387	-0.028291477
209	0x3d6acd5f	0.057324763
210	0x3dceede9	0.101039715
211	0x3d986695	0.07441441
212	0x3c1c2174	0.00952946
213	0xbe2e8076	-0.17041191
214	0x3cf62b7b	0.03005003
215	0x3c781df6	0.015143862
216	0xbd4b753d	-0.049672354
217	0xbd269556	-0.04066976
218	0x3e16492d	0.14676352
219	0xbd1b6f0d	-0.037947703
220	0x3d88826c	0.06665501
221	0xbb85703b	-0.004072217
222	0x3c0aa8a1	0.008463056
223	0xbc71b5bb	-0.014752801
224	0x3ce4d23e	0.027932283
225	0xbc74c118	-0.014938615
226	0x3c36d479	0.011159056
227	0xbd23683c	-0.039894328
228	0xbc298c9d	-0.010348466
229	0x3d8dd083	0.06924536
230	0x3cd19a72	0.02558634
231	0x3cb84808	0.022495285
232	0xbb944b1c	-0.0045255553
233	0xbdc7b114	-0.09750572
234	0xbcc7dd32	-0.024397466
235	0x3c2f20d9	0.010688984
236	0x3c4a4d79	0.0123475725
237	0x3af6c4fb	0.0018827015
238	0x3e1efe67	0.15526734
239	0xbe35355b	-0.17696135
240	0xbd4a63c1	-0.04941154
241	0xbc519bf8	-0.0127935335
242	0x3d552b99	0.05204353
243	0xbd201068	-0.039078146
244	0x3aa26de5	0.001239237
245	0xbc80ed5d	-0.015738184
246	0xbe214319	-0.15748252
247	0xbd2ab073	-0.04167218
248	0xbe5587c2	-0.20852569
249	0xbbfc8f19	-0.0077074883
250	0xbcbb52eb	-0.022866687
251	0x3dafd8aa	0.08586247
252	0xbab03f14	-0.0013446533
253	0x3ca48a0a	0.020085353
254	0x3d8929e8	0.06697446
255	0x3d6ba9d7	0.05753502

conv3.bias f4 [32]
0	0x3d369980	0.044579983
1	0x3d20bcb7	0.039242472
2	0xbd277a57	-0.040888157
3	0x3d9a03c3	0.07520249
4	0x3bc45fbe	0.0059928587
5	0xbd313382	-0.043262012
6	0x3c6d9ad8	0.01450225
7	0xbc5612a4	-0.013065968
8	0x3c602213	0.013679999
9	0xbccfc668	-0.025363162
10	0xbb9bb1e1	-0.0047514294
11	0x3c2fba0d	0.01072551
12	0x3c8000f9	0.015625464
13	0x3bfb0562	0.007660554
14	0x3b5e8dac	0.0033958955
15	0x3ca32696	0.01991586
16	0x3c95e324	0.018296786
17	0x3c3e573e	0.01161748
18	0x3c938a64	0.018010326
19	0x3cb029de	0.021504339
20	0xbb84d3cd	-0.004053569
21	0x3c14df95	0.009086509
22	0x3b22a2ca	0.0024816268
23	0x3ba68144	0.0050813276
24	0x3cf831b9	0.030297147
25	0x3c6495a9	0.013951697
26	0x3d42cf73	0.04756112
27	0x3d498ea1	0.049208287
28	0x3c93f8c4	0.018062957
29	0x3c7e3c37	0.015517286
30	0xbcc49604	-0.023997314
31	0x3d4ed628	0.050497204

MLP1.weight f4 [50, 1344]
0	0xbd3cc57c	-0.046086773
1	0x3d7c3d1e	0.061581723
2	0x3cffabae	0.031209793
3	0x3b784ae3	0.0037886433
4	0xbc360fc7	-0.01111216
5	0x3ca8ac2f	0.020589916
6	0xbc33bd3c	-0.01097041
7	0x3c83d349	0.01609196
8	0xbaf7f92d	-0.0018918865
9	0x3c1430a7	0.009044803
10	0x3c8db798	0.017299458
11	0x3d9b2c70	0.07576835
12	0xbc77e9a7	-0.015131391
13	0x3d02a3c5	0.031894464
14	0x3d84ca6f	0.06483924
15	0x3d46143b	0.048359137
16	0xbd8b7ab3	-0.068105124
17	0xbc65b521	-0.014020235
18	0xbd360c58	-0.044445366
19	0x3d304dc2	0.043042906
20	0x3d3e1bbf	0.04641318
21	0x3cdc7332	0.026910398
22	0xbd1f6420	-0.038913846
23	0x3d27b0d2	0.040940113
24	0x3d67ae05	0.056562442
25	0x3c9aa936	0.018879514
26	0xbb38d7c8	-0.0028204788
27	0xbbe5d37d	-0.0070137368
28	0x3b95259c	0.0045516025
29	0x3d5ff450	0.054676354
30	0xbcc91362	-0.024545375
31	0xbc152c7e	-0.009104846
32	0x3c77f11d	0.0151331695
33	0x3ae61872	0.0017554893
34	0x3cf18af1	0.029485198
35	0xbd8d75ba	-0.0690722
36	0x3d72e219	0.059297655
37	0xbc85eae5	-0.016347358
38	0xba8d465c	-0.0010778415
39	0x3c8d0d89	0.017218368
40	0x3b931a6f	0.004489235
41	0xbc9d8c18	-0.019231841
42	0x3cfa60c5	0.030563721
43	0xbd947494	-0.07248798
44	0xbd31c891	-0.043404166
45	0x3d164b0b	0.03669266
46	0xba811298	-0.000984746
47	0x3cf9346c	0.030420505
48	0x3cff1118	0.03113608
49	0xbc1b4e1f	-0.009479075
50	0x3cc2b171	0.023766251
51	0xbc8c3237	-0.017113788
52	0xbd1b588a	-0.037926234
53	0xbda8c224	-0.082401544
54	0x372ddc34	1.0362874e-05
55	0x3c9145eb	0.017733535
56	0xbcfcaab0	-0.030843109
57	0x3d1eedc0	0.038800955
58	0xbbcbdcbf	-0.0062213833
59	0xbc6a1058	-0.014286123
60	0x3d4bc54b	0.0497487
61	0xbd36ec53	-0.04465897
62	0x3cbabcd8	0.022795126
63	0xbcb58311	-0.022157224
64	0x3d45d27c	0.048296437
65	0x3cb0a61d	0.021563584
66	0xbd91fe7c	-0.07128617
67	0x3c5d8286	0.013519889
68	0xbc03ecb7	-0.008052043
69	0x3d3caac4	0.046061292
70	0x3be16d13	0.0068794577
71	0x3ccacb55	0.02475516
72	0x3d85e00d	0.06536875
73	0x3c74f298	0.014950417
74	0xbcf66daa	-0.030081589
75	0x3d8f9896	0.07011525
76	0x3d266bec	0.040630266
77	0xbd134cd4	-0.03596194
78	0xbd2394f7	-0.039936986
79	0x3d1fa031	0.03897113
80	0xbd3803ca	-0.04492549
81	0x3d0f1aa8	0.03493753
82	0x3b6fbb90	0.0036580302
83	0x3c9d6808	0.019214645
84	0xbdb8dd23	-0.090265535
85	0xbdfe84d8	-0.12427682
86	0xbc4ec077	-0.012619129
87	0xbcf39bc3	-0.029737359
88	0xbd14136e	-0.036151342
89	0xbdb3c481	-0.087777145
90	0x3c80aa75	0.01570628
91	0xbdbf2a75	-0.0933427
92	0x3c3bd04a	0.011463234
93	0xbc7c0b9c	-0.015383627
94	0xbd2c3dba	-0.042051055
95	0xbd411566	-0.047139548
96	0x3d24a149	0.040192876
97	0xbd7dd547	-0.061970975
98	0xbd7b88f1	-0.061409894
99	0x3d177ff8	0.036987275
100	0xbd465ded	-0.04842942
101	0xbd2f1789	-0.042747054
102	0x3db372c5	0.08762125
103	0x3bbf9462	0.005846546
104	0xbda3a18d	-0.07989798
105	0x3d836031	0.064148314
106	0x3d7fa7b4	0.062415794
107	0x3ce4b4ee	0.027918305
108	0xbdd282da	-0.10278864
109	0x3d01d146	0.03169372
110	0x3d4a2e95	0.04936083
111	0xbd3107e9	-0.043220434
112	0xbd37b546	-0.04485061
113	0x3d4d63f1	0.05014414
114	0xbc3e5862	-0.011617752
115	0xbd0132b5	-0.0315425
116	0xbbab0ea8	-0.005220253
117	0x3d240810	0.04004675
118	0xbdc76bac	-0.09737334
119	0xbe224ac7	-0.15848838
120	0xbd28d17d	-0.04121541
121	0x3d2f773b	0.042838316
122	0xbd03e74a	-0.032202996
123	0xbd561665	-0.05226745
124	0xbc9fc226	-0.019501757
125	0xbd4c51ee	-0.04988282
126	0xbc97c333	-0.018525695
127	0xbd3a3fde	-0.045471065
128	0x3b8335a3	0.0040041967
129	0x3c4d995a	0.012548769
130	0x3c43d9a9	0.01195375
131	0x3d970eba	0.07375856
132	0xbd5b7f46	-0.053588174
133	0x3d7fe735	0.062476356
134	0xbcf15bf7	-0.029462798
135	0xbd3f3dd2	-0.046689816
136	0x3bd8cd39	0.0066162613
137	0x3c92acad	0.017904604
138	0xbaa54020	-0.0012607612
139	0x3c27842f	0.010224386
140	0xbcca4b2c	-0.024694048
141	0x3bff2a33	0.007787013
142	0xbc459179	-0.012058609
143	0xbc3c800c	-0.011505138
144	0x3b5cbc34	0.0033681514
145	0xbd010d63	-0.031506907
146	0xbd0ffec8	-0.035155088
147	0xbbd9dc1d	-0.006648554
148	0x3d490a42	0.04908205
149	0x3bee42ec	0.0072711613
150	0xbd1d5a00	-0.03841591
151	0x3adccc72	0.0016845597
152	0xbd3b2c37	-0.045696463
153	0xbc5d351a	-0.01350143
154	0x3db5acbe	0.088708386
155	0xbcf71ec2	-0.030166034
156	0xbc88f202	-0.01671696
157	0xbda37cdf	-0.07982802
158	0xbd8619d1	-0.06547893
159	0xbd30b9d1	-0.04314596
160	0x3d02067a	0.031744458
161	0xbdd24205	-0.102664985
162	0x3c89e1a0	0.01683122
163	0xba2215ee	-0.00061830773
164	0x3d4fb082	0.05070544
165	0xbdcab7d0	-0.09898341
166	0x3d9f053b	0.077646695
167	0xbc5df43f	-0.013547002
168	0x3da31e44	0.07964757
169	0x3d13e465	0.036106486
170	0x3d7daa77	0.061930146
171	0x3cb9a758	0.022662804
172	0xbcb1d028	-0.021705702
173	0x3c095adb	0.008383478
174	0xbde17a06	-0.11009602
175	0x3d7e23c5	0.06204583
176	0xbc280896	-0.010255953
177	0xbc09c1bf	-0.008408009
178	0x3c4aee9a	0.012385989
179	0x3d227c97	0.0396696
180	0xbc62de42	-0.013846936
181	0xbd3d1aad	-0.046168018
182	0x3c73d476	0.014882198
183	0xbd1515b1	-0.03639764
184	0x3d634904	0.055489555
185	0xbd940852	-0.072281495
186	0xbd3a703c	-0.04551719
187	0xbd04f83b	-0.032463294
188	0x3c43f536	0.011960318
189	0x3d4d24e1	0.050084
190	0xbc63a014	-0.013893146
191	0xbcd32c93	-0.02577809
192	0xbd0415ea	-0.03224746
193	0x3d6fdf8b	0.058562797
194	0xbc689cc7	-0.014197535
195	0x3d5271bd	0.051378
196	0x3ca80a9a	0.020512868
197	0x3bce07ca	0.0062875496
198	0xbd0b99db	-0.034082275
199	0xba995bbf	-0.0011700316
200	0x3d0f53c6	0.034992002
201	0x3cddb1b8	0.027062282
202	0x3d885da2	0.06658484
203	0xbd335d42	-0.04379011
204	0xbcf50862	-0.029911224
205	0x3d059f69	0.03262273
206	0xbb26b906	-0.0025439872
207	0x3cca1e65	0.024672696
208	0x3ca604c8	0.020265952
209	0xbd2c972e	-0.042136364
210	0xbd2c81f1	-0.04211611
211	0xbd385e4f	-0.045011815
212	0x3d3d3d86	0.04620125
213	0xbc943871	-0.01809332
214	0xbb8a1fa4	-0.0042151976
215	0x3d6f8e6a	0.058485426
216	0xbd7bb97c	-0.06145619
217	0x3c5bbe2d	0.013412041
218	0xbb0f6ed6	-0.0021886132
219	0xbc5276f2	-0.012845742
220	0xbc81be35	-0.015837768
221	0xbce0af71	-0.027427407
222	0x3c6cbe02	0.014449598
223	0xbb996179	-0.004680809
224	0xbd8a09d9	-0.067401595
225	0x3b6d9e52	0.0036257696
226	0x3bc059fe	0.005870103
227	0x3d2c36db	0.0420445
228	0xbcab64e6	-0.020922136
229	0xbc51c447	-0.012803144
230	0xbcf495c6	-0.029856574
231	0xbe36bffa	-0.17846671
232	0xbcd9fdbc	-0.026610248
233	0x3cb765b5	0.022387365
234	0x3c7b3cf0	0.015334353
235	0x3d8994fb	0.06717869
236	0x3c454451	0.012040214
237	0xbcb6df72	-0.022323344
238	0xb9d337ff	-0.00040286776
239	0xbd574abf	-0.052561518
240	0x3c34e0b8	0.011039905
241	0x3d557a16	0.052118383
242	0xbb3c9e29	-0.0028780794
243	0xbcb777a2	-0.022395913
244	0xbc907a12	-0.017636333
245	0x3abc4722	0.0014364461
246	0x3d212954	0.039346054
247	0xbdd05898	-0.10173148
248	0x3d290a9e	0.04126989
249	0x3d7fc6ca	0.06244544
250	0x3b3e6597	0.0029052251
251	0xbd0ffa59	-0.03515086
252	0x3d64e5f3	0.05588336
253	0xbab56bf5	-0.0013841378
254	0x3c50d6f2	0.012746559
255	0x3cffdf08	0.03123428

MLP1.bias f4 [50]
0	0x3b281911	0.0025649706
1	0xbc252c59	-0.010081374
2	0xbc6fe94d	-0.014643026
3	0x3ca03e79	0.01956104
4	0x3bffb5d2	0.007803657
5	0x3d2ff867	0.042961504
6	0xbc1357ee	-0.008993132
7	0xbcd6979b	-0.026195338
8	0xbc988825	-0.018619606
9	0xbc1dbce8	-0.009627558
10	0xbca7d1f3	-0.020485854
11	0x3cc24fc1	0.02371967
12	0x3b8ab66f	0.0042331736
13	0x3d155e06	0.03646662
14	0x3bfab61c	0.0076511037
15	0xbc0f0340	-0.008728802
16	0xbc294205	-0.010330682
17	0x3d0b2d9b	0.03397904
18	0xbb923e64	-0.004463004
19	0xbb68263f	-0.0035423187
20	0x3d15e989	0.03659967
21	0xbcb1adb1	-0.021689268
22	0x3c70846e	0.014680011
23	0xbc2f3957	-0.010694823
24	0x3c2a23dc	0.010384526
25	0xbd099009	-0.03358463
26	0x3d102b78	0.035197705
27	0x3cd9a291	0.026566776
28	0x3d1126b4	0.0354373
29	0x3d1eeaaf	0.03879803
30	0xbd0b0d37	-0.03394815
31	0xbb878939	-0.0041362313
32	0xbcb601b9	-0.022217618
33	0xbb86aa13	-0.00410963
34	0x3d34440b	0.044010203
35	0xbc242c64	-0.010020349
36	0xbcf582ba	-0.029969562
37	0x3bfdccb1	0.0077453484
38	0xbc5d185e	-0.013494579
39	0x3ce07a1e	0.02740198
40	0xba9491d6	-0.0011334966
41	0xbce37728	-0.027766779
42	0x3cd8481a	0.026401568
43	0x3d2946dd	0.041327346
44	0xbcba49e4	-0.022740312
45	0x3d381205	0.04493906
46	0xbcb682ff	-0.02227926
47	0x3ce7e79e	0.028308686
48	0x3d5b0de9	0.053480063
49	0xbbdd9a4d	-0.006762779

MLP3.weight f4 [50, 50]
0	0xbd7e1425	-0.06203093
1	0x3e22c807	0.15896617
2	0xb94a17d5	-0.000192731
3	0x3e25d800	0.16195679
4	0x3d8cc700	0.06873894
5	0x3ba6dc60	0.0050921887
6	0x3e1bbe06	0.15209207
7	0x3d659d32	0.056058116
8	0x3e746f4a	0.23870578
9	0x3d7034b9	0.05864403
10	0xbde2fb98	-0.11083144
11	0xbdee9c6a	-0.11650927
12	0x3d876352	0.06610741
13	0xbe16250c	-0.1466257
14	0xbdb1064e	-0.08643781
15	0xbc2133cf	-0.009839012
16	0x3d7ad3bc	0.061237082
17	0x3bf58756	0.00749294
18	0xbe0c9a5b	-0.13730757
19	0xbe060a32	-0.13089827
20	0x3d758f7e	0.059951298
21	0xbde69c55	-0.11260287
22	0x3b834b5f	0.0040067877
23	0xbc35ca5d	-0.01109561
24	0x3dccd93c	0.10002372
25	0xbc2e5e4a	-0.010642597
26	0x3d756ae4	0.059916392
27	0x3d30538d	0.04304843
28	0xbcc28ebc	-0.023749702
29	0x3d0aa779	0.03385112
30	0x3dc5b24d	0.09653149
31	0xbe0ecbdf	-0.13944958
32	0x3e9195a8	0.2843449
33	0xbdbdc3c3	-0.09265854
34	0x3d9bb362	0.07602574
35	0x3d9b51f7	0.07583993
36	0xbda4e7ae	-0.08052002
37	0xbd96a721	-0.07356096
38	0xbc59f725	-0.013303553
39	0xbe24f769	-0.16110004
40	0x3e6d69c8	0.23184884
41	0x3da6a00d	0.08135996
42	0xbe53a389	-0.20667852
43	0x3e17fb7f	0.14842032
44	0xbe24b654	-0.16085178
45	0x3dca2c89	0.09871776
46	0xbd7359ad	-0.059411693
47	0xbce2254f	-0.02760568
48	0x3e44cc78	0.19218624
49	0x3dc9a9cc	0.09846839
50	0x3cf55be0	0.029951036
51	0x3e59f2f6	0.21284088
52	0xbd881a96	-0.06645696
53	0xbe0fd41d	-0.14045759
54	0x3e7c44a5	0.24635561
55	0x3e1ff766	0.15621719
56	0xbde2ac2a	-0.11067994
57	0x3d0a99d9	0.033838127
58	0xbe2890f9	-0.16461553
59	0x3de8ab72	0.113608256
60	0xbd9f0538	-0.07764667
61	0xbdb706ff	-0.08936881
62	0x3d5ef800	0.05443573
63	0x3d6f5b55	0.05843671
64	0xbd142feb	-0.03617851
65	0xbe2b4879	-0.16726865
66	0x3e101e56	0.14074072
67	0xbe394a3b	-0.18094723
68	0xbe9b1486	-0.30289096
69	0xbdea6792	-0.11445536
70	0x3d880ee4	0.06643465
71	0x3d23260e	0.039831214
72	0x3bf9967f	0.0076168175
73	0x3d58611b	0.052826982
74	0x3d91e2c9	0.07123334
75	0xbdccdb8a	-0.10002811
76	0x3cc654be	0.02421033
77	0x3d9bec2a	0.07613404
78	0x3e1e6015	0.1546634
79	0x3dd6e6de	0.10493253
80	0xbe0c9969	-0.13730396
81	0xbe19eec6	-0.15032491
82	0x3e0ec9be	0.13944146
83	0xbde9361c	-0.11387274
84	0xbddbe795	-0.1073753
85	0x3dcb27c5	0.09919695
86	0xbe0a786e	-0.13522503
87	0x3e760b50	0.24027753
88	0xbdb0ca15	-0.08632294
89	0x3e00b78f	0.12570022
90	0xbe86eb04	-0.26351178
91	0x3e0bafc9	0.13641275
92	0x3de69348	0.112585604
93	0x3d59cbac	0.053172752
94	0x3dac3c36	0.08409922
95	0xbd7daffe	-0.061935417
96	0x3d50eee7	0.051009085
97	0x3dbeb293	0.09311404
98	0xbdb31ff1	-0.08746327
99	0x3d3a0859	0.045418117
100	0x3ce49e9d	0.027907664
101	0x3dcbb830	0.0994724
102	0xbd9acd55	-0.07558695
103	0xbccd88ee	-0.025089707
104	0xbdd88903	-0.10573008
105	0x3da1a3b2	0.078925505
106	0x3e19904d	0.14996453
107	0xbd5e3d21	-0.054257516
108	0xbe40cd10	-0.18828225
109	0xbe106caf	-0.1410396
110	0xbde15502	-0.11002542
111	0x3e191b12	0.14951733
112	0x3e154a9d	0.14579244
113	0x3e40bf23	0.18822913
114	0xbd82d1d9	-0.063876815
115	0x3c955922	0.018230978
116	0xbdf5d8e4	-0.12004259
117	0x3cf0092c	0.029301248
118	0x3e34c4ce	0.176532
119	0x3d08a699	0.033362005
120	0x3e00468d	0.12526913
121	0xbdf3123b	-0.118687116
122	0xbb9c17f7	-0.004763599
123	0xbde225b2	-0.11042346
124	0x3e68df30	0.2274139
125	0x3d1dacd8	0.038494915
126	0xbd22a6fa	-0.039710023
127	0xbb519b92	-0.0031983596
128	0xbd876635	-0.06611291
129	0x3d47d951	0.048791233
130	0x3ea3dba6	0.32003516
131	0x3d87e1ca	0.06634863
132	0x3d821b6d	0.06352887
133	0x3e1ac497	0.15114056
134	0xbd71e0b5	-0.059052188
135	0xbd5c7586	-0.053823017
136	0x3e0808dc	0.1328463
137	0xbdea9487	-0.114541106
138	0xbdb5590a	-0.088548735
139	0x3d5fa532	0.054600902
140	0x3eac5047	0.33654997
141	0xbd2f70bb	-0.042832118
142	0xbc906455	-0.017625967
143	0x3e5cadf4	0.21550733
144	0xbd61fb83	-0.0551715
145	0x3dfaf32b	0.12253412
146	0x3db64768	0.089003384
147	0xbd736014	-0.0594178
148	0x3e1aab16	0.15104327
149	0xbc97a798	-0.018512532
150	0xbc1b367e	-0.009473441
151	0xbc77da02	-0.015127661
152	0x3cfba347	0.030717505
153	0x3de8b8b7	0.113633566
154	0xbd4e3a47	-0.050348546
155	0xbd33effa	-0.04393003
156	0x3c21c550	0.009873703
157	0xbd6fda37	-0.058557715
158	0x3deee944	0.11665586
159	0x3df25018	0.11831683
160	0x3df62368	0.12018472
161	0xbe727619	-0.23677863
162	0x3e145413	0.14485197
163	0xbd52120b	-0.05128674
164	0x3ebc94e7	0.36832353
165	0x3c1cd96c	0.009573322
166	0xbe6c12d3	-0.23054056
167	0xbd779886	-0.060448192
168	0x3cc97068	0.024589732
169	0xbe5ab61a	-0.21358529
170	0xbe7c51f0	-0.24640632
171	0xbd71bbae	-0.059016876
172	0xbdc7a2cf	-0.0974785
173	0x3ea461ab	0.32105765
174	0x3c353e9d	0.011062291
175	0x3e80efbd	0.25182906
176	0x3e63f9c7	0.22263251
177	0x3cc2bb5c	0.02377098
178	0xbe1e8d0b	-0.15483491
179	0x3d9645d7	0.0733754
180	0x3d863ff4	0.06555167
181	0x3da99e96	0.08282201
182	0xbe7fd826	-0.24984798
183	0xbd9c8f9d	-0.076445796
184	0xbd66c25d	-0.056337703
185	0x3e0ec8b2	0.13943747
186	0xbe229af1	-0.15879418
187	0x3d057085	0.03257801
188	0x3d8d0090	0.06884873
189	0xbddec98b	-0.10878285
190	0x3e26b8a0	0.16281366
191	0x3df6d7f5	0.12052909
192	0x3e99bedc	0.30028427
193	0xbd213a05	-0.039361972
194	0x3e86ae5f	0.2630491
195	0xbd598b3a	-0.053111292
196	0x3eaae918	0.3338096
197	0x3c10cc9b	0.008837844
198	0xbdf3c056	-0.119019195
199	0x3d262bbe	0.04056906
200	0x3e3525fe	0.17690274
201	0xbd83f0a5	-0.06442384
202	0x3c896fbe	0.016776916
203	0x3e4ae001	0.19812013
204	0xbccb9ec2	-0.024855975
205	0x3d2f5a78	0.042810887
206	0xbc637ef5	-0.013885249
207	0xbd2e6246	-0.04257419
208	0x3de95b7f	0.113944046
209	0xbdc75c05	-0.09734348
210	0xbe67d4a6	-0.22639713
211	0xbd44949d	-0.04799329
212	0x3dde0f5a	0.10842772
213	0x3cd4e2d5	0.025987068
214	0xbdebcba0	-0.11513448
215	0xbe22837c	-0.1587047
216	0xbdb5bb1b	-0.08873578
217	0x3e17b782	0.14816096
218	0x3e02310f	0.12714027
219	0x3d1ced1d	0.038312066
220	0x3d4ac331	0.049502555
221	0x3e8a8322	0.2705317
222	0xbd37aff4	-0.044845536
223	0xbe05e84e	-0.13076898
224	0x3e4be477	0.19911371
225	0xbda4f9d3	-0.08055463
226	0x3e060336	0.13087162
227	0x3e59e6c5	0.21279438
228	0x3d977670	0.07395637
229	0xbd38490a	-0.04499153
230	0x3d69ea12	0.057107992
231	0x3e034a2e	0.12821266
232	0xbe6dde68	-0.23229373
233	0xbd8206d8	-0.063489616
234	0xbda35775	-0.079756655
235	0xbd7a37a6	-0.061088227
236	0x3e4818d8	0.19540727
237	0x3cb9432e	0.022615042
238	0xbd10be1d	-0.035337556
239	0x3c0d2697	0.008615158
240	0xbcfc398f	-0.030789165
241	0x3d922ba8	0.07137233
242	0xbdb4e25b	-0.088322364
243	0xbdac8069	-0.0842293
244	0x3e85c62c	0.26127756
245	0x3d9fbe04	0.077999145
246	0xbe2eeb1b	-0.17081873
247	0x3ce87a29	0.028378563
248	0x3d34ff25	0.044188637
249	0x3b9a4d0c	0.0047088917
250	0x3c598811	0.01327707
251	0x3e1dd4bc	0.15413183
252	0xbca9aa8a	-0.020711202
253	0x3d6cc373	0.057803582
254	0xbd74e5af	-0.059789356
255	0x3e09b28d	0.13447018

MLP3.bias f4 [50]
0	0xbd5a096e	-0.05323165
1	0x3c84ed0d	0.016226316
2	0x3d9a0538	0.07520527
3	0x3dd82e22	0.10555674
4	0x3dfcfda7	0.12353068
5	0x3dff315d	0.12460587
6	0x3cc44098	0.023956582
7	0x3da20f7b	0.07913109
8	0x3e3ae610	0.18251824
9	0x3d968f96	0.073516056
10	0x3d32ffd3	0.043701004
11	0xbbcf85ab	-0.006333073
12	0x3d9b66d9	0.07587976
13	0x3c734dd1	0.014850096
14	0x3d7437fe	0.05962371
15	0x3d6a5d08	0.057217628
16	0x3d59d281	0.053179268
17	0x3d60320e	0.054735236
18	0x3dfdb024	0.12387112
19	0xbd2752e7	-0.040850546
20	0xbbbe82be	-0.0058139255
21	0xbc15eb75	-0.009150376
22	0x3d3e2f3f	0.046431776
23	0x3cbf666f	0.023364274
24	0x3d0837d9	0.033256385
25	0x3e03b3bb	0.1286153
26	0x3df464bc	0.11933276
27	0xbda5758b	-0.0807906
28	0x3d7c21b6	0.061555587
29	0x3e306116	0.17224535
30	0xbc2021df	-0.0097737005
31	0x3c77e3ac	0.015129965
32	0xbb0e50d9	-0.002171567
33	0xbdf9ee90	-0.12203705
34	0x3d23963a	0.03993819
35	0xbdef9e54	-0.117001206
36	0x3dcd2bd1	0.10018123
37	0xbe01bfad	-0.12670775
38	0xbba59d15	-0.005054126
39	0xbd89dca7	-0.06731539
40	0xbda930ca	-0.08261259
41	0x3e00f009	0.12591566
42	0x3e1dcac4	0.1540938
43	0x3d9d4d4b	0.07680758
44	0x3ca7769f	0.020442305
45	0x3db7e612	0.08979429
46	0x3d238cf3	0.03992934
47	0x3dd56667	0.10419922
48	0xbd9471b8	-0.07248253
49	0x3bf0fc1c	0.0073542725

MLP4.weight f4 [7, 50]
0	0x3dc3c2ce	0.095586404
1	0x3e8ca670	0.27470732
2	0x3aaf79c3	0.0013387728
3	0xbe218fa3	-0.1577745
4	0xbe5faf0f	-0.21844123
5	0xbd4ed32d	-0.05049436
6	0xbdb45947	-0.08806091
7	0x3e3f474f	0.18679546
8	0xbe012270	-0.12610793
9	0xbdd18769	-0.102309056
10	0xbced8dcb	-0.028998276
11	0xbe10e2d6	-0.14149031
12	0xbe811bfb	-0.2521666
13	0x3e9eb691	0.30998662
14	0xbe3a8213	-0.18213682
15	0xbdcc8e25	-0.099880494
16	0x3e78d5e0	0.24300337
17	0x3e34dc98	0.17662275
18	0xbe34d669	-0.17659916
19	0x3e706d1a	0.23479119
20	0xbdc64ccf	-0.09682619
21	0x3dd24272	0.1026658
22	0xbdd7add8	-0.10531205
23	0xbd5f9da1	-0.054593686
24	0x3d52d876	0.051475964
25	0x3ec6e2b9	0.3884485
26	0x3e514770	0.20437407
27	0xbe0f5df4	-0.14000684
28	0x3dda4691	0.10657991
29	0x3dfc7f1b	0.12328931
30	0x3d92f975	0.071764864
31	0xbd964476	-0.07337277
32	0x3c91e5bc	0.017809741
33	0xbe032c90	-0.12809968
34	0x3da2c489	0.07947642
35	0xbead1ad2	-0.33809525
36	0xbeab8d00	-0.33506012
37	0xbe6d9543	-0.2320147
38	0xbecaf08f	-0.39636657
39	0x3dbeb391	0.09311593
40	0x3e3f963d	0.18709655
41	0x3dfd5f45	0.12371687
42	0x3d637751	0.05553371
43	0x3dcf7788	0.10130221
44	0x3dcf91d7	0.101352386
45	0xbcef67de	-0.029224332
46	0x3d75a421	0.05997098
47	0x3d22e6f0	0.03977102
48	0xbc37f4e7	-0.011227823
49	0xbeb5e1fc	-0.35523975
50	0x3caff17a	0.02147745
51	0xbd0a0285	-0.03369381
52	0x3d960084	0.07324317
53	0xbf071a03	-0.52774066
54	0x3e0ed180	0.13947105
55	0x3e48ef4a	0.19622532
56	0x3da9bb45	0.08287672
57	0xbd2e473a	-0.042548396
58	0x3e14df35	0.14538272
59	0x3e3e832e	0.18604729
60	0x3dc0fb5b	0.09422942
61	0xbe2ae046	-0.16687116
62	0xbeb2cae7	-0.34920427
63	0x3c3e828e	0.011627806
64	0xbebc019e	-0.36719984
65	0x3e8a4c07	0.2701113
66	0x3e7f721a	0.2494587
67	0x3e2740bf	0.16333292
68	0xbd2aacf6	-0.041668855
69	0xbc584f4f	-0.013202502
70	0x3d8b5b0e	0.06804477
71	0x3e05fa9b	0.1308388
72	0xbe8d40f4	-0.27588618
73	0xbda69de6	-0.081355855
74	0xbd4b42a6	-0.049624108
75	0x3e97080b	0.29498324
76	0xbdea6e23	-0.11446788
77	0xbe0cabbe	-0.1373739
78	0x3e0e9224	0.13922936
79	0x3d512aab	0.051066082
80	0xbd4a9061	-0.049454097
81	0xbe62e672	-0.2215822
82	0x3e9f47fe	0.31109613
83	0x3d26efea	0.040756144
84	0x3df94da7	0.12173014
85	0xbed1c36c	-0.40969408
86	0x3dd606c4	0.10450509
87	0x3e4e7f59	0.20165767
88	0x3e2598e1	0.161716
89	0x3e128af0	0.14310813
90	0xbb5d5dda	-0.0033777864
91	0x3d13c680	0.036077976
92	0xbe6c2a50	-0.23063016
93	0x3e512970	0.20425963
94	0xbdaf4758	-0.085585296
95	0x3d8bcf49	0.06826646
96	0x3e642a7a	0.22281829
97	0xbe3616c4	-0.17782122
98	0xbed4a9a0	-0.41535664
99	0xbeb5eb34	-0.35531008
100	0x3e422efe	0.18963239
101	0x3d98af18	0.074552715
102	0x3d615380	0.055011272
103	0x3e2bc99f	0.16776131
104	0x3e44732c	0.1918456
105	0xbd132e03	-0.035932552
106	0xbe82420c	-0.25441015
107	0xbe1c1dc9	-0.15245737
108	0x3e464126	0.1936079
109	0xbe5e8ba5	-0.21732958
110	0x3e4a563d	0.1975946
111	0xbeebb9d1	-0.46040204
112	0xbdd82500	-0.10553932
113	0x3db55dc8	0.08855778
114	0xbeb6ce27	-0.35704157
115	0x3b916d15	0.0044380524
116	0x3e2e74d1	0.1703675
117	0xbd0570f0	-0.03257841
118	0x3ee033b9	0.4378946
119	0x3e077196	0.13226923
120	0xbe162c6c	-0.14665383
121	0xbe8ac419	-0.27102736
122	0xbe22ee31	-0.15911175
123	0xbe075817	-0.13217197
124	0x3e45d8a7	0.19320928
125	0x3e93ab34	0.28841555
126	0x3dade410	0.08490765
127	0x3e111dad	0.14171477
128	0xbde55978	-0.111987054
129	0x3e12416a	0.14282766
130	0xbe08c147	-0.1335498
131	0xbf0d81bc	-0.55276084
132	0xbd707219	-0.058702562
133	0xbe84e63b	-0.25956902
134	0x3d45dd57	0.04830679
135	0xbe7f9474	-0.24958974
136	0x3df28bfe	0.11843108
137	0x3e5731ee	0.2101514
138	0xbe3895ad	-0.18025847
139	0x3e3c8e32	0.18413618
140	0x3da510bd	0.08059833
141	0xbce0b99f	-0.027432261
142	0x3e0f7162	0.14008096
143	0x3e4e7471	0.20161606
144	0x3c443b27	0.011976994
145	0xbe60468b	-0.2190191
146	0x3d160e49	0.036634717
147	0x3e608e15	0.219292
148	0x3e1e657b	0.15468399
149	0xbed040a6	-0.40674323
150	0x3e634e6f	0.22197889
151	0xbdd6ab01	-0.10481835
152	0x3dbc166e	0.091839656
153	0xbe695fa5	-0.22790392
154	0xbc18de6a	-0.009330371
155	0x3e23eb2c	0.1600768
156	0xbf31eef0	-0.69505215
157	0x3c120a53	0.008913594
158	0x3d13c7e7	0.036079314
159	0x3d91fd45	0.071283855
160	0xbf2828ef	-0.6568746
161	0x3e8429b9	0.25813082
162	0x3e36b2a7	0.17841588
163	0xbc076249	-0.008263179
164	0xbe751256	-0.23932776
165	0xbe188739	-0.14895333
166	0x3df6aee0	0.120450735
167	0x3e56a61c	0.20961803
168	0xbd05ad58	-0.032636017
169	0x3e426147	0.18982421
170	0x3e6dc22b	0.232186
171	0xbeea10c2	-0.4571591
172	0xbeb248e3	-0.34821233
173	0x3e6fef07	0.23431025
174	0x3d9b7f7a	0.075926736
175	0xbe6e9490	-0.2329886
176	0x3df55598	0.11979216
177	0xbd892753	-0.066969536
178	0xbb0c82e4	-0.0021440322
179	0x3d0bfc6f	0.034176286
180	0xbe161f0c	-0.14660281
181	0xbead7a60	-0.33882427
182	0x3e436b00	0.19083786
183	0x3d94c283	0.07263663
184	0x3e32d986	0.17465791
185	0x3e7c2d39	0.24626626
186	0xbe56fe22	-0.20995381
187	0x3d7aebf3	0.061260175
188	0xbed04f41	-0.40685466
189	0x3d8b9c32	0.06816901
190	0xbf06a092	-0.5258876
191	0x3e1259da	0.14292088
192	0xbe417a0d	-0.18894215
193	0x3dca8f45	0.09890608
194	0xbd8367c4	-0.06416276
195	0x3b4a5966	0.003087604
196	0xbdc6aac7	-0.09700542
197	0xbe0f5e6d	-0.14000864
198	0xbdc06dca	-0.093959406
199	0xbda71be1	-0.08159614
200	0xbe00e945	-0.12588985
201	0xbe9b4b6a	-0.30330974
202	0x3d9d5f8b	0.07684239
203	0x3e3cc796	0.18435511
204	0x3d2bf352	0.041980095
205	0x3e27ccb0	0.16386676
206	0xbe128902	-0.14310077
207	0x3e2a4ce7	0.16630898
208	0x3e1b5b3b	0.1517152
209	0xbe583c08	-0.2111665
210	0x3ebbf14e	0.36707538
211	0x3e1071ba	0.14105883
212	0xbee207ad	-0.4414648
213	0xbd0961b0	-0.033540428
214	0xbe9b0fc5	-0.3028547
215	0x3e3ef63a	0.18648615
216	0x3dcb6227	0.099308304
217	0xbdcc0096	-0.09961049
218	0xbea17811	-0.31536916
219	0x3db472ef	0.08810984
220	0x3d6ae8b5	0.057350833
221	0xbe8a7316	-0.2704093
222	0x3ea20170	0.31641722
223	0x3e39ad82	0.18132594
224	0x3cf3a25a	0.029740501
225	0x3e5236c7	0.20528708
226	0x3e2c0ed6	0.16802534
227	0x3e627891	0.22116305
228	0x3dd8115f	0.10550188
229	0x3e3818a5	0.17978151
230	0x3e319c7a	0.17344847
231	0x3d9f552f	0.07779919
232	0xbe8124b1	-0.25223306
233	0xbed849c0	-0.42243767
234	0x3e2dac05	0.16960151
235	0xbf09816c	-0.5371311
236	0xbecd7d2c	-0.4013456
237	0xbef30f31	-0.47472528
238	0x3d74fd85	0.059812088
239	0x3e035d86	0.12828645
240	0x3e2251e7	0.15851556
241	0x3b399de6	0.0028322875
242	0xbe4b7315	-0.19868119
243	0xbde71e3d	-0.11285064
244	0xbc962fe8	-0.01833339
245	0xbe2e020c	-0.16992968
246	0x3e378f76	0.1792582
247	0x3d72fb9d	0.05932199
248	0xbe34e8b5	-0.17666896
249	0x3d5e50a3	0.05427612
250	0xbe463a10	-0.19358087
251	0xbcb8f301	-0.02257681
252	0xbe60107a	-0.21881285
253	0xbd9a15de	-0.07523702
254	0x3df180aa	0.11792119
255	0xbd81d80b	-0.06340035

MLP4.bias f4 [7]
0	0xbdd7e0f9	-0.10540957
1	0x3decde88	0.11565882
2	0x3d3abf36	0.04559251
3	0x3c5441aa	0.012955109
4	0x3cf07d66	0.02935667
5	0x3d6d7a55	0.057977993
6	0x3e091912	0.1338847
