DQN/final_dqn_against_negaMax2/DQN_AgainstNegaMax_Epochs10000.pth (torch, 493315 bytes, 12 tensors)

conv1.weight f4 [32, 1, 5, 5]
0.10821542 0.2252295 -0.08522263 0.26004216 -0.07020568 0.08214103 -0.08286131 0.045707982
0.20879397 -0.2997242 0.1381793 0.04660102 0.19549718 0.12624913 0.29174227 -0.06352931
0.30407858 0.033146884 0.030686025 0.11299996 -0.069570936 -0.069233924 -0.13835213 0.24498059
-0.25642258 -0.023891386 -0.051158898 -0.07941425 0.027512098 -0.2467142 0.17585284 -0.21195091
0.17231269 -0.009890677 -0.1901282 0.118956484 0.12838818 0.28109843 0.023633253 -0.066232696
0.14039749 -0.13973562 0.08165258 0.20293805 0.2396816 -0.10289871 0.064864464 0.0887479
0.20989703 -0.18042062 -0.22388665 -0.10075162 -0.17804436 0.3353878 -0.08779338 0.14610915
0.0438047 0.0651005 0.2174983 -0.24348596 0.027671767 -0.12317022 0.10949687 0.0213422
0.23716407 -0.11614452 0.27277166 -0.23538356 -0.20350176 -0.09564151 0.30227435 0.1328201
0.27332354 -0.23510621 -0.2913789 -0.07680223 -0.16218662 0.06288527 0.05531825 0.16519307
-0.06554329 -0.12641129 0.108043306 -0.0075177746 0.16279557 -0.11677258 0.115303494 -0.21598984
-0.20028608 0.18482438 0.14774534 0.0057608066 0.06986276 0.3092096 -0.19314946 -0.1456803
0.30429715 -0.09684171 -0.18877552 -0.37928396 -0.20267786 -0.00025530084 -0.056209438 -0.12044247
-0.019281903 -0.17182782 -0.103147104 -0.043424573 -0.21822461 -0.2351607 0.31491575 0.18490477
0.14777288 -0.27345008 -0.19470786 -0.14629248 -0.027141664 -0.31028628 -0.08849704 -0.14519194
0.13455738 -0.072537586 -0.009066343 -0.13932593 -0.25972995 -0.104911484 -0.026835667 -0.0068086796
0.1328885 -0.29126245 0.15228556 0.0552782 -0.22428691 0.2643727 0.004748824 -0.04331493
-0.21739879 -0.22186941 0.029234169 -0.03871767 0.15491936 -0.36746544 0.19486101 -0.23276594
-0.21379742 0.09508933 0.26942366 0.12838984 0.19578539 -0.13523561 0.022471793 -0.04922609
0.044378694 -0.09562865 0.33272806 -0.22939134 0.14975344 0.27101234 0.17548361 -0.25787973
0.32066542 0.07494815 0.19120246 -0.25236365 0.14524895 -0.05644703 -0.13333656 0.34434876
-0.04377009 -0.107456505 -0.09598763 -0.13649476 0.21128762 -0.09733581 -0.24592777 -0.052535463
-0.2416138 0.089553185 0.23710589 -0.11631129 0.04376022 0.20597412 0.08787834 -0.044626895
0.15349345 0.10930166 0.14912754 -0.03575711 -0.068220116 0.031732168 -0.17188969 -0.06488754
0.18524693 0.21085513 -0.057833012 0.024315123 -0.018379642 0.07628919 0.10259298 0.084696904
-0.12616879 0.0809031 0.09998526 0.017949684 -0.047600277 -0.11000404 -0.25094563 -0.2831412
-0.12744106 0.12569827 0.27512994 0.00017818528 -0.22394708 -0.09100463 -0.14187476 0.30797943
-0.011899639 -0.0778789 0.18709499 -0.06996195 -0.24982917 0.15005645 -0.12172872 -0.06796676
-0.19895737 0.13307866 0.19425255 0.07516993 -0.21741268 -0.122336745 -0.33761093 0.23446664
0.09600403 0.24506815 0.15462586 0.112202644 -0.08760897 -0.32575467 -0.18363783 -0.24422082
0.2051365 -0.021104177 -0.089556865 -0.13627614 0.042686924 -0.0722233 -0.049901057 0.08206646
-0.05046157 0.15122092 0.040338457 -0.25822547 -0.020825833 -0.23609796 -0.05780233 -0.25528145
00000000: 0ca0 dd3d 90a2 663e 3489 aebd 3f24 853e
00000010: ffc7 8fbd 8e39 a83d 31b3 a9bd 4b38 3b3d
00000020: 16ce 553e 7375 99be e07e 0d3e b6e0 3e3d
00000030: 6a30 483e 7447 013e 3e5f 953e a81b 82bd
00000040: 30b0 9b3e 07c5 073d 4261 fb3c 866c e73d
00000050: 357b 8ebd 84ca 8dbd 2eac 0dbe 31dc 7a3e
00000060: d249 83be deb7 c3bc fe8b 51bd f0a3 a2bd
00000070: 0d61 e13c a6a2 7cbe c412 343e a909 59be
00000080: bd72 303e 820c 22bc f8b0 42be 759f f33d
00000090: 3178 033e 22ec 8f3e 869a c13c 02a5 87bd
000000a0: 5cc4 0f3e db16 0fbe 7839 a73d fece 4f3e
000000b0: 186f 753e 8fbc d2bd a9d7 843d 76c1 b53d
000000c0: 3fef 563e 2fc0 38be 8b42 65be de56 cebd
000000d0: 4351 36be f3b7 ab3e 04cd b3bd a39d 153e
000000e0: 8f6c 333d 6953 853d e0b7 5e3e 6254 79be
000000f0: e7af e23c ab40 fcbd e53f e03d d6d5 ae3c
00000100: 23db 723e 2edd edbd baa8 8b3e 6308 71be
00000110: c462 50be b2df c3bd b4c3 9a3e fe01 083e
00000120: 10f1 8b3e afbf 70be 9d2f 95be 7d4a 9dbd
00000130: 4014 26be fec9 803d 6495 623d 5f28 293e
00000140: 8f3b 86bd f671 01be cf45 dd3d aa57 f6bb
00000150: e2b3 263e 7626 efbd 3d24 ec3d 712c 5dbe
00000160: cb17 4dbe 9a42 3d3e 8e4a 173e 26c5 bc3b
00000170: 3514 8f3d b850 9e3e f9c8 45be 372d 15be
00000180: d6cc 9b3e f254 c6bd 5f4e 41be 8231 c2be
00000190: c98a 4fbe e6d9 85b9 de3b 66bd 8baa f6bd
000001a0: 15f5 9dbc a2f3 2fbe ca3e d3bd f7dd 31bd
000001b0: 4676 5fbe f7cd 70be a33c a13e ad57 3d3e
000001c0: c651 173e a601 8cbe 7f61 47be b2cd 15be
000001d0: 3258 debc d8dd 9ebe f03d b5bd 32ad 14be
000001e0: 69c9 093e 968e 94bd 008b 14bc 75ab 0ebe
000001f0: 53fb 84be d5db d6bd 79d6 dbbc 581b dfbb
00000200: ec13 083e 5a20 95be bff0 1b3e 656b 623d
00000210: 78ab 65be dc5b 873e 069c 9b3b ff6a 31bd
00000220: ca9d 5ebe bc31 63be 7f7c ef3c 6b96 1ebd
00000230: 2ea3 1e3e 6e24 bcbe a589 473e 325a 6ebe
00000240: b6ed 5abe 32be c23d e6f1 893e a078 033e
00000250: f77b 483e 347b 0abe c416 b83c 4ca1 49bd
00000260: 6fc6 353d f4d8 c3bd 555b aa3e 90e5 6abe
00000270: f758 193e 21c2 8a3e fab1 333e d008 84be
00000280: 422e a43e 6a7e 993d 94ca 433e cf35 81be
00000290: 24bc 143e 0035 67bd 6189 08be 7b4e b03e
000002a0: 4448 33bd 2812 dcbd 2a95 c4bd 48c5 0bbe
000002b0: c85b 583e ff57 c7bd 7dd4 7bbe 6d2f 57bd
000002c0: 9c69 77be a967 b73d e3cb 723e 9d34 eebd
000002d0: eb3d 333d e1ea 523e 8ff9 b33d b1ca 36bd
000002e0: 632d 1d3e 8cd9 df3d e4b4 183e 0c76 12bd
000002f0: fdb6 8bbd 97f9 013d da03 30be c2e3 84bd
00000300: 5fb1 3d3e 68ea 573e 4fe2 6cbd 8230 c73c
00000310: e790 96bc 823d 9c3d 451c d23d 9275 ad3d
00000320: 6432 01be 86b0 a53d 12c5 cc3d 370b 933c
00000330: 82f8 42bd cc49 e1bd f27b 80be e2f7 90be
00000340: e97f 02be 0cb7 003e d5dd 8c3e 3fd7 3a39
00000350: 6252 65be a360 babd 9e47 11be 7baf 9d3e
00000360: b4f6 42bc f97e 9fbd d495 3f3e 3648 8fbd
00000370: 38d3 7fbe 66a8 193e e84c f9bd 2832 8bbd
00000380: 7bbb 4bbe c645 083e 24ea 463e b1f2 993d
00000390: 6ea1 5ebe b08b fabd 57db acbe 0618 703e
000003a0: c39d c43d 25f3 7a3e 3e56 1e3e 80ca e53d
000003b0: 556c b3bd 51c9 a6be 8e0b 3cbe 0615 7abe
000003c0: 4d0f 523e abe2 acbc 9769 b7bd f98b 0bbe
000003d0: 7cd8 2e3d cfe9 93bd 0d65 4cbd 7612 a83d
000003e0: cbb0 4ebd a8d9 1a3e f039 253d 2136 84be
000003f0: f09a aabc aac3 71be 23c2 6cbd 40b4 82be

conv1.bias f4 [32]
0.0054192217 0.12450438 -0.10156861 0.16658136 -0.06596369 -0.13970931 0.06711061 0.1174466
0.21662803 -0.12368002 -0.09319601 0.022402732 0.09882518 0.1347539 0.17508294 -0.022209335
0.14832741 0.17561203 -0.027893484 0.17549561 0.11717784 0.18269318 -0.14458594 -0.05511307
-0.04119057 -0.0076657077 0.20185077 -0.092431724 0.15596265 -0.08991592 0.18125516 0.02464198
00000000: ba93 b13b 27fc fe3d 3403 d0bd 4e94 2a3e
00000010: f917 87bd f50f 0fbe 4a71 893d d887 f03d
00000020: bdd3 5d3e f34b fdbd 8ddd bebd ef85 b73c
00000030: db64 ca3d edfc 093e f148 333e 5af0 b5bc
00000040: 24e3 173e a4d3 333e e080 e4bc 1fb5 333e
00000050: effa ef3d ec13 3b3e 560e 14be 3ebe 61bd
00000060: 71b7 28bd 9e30 fbbb f8b1 4e3e d84c bdbd
00000070: acb4 1f3e d625 b8bd f49a 393e fadd c93c

conv2.weight f4 [32, 32, 5, 5]
-0.058651425 -0.011176292 -0.063290775 0.0457097 -0.03426077 0.08155358 -0.06252432 -0.0061386214
-0.021678666 -0.10558326 -0.02747793 -0.071934655 0.019985251 -0.026977457 0.115841575 -0.030864224
0.0052395547 -0.035677563 0.016409514 0.021393633 -0.056022078 0.0353261 -0.077329196 0.020532789
-0.028153693 -0.013293155 0.026849361 0.027719568 -0.020940436 -0.012668999 0.008880117 -0.042087696
0.03215337 0.038553506 0.057795793 0.025091913 -0.0034450248 -0.05702564 -0.035911817 0.071663015
-0.053338103 -0.037564714 -0.034471408 -0.033846155 -0.001113807 0.039297063 0.03926534 -0.08520624
0.050950617 -0.050072435 0.03554509 0.06209163 0.1002082 0.033419266 0.061526895 -0.045754615
-0.13912113 -0.098305166 -0.04347944 -0.11896791 0.019913513 0.023877865 0.025681295 -0.007114443
0.06956521 0.037156034 -0.03903993 -0.034785073 0.029432539 0.02923998 0.0826175 -0.012012477
-0.10530582 0.0060001826 -0.013965019 0.028786212 0.007164802 -0.018119808 -0.00014994778 -0.10563595
0.088354394 0.053724617 0.06224456 0.019140657 -0.007184502 0.043741494 0.0007765547 -0.011684692
-0.011292311 -0.09202747 -0.017435826 -0.003203247 0.06043123 -0.05741034 0.044628184 0.0518668
0.016586896 0.0029766604 0.12384894 -0.035752982 -0.07773782 -0.059333142 -0.046024926 -0.09414024
0.013899414 0.2134172 -0.026859902 -0.017379338 -0.0045217397 -0.15503529 0.042620607 0.12006695
0.0568811 -0.013367834 0.023862096 -0.059113372 0.00068019604 0.08249389 -0.028381085 -0.046430886
0.14838642 0.040064663 0.1473835 0.08234947 0.039713517 0.030089362 0.1329241 -0.0356716
-0.04582876 0.038337316 -0.003467591 0.013398382 0.043933164 -0.0652086 0.04071068 0.017636586
0.04856788 -0.004985339 0.101972595 -0.030646438 -0.07574865 0.1115327 0.073609486 -0.025982028
-0.065264255 -0.027696474 0.013743469 0.13795568 0.051254366 -0.015557333 0.093659855 0.023209434
3.0134372e-06 -0.04014393 -0.03683359 0.09361738 -0.029506717 0.031760074 -0.024616769 0.014175708
-0.0030787108 -0.001099385 0.042096116 0.01982584 0.018874185 -0.028483894 -0.043106426 -0.15263796
0.047776505 0.022778071 0.008291828 -0.027624343 -0.025608312 -0.05502514 0.10045854 0.00065226504
-0.045370426 -0.005953444 0.033145346 -0.09235348 -0.05800655 0.04748905 0.023692196 0.07566969
-0.00013385109 0.038912863 0.006908373 -0.004287237 -0.0406739 0.010420807 0.012721684 -0.073123686
0.062764086 -0.08022893 0.068718314 -0.04662077 0.02712932 -0.07476971 -0.02609031 -0.10002716
0.031694986 -0.006737851 -0.027897894 0.039931577 -0.08086871 0.04965891 0.030578313 0.019148951
-0.009389451 0.016963067 -0.010423482 -0.007482966 0.028410515 -0.040274918 0.00075244484 0.050810713
0.013561873 0.018462019 0.05419399 0.0023108295 0.014509681 0.08600614 0.05837679 0.08764678
0.030310469 0.038076572 0.020216199 -0.032868195 -0.073258035 0.03269798 0.021672176 0.078864306
-0.027537515 0.022984134 -0.02657305 -0.08319065 -0.03103153 0.020541897 -0.081956096 -0.010603935
0.0763626 -0.046610486 -0.011605368 0.07023132 0.0024472545 -0.024139682 0.008564005 -0.013477247
0.013097149 0.031502247 -0.027811171 -0.12689424 -0.022456532 -0.052337192 0.041136075 -0.024674185
00000000: 7a3c 70bd c41c 37bc 989e 81bd 183a 3b3d
00000010: 0555 0cbd 9005 a73d c00c 80bd 7d26 c9bb
00000020: 7597 b1bc 093c d8bd 6519 e1bc 7a52 93bd
00000030: 1cb8 a33c d4ff dcbc 593e ed3d f8d6 fcbc
00000040: 92b0 ab3b a322 12bd 3f6d 863c b341 af3c
00000050: 6877 65bd 1ab2 103d c55e 9ebd 6134 a83c
00000060: 93a2 e6bc 88cb 59bc 31f3 db3c 2614 e33c
00000070: 478b abbc a291 4fbc e97d 113c 2664 2cbd
00000080: 41b3 033d 48ea 1d3d 48bb 6c3d 8e8d cd3c
00000090: edc5 61bb b893 69bd 4518 13bd 0fc4 923d
000000a0: 0e79 5abd 75dd 19bd e431 0dbd 44a2 0abd
000000b0: 29fd 91ba f5f5 203d b1d4 203d 9c80 aebd
000000c0: 98b1 503d c118 4dbd ba97 113d cb53 7e3d
000000d0: f539 cd3d a4e2 083d a003 7c3d 3169 3bbd
000000e0: c575 0ebe 3854 c9bd 7f17 32bd 73a5 f3bd
000000f0: aa21 a33c 839b c33c 9461 d23c 4620 e9bb
00000100: 3478 8e3d ed30 183d 55e8 1fbd cb7a 0ebd
00000110: 821c f13c af88 ef3c 5d33 a93d fbcf 44bc
00000120: 94aa d7bd 2e9d c43b 89cd 64bc 10d1 eb3c
00000130: b7c6 ea3b fe6f 94bc 4d3b 1db9 a957 d8bd
00000140: 26f3 b43d 580e 5c3d 27f4 7e3d decc 9c3c
00000150: f96b ebbb 482a 333d b491 4b3a 2771 3fbc
00000160: 6303 39bc e678 bcbd 94d5 8ebc 91ed 51bb
00000170: bd86 773d 1b27 6bbd 0bcc 363d 4872 543d
00000180: 3ee1 873c 1314 433b 83a4 fd3d b871 12bd
00000190: 0235 9fbd 4f07 73bd a284 3cbd 99cc c0bd
000001a0: 5eba 633c 0a8a 5a3e 4c09 dcbc 1d5f 8ebc
000001b0: 1a2b 94bb 92c1 1ebe f292 2e3d a9e5 f53d
000001c0: 28fc 683d c204 5bbc 717a c33c dd20 72bd
000001d0: 2f4f 323a 8ef2 a83d 737f e8bc 502e 3ebd
000001e0: 9cf2 173e d81a 243d b3eb 163e d7a6 a83d
000001f0: a4aa 223d f77d f63c 411d 083e 621c 12bd
00000200: f0b6 3bbd 9707 1d3d 8640 63bb e384 5b3c
00000210: 43f3 333d 168c 85bd 3ec0 263d 9a7a 903c
00000220: 1def 463d 0e5c a3bb 02d7 d03d 3d0e fbbc
00000230: 1c22 9bbd 426b e43d 92c0 963d 43d8 d4bc
00000240: 44a9 85bd b7e3 e2bc 492c 613c 4144 0d3e
00000250: 19f0 513d 2fe4 7ebc bdd0 bf3d b621 be3c
00000260: 753a 4a36 f66d 24bd d2de 16bd 78ba bf3d
00000270: 12b8 f1bc da16 023d 1ba9 c9bc 3b41 683c
00000280: 32c4 49bb 3d19 90ba fa6c 2c3d cd69 a23c
00000290: 099e 9a3c 0e57 e9bc 5d90 30bd 204d 1cbe
000002a0: 4cb1 433d 1499 ba3c 73da 073c 724c e2bc
000002b0: 86c8 d1bc 0b62 61bd 35bd cd3d c4fc 2a3a
000002c0: 57d6 39bd 1c15 c3bb 6ac3 073d d223 bdbd
000002d0: 4798 6dbd e183 423d 2316 c23c b6f8 9a3d
000002e0: 615a 0cb9 1863 1f3d a25f e23b f37b 8cbb
000002f0: ad99 26bd 08bc 2a3c 9c6e 503c dfc1 95bd
00000300: 758a 803d 114f a4bd 30bc 8c3d 6cf5 3ebd
00000310: 4f3e de3c dd20 99bd 59bb d5bc 0adb ccbd
00000320: 9ad2 013d 31c9 dcbb 208a e4bc 4b8f 233d
00000330: 7f9e a5bd 2467 4b3d 5f7f fa3c 43de 9c3c
00000340: 36d6 19bc 21f6 8a3c 41c7 2abc ab33 f5bb
00000350: 2bbd e83c 50f7 24bd b83f 453a e51e 503d
00000360: 9e32 5e3c a93d 973c 84fa 5d3d 4971 173b
00000370: 03ba 6d3c fd23 b03d 801c 6f3d 2880 b33d
00000380: a94d f83c 2ef6 1b3d 719c a53c cda0 06bd
00000390: 4f08 96bd 51ee 053d d989 b13c 9c83 a13d
000003a0: 5b96 e1bc 3949 bc3c baaf d9bc dc5f aabd
000003b0: d635 febc 7b47 a83c 99d8 a7bd 21bc 2dbc
000003c0: ff63 9c3d a3ea 3ebd 7124 3ebc 70d5 8f3d
000003d0: 1e62 203b 95c0 c5bc 0a50 0c3c accf 5cbc
000003e0: 6d95 563c 8008 013d 41d4 e3bc 90f0 01be
000003f0: c3f6 b7bc 865f 56bd 4d7e 283d 8421 cabc

conv2.bias f4 [32]
0.004366919 0.016618496 -0.039052118 0.042241257 0.0627524 0.049423464 0.025696084 -0.0024078847
0.007003935 -0.03369871 0.0031031272 -0.043017037 0.041319285 0.037370786 0.038628392 0.011928589
-0.022392025 0.03948907 0.048015814 -0.015551357 -0.031713534 0.009759296 -0.025339106 -0.037985597
-0.013822372 0.025969889 0.00031618623 0.019562263 0.056421623 0.007562639 0.015093925 -0.05813367
00000000: 5f18 8f3b 8323 883c 1df5 1fbd 2b05 2d3d
00000010: 5584 803d 4270 4a3d 9880 d23c 9acd 1dbb
00000020: 4481 e53b a907 0abd d65d 4b3b a232 30bd
00000030: 693e 293d 1c12 193d ce38 1e3d 2170 433c
00000040: 7b6f b7bc 4bbf 213d 3bac 443d 1ecb 7ebc
00000050: 0de6 01bd 74e5 1f3c f593 cfbc c996 1bbd
00000060: 3b77 62bc cebe d43c ccc5 a539 0a41 a03c
00000070: 5c1a 673d 04d0 f73b 834c 773c 921d 6ebd

conv3.weight f4 [32, 32, 5, 5]
0.014453386 0.038522404 -0.017255308 -0.018030278 0.0052078045 0.029562594 0.027100103 -0.030003946
0.0015427731 -0.008372432 0.005887078 0.0011685591 0.03576019 0.09643077 -0.04097308 -0.01933031
0.024974698 -0.037258197 0.12754264 0.100297324 0.10182989 -0.037096485 0.12578209 -0.092633456
0.09203269 0.05283687 0.018930076 0.02529308 -0.01408855 0.026665606 0.0232279 -0.020823777
0.09019128 0.023043813 0.06442253 0.008986092 -0.0075716916 0.0871984 -0.026074545 0.0717513
-0.040343493 -0.058347456 0.04489544 -0.018380811 -0.15423164 -0.021717139 0.020477416 -0.12726085
0.0006894018 -0.11558223 0.05758107 0.004155379 -0.029215636 0.0060828635 -0.0008745335 0.0030548563
-0.03213985 0.023997772 0.025873959 0.015053911 -0.056268502 -0.073105894 0.021466238 0.10193172
0.05436411 0.0033407984 0.02042599 -0.040997338 -0.03849167 -0.048922252 -0.0010781649 -0.048716377
0.00071917556 0.013697806 -0.056527387 -0.05943447 0.056361448 -0.021341538 -0.041100368 -0.12545538
-0.027883004 -0.097186774 0.019357607 -0.0020465616 -0.05387595 0.046593294 -0.044942997 0.032421697
-0.030914513 0.01069503 0.1010587 -0.008980178 0.059484277 0.16175957 -0.043001134 0.028234905
0.0020981168 -0.090153046 0.1236081 -0.05583463 -0.06975133 -0.021523213 -0.019231044 -0.015409619
-0.010557986 -0.012958252 0.029883765 -0.02246061 -0.07722834 -0.007759486 -0.0075345235 -0.03382377
0.063531965 0.028499179 0.05168145 0.068008125 0.0021755977 0.066022664 -0.00035735389 0.03587274
0.011750232 0.008497964 -0.023497667 0.12833737 0.030888293 -0.012613604 -0.036863748 0.021650305
0.00774357 -0.026147062 -0.032539785 0.029509002 0.020056961 -0.009141358 -0.015276037 0.06818527
-0.053691983 0.041419726 0.0449282 0.08912139 -0.025855172 0.08883284 0.12427691 -0.04397889
0.030751707 -0.06515304 -0.0064787413 -0.065811954 0.052026134 -0.04899283 -0.03359915 0.031668715
0.016006459 0.020848388 -0.051870506 -0.080206595 -0.031109424 0.042671174 0.031104403 -0.020593513
0.04148487 0.0063997284 0.053689025 -0.007526372 -0.08648364 -0.07368974 -0.019875865 0.13157722
-0.016405357 -0.054848704 0.0594272 -0.08180113 0.020742659 0.010488239 0.008188595 0.078164846
-0.010831757 0.035479426 0.0156155145 0.0218055 -0.032691844 0.00043577523 0.012042583 0.05789096
0.024892349 -0.024741117 0.08694383 -0.12305038 -0.0057840073 0.015932247 -0.046593536 0.039188415
0.07856067 -0.05294855 0.018364323 -0.036792293 -0.015699688 0.06666997 0.027273744 0.07740397
0.026087161 0.07789054 0.0046596546 0.11167059 -0.0018305406 0.008275241 -0.0047403486 -0.03202336
-0.013830619 0.044530544 0.09903978 0.06143359 0.018836027 -0.15721616 0.041868653 0.029597692
-0.060739495 -0.018952213 0.11822967 -0.052932072 0.05743295 -0.0115015665 0.0135024255 0.016426278
0.046188876 0.0044233548 0.015489058 -0.04781354 -0.020937037 0.052521545 0.01586659 0.027301589
-0.0007950917 -0.08501557 6.657191e-05 -0.0006465176 0.012090833 0.005816365 0.11787802 -0.18234366
-0.05825022 -0.03185464 0.04902478 -0.030687934 -0.0063106744 -0.036883056 -0.13394341 -0.031483836
-0.19460957 -0.023222756 -0.009208883 0.09162795 -0.0046017477 0.0329779 0.066377655 0.060249437
00000000: e5cd 6c3c abc9 1d3d 015b 8dbc 3cb4 93bc
00000010: 3ba6 aa3b 412d f23c 0901 de3c d6ca f5bc
00000020: e036 ca3a 862c 09bc 64e8 c03b 562a 993a
00000030: 4779 123d 7f7d c53d 63d3 27bd 995a 9ebc
00000040: bd97 cc3c 0d9c 18bd 8a9a 023e af68 cd3d
00000050: 308c d03d 7cf2 17bd 05cd 003e 9cb6 bdbd
00000060: a37b bc3d 796b 583d 3f13 9b3c 6f33 cf3c
00000070: a9d3 66bc d471 da3c 7048 be3c a096 aabc
00000080: 35b6 b83d 61c6 bc3c f6ef 833d 673a 133c
00000090: f41b f8bb 1395 b23d 499a d5bc 58f2 923d
000000a0: 383f 25bd befd 6ebd 48e4 373d 5b93 96bc
000000b0: e6ee 1dbe 24e8 b1bc 41c0 a73c ab50 02be
000000c0: f9b8 343a 60b6 ecbd 21da 6b3d d829 883b
000000d0: a155 efbc c252 c73b f340 65ba fc33 483b
000000e0: 13a5 03bd fa96 c43c a0f5 d33c aea4 763c
000000f0: cd79 66bd 8bb8 95bd f7d9 af3c 94c1 d03d
00000100: e7ac 5e3d 4cf1 5a3b 6854 a73c d3ec 27bd
00000110: 71a9 1dbd b362 48bd 3651 8dba d38a 47bd
00000120: 0e87 3c3a c36c 603c 4389 67bd 8f71 73bd
00000130: 43db 663d 73d4 aebc dc58 28bd 6077 00be
00000140: e66a e4bc dc09 c7bd d893 9e3c 9b1f 06bb
00000150: 07ad 5cbd 9cd8 3e3d 2616 38bd 9dcc 043d
00000160: 6f40 fdbc 353a 2f3c ddf7 ce3d 9921 13bc
00000170: c9a5 733d 4da4 253e f521 30bd e34c e73c
00000180: 8f80 093b 29a2 b8bd 3e26 fd3d dab2 64bd
00000190: c9d9 8ebd 7351 b0bc 6c8a 9dbc a078 7cbc
000001a0: 67fb 2cbc d94e 54bc ccce f43c 50ff b7bc
000001b0: e429 9ebd 4943 febb 2ae4 f6bb cb8a 0abd
000001c0: 0c1d 823d 1c77 e93c eeaf 533d d847 8b3d
000001d0: 7994 0e3b e436 873d 3a5b bbb9 4bef 123d
000001e0: 0c84 403c 0b3b 0b3c 2e7e c0bc df6a 033e
000001f0: 7209 fd3c 4aa9 4ebc 71fe 16bd fb5b b13c
00000200: c6bd fd3b 5d32 d6bc 7048 05bd ddbc f13c
00000210: 7f4e a43c a2c5 15bc 5848 7abc b8a4 8b3d
00000220: 20ec 5bbd bba7 293d a206 383d 4685 b63d
00000230: 3ace d3bc feed b53d e584 fe3d 3523 34bd
00000240: 01eb fb3c f56e 85bd 9f4b d4bb 6bc8 86bd
00000250: 5b19 553d b5ac 48bd 439f 09bd 0eb7 013d
00000260: fa1f 833c 3dca aa3c 2b76 54bd 5b43 a4bd
00000270: 31d9 febc f8c7 2e3d a9ce fe3c bab3 a8bc
00000280: 0aec 293d d0b4 d13b 06e9 5b3d c99f f6bb
00000290: 561e b1bd a5ea 96bd b6d2 a2bc 2ebc 063e
000002a0: 8764 86bc 09a9 60bd f069 733d 5a87 a7bd
000002b0: 82ec a93c ddd6 2b3c 7529 063c e414 a03d
000002c0: af77 31bc e052 113d 37d8 7f3c 73a1 b23c
000002d0: e2e7 05bd c378 e439 414e 453c 121f 6d3d
000002e0: 0aeb cb3c e2ad cabc 9b0f b23d d601 fcbd
000002f0: c587 bdbb 5884 823c ddd8 3ebd 0884 203d
00000300: 6be4 a03d 94e0 58bd c770 963c 84b3 16bd
00000310: a29c 80bc 448a 883d 306d df3c f985 9e3d
00000320: beb4 d53c 1385 9f3d 04b0 983b 8db3 e43d
00000330: c0ee efba e094 073c ed54 9bbb ed2a 03bd
00000340: d299 62bc a965 363d 5ed5 ca3d caa1 7b3d
00000350: 034e 9a3c 46fd 20be 777e 2b3d dc76 f23c
00000360: fac9 78bd ac41 9bbc 6622 f23d 4dcf 58bd
00000370: d03e 6b3d 1171 3cbc 4739 5d3c 6790 863c
00000380: 8c30 3d3d caf1 903b d1c5 7d3c 21d8 43bd
00000390: 2684 abbc d520 573d a7fa 813c 95a7 df3c
000003a0: b36d 50ba a51c aebd 869c 8b38 107b 29ba
000003b0: a118 463c 3597 be3b 086a f13d 4cb8 3abe
000003c0: c897 6ebd 037a 02bd 35ce 483d 4365 fbbc
000003d0: c6c9 cebb b012 17bd 7628 09be 32f5 00bd
000003e0: bb47 47be a63d bebc dbe0 16bc 6fa7 bb3d
000003f0: 42ca 96bb d613 073d 02f1 873d 1dc8 763d

conv3.bias f4 [32]
0.04783143 0.05033369 -0.035793792 0.058244914 0.013282408 -0.036039717 0.01432895 -0.0031566762
0.015561836 -0.0077875173 -0.019493226 0.008494887 0.030230701 0.0056510977 0.010449513 0.020316955
0.010787793 0.012793132 0.016840745 0.03012076 -0.0010913778 0.00047448094 0.017731238 0.0071809134
0.039575417 0.015393028 0.052253097 0.051118463 0.0119274175 0.02955053 -0.01094912 0.040698085
00000000: e4ea 433d b32a 4e3d 839c 12bd 3892 6e3d
00000010: 759e 593c 629e 13bd f9c3 6a3c 3de0 4ebb
00000020: 12f7 7e3c 6e2e ffbb 42b0 9fbc 232e 0b3c
00000030: 60a6 f73c d82c b93b 6f34 2b3c be6f a63c
00000040: 49bf 303c 499a 513c 9af5 893c d0bf f63c
00000050: 900c 8fba c1c3 f839 1a41 913c de4d eb3b
00000060: d519 223d 0a33 7c3c 5807 563d 9861 513d
00000070: 376b 433c f413 f23c f063 33bc 09b3 263d

MLP1.weight f4 [50, 1344]
-0.0216267 0.04471729 0.04324704 0.023558805 -0.033335414 -0.01934257 -0.005055996 0.014900709
-0.026274465 0.01008083 0.014375619 0.0640594 -0.010293977 0.014798397 0.037525926 0.02036344
-0.02871847 0.008539087 -0.03857948 0.038447097 0.029587202 0.0013635848 -0.031700376 0.027871022
0.048531976 0.012702086 -0.01045264 -0.010273831 0.004654657 0.037322532 -0.008992272 0.00069073617
0.0009133569 0.011064045 0.014394479 -0.08373856 0.02361318 -0.028429806 0.013544231 0.011586037
0.0029400412 -0.032946374 0.01298798 -0.08068205 -0.015505699 0.050332535 -0.0060138544 0.025838453
0.03800275 -0.017532028 0.028011324 -0.006860799 -0.03629021 -0.054311033 -0.016913552 -0.0003052852
-0.023525607 0.032836396 0.026466142 -0.014411198 0.038886867 -0.028102396 0.024080468 -0.031180022
0.04169048 0.022171555 -0.0453619 0.028021801 -0.02432523 0.05166635 -0.0073934738 0.020177642
0.06928598 0.00660571 -0.0138882855 0.047532145 0.021235617 -0.017633522 -0.044560894 0.04250491
-0.04737764 0.032128386 0.018464642 -0.00097551337 -0.11935144 -0.10534147 -0.04910023 -0.02646823
-0.04258395 -0.089280814 0.0061888383 -0.114052296 -0.017579021 -0.0099434145 -0.042751368 -0.02214687
0.015473934 -0.04816204 -0.05355364 0.0013215789 -0.056585487 -0.05054348 0.043325458 0.03761732
-0.052821677 0.042612217 0.03384333 0.009665835 -0.08088513 0.022749886 0.05393749 -0.0075629097
-0.035439044 0.05064879 -0.0063947923 -0.03864179 0.025338968 0.019866705 -0.087377496 -0.081856154
-0.06743217 0.060965516 -0.0635405 -0.0619916 0.02013285 -0.02849055 -0.003685431 -0.03871359
-0.01929756 -0.004196843 0.0069082244 0.0520078 -0.03492693 0.04121084 -0.023479518 -0.04654074
-0.0004368707 0.008252252 -0.00017829932 0.012285618 -0.017932488 0.017216139 -0.018948615 -0.02686094
-0.009001776 -0.027290557 -0.023353687 0.011689897 0.038767997 -0.005171024 -0.014210251 0.014051705
-0.033443738 -0.029600687 0.06299471 -0.0010581674 -0.0040541287 -0.06906735 -0.053692527 -0.050660584
0.011690743 -0.080428846 0.0010542008 0.0007409897 0.040897105 -0.05327013 0.07835231 -0.0024289833
0.08965899 0.053107537 0.08925535 0.029488262 -0.029234411 -0.017172908 -0.1107231 0.07424043
0.008781027 0.0070581497 0.018174917 0.046300203 0.031976055 -0.078223236 0.028766895 -0.017591532
0.04617175 -0.025913537 -0.03469266 -0.030312732 -0.016543066 0.049104236 -0.022875177 -0.027762245
-0.0028387406 0.044150908 -0.0042696935 0.045622885 0.030842213 0.01350811 -0.014554602 0.009033667
0.027962705 0.010785831 0.044802986 -0.04931373 -0.037514396 0.0044194306 -0.009350446 0.0015362485
-0.0016353601 -0.046267547 -0.033017818 -0.028429633 0.05001745 0.004109084 -0.004934733 0.05725142
-0.06991438 -0.004419524 0.0009740131 -0.018457534 -0.004734779 -0.046425167 0.030452348 0.014661554
-0.05899283 0.02589933 0.028573195 0.04785732 0.008524965 -0.018308818 -0.029066617 -0.13684931
-0.023484653 0.039994482 0.018512862 0.07161897 0.033845786 -0.012121556 0.020159319 -0.05580539
0.017665194 0.055947255 -0.001046816 -0.025512876 -0.01943347 -0.05523279 0.0741923 -0.08047525
0.03506395 0.0436329 0.014441819 -0.025963318 0.0699154 0.04146531 0.0066965865 0.054122932
00000000: 7a2a b1bc 7a29 373d cf23 313d 65fe c03c
00000010: b78a 08bd 4f74 9ebc c5ac a5bb 1a22 743c
00000020: 8c3d d7bc 112a 253c b787 6b3c 9331 833d
00000030: 12a8 28bc fa74 723c c9b4 193d 3bd1 a63c
00000040: ff42 ebbc 87e7 0b3c 8405 1ebd b47a 1d3d
00000050: dc60 f23c 50ba b23a 41d8 01bd c551 e43c
00000060: 77c9 463d 691c 503c 8d41 2bbc 9253 28bc
00000070: 1886 983b 83df 183d 5354 13bc 8512 353a
00000080: 586e 6f3a f845 353c d2d6 6b3c 1f7f abbd
00000090: 6d70 c13c a0e5 e8bc 9fe8 5d3c 5dd3 3d3c
000000a0: b5ad 403b c7f2 06bd 89cb 543c a13c a5bd
000000b0: 9e0b 7ebc 7d29 4e3d de0f c5bb 2aab d33c
000000c0: c6a8 1b3d 549f 8fbc 0178 e53c 8ed0 e0bb
000000d0: 0ba5 14bd 3f75 5ebd 4a8e 8abc b00e a0b9
000000e0: c6b8 c0bc 757f 063d 86cf d83c f21c 6cbc
000000f0: d647 1f3d ff36 e6bc 6744 c53c 3f6d ffbc
00000100: a3c3 2a3d 1fa1 b53c 66cd 39bd fa8d e53c
00000110: b445 c7bc 18a0 533d f444 f2bb 954b a53c
00000120: cfe5 8d3d b674 d83b b18b 63bc 11b1 423d
00000130: 51f6 ad3c 2d74 90bc 7c85 36bd a119 2e3d
00000140: 0e0f 42bd 0e99 033d 2943 973c 98b9 7fba
00000150: 876e f4bd 45bd d7bd 531d 49bd e7d3 d8bc
00000160: 826c 2ebd dcd8 b6bd bdcb ca3b 4094 e9bd
00000170: e101 90bc b4e9 22bc 0f1c 2fbd 5a6d b5bc
00000180: 6286 7d3c 8f45 45bd 105b 5bbd d438 ad3a
00000190: 2fc6 67bd ae06 4fbd 0976 313d 9e14 1a3d
000001a0: 8b5b 58bd 268a 2e3d 4e9f 0a3d 735d 1e3c
000001b0: 1aa7 a5bd f85d ba3c 8fed 5c3d 49d2 f7bb
000001c0: 8828 11bd 1b75 4f3d 688b d1bb db46 1ebd
000001d0: ab93 cf3c 80bf a23c f9f2 b2bd 33a4 a7bd
000001e0: e119 8abd fab6 793d 8621 82bd e7ea 7dbd
000001f0: a6ed a43c 0465 e9bc 4687 71bb 2492 1ebd
00000200: eb15 9ebc ac85 89bb 635e e23b 2206 553d
00000210: 8a0f 0fbd b3cc 283d 1e58 c0bc 81a1 3ebd
00000220: cb0b e5b9 7434 073c dcf5 3ab9 9e49 493c
00000230: 27e7 92bc dc08 8d3c 203a 9bbc 790b dcbc
00000240: 2f7c 13bc 7290 dfbc 3b50 bfbc fb86 3f3c
00000250: 31cb 1e3d b171 a9bb 1dd2 68bc 1f39 663c
00000260: 4dfc 08bd 247d f2bc 5f03 813d 35b2 8aba
00000270: 7fd8 84bb 2f73 8dbd b2ec 5bbd 7981 4fbd
00000280: 888a 3f3c e1b7 a4bd 1c2d 8a3a fa3e 423a
00000290: b983 273d c831 5abd 2d77 a03d 942f 1fbb
000002a0: 229f b73d 4a87 593d 82cb b63d 5e91 f13c
000002b0: 017d efbc 33ae 8cbc cbc2 e2bd 5e0b 983d
000002c0: 4cde 0f3c 0d48 e73b 90e3 943c 48a5 3d3d
000002d0: 53f9 023d 8133 a0bd 8da8 eb3c 1e1c 90bc
000002e0: 971e 3d3d a048 d4bc e419 0ebd 6852 f8bc
000002f0: 5385 87bc 8621 493d b964 bbbc a66d e3bc
00000300: 2a0a 3abb 95d7 343d c9e8 8bbb 10df 3a3d
00000310: cfa8 fc3c 1f51 5d3c 6d76 6ebc f201 143c
00000320: 0b12 e53c 0eb7 303c 5683 373d 32fd 49bd
00000330: b2a8 19bd dfd0 903b 9d32 19bc f25b c93a
00000340: 9459 d6ba 0a83 3dbd b13d 07bd 43e5 e8bc
00000350: 19df 4c3d 7fa5 863b 8ab3 a1bb 7780 6a3d
00000360: 452f 8fbd a8d1 90bb ea54 7f3a 4134 97bc
00000370: 3426 9bbb 5128 3ebd 3477 f93c 0437 703c
00000380: 77a2 71bd d52a d43c 5512 ea3c 0a06 443d
00000390: 4bac 0b3c 60fc 95bc 1d1d eebc 3a22 0cbe
000003a0: e362 c0bc 41d1 233d 49a8 973c f7ac 923d
000003b0: e1a1 0a3d 7e99 46bc 2825 a53c 3194 64bd
000003c0: 99b6 903c f328 653d 5135 89ba 6100 d1bc
000003d0: f132 9fbc c73b 62bd 22f2 973d 35d0 a4bd
000003e0: 379f 0f3d 69b8 323d 619d 6c3c 06b1 d4bc
000003f0: ce2f 8f3d 87d7 293d 0a6f db3b 02b0 5d3d

MLP1.bias f4 [50]
0.003404956 -0.007650182 -0.014171181 0.0282505 0.018344741 0.033224 0.0025899818 -0.021020684
-0.016793171 -0.0065941443 -0.016166072 0.009664258 -0.0025671045 0.025442412 0.012827179 -0.008381718
0.0001751153 0.048218403 -0.0018955219 -0.016477294 0.030961305 -0.019863483 0.009928964 -0.0016070502
0.008826843 -0.033440113 0.033345703 0.02751181 0.033214685 0.04687369 -0.029802727 -0.0019034976
-0.024990484 -0.01424331 0.042502232 -0.0060062157 -0.025116675 -0.005894158 -0.0019874568 0.006179479
0.0079946965 -0.021898832 0.025857013 0.02877035 -0.018668061 0.034140542 -0.012516351 0.02785087
0.053350095 -0.0015768944
00000000: af25 5f3b 61ae fabb 3e2e 68bc 986d e73c
00000010: b647 963c e415 083d afbc 293b 9233 acbc
00000020: d591 89bc b113 d8bb b66e 84bc d656 1e3c
00000030: de3c 28bb 9b6c d03c 1729 523c 7953 09bc
00000040: 289f 3739 a980 453d 2973 f8ba 64fb 86bc
00000050: 90a2 fd3c beb8 a2bc 18ad 223c a8a3 d2ba
00000060: 779e 103c 80f8 08bd 8195 083d 7360 e13c
00000070: 1f0c 083d a0fe 3f3d d924 f4bc c87e f9ba
00000080: d8b8 ccbc c65c 69bc d216 2e3d cacf c4bb
00000090: 7cc1 cdbc c823 c1bb fe3f 02bb 3a7d ca3b
000000a0: 30fc 023c 2e65 b3bc 16d2 d33c ccaf eb3c
000000b0: c3ed 98bc f4d6 0b3d 6211 4dbc 8227 e43c
000000c0: a185 5a3d ccaf ceba

MLP3.weight f4 [50, 50]
-0.054034155 0.15368457 -0.010871942 0.15805748 0.06594601 -0.026735757 0.14193556 0.055497818
0.24883763 0.053596023 -0.105413795 -0.092588216 0.051468827 -0.1391431 -0.059229784 -0.0010207058
0.061461084 0.02313992 -0.08454632 -0.10777909 0.052263934 -0.07748277 -0.0045531504 -0.006807554
0.0651182 0.00051665824 0.073137335 0.032581594 -0.016889295 0.03129684 0.0810299 -0.13703926
0.29674706 -0.102213055 0.04246233 0.04965181 -0.07497938 -0.10592339 0.016325071 -0.15214327
0.20878607 0.08943124 -0.20915474 0.14039119 -0.14682677 0.10795798 -0.07121139 -0.03930624
0.16954066 0.115656346 0.012224469 0.2117942 -0.06451778 -0.13238576 0.16900422 0.15066645
-0.100734286 0.04947312 -0.14929552 0.10349687 -0.08297321 -0.091975726 0.030415792 0.06672426
-0.04000741 -0.1678037 0.14084004 -0.13780853 -0.20725398 -0.06764061 0.06316324 0.03172025
0.027991863 0.025524365 0.061607685 -0.111272596 0.04638562 0.08653323 0.18684061 0.109958634
-0.14325194 -0.12603804 0.10537724 -0.11046563 -0.107107826 0.093741536 -0.114213526 0.19610956
-0.050065674 0.09761956 -0.184238 0.14242032 0.09437061 0.06613155 0.06036206 -0.055808723
0.048840865 0.1126848 -0.083197445 0.046862345 0.019545054 0.051747564 -0.10434528 -0.0394611
-0.095474474 0.055586327 0.14043559 -0.072182424 -0.18239003 -0.1501939 -0.112169355 0.12518051
0.12642351 0.17825852 -0.040126644 0.049044568 -0.13604783 0.031970095 0.18032973 0.0044637043
0.09630438 -0.115908474 -0.041236907 -0.11212825 0.18252976 0.04529664 -0.083000414 -0.027281135
-0.083692186 0.02235734 0.31044433 0.048781868 0.09071234 0.1230985 -0.0888177 -0.075015634
0.13335401 -0.07141039 -0.090774186 0.017351728 0.30828738 -0.037088804 -0.018971266 0.18080993
-0.030604575 0.118560344 0.0784873 -0.06453023 0.11364725 -0.016186286 0.023206968 0.008938534
0.032098573 0.101145044 0.0128588 -0.05834584 0.012819112 -0.008421511 0.15804811 0.10473588
0.12934123 -0.1939004 0.13707292 -0.034755766 0.36878547 0.012388096 -0.17484385 -0.070584536
0.032166474 -0.20032027 -0.21324328 -0.067746066 -0.08954891 0.2819841 0.030096764 0.2513633
0.2049374 0.0675023 -0.12566526 0.078747965 0.0464209 0.076571465 -0.20064071 -0.08838079
-0.014947663 0.12062165 -0.11773305 0.09327876 0.08471455 -0.09813167 0.17877382 0.14368625
0.28396943 -0.026463812 0.21901582 -0.029493695 0.33477125 0.0025165104 -0.13056347 0.02692475
0.15411222 -0.09026366 0.024406767 0.17149492 -0.023875104 0.03302095 -0.025903964 -0.045918893
0.09199289 -0.08956061 -0.22682281 -0.05109856 0.094162025 0.019374656 -0.11971807 -0.1536218
-0.09674713 0.12660825 0.11425223 0.022203315 0.0672432 0.21798095 -0.086109705 -0.109574296
0.19561651 -0.08201661 0.10892538 0.1967434 0.058698114 -0.058659106 0.029266763 0.10695864
-0.20784473 -0.060833234 -0.08676883 -0.076962024 0.16021828 0.014366234 -0.061080836 0.056264956
-0.020718418 0.06687793 -0.09372916 -0.08150475 0.25233698 0.06775827 -0.15959059 -0.002570622
0.015393535 0.00366897 -0.0012501219 0.12067643 -0.04838638 0.046997286 -0.048276078 0.115003765
00000000: eb52 5dbd 7d5f 1d3e 3b20 32bc d2d9 213e
00000010: b40e 873d f204 dbbc 8e57 113e ae51 633d
00000020: 4bcf 7e3e 8187 5b3d 30e3 d7bd e49e bdbd
00000030: fad0 523d 877b 0ebe ee9a 72bd 34c9 85ba
00000040: 9ebe 7b3d ee8f bd3c 9f26 adbd 49bb dcbd
00000050: b512 563d 49af 9ebd 9832 95bb e711 dfbb
00000060: b15c 853d 5970 073a 07c9 953d 4774 053d
00000070: 6b5b 8abc 1e31 003d 01f3 a53d 0554 0cbe
00000080: 3bef 973e 1455 d1bd fbec 2d3d b25f 4b3d
00000090: ca8e 99bd 5dee d8bd 28bc 853c 72cb 1bbe
000000a0: 04cc 553e ba27 b73d a92c 56be b5c2 0f3e
000000b0: c259 16be 1319 dd3d 47d7 91bd 94ff 20bd
000000c0: 119c 2d3e 3cdd ec3d 2449 483c 94e0 583e
000000d0: e621 84bd 2290 07be 710f 2d3e 4e48 1a3e
000000e0: c74d cebd 54a4 4a3d ede0 18be 2bf6 d33d
000000f0: dced a9bd c55d bcbd 8a2a f93c bba6 883d
00000100: cfde 23bd bcd4 2bbe 5f38 103e ae1d 0dbe
00000110: 633a 54be 2987 8abd bb5b 813d 18ed 013d
00000120: 314f e53c 7918 d13c 5758 7c3d e3e2 e3bd
00000130: d9fe 3d3d 5638 b13d 2553 3f3e fe31 e13d
00000140: a3b0 12be 1e10 01be 06d0 d73d ce3b e2bd
00000150: 595b dbbd 90fb bf3d c8e8 e9bd f2d0 483e
00000160: aa11 4dbd c4ec c73d e3a8 3cbe a2d6 113e
00000170: 6145 c13d fa6f 873d 353e 773d b097 64bd
00000180: 5c0d 483d 4ac7 e63d 6c63 aabd bbf2 3f3d
00000190: f31c a03c 41f5 533d fab2 d5bd f6a1 21bd
000001a0: 1f88 c3bd 7dae 633d 59ce 0f3e 61d4 93bd
000001b0: 74c4 3abe 6ecc 19be 0cb9 e5bd 522f 003e
000001c0: 2a75 013e 6789 363e d65b 24bd f5e2 483d
000001d0: 1f50 0bbe 13f3 023d 5ba8 383e 4444 923b
000001e0: 3b3b c53d 6c61 edbd 08e8 28bd 7fa3 e5bd
000001f0: 15e9 3a3e f888 393d 1ffc a9bd b07c dfbc
00000200: cf66 abbd be26 b73c 8ff2 9e3e 7fcf 473d
00000210: 64c7 b93d 111b fc3d 0ee6 b5bd cca1 99bd
00000220: f48d 083e 9c3f 92bd d1e7 b9bd 3625 8e3c
00000230: d8d7 9d3e 6eea 17bd a169 9bbc 3d26 393e
00000240: 72b6 fabc c4cf f23d f3bd a03d 6d28 84bd
00000250: e4bf e83d 1a99 84bc 8a1c be3c ee72 123c
00000260: cb79 033d 2225 cf3d b7ad 523c 0cfc 6ebd
00000270: 4107 523c 61fa 09bc 5dd7 213e c47f d63d
00000280: 0772 043e d48d 46be d85c 0c3e 105c 0ebd
00000290: 73d1 bc3e 71f7 4a3c 440a 33be a08e 90bd
000002a0: fec0 033d c220 4dbe 725c 5abe 73be 8abd
000002b0: 6b65 b7bd 3860 903e 7d8d f63c b1b2 803e
000002c0: 1cdb 513e a53e 8a3d 65ae 00be 9d46 a13d
000002d0: d723 3e3d 80d1 9c3d c274 4dbe fd00 b5bd
000002e0: 0be7 74bc 7c08 f73d 061e f1bd ef08 bf3d
000002f0: d27e ad3d 42f9 c8bd 7c10 373e 7d22 133e
00000300: 7164 913e a3ca d8bc af45 603e c39c f1bc
00000310: 2367 ab3e 0aec 243b 6eb2 05be 4b91 dc3c
00000320: 98cf 1d3e 27dc b8bd b3f0 c73c 5d9c 2f3e
00000330: b995 c3bc fa40 073d 8d34 d4bc 7315 3cbd
00000340: c566 bc3d 8e6b b7bd 3d44 68be b94c 51bd
00000350: 05d8 c03d 99b7 9e3c bf2e f5bd 084f 1dbe
00000360: 5c23 c6bd 98a5 013e 13fd e93d bae3 b53c
00000370: ceb6 893d 6636 5f3e 495a b0bd 7d68 e0bd
00000380: b24f 483e 53f8 a7bd 4514 df3d 1a77 493e
00000390: 6f6d 703d 8844 70bd dac0 ef3c 220d db3d
000003a0: 40d5 54be 452c 79bd dbb3 b1bd 449e 9dbd
000003b0: 4310 243e 5a60 6b3c e62f 7abd 1576 663d
000003c0: acb9 a9bc 4cf7 883d 13f5 bfbd f6eb a6bd
000003d0: 5032 813e d9c4 8a3d b76b 23be e177 28bb
000003e0: 2a35 7c3c 1a73 703b 21db a3ba 3425 f73d
000003f0: cc30 46bd 3a80 403d 23bd 45bd 1887 eb3d

MLP3.bias f4 [50]
-0.048851512 0.020828556 0.048859008 0.13017042 0.116659336 0.093086205 0.002210985 0.06699782
0.17302847 0.060160194 0.038861934 -0.0014991271 0.0724722 0.026712758 0.072792284 0.047577422
0.04055358 0.05681546 0.13040492 -0.05124009 -0.007405818 -0.03360321 0.04688072 0.012574197
0.029157264 0.10512683 0.11241063 -0.066029646 0.03155111 0.15619722 -0.028145535 0.014152222
-0.012620543 -0.11694668 0.020679124 -0.13566211 0.11901102 -0.123275 -0.01394795 -0.06949562
-0.094572164 0.12713034 0.14782538 0.079900295 0.020844782 0.09186491 0.02211747 0.11401873
-0.07012782 0.017946959
00000000: 8618 48bd a6a0 aa3c 6220 483d 654b 053e
00000010: 17eb ee3d fba3 be3d 2ce6 103b 2736 893d
00000020: 602e 313e 896a 763d b12d 1f3d 5c7e c4ba
00000030: 4e6c 943d b7d4 da3c 1f14 953d 8be0 423d
00000040: 831b 263d 54b7 683d de88 053e 21e1 51bd
00000050: 81ac f2bb 85a3 09bd ff05 403d 0104 4e3c
00000060: 37db ee3c bc4c d73d 8b37 e63d 8d3a 87bd
00000070: bd3b 013d 2af2 1f3e 7791 e6bc b9de 673c
00000080: 65c6 4ebc be81 efbd 4467 a93c 02eb 0abe
00000090: 0dbc f33d 9a77 fcbd f185 64bc b853 8ebd
000000a0: 0daf c1bd 752e 023e 895f 173e c4a2 a33d
000000b0: adc2 aa3c ac23 bc3d b22f b53c a782 e93d
000000c0: 2d9f 8fbd 8005 933c

MLP4.weight f4 [7, 50]
0.08654828 0.15397145 -0.031985547 -0.14475484 -0.18829367 -0.05717807 -0.058849677 0.13368559
-0.11328489 -0.057410117 0.021632198 -0.11707384 -0.21842733 0.23133703 -0.1456324 -0.14735582
0.18361282 0.1569884 -0.10374005 0.18830343 -0.091708854 0.097403705 -0.07112512 -0.038782265
0.05595578 0.34154978 0.14795484 -0.15212363 0.059046328 0.064256094 0.025449565 -0.072103836
0.034028497 -0.05798464 0.055723436 -0.26097718 -0.28203562 -0.15387389 -0.26857805 0.058220807
0.10134196 0.08328774 0.039653726 0.07470632 0.095995806 -0.0473822 0.037324227 0.03242873
0.014986972 -0.26214945 0.008228413 -0.06815098 0.048242126 -0.4433994 0.1165877 0.1697525
0.06575298 -0.039750487 0.10415219 0.16421758 0.06538314 -0.17009008 -0.3191142 -0.0077473433
-0.34292978 0.20438452 0.2111864 0.13480963 -0.0017195023 -0.038443193 0.0387311 0.11056979
-0.23523812 -0.09578249 -0.05143488 0.26288098 -0.12765868 -0.14376028 0.09196174 0.02291392
-0.060803592 -0.19904989 0.18101713 0.029279215 0.09445057 -0.3589415 0.087932356 0.18485829
0.11917809 0.108494505 0.0013641157 0.009577958 -0.19994366 0.16513833 -0.06977208 0.059113186
0.18594849 -0.17036948 -0.38410556 -0.34500793 0.18253182 0.030774614 0.042736296 0.12771846
0.17371143 -0.03774472 -0.23659208 -0.13528135 0.16866109 -0.16090436 0.14131667 -0.37332308
-0.08599395 0.074045144 -0.30761194 0.0152689675 0.15813461 -0.031718135 0.31762278 0.11540431
-0.1285264 -0.23747663 -0.14309941 -0.13255815 0.1643756 0.22664672 0.06626853 0.10944838
-0.090119675 0.1150764 -0.12734316 -0.48970902 0.005830818 -0.18385945 0.0332479 -0.20634125
0.124217026 0.21575065 -0.15654743 0.16600212 0.09439003 -0.026279075 0.12538451 0.169881
0.023461223 -0.17960276 0.02165185 0.17689607 0.09936592 -0.36588913 0.18442234 -0.09709847
0.0665132 -0.20730536 -0.026995314 0.13696809 -0.6053486 -0.0017405237 0.017441284 0.061284102
-0.58976084 0.2387297 0.15170701 -0.027609603 -0.2298836 -0.1903122 0.100813076 0.18969287
-0.056562424 0.15333651 0.1848983 -0.35847056 -0.31020305 0.19771883 0.056049902 -0.21655309
0.090668105 -0.088489875 -0.017994259 0.013375678 -0.15681346 -0.29402134 0.14330122 0.0827567
0.1480495 0.21782686 -0.1866283 0.040624868 -0.32062843 0.048251472 -0.4341948 0.12129486
-0.16834234 0.077010415 -0.045332115 0.003818487 -0.097756416 -0.13529141 -0.08940743 -0.085239194
-0.12939566 -0.2814867 0.038454287 0.19751942 0.023798611 0.13779365 -0.15054232 0.1513427
0.1129473 -0.18914755 0.3378737 0.15755425 -0.374734 -0.055712745 -0.2626551 0.14217272
0.07378861 -0.10044431 -0.22770172 0.06518371 0.03861071 -0.2261346 0.263706 0.15723148
0.002251392 0.17093723 0.14124611 0.17554289 0.08363179 0.14763232 0.13585614 0.082851976
-0.21409857 -0.35964152 0.14083634 -0.44813177 -0.33431476 -0.38440034 0.04244523 0.10278549
0.12231579 -0.0154360365 -0.14937958 -0.11836582 -0.008547151 -0.17159988 0.14819115 0.044854973
-0.13408238 0.06898142 -0.17797707 0.012278087 -0.20229486 -0.06853569 0.10074715 -0.06885368
00000000: 3a40 b13d b1aa 1d3e 4703 03bd 9d3a 14be
00000010: 0ed0 40be 8d33 6abd 5c0c 71bd e0e4 083e
00000020: e901 e8bd df26 6bbd 0236 b13c 69c4 efbd
00000030: 6aab 5fbe 9de3 6c3e a920 15be 72e4 16be
00000040: 0005 3c3e 91c1 203e aa75 d4bd 9dd2 403e
00000050: dad1 bbbd 987b c73d 0caa 91bd 27da 1ebd
00000060: e331 653d 9ddf ae3e 7981 173e 4cc6 1bbe
00000070: 90da 713d b398 833d 9b7b d03c 2dab 93bd
00000080: 7761 0b3d 4d81 6dbd 423e 643d cd9e 85be
00000090: f966 90be 1e91 1dbe 1083 89be f178 6e3d
000000a0: 608c cf3d c392 aa3d f26b 223d a1ff 983d
000000b0: 7399 c43d d613 42bd 4ae1 183d fdd3 043d
000000c0: eb8b 753c 7438 86be 77d0 063c be92 8bbd
000000d0: 8999 453d 3f05 e3be 88c5 ee3d 99d3 2d3e
000000e0: 80a9 863d 68d1 22bd be4d d53d a728 283e
000000f0: 99e7 853d 182c 2ebe f062 a3be 6ddd fdbb
00000100: 7e94 afbe 2d4a 513e 3f41 583e 890b 0a3e
00000110: ec60 e1ba 9c76 1dbd 80a4 1e3d 6a72 e23d
00000120: 43e2 70be 9c29 c4bd 61ad 52bd 5698 863e
00000130: f5b8 02be e535 13be 7056 bc3d f9b5 bb3c
00000140: 300d 79bd bcd3 4bbe 8e5c 393e f7da ef3c
00000150: 4d6f c13d 2ec7 b7be e115 b43d 7e4b 3d3e
00000160: a413 f43d 5e32 de3d 21cc b23a deec 1c3c
00000170: 08be 4cbe 061a 293e aae4 8ebd ab20 723d
00000180: 4869 3e3e 5675 2ebe 7ca9 c4be e1a4 b0be
00000190: 9fe9 3a3e 0b1b fc3c 410c 2f3d a1c8 023e
000001a0: 69e1 313e 359a 1abd 3245 72be 3287 0abe
000001b0: 7eb5 2c3e 1dc4 24be 51b5 103e 3424 bfbe
000001c0: 991d b0bd fba4 973d 507f 9dbe b12a 7a3c
000001d0: 0aee 213e e0ea 01bd 749f a23e 1859 ec3d
000001e0: 6d9c 03be 132d 73be a788 12be 53bd 07be
000001f0: 1452 283e 1416 683e ccb7 873d 7926 e03d
00000200: aa90 b8bd 2dad eb3d 3f66 02be 24bb fabe
00000210: 7210 bf3b a745 3cbe f32e 083d 1f4b 53be
00000220: 7f65 fe3d bded 5c3e f84d 20be 76fc 293e
00000230: 8f4f c13d 3747 d7bc cc64 003e 49f5 2d3e
00000240: c031 c03c c9e9 37be 385f b13c 3e24 353e
00000250: 5c80 cb3d d255 bbbe 36d9 3c3e 90db c6bd
00000260: 1338 883d db47 54be 4725 ddbc 5d41 0c3e
00000270: 20f8 1abf 4922 e4ba 06e1 8e3c 0a05 7b3d
00000280: 91fa 16bf 8f75 743e 1559 1b3e 892d e2bc
00000290: 9b66 6bbe 34e1 42be 1677 ce3d d93e 423e
000002a0: 00ae 67bd 3f04 1d3e fb55 3d3e 7489 b7be
000002b0: efd2 9ebe ce76 4a3e 9594 653d 18c0 5dbe
000002c0: 33b0 b93d 2e3a b5bd b268 93bc a925 5b3c
000002d0: b593 20be f789 96be 8ebd 123e 587c a93d
000002e0: 4a9a 173e 010e 5f3e 7d1b 3fbe 4366 263d
000002f0: 6929 a4be 56a3 453d c84e debe 7169 f83d
00000300: ef61 2cbe a3b7 9d3d 2bae 39bd 953f 7a3b
00000310: 8434 c8bd d589 0abe 3e1b b7bd e391 aebd
00000320: 4c80 04be 061f 90be 3e82 1d3d 8842 4a3e
00000330: 4ef5 c23c c719 0d3e c427 1abe 95f9 1a3e
00000340: ea50 e73d e5af 41be c8fd ac3e e755 213e
00000350: 23dd bfbe 0c33 64bd bb7a 86be ba95 113e
00000360: 7c1e 973d bfb5 cdbd a42a 69be 097f 853d
00000370: 4426 1e3d d48f 67be 7904 873e 4a01 213e
00000380: 178c 133b 2b0a 2f3e d2a2 103e 84c1 333e
00000390: 2547 ab3d ed2c 173e df1d 0b3e 4cae a93d
000003a0: a83c 5bbe ef22 b8be 6737 103e 8771 e5be
000003b0: 4e2b abbe 1fd0 c4be 0ddb 2d3d 3381 d23d
000003c0: b380 fa3d 6ee7 7cbc f6f6 18be c769 f2bd
000003d0: 5a09 0cbc e1b7 2fbe 6cbf 173e d9b9 373d
000003e0: e44c 09be 2146 8d3d 9f3f 36be 082a 493c
000003f0: 6226 4fbe 715c 8cbd 8654 ce3d 2803 8dbd

MLP4.bias f4 [7]
-0.13620475 0.08666347 0.049289335 0.0028002383 0.010517518 0.06958632 0.12329099
00000000: 4279 0bbe 9e7c b13d 9de3 493d 3484 373b
00000010: ab51 2c3c 4683 8e3d fd7f fc3d
