DQN/final_dqn_against_negaMax2/DQN_AgainstNegaMax_Epochs20000.pth (torch, 493315 bytes, 12 tensors)

conv1.weight f4 [32, 1, 5, 5]
00000000: 8fb7 063e 2703 553e 84a8 a6bd 135c 863e
00000010: 41ed 83bd 764e ad3d 5858 87bd 35b9 a73d
00000020: 34b6 553e 8b20 acbe 7830 293e 4c24 863d
00000030: 2f3c 4d3e b802 1b3e 002b 973e bd9f 5ebd
00000040: 8e62 9c3e e4a6 ad3c 7547 1e3d 33ea d63d
00000050: 29a2 90bd 425c 99bd 3a3f 23be 8d45 6c3e
00000060: 2f6c 87be 8b01 a7bc a2e8 94bd 08c4 aebd
00000070: 1c56 a43c 3fc4 5fbe 9a60 1f3e d7af 80be
00000080: ab6f 2b3e f16b debb bfbe 48be 4211 fb3d
00000090: edaa 133e fec7 933e 5818 f63b 4b43 8abd
000000a0: 2aaf 173e 510c 0cbe e41f 9f3d d97f 613e
000000b0: 41d4 743e 80af dcbd 37a7 873d c623 c83d
000000c0: 276e 613e 541d 3fbe 42fa 7ebe ba2d 0cbe
000000d0: 0f9f 21be 1c5d bc3e 14cd cbbd f3ea 1c3e
000000e0: c1a7 8c3c 7e4a 843d 676e 683e 804f 76be
000000f0: 6a6b 193d a62f 06be 1d80 e63d 645c c43c
00000100: 4b2a 6d3e 0a9c 0dbe 7f5e 8a3e 9dd1 7cbe
00000110: 6c14 53be 7230 c7bd 9a2f 953e 9734 fb3d
00000120: 3787 8c3e 5f3d 76be dedc 9dbe 5e4c 9abd
00000130: bb3f 1ebe 4761 613d 9061 093d da17 223e
00000140: e275 8cbd adb0 08be c826 e73d 4b80 a13b
00000150: 7082 2f3e 0fd0 15be 56f4 d33d 7d76 6ebe
00000160: 29a4 68be 8343 483e e4e9 1d3e 805f 0b3d
00000170: b2da 933d 259c a43e 0024 58be f42d 1bbe
00000180: e61d 9f3e 4741 bfbd 301a 4bbe e021 c5be
00000190: 59bc 45be 4c53 ecbb 97b8 1ebd 5a0b 02be
000001a0: b27f 07bd 61e1 26be 0e6b e0bd 995f 1fbd
000001b0: a04f 60be 65be 79be 95ae 9a3e ae33 3b3e
000001c0: e44f 373e c41e 90be 46cd 50be 468f 0cbe
000001d0: a379 a6bc 0392 9fbe e325 ccbd 7a1d 09be
000001e0: 7c01 1a3e eeee b2bd ea6b 35bc 22e9 02be
000001f0: 0342 89be c25d f6bd c2b5 94bb 4047 7ebb
00000200: 2ce7 193e 8f01 90be 42c1 083e 8fc7 7b3d
00000210: 82fd 87be ac61 873e 48d5 41bb e714 f4bc
00000220: cf25 5abe d536 5abe 6aae 733c 5b57 99bc
00000230: 8559 063e a525 c6be b370 473e f438 7bbe
00000240: 7180 50be 1295 aa3d 7194 863e 6391 0a3e
00000250: d44d 4c3e cbe5 02be 8b50 2e3d fcc7 1dbd
00000260: 656e 403d af12 92bd 3d0c a53e 213b 8ebe
00000270: ef98 173e f189 8b3e a88f 213e a626 88be
00000280: fb3f 983e 2de1 a23d be56 5b3e cddf 8fbe
00000290: 2dec 013e 77c3 98bd 4868 06be 12ba b93e
000002a0: 217f 28bd a5c4 debd 498f d0bd 4538 13be
000002b0: 83b5 5a3e 1ea5 e9bd b45b 7fbe c0be 4abd
000002c0: cf37 73be e1e3 923d 89da 663e fcf3 f1bd
000002d0: 81be 273d 6444 553e 5fe3 bb3d 5861 8fbc
000002e0: c4a6 0f3e 8b9d e73d 3da8 1a3e db1c 23bd
000002f0: 82f1 9fbd 24bd 4b3d cda0 34be 8add a7bd
00000300: 239f 463e d523 5b3e b898 94bd b6ca cf3c
00000310: 0f3e 2ebd 3012 c33d ebc8 b93d f30f 963d
00000320: a246 fbbd b27c ba3d f68c eb3d c53f 113c
00000330: 1353 8fbd 8816 eabd 2ce4 82be a88f 9bbe
00000340: d67a fcbd 16c9 d53d 3f77 913e d3fc 1abc
00000350: f9d5 60be 1c42 d2bd c74d 11be 3ec8 a13e
00000360: 8ac6 8fbc fa54 a5bd 67ce 4d3e 4250 9bbd
00000370: 5487 86be 21a5 0a3e 0032 f5bd 656b 9ebd
00000380: 8bf4 4abe 8503 d23d 435a 623e 8378 df3d
00000390: 8e19 74be 8135 d0bd 7eab b6be 0f89 5b3e
000003a0: f07d b23d 31ad 7a3e c4c4 0b3e c37d fc3d
000003b0: cbe7 b3bd 0f17 a2be d9db 25be 2a81 8dbe
000003c0: 047b 683e 7ca7 56bc a975 d9bd 6242 08be
000003d0: 9d50 783d d1aa 75bd 59ab 8fbd d2e6 ab3d
000003e0: 5173 68bd 4f1e 133e 09ae a73c 5c39 8bbe
000003f0: 0702 04bc 09d6 81be 3add 7abd ed19 72be
0.1315596 0.20801984 -0.081376106 0.26242122 -0.06441737 0.08462231 -0.06608647 0.08189622
0.20870286 -0.33618578 0.16522396 0.06549892 0.2004249 0.15137756 0.29524994 -0.054351557
0.3054394 0.021197744 0.038642365 0.10493889 -0.070621796 -0.074883 -0.15942088 0.23073407
-0.26449725 -0.020386478 -0.07270934 -0.08533484 0.020060591 -0.21852206 0.15564194 -0.25134155
0.16741817 -0.00678777 -0.19604014 0.12259151 0.14420672 0.2886352 0.007510226 -0.06751116
0.14812914 -0.13676573 0.077697545 0.22021426 0.23909093 -0.107756615 0.066236906 0.09772448
0.22014676 -0.18663532 -0.24900153 -0.13689318 -0.15783332 0.36789787 -0.09951225 0.15324001
0.017169835 0.06459521 0.22698365 -0.24053764 0.037455954 -0.13104114 0.112549044 0.023969837
0.23160665 -0.13829055 0.2702522 -0.24689336 -0.20613259 -0.09726037 0.2913788 0.1226589
0.2744691 -0.24046849 -0.3083257 -0.07534097 -0.15453999 0.05502441 0.03354031 0.15829411
-0.06858422 -0.13348646 0.11286694 0.004928624 0.17139602 -0.1463015 0.10349338 -0.23287387
-0.22718872 0.19557004 0.15421253 0.034026623 0.07219447 0.3215038 -0.21107483 -0.15154248
0.31077498 -0.093386225 -0.19834208 -0.38502407 -0.1931013 -0.007212078 -0.038750257 -0.12699643
-0.033080764 -0.16296913 -0.10957919 -0.03890953 -0.21905375 -0.24389036 0.3021132 0.18281433
0.1790157 -0.28148472 -0.20390806 -0.1372653 -0.020321673 -0.31166086 -0.09968164 -0.1339015
0.15039629 -0.087369785 -0.011073092 -0.12784246 -0.26808175 -0.12029602 -0.004538269 -0.0038799793
0.15029591 -0.2812619 0.13354972 0.06146961 -0.265606 0.26441705 -0.0029576588 -0.029795123
-0.21303485 -0.2130998 0.0148731265 -0.018718412 0.13120086 -0.38700595 0.19476585 -0.24533445
-0.20361497 0.08329214 0.26285127 0.13532023 0.19951564 -0.12782972 0.04255728 -0.038520798
0.04698028 -0.0713247 0.322359 -0.27779487 0.14804433 0.27253678 0.15777457 -0.26591986
0.29736313 0.07953105 0.21419808 -0.28100434 0.1268775 -0.07459157 -0.13125718 0.36274773
-0.041136865 -0.10877351 -0.101835795 -0.14376934 0.21358304 -0.11408447 -0.24937326 -0.04949832
-0.23751758 0.07172371 0.22544302 -0.118141145 0.040953163 0.2082687 0.09174227 -0.017502472
0.1402846 0.11309346 0.1510324 -0.03982244 -0.07809736 0.049740925 -0.17639466 -0.08196552
0.19396643 0.21400388 -0.07255691 0.025365215 -0.042539652 0.09524953 0.09071525 0.07327261
-0.122693315 0.09105815 0.115014955 0.0088653015 -0.06998267 -0.11430079 -0.25564706 -0.3038304
-0.123281166 0.10438745 0.2841129 -0.009459692 -0.21956624 -0.102665156 -0.14189826 0.31598085
-0.017550725 -0.080728486 0.20098267 -0.07583667 -0.26275122 0.13539554 -0.11972427 -0.07735328
-0.19819848 0.102545775 0.22104745 0.10911658 -0.23837873 -0.10166455 -0.35677713 0.21439002
0.08715427 0.2448013 0.13649279 0.12328675 -0.087844454 -0.31658217 -0.16197146 -0.27637607
0.22703177 -0.013101455 -0.10618145 -0.13306573 0.060623754 -0.059977356 -0.07015104 0.08393635
-0.0567506 0.1436703 0.020468729 -0.271922 -0.008057124 -0.25358608 -0.061246134 -0.23642702

conv1.bias f4 [32]
00000000: b870 84ba f3ec 083e 0c3a b1bd 4560 2c3e
00000010: 6ba8 71bd 932a 12be 1135 9a3d 92f7 f83d
00000020: 362c 653e aa5f f6bd 04d0 a2bd 6c32 1d3d
00000030: 4d8f ec3d d4b9 0c3e 2a01 353e ed9b abbc
00000040: 9906 1f3e 0022 393e 924c 7bbc eb2a 3a3e
00000050: 6607 e13d 29cb 3d3e f328 13be 400c 46bd
00000060: 3abd 2ebd 6024 953c 8b6c 4e3e 80b3 bbbd
00000070: e19e 2b3e e500 b8bd 5e15 483e bd0f b53c
-0.0010104394 0.13371639 -0.0865365 0.16833599 -0.058998507 -0.14274053 0.07529653 0.12156595
0.22380146 -0.12029965 -0.07949832 0.038378164 0.1155077 0.13742763 0.17676225 -0.020948375
0.1552986 0.18079376 -0.01533808 0.18180434 0.10987739 0.1853453 -0.1437109 -0.048351526
-0.04266093 0.018205822 0.20158593 -0.09165096 0.16759826 -0.089845456 0.19539401 0.022102231

conv2.weight f4 [32, 32, 5, 5]
00000000: 7127 51bd e94a e2bb 0095 a7bd 28be 6c3d
00000010: dbcf 63bd 99ad 9a3d 32c1 6dbd 3cac 2cbc
00000020: d5cf b0bc b184 d6bd 8d75 b3bb f30b 97bd
00000030: 4395 933c 33ff 84bd 835b f03d 2001 9bbc
00000040: f3e3 dc3b a883 3abd 0f1f e83b 3e2a 0e3d
00000050: 78a5 54bd 7da6 0a3d 3e37 a3bd afcf b13c
00000060: 5df3 48bc 32c1 8abc 8c3e 113d 0835 903c
00000070: ec1f bbbc c12d fbbc 7dcc 0b3c d2aa 44bd
00000080: 8b6d ca3c 4578 063b 67f7 6b3d 7653 053d
00000090: 0b04 f0bb 62d3 3cbd 7840 58bd 0b1e ad3d
000000a0: 7136 32bd e461 34bd 70ac efbc 3e4f 16bd
000000b0: 7e57 b3bb 76b4 fd3c 6e94 0f3d 05db 8fbd
000000c0: 60b9 7b3d a812 7dbd 6d80 413d aade 953d
000000d0: 0987 ef3d 5b94 0b3d 9114 773d f4e0 2bbd
000000e0: f366 cdbd e269 bfbd 5bfa e9bc c87c 07be
000000f0: b57b bd3c 144e 003d 1ef3 a03c 4af7 183c
00000100: 79cd 793d 0596 253d a6b8 3abd eae3 36bd
00000110: dd2b 3e3d 1060 3a3d 78d7 d03d 1ce5 65bc
00000120: bf19 cdbd 2c86 9bbb 2a8c 253b d73a 083d
00000130: c710 d83b 5fa5 c3bc 31ec 873c 25ff f0bd
00000140: 247d e53d 2771 913d f10d a13d 7045 f83c
00000150: 5c6f bfbb f2f3 003d 1610 ce3a 74fa 30bb
00000160: e25c ffbb 567c 97bd f9c2 91bc ec4b c2bb
00000170: 85a6 973d a1f7 84bd 1ba2 893d ac00 853d
00000180: d539 ac3c ed4b ba3b fda7 fa3d 5f7a b9bc
00000190: 08b0 90bd b108 63bd 9e28 d0bc 43ee b0bd
000001a0: f6cb 0a3b 5534 633e b32d 44bc 2e99 d8bb
000001b0: 71d1 e2bc 6c70 24be 2f16 0e3d 7551 fe3d
000001c0: 5ba3 a93d 84fc 003c 71f3 463d 7038 a3bd
000001d0: da7f fa3b d173 a43d b042 d4bc 6269 1ebd
000001e0: 4f70 1b3e cf45 243d 9494 263e a32e c33d
000001f0: 2840 273d ae96 fe3c e764 003e 45dd 27bd
00000200: 6283 32bd 233f 253d 83ed 003c c162 233c
00000210: ad5b 5a3d 1d89 47bd 018c 5c3d af7a 0a3d
00000220: 9653 593d 7a1e 593c eb11 e23d 7c97 36bd
00000230: 8649 91bd 27f1 f53d ab4f 993d 3b90 22bc
00000240: d37f 93bd 545e fbbc 578f 943c b9c3 083e
00000250: 4e5d d23c 4629 113c 8dc6 ba3d aa15 df3c
00000260: 0326 613c 3eaa 33bd a90f 1fbd 9d3a cc3d
00000270: 597d efbc 6c48 453d 6f2e 09bd aa7f 673c
00000280: 6143 8a3b c5aa 03bc d571 6f3d 20d1 e93c
00000290: 222f a03b 526f ccbc 1c08 f4bc 5594 14be
000002a0: bc95 603d 83c8 7dbc 4ef3 903c ab44 08bd
000002b0: a446 82bc 9ae8 2dbd 7a0c b93d 55a9 6fbc
000002c0: 1dab 4abd db5d 07bc bf7f 133d 4da9 c1bd
000002d0: a092 2fbd b31f 393d ac22 12bb 59bd 7a3d
000002e0: 77c5 c8bc afb4 8c3c b7c7 15ba bf7c 6fba
000002f0: 496d 62bd 661b 623c 1f1d 8e3c 6552 88bd
00000300: 4fce 9c3d ed5c 96bd 9209 893d 5096 17bd
00000310: d5aa f73c f03d a3bd 8a86 01bd 7924 b6bd
00000320: a83a 933c dcbc b3bc d100 3dbd f531 173d
00000330: be5a b1bd 393d 783d 2c22 143d 4c35 8c3c
00000340: 8894 853c c0d1 953c 78f6 d1bc e0b1 83ba
00000350: 7260 593d 222b a5bc b500 ea3b 1700 413d
00000360: 958e dc3b 8078 103d 1f15 4b3d 3998 cf3c
00000370: 4283 833c 5d00 b43d 1dda 6f3d 63b7 ba3d
00000380: 4cc0 433d 71c8 5d3d 3c62 463c df03 03bd
00000390: 86ba c0bd 5b97 903c 42d4 a43c 583a a63d
000003a0: e81a f4bc 7733 383d 51a5 0cbd 6548 dfbd
000003b0: 4de3 02bd acc9 2e3d d369 7dbd 0b00 80bb
000003c0: 2e11 da3d e58a 1dbd 21c3 ffba fbea 753d
000003d0: aba8 883b a6d0 a4bc 3261 853c 0e7f 8dbb
000003e0: 412d 3b3c 42b3 163d 4f45 53bc 782d 01be
000003f0: 4d8f a8bc 2641 8dbd 3e61 373d 6b6c 29bd
-0.051063005 -0.0069059026 -0.08182716 0.057798535 -0.05561815 0.075526424 -0.058045574 -0.010539111
-0.021583477 -0.104745276 -0.0054766596 -0.07375326 0.01801551 -0.06493988 0.117362045 -0.018921435
0.006741041 -0.045535713 0.0070837806 0.034708254 -0.051915616 0.03385018 -0.07969521 0.021705477
-0.012265054 -0.016937826 0.03546004 0.017603412 -0.02284237 -0.030661466 0.0085326405 -0.04801447
0.024710437 0.0020518464 0.057608988 0.032550298 -0.0073247007 -0.046100028 -0.052795857 0.08452996
-0.04350895 -0.04403867 -0.02925703 -0.036696665 -0.0054730764 0.03096984 0.035053663 -0.070241965
0.061456084 -0.06178537 0.047241617 0.073178604 0.11695678 0.03407703 0.060322348 -0.04196258
-0.10029402 -0.093463674 -0.028561762 -0.13231194 0.023130277 0.03132446 0.019647177 0.009336302
0.06098697 0.040426273 -0.04558625 -0.04465095 0.04642855 0.04550177 0.101973474 -0.014031675
-0.10014676 -0.004746219 0.0025260546 0.03325924 0.006593797 -0.023882566 0.016592117 -0.11767415
0.11205509 0.0710166 0.07863987 0.030306548 -0.0058421325 0.031482644 0.0015721347 -0.002700475
-0.007793055 -0.07396762 -0.017793166 -0.0059294607 0.07404808 -0.06492544 0.06720372 0.06494269
0.02102367 0.0056853206 0.122390725 -0.022641359 -0.07064825 -0.05542821 -0.025409993 -0.08639195
0.00211787 0.22187932 -0.011973786 -0.0066100573 -0.02768776 -0.1605851 0.034689125 0.124178804
0.08283111 0.007872704 0.048572008 -0.07969749 0.0076446356 0.08029903 -0.025910705 -0.03867472
0.15179561 0.040105637 0.16267616 0.095303796 0.04083267 0.031077709 0.12538491 -0.040982503
-0.043582328 0.040343415 0.007869127 0.009972275 0.053310085 -0.048714746 0.053844456 0.033808406
0.05305823 0.013251895 0.11038574 -0.04457806 -0.070941016 0.12008887 0.074858986 -0.009922083
-0.07202115 -0.030684628 0.018134756 0.13355912 0.025679257 0.008859938 0.09119902 0.02723201
0.013741973 -0.043863527 -0.038833294 0.09972117 -0.029234575 0.04816477 -0.03349155 0.014129559
0.004219458 -0.00803632 0.058458168 0.028542101 0.004888431 -0.024955425 -0.029789023 -0.14509709
0.054830298 -0.0154897 0.017694142 -0.033268612 -0.015902825 -0.042458154 0.09035583 -0.014627774
-0.049479593 -0.008262123 0.0360105 -0.0945612 -0.042864442 0.045196246 -0.0022298498 0.061215732
-0.024508221 0.017176 -0.0005713659 -0.0009135715 -0.055280004 0.013800478 0.01734787 -0.066563405
0.07656538 -0.07341943 0.066912785 -0.037008584 0.030232826 -0.07970798 -0.031622447 -0.08893675
0.017972305 -0.021940641 -0.046143357 0.036912877 -0.08659886 0.06060526 0.0361654 0.017115258
0.016306177 0.018288493 -0.02563022 -0.0010047518 0.053070493 -0.020162169 0.0071411976 0.047119226
0.0067308643 0.035271168 0.04958069 0.02534114 0.0160538 0.08789132 0.05855762 0.091170095
0.04779081 0.054146234 0.012108382 -0.031986114 -0.094105765 0.017650297 0.020120744 0.08116597
-0.029797986 0.044970956 -0.034337346 -0.1090248 -0.031955052 0.042672798 -0.0618685 -0.003906255
0.10647808 -0.03846254 -0.0019513109 0.060038548 0.0041704974 -0.020119023 0.016281698 -0.0043181246
0.011424364 0.036792047 -0.012894942 -0.12615001 -0.020576144 -0.06897192 0.04477047 -0.04136316

conv2.bias f4 [32]
00000000: e0b5 ae3b 4d2f a53c 973e 1abd 8f6f 153d
00000010: a2bb 5c3d dd5a 523d 66be d53c 892c bfba
00000020: 1d7d 503c 3f5f 1abd 423d 373b 32c9 2fbd
00000030: 5121 0d3d 323f 223d 778f 153d c4be 6a3c
00000040: 8c4c cfbc 89b8 0c3d d5e4 3c3d d52f 5bbc
00000050: e7ee edbc 4394 283c 4f35 d5bc b300 1cbd
00000060: 09b5 24bc 523b c73c 65a0 b93b 1bdb b23c
00000070: 1b8b 4c3d 8f63 123c 50ff 303c abd7 56bd
0.00533174 0.020164156 -0.037657347 0.036483344 0.053889878 0.051356185 0.026091766 -0.0014585416
0.012725142 -0.03768849 0.0027960096 -0.042916484 0.0344556 0.03961105 0.03651377 0.014327709
-0.025305055 0.034355674 0.04611667 -0.013378103 -0.029044582 0.010289255 -0.026026396 -0.038086604
-0.010052928 0.024320278 0.0056648725 0.021832993 0.04993735 0.008934869 0.010803059 -0.05245177

conv3.weight f4 [32, 32, 5, 5]
00000000: 5c84 763b 3d30 263d 4d5b 7fbc c451 84bc
00000010: 340e 353c 0ff5 023d 0efd ce3c fa77 f8bc
00000020: 1980 0bbb 0a2e 5dbc 57cf 93bb 33a1 2d3b
00000030: 40fe be3c 8ac7 d53d b4b5 2bbd d816 053c
00000040: 6b90 cd3c 585d 55bd a79c 1a3e 05c0 ad3d
00000050: ce70 c83d 990f 1ebd dcee 073e 14e7 c8bd
00000060: 3756 b73d a023 593d edf0 c33c fb71 c63c
00000070: f97f 10bb d0ab c73c 060a 883c 4b2f 76bc
00000080: ff65 c83d f1b4 843c 011c 6c3d 4be4 433c
00000090: b00c 9cbc c168 ae3d 5988 a5bc 4c2b 963d
000000a0: 502d 1fbd 4de3 90bd 0e60 9e3d 1a09 a8bc
000000b0: 5f69 26be e0ff 37bc 4abf 0a3c 13fd 02be
000000c0: 474a 773c d564 cfbd d862 843d 565d 6e3b
000000d0: 09ae c9bc 050b 783c 8611 5fbb 5375 c93b
000000e0: 9e18 00bd 91a2 ab3c a069 e53c b8ba a63c
000000f0: a980 7bbd ae53 a1bd f970 bd3c bc6b da3d
00000100: 72fb 853d bac2 0fbc e540 8c3c 3d1c f5bb
00000110: d37f f9bc 6a0f 8bbd 351b 1e3b 769f 20bd
00000120: 44c6 7dbc ba9d 3dbc 018c 47bd c946 7fbd
00000130: e5d3 8d3d af91 babc f7c5 31bd cf36 00be
00000140: c095 27bd ccae c7bd b708 f83b 462f 01bb
00000150: fc05 25bd e679 203d 8995 12bd d62c 1b3d
00000160: f65e 0cbd 404f d43b d85a e63d 8f03 30bc
00000170: 0987 513d 9ddf 193e 5143 5ebd 62fb bb3c
00000180: c514 a73a 39bb 90bd c35d e83d d999 82bd
00000190: 3fd1 88bd 6c00 7fbc ec88 8abc ddfd 56bc
000001a0: dfaf c4bb 2c9c 13bc 31f0 dd3c 7814 8dbc
000001b0: 8d15 a2bd 4012 25bc 0c88 37bc 40f3 abbc
000001c0: 2090 843d 49cd a33c ad2f 423d bb97 923d
000001d0: d7ed cd3b e763 5f3d 0586 8cbb 57a8 1f3d
000001e0: fa42 7b3c 68cf c83c a316 a1bc 190a fa3d
000001f0: e3a6 ef3c e9e6 4ebc 9115 27bd 2ce2 ab3c
00000200: 7503 0f3c 94ea afbc 3710 fbbc 99dd c93c
00000210: 00db c23c b001 13bb 8f56 eebc 15e1 af3d
00000220: c9d9 7abd 002e 053d 3f65 223d 18e0 b13d
00000230: a342 26bd 385d b83d ec93 033e 1086 4bbd
00000240: 4478 503d 854d 8ebd c425 3c3c f5a5 93bd
00000250: eaf6 733d b746 6bbd 1f3f 1fbd eb14 133d
00000260: 0276 423c 8c5d 933c 8c13 47bd 8f4d 9cbd
00000270: c438 e5bc d5e2 233d 1422 e43c b182 8dbc
00000280: c65c 353d 17ab 73bb df12 213d 74b7 08bc
00000290: 3e5b b0bd 32f4 8cbd b27e e7bb a12b 0b3e
000002a0: bc7b 54bc ef5c 75bd 5bca 9b3d f420 d3bd
000002b0: 6b44 c03c 0f2a 233d d13b 433c 6f9e 9c3d
000002c0: 265d 0bbc 49b1 0b3d 8337 803c 8e70 cc3c
000002d0: a443 1cbd ff20 463b e6a6 943c 488d 703d
000002e0: 86ad b73c 30ca 04bd 3afe ae3d 1149 febd
000002f0: c650 90bc 8ee2 b53c 9113 2ebd efc0 653d
00000300: 350b a63d 45a4 5fbd 6529 963c 8741 2ebd
00000310: adb8 c3bc 9809 783d 2468 ea3b fbb2 b23d
00000320: 1aa9 ce3c 2efc ad3d ed5b 89bb 39c8 d03d
00000330: 2179 6b3b f09f 3fbb 7ff6 cbbb 00b1 07bd
00000340: f3ee 51bc b973 413d ea46 c23d 07b9 973d
00000350: 9ec7 1c3c 119e 27be 5147 093d 5d15 af3c
00000360: f14b 6abd 8fe6 ecbc 2ea2 033e b1a2 48bd
00000370: 2e2b 803d 8353 22bc ad24 723c 966d 0ab9
00000380: d68a 003d 4694 13bc e5c7 833c 0f61 2abd
00000390: 6c29 97bc d50a 823d 7015 5c3c 43a6 ca3c
000003a0: 1a2f 8abb e423 b4bd 9268 14bc 00cc 873b
000003b0: 9907 5e3c 8e01 9e3b a365 0f3e e412 3fbe
000003c0: e16b 56bd 72d0 91bc e1f5 373d eb6a 23bd
000003d0: 10d9 a8bc 1cb5 14bd 768a 0cbe 8125 11bd
000003e0: 8703 37be 428e 8ebc 3232 aabc a56c c33d
000003f0: e1bc b53b c216 ad3c ab2e 723d 036e 7c3d
0.0037615513 0.040573347 -0.015585733 -0.01615227 0.01105075 0.031971987 0.02526715 -0.030330647
-0.002128607 -0.013499746 -0.004510801 0.0026493787 0.023314595 0.1043845 -0.041921332 0.008123122
0.025093278 -0.052090973 0.1509882 0.084838904 0.09787141 -0.038589094 0.13274711 -0.098097
0.08951991 0.05301249 0.023918593 0.024224272 -0.0022048934 0.024373919 0.016606342 -0.015025924
0.09785079 0.01619956 0.057643894 0.011956285 -0.019049019 0.08516074 -0.020206617 0.07332477
-0.038861573 -0.07074604 0.07733165 -0.020512152 -0.16251133 -0.011230439 0.008468458 -0.12791853
0.015093393 -0.10126654 0.064641654 0.003637155 -0.02461912 0.015139346 -0.0034037544 0.0061480193
-0.031273477 0.020951541 0.028004467 0.020352706 -0.061401997 -0.07877289 0.023125159 0.1066508
0.065421 -0.008774454 0.017120788 -0.007480173 -0.03045646 -0.067900494 0.0024125103 -0.039214574
-0.015489165 -0.0115732495 -0.048717503 -0.062323365 0.06925181 -0.022774545 -0.043401685 -0.12520908
-0.040914297 -0.09750137 0.0075693983 -0.0019712015 -0.04028891 0.03917875 -0.03578714 0.037884556
-0.03427025 0.006479174 0.11247796 -0.010743036 0.05115417 0.15026708 -0.054263417 0.022947017
0.0012747279 -0.0706696 0.11346009 -0.06377 -0.066805355 -0.015564065 -0.016910993 -0.013122049
-0.006002411 -0.009009402 0.027092071 -0.017221674 -0.07914267 -0.010075152 -0.01120187 -0.020990014
0.06472802 0.019995349 0.04740875 0.071578465 0.0062844562 0.054538634 -0.0042884373 0.0389789
0.015335793 0.024512962 -0.019664114 0.12208957 0.029254382 -0.012628295 -0.04079205 0.02098187
0.008728852 -0.02147416 -0.03064738 0.024641799 0.023786068 -0.0022431426 -0.029094009 0.08587853
-0.061242852 0.032514572 0.039647337 0.086853206 -0.040590893 0.09002155 0.12849396 -0.0496884
0.050895944 -0.069483794 0.011483613 -0.07209388 0.059561647 -0.057440486 -0.038878556 0.03590862
0.011868956 0.017988943 -0.048602626 -0.07631981 -0.02798117 0.040011246 0.027848281 -0.017274233
0.04427793 -0.0037180835 0.039324638 -0.00834452 -0.08611153 -0.06882514 -0.007064664 0.13590862
-0.012968954 -0.05990308 0.076069556 -0.1030902 0.023470124 0.039835032 0.011916117 0.07647406
-0.008506095 0.03410462 0.01565147 0.024956014 -0.038150445 0.003023207 0.01814599 0.058728486
0.02242161 -0.032419384 0.085445836 -0.1241628 -0.01761664 0.022202756 -0.04249913 0.0560922
0.08107606 -0.05460002 0.018330285 -0.04254296 -0.023891771 0.060556024 0.007153528 0.08725544
0.025227118 0.08495365 -0.0041918666 0.101944394 0.0035930353 -0.0029239617 -0.006224453 -0.033127785
-0.012813318 0.047229502 0.09486182 0.07408338 0.009569077 -0.16368891 0.03351528 0.021372491
-0.05720133 -0.028918533 0.12854835 -0.04898328 0.06258236 -0.009907606 0.014779252 -0.0001320153
0.031382404 -0.009007519 0.016086528 -0.04159647 -0.018452369 0.06349722 0.0134328455 0.024737483
-0.0042170407 -0.08795908 -0.009058135 0.0041441917 0.013551616 0.0048219627 0.14003615 -0.1865955
-0.052348975 -0.01779959 0.044912223 -0.039896887 -0.020611316 -0.03630553 -0.13724694 -0.035436157
-0.1787244 -0.017401818 -0.020775888 0.09542207 0.0055461978 0.021129016 0.059126537 0.061628353

conv3.bias f4 [32]
00000000: 6932 343d 45a5 393d e2e9 10bd 37fe 913d
00000010: fd4e 173c 51ac 32bd d541 513c 9fb0 e7ba
00000020: 70cf 4f3c b0da 4ebc 8975 83bc ab2b 443c
00000030: d186 a53c 1c11 b63b 8e18 413c bec3 793c
00000040: 53d3 a03c d21b 313c f663 843c cc8f 043d
00000050: 6135 9ebb 1f35 0f3c c88a 353c be3f cb3b
00000060: 9764 133d b437 563c ad56 4c3d 418a 4e3d
00000070: 9734 793c d44d d93c 2960 70bc 3b60 3f3d
0.043993387 0.04532363 -0.035379298 0.07128566 0.009235141 -0.043621365 0.012772043 -0.0017676539
0.012683734 -0.012625381 -0.016047256 0.011973302 0.020205887 0.005556239 0.011785639 0.0152444225
0.019632017 0.010809856 0.016160946 0.032363698 -0.0048281406 0.008740692 0.011080451 0.006202667
0.0359846 0.013074804 0.049887348 0.050424818 0.015210292 0.02652637 -0.014671364 0.046722632

MLP1.weight f4 [50, 1344]
00000000: 75d9 d5bc 6dd9 583d 467c 113d 4ee8 3c3c
00000010: f664 7dbc d232 873c e7d3 45bc 3cb0 373c
00000020: 0b48 2cbc d8aa d93b 7c64 df3c bac3 8d3d
00000030: 78fe 01bd 9e1e b43c a02c 4e3d bc1c d63c
00000040: 4973 43bd ce4e 89bc 1c9e 29bd c032 443d
00000050: f4d1 093d 4bfd e63b 9167 1dbd b4c3 223d
00000060: c8ff 4a3d 50c7 3a3c f819 c2bb 1f2d 1dbc
00000070: 0079 fbbb c331 353d cf69 9bbc 8bf3 283c
00000080: 3ca7 8c3b 770f 7b3c b602 903c 2892 9ebd
00000090: 1244 4c3d 8a90 dcbc 5e58 54ba 8363 753c
000000a0: fb21 f5ba 3b63 c3bc b3f2 e43c 0900 9ebd
000000b0: c198 d9bc 4375 423d 3991 17ba 8563 a23c
000000c0: 2484 ff3c 784f 49bc 10e2 a13c 8905 28bc
000000d0: d7ae 28bd a658 8fbd d1fe 85bb 147a fc3b
000000e0: 3cc3 d9bc c96d e63c ffc6 1d3c d4f4 3dbc
000000f0: fd2a 573d 123b 2fbd 082c c63c 196d a4bc
00000100: 63b3 373d b06e d33c 208d 7abd f0f6 a73c
00000110: 5ef4 afbc 2be7 573d dfdc bcb8 980f ae3c
00000120: b65a 7e3d 40a9 a03c ea1a f7bc 1f6b 753d
00000130: 1e34 123d 0e7e b3bc 8514 47bd cf86 e23c
00000140: 873c 13bd d5a6 123d b9cf 543c eb71 3b3c
00000150: f516 d8bd 097c ebbd 62b7 f7bc aa68 f6bc
00000160: c426 14bd 0567 b3bd 743f de3c 9492 cfbd
00000170: 56e3 1a3c bd6a 98bc 5ddb 1abd dcc3 f8bc
00000180: 5e42 203d 08b2 68bd c3d1 3abd cb9f 013d
00000190: 5402 51bd 30aa 60bd 7058 903d 563b dd3c
000001a0: 6c30 9dbd 0ed6 7d3d 16dc 2c3d 889d bc3c
000001b0: d1dc aabd c221 0d3d 6f88 883d 46fb fabc
000001c0: 3071 03bd fd98 423d 447a 3e3c 6fbd 0abd
000001d0: 786f c33b c386 953c 2042 bcbd 881a fcbd
000001e0: e84a 61bd dba8 553d cbc9 3cbd 439d 70bd
000001f0: 8b44 11bb 2416 d4bc 0151 d6bb 046e 26bd
00000200: b9e2 52bc 0bf2 3f3b 6de7 a43c e5dd 643d
00000210: 6a46 4bbd 84b8 503d b406 c1bc db6b 3ebd
00000220: 6159 c6ba c137 f63c bc31 84bb e638 6f3b
00000230: e015 e5bc 74d2 e73c a56b cebb c546 47bc
00000240: 5952 aebb acdd 17bd 0fd7 f6bc e69d a93b
00000250: 489b 583d fed9 443c e9a0 c3bc 5607 233c
00000260: c378 4bbd f300 9cbc 1f6d a23d 7057 dcbc
00000270: b646 6dbc c33b 78bd 7ecb a7bd 38f6 54bd
00000280: 407e dc3c 765e abbd 76b0 dc3a 72ed 34bb
00000290: 1309 263d 2571 abbd 51f5 a43d d5eb fdbb
000002a0: 5dc1 c03d 1e0a 2c3d 206a ab3d 0fd6 d13c
000002b0: a92f 03bd c2ff 4b3b cbba e7bd 69af 6c3d
000002c0: 5118 a53b 3eb6 c73b 336a f73b 5388 2e3d
000002d0: f6e2 783b 1bfa 9bbd 2409 673c fff2 cbbc
000002e0: a9bc 463d c7b2 1ebd f161 2abd 6210 01bd
000002f0: 3a68 41bc 3c25 2d3d 92ff ccbc 442b e9bc
00000300: 3e94 41bc 310e 353d 995d 93bb 2c77 473d
00000310: cbad cd3c 33e3 433c 822d 95bc 524a 8a3b
00000320: 09f9 163d 6839 893c b6d0 633d dbcc 3ebd
00000330: 34a4 14bd 7e6a e63c 9a3d 00bc 3823 fb3b
00000340: f755 db3b ee2c 06bd b05c f4bc 810a 50bd
00000350: 927c 473d c616 88bc 8106 973a 31ac 843d
00000360: 05b9 8bbd 3928 0b3c 4e3d 223b 6a63 e4bc
00000370: f3e1 febb 91ae 2bbd bb8d bf3c dfd8 6cba
00000380: 6d4f 7bbd 80b3 dc3c 9ee3 b43c 5979 263d
00000390: eabb 35bc 347c a7bc b66e dcbc 155e 1dbe
000003a0: 702f 03bd 3a0c 0d3d ea37 5f3c 6b5d 913d
000003b0: 433d 793c 9e26 babc 554e 893c bc95 4cbd
000003c0: 4429 be3c 2df4 603d 46cf 09bb 3608 9cbc
000003d0: 992c 87bc 290e 08bd cb9b 683d 9318 a6bd
000003e0: cf48 1e3d 09d6 633d 25e3 cf3b bce6 e4bc
000003f0: 8af5 693d b25e 9b3c 62f6 513b 73a1 df3c
-0.026104668 0.05294173 0.035518907 0.011529995 -0.0154659655 0.016503725 -0.012074447 0.011211451
-0.010515223 0.0066426806 0.027269594 0.069220975 -0.03173682 0.021987256 0.050335526 0.026136748
-0.047717366 -0.01676121 -0.04141055 0.04789996 0.033647493 0.007049238 -0.038428847 0.03973742
0.04956034 0.011400059 -0.005923506 -0.009593277 -0.0076743364 0.04423691 -0.018971352 0.010311971
0.004292397 0.015323511 0.017579418 -0.07742721 0.049869604 -0.02692439 -0.0008100326 0.014977339
-0.0018702144 -0.023851028 0.02794776 -0.077148505 -0.026562097 0.04747511 -0.0005781833 0.019822845
0.03119094 -0.012287013 0.019761115 -0.010255226 -0.041182365 -0.0699933 -0.0040892144 0.0077049825
-0.026582353 0.028128522 0.009629964 -0.011594016 0.05253123 -0.042780943 0.024190918 -0.020071553
0.04484881 0.025809616 -0.061169744 0.020503491 -0.021478828 0.052710693 -9.005679e-05 0.02124767
0.062098227 0.019611955 -0.0301642 0.05991661 0.035694234 -0.021910693 -0.048603553 0.027652172
-0.035946395 0.035803635 0.012988978 0.011440734 -0.10551254 -0.11498267 -0.03023881 -0.030079205
-0.036169782 -0.08759884 0.027129866 -0.101353794 0.009453615 -0.018605584 -0.037806857 -0.03036683
0.039125793 -0.05681041 -0.0456102 0.03164653 -0.05102761 -0.054849803 0.07048118 0.027005833
-0.07675251 0.061971717 0.042202078 0.023024336 -0.08342899 0.034456022 0.06666648 -0.030637395
-0.032090366 0.047509182 0.01162583 -0.033872064 0.005964216 0.018252736 -0.091923 -0.12309748
-0.055003077 0.052162986 -0.046090882 -0.058743726 -0.00221661 -0.025889464 -0.006540418 -0.040632263
-0.012871438 0.0029288556 0.020129884 0.055875678 -0.0496277 0.050957218 -0.023562767 -0.046489578
-0.0015132838 0.030055882 -0.004034249 0.003650242 -0.027964532 0.028298594 -0.0062994533 -0.012162869
-0.005319875 -0.037076637 -0.030131845 0.0051762937 0.052882463 0.012014864 -0.023880439 0.0099504795
-0.049675714 -0.019043421 0.079309694 -0.026897162 -0.014482191 -0.06060387 -0.0819311 -0.051992625
0.02691567 -0.08367626 0.0016837257 -0.0027607349 0.040535998 -0.0837119 0.08054603 -0.0077490606
0.09411881 0.042001836 0.08369851 0.025614766 -0.032027874 0.0031127785 -0.11314925 0.05778447
0.005038299 0.006094723 0.0075505017 0.042610478 0.0037977076 -0.07616063 0.0141013 -0.024896143
0.048519764 -0.038744714 -0.04159731 -0.031509764 -0.011804635 0.042271838 -0.02502421 -0.028463013
-0.011815129 0.044202987 -0.0044972417 0.048697636 0.025107285 0.011956024 -0.018210176 0.0042202855
0.036858592 0.016751006 0.055618964 -0.046582084 -0.03628941 0.028126951 -0.007827187 0.0076641105
0.0066935974 -0.032757692 -0.029829353 -0.050791267 0.048702784 -0.016612422 0.0011522324 0.064781554
-0.06822399 0.008493477 0.0024755779 -0.027879436 -0.0077784 -0.041914526 0.023383012 -0.0009035002
-0.061355043 0.026941061 0.022081193 0.04064307 -0.0110921655 -0.020444967 -0.02690826 -0.1536792
-0.03202766 0.03443549 0.013624171 0.07097896 0.01521236 -0.022723492 0.016760984 -0.049947485
0.023213036 0.054920364 -0.0021028086 -0.019046884 -0.016500758 -0.03321663 0.0567892 -0.08110156
0.038643654 0.05562404 0.0063442164 -0.027942054 0.05711893 0.018966053 0.0032037725 0.027298665

MLP1.bias f4 [50]
00000000: 214b e7ba 62da 55bc 2e4c 27bc 67a8 dc3c
00000010: 2252 6b3c c54b 143d f5d4 1ebc a70c e8bc
00000020: 2bf2 92bc 1456 81bb b98e 94bc 6fe0 863c
00000030: 98a4 133b 9447 fb3c 5ddb 063c 6ee1 2cbc
00000040: f4a0 f6bb b47f 2f3d 9111 aabb 4aee 16bc
00000050: cd89 113d 3b4a 95bc b742 2c3c 095a 95bb
00000060: 03a5 d73b a3ca f5bc 4a94 1f3d 9a3f e23c
00000070: 02f1 0d3d c893 383d e83f 06bd 4ca7 93bb
00000080: 8228 b7bc aeca 0fbc 4b5c 2b3d 90bb efbb
00000090: c6f9 f0bc ccd5 633c 257d 5abc ea93 783c
000000a0: 899a 923b df04 babc ae0f ef3c faf6 f63c
000000b0: 5fad a7bc 84d7 193d 8f9f 88bc 3125 fa3c
000000c0: ed21 693d 0869 efbb
-0.0017646292 -0.013052555 -0.010211034 0.02693577 0.014362844 0.036205072 -0.009694328 -0.028326346
-0.01793774 -0.003947029 -0.018134462 0.01646444 0.0022528525 0.03067378 0.008231011 -0.0105517935
-0.0075265113 0.042846397 -0.0051900824 -0.009212086 0.035531808 -0.018223872 0.010513953 -0.004557852
0.00658095 -0.030003851 0.03895978 0.027618218 0.03465367 0.04506281 -0.03277579 -0.0045060273
-0.022358183 -0.00877635 0.041836064 -0.0073160604 -0.029415976 0.013905954 -0.013335501 0.015171984
0.0044739884 -0.0227074 0.029182281 0.030147064 -0.020468412 0.037559047 -0.016677646 0.030535312
0.05691712 -0.007306222

MLP3.weight f4 [50, 50]
00000000: b62a 6ebd 1376 1d3e c77f 87bb d65f 203e
00000010: fd61 8c3d f28e 63bc 3180 143e 700b 743d
00000020: 88ca 743e 1578 823d b7bf e2bd 1e49 d0bd
00000030: 0b16 7a3d eda0 12be e153 67bd 8229 23bc
00000040: add7 823d cb75 973c 6625 c9bd 86ab e7bd
00000050: c6c7 4d3d 61cf b5bd 2603 d73b 8147 57bc
00000060: e85a a53d e8b1 12bb f18f 813d 5dc4 223d
00000070: 3ec5 a5bc a5fe 093d 0c37 ac3d 8e82 0bbe
00000080: 1eab 943e 8a55 acbd b51e 7b3d fd57 753d
00000090: a53c 9bbd 363d a3bd 4994 613b 565f 22be
000000a0: da58 623e 9e5d ad3d fa92 4bbe dc35 173e
000000b0: 6ae9 17be 081d d13d 44d3 5fbd a57c b7bc
000000c0: dd80 3e3e edb4 d33d be06 853c f9d8 4a3e
000000d0: 9b1f 83bd 2e0e 0abe 1221 5b3e ef10 163e
000000e0: 759f e0bd 7747 103d 4003 22be 1d8f e03d
000000f0: aace a8bd 1045 c8bd 013d 403d 480d 423d
00000100: 5aac 8dbc 8617 26be 94f9 0f3e 1616 17be
00000110: 0530 77be 3318 b7bd 0865 5e3d 713e 1c3d
00000120: 547e 1e3c b5fe fe3c a099 633d 603f ccbd
00000130: 0ccb 003d 8be4 8c3d 427a 273e b5d6 d33d
00000140: 70a1 20be 5336 12be 417a 053e 3637 e7bd
00000150: 5367 f7bd 8a02 b53d 2fb9 ffbd 6c94 683e
00000160: 9763 a3bd a74e c43d 896d 5dbe de19 0c3e
00000170: d76e f23d 81a4 533d 6499 793d 141c 7bbd
00000180: 9b5b 353d 3411 d53d 855e b4bd acda 273d
00000190: c5b6 d03c 6165 953d b001 b5bd b78a 0bbd
000001a0: 778a c9bd cb7d 873d d6ef 153e 45c3 74bd
000001b0: f50f 48be 1c8c 13be 1d86 e3bd f1aa 103e
000001c0: 8082 0c3e e588 473e 1b40 2abd 0425 e43c
000001d0: 60d4 02be d504 023d 42e3 343e 23c8 a03c
000001e0: e253 dd3d 0eab e3bd 6912 8bbc c2c1 f6bd
000001f0: bc24 503e 9cb1 303d 26ca 6abd 3357 a4bc
00000200: 908e 92bd b231 163d 04e5 9b3e 5e82 773d
00000210: 7a39 963d 2731 0d3e 406e 9ebd 19df 84bd
00000220: 5082 0c3e b974 e0bd a0fe b4bd fbf3 213d
00000230: 5060 9f3e c74b ebbc 9501 d4bc 83dd 4e3e
00000240: a830 febc 7c2a f73d 4257 ae3d 952a 63bd
00000250: b4fc 0d3e c065 5abc f4a5 eb3b 23a6 edba
00000260: 7d16 023d a26e d53d 421c 82bc e76a 6fbd
00000270: 2929 153c bdd7 febc de41 0b3e 1a3c e43d
00000280: 7a28 f63d 165f 5bbe 3bf9 0d3e 391b 1fbd
00000290: db60 c13e fa70 363c 644c 43be de4e 88bd
000002a0: e540 223d 7573 4cbe e90b 64be e19b 87bd
000002b0: 4483 b0bd 1962 9b3e 8c1f 483c c823 763e
000002c0: 243f 553e 9657 523d 17b6 14be 7e6c 943d
000002d0: 91e6 633d 07d2 9d3d ed11 74be 511e a0bd
000002e0: 0eb3 22bd 3582 ef3d 9c89 0ebe aa64 303d
000002f0: 6c0e 973d fb78 ccbd 1887 3b3e 4041 f73d
00000300: 6ece 943e bb3b 10bd ace4 6a3e 2545 27bd
00000310: 5885 a93e 84d8 3f3b 53b5 02be 359a cb3c
00000320: 9dea 293e 723c 85bd 4a81 d73c 3d75 3e3e
00000330: a022 efbc f8e0 243d 4a76 a0bc 13c3 16bd
00000340: 4415 ae3d 223f bdbd 4151 67be e8ed 1ebd
00000350: f55b dd3d b8e3 e33c 3411 fabd 1a83 29be
00000360: 529f b0bd 5fee 083e ab3f 013e c1ed e53c
00000370: 6337 8d3d 7749 7a3e af6e 7bbd d436 e0bd
00000380: f233 553e f347 b6bd 0310 023e dbfe 5e3e
00000390: c0a9 683d 1098 41bd c33b 143d c57e f03d
000003a0: 201a 6abe 1187 84bd 5fbd 96bd d327 87bd
000003b0: 8eda 323e e258 813c 64ab 3ebd c277 203d
000003c0: 4129 88bc fd24 8b3d 192b ccbd 42d9 9bbd
000003d0: 513a 813e dec5 933d e86b 25be c6d7 1a3c
000003e0: 25a9 2e3d 40c1 703c c0dd 163c b5bd 0e3e
000003f0: d779 14bd 3efa 593d c0c7 69bd 112a ff3d
-0.0581462 0.15377073 -0.0041351053 0.15661559 0.06854627 -0.013889061 0.14502026 0.05958122
0.23905385 0.0637056 -0.11071723 -0.10170196 0.061056178 -0.14319201 -0.056476478 -0.009958627
0.06388793 0.018488785 -0.09821586 -0.113120124 0.050239347 -0.08877445 0.0065616546 -0.013139606
0.080739796 -0.0022383872 0.06326283 0.039738048 -0.020235654 0.033690114 0.08408937 -0.13624021
0.29036802 -0.08414753 0.06130858 0.059898365 -0.075799264 -0.079706594 0.003442066 -0.1585668
0.22104207 0.08465122 -0.19880286 0.1476664 -0.14835134 0.102106154 -0.054644838 -0.022398302
0.18603845 0.10337243 0.016238566 0.19809331 -0.06402513 -0.13481972 0.21399334 0.14654897
-0.10967914 0.035224404 -0.15821552 0.10964797 -0.08242543 -0.097787976 0.046933178 0.047375947
-0.017294098 -0.16219911 0.1406005 -0.14754519 -0.24139412 -0.089401625 0.05429557 0.038145486
0.009673674 0.031127313 0.05556643 -0.09973025 0.03144364 0.068795286 0.16355231 0.103436865
-0.15686584 -0.14278536 0.13034917 -0.112898275 -0.120802544 0.08838375 -0.12486493 0.22712868
-0.0797798 0.09585314 -0.21623816 0.13681743 0.11837547 0.051670555 0.0609373 -0.061306074
0.044276815 0.10403672 -0.08807091 0.040980026 0.025477776 0.07294727 -0.088382125 -0.034067836
-0.09840863 0.0661579 0.14642271 -0.059756536 -0.19537337 -0.14408916 -0.111095645 0.14127709
0.13721657 0.19485815 -0.041565042 0.027849682 -0.12776327 0.03174289 0.17664817 0.019626683
0.10807015 -0.111166105 -0.016976552 -0.12048675 0.20326513 0.04313813 -0.05732169 -0.020061111
-0.07156098 0.036668487 0.30448163 0.060427062 0.073351815 0.13788281 -0.07735872 -0.06487865
0.13721585 -0.10959763 -0.08837628 0.03953932 0.31128168 -0.028722657 -0.02587966 0.20201688
-0.03102906 0.1206865 0.08512737 -0.05546053 0.1386593 -0.013329923 0.007191414 -0.0018131178
0.031759728 0.10421492 -0.015882615 -0.05845156 0.009104052 -0.031108731 0.13599345 0.11144276
0.12019439 -0.21422991 0.13864605 -0.03884432 0.37769207 0.011135334 -0.1907211 -0.06655668
0.03961267 -0.19965918 -0.22270168 -0.066215284 -0.08618787 0.3034828 0.012214553 0.24037087
0.20824867 0.05135306 -0.14522587 0.07247256 0.055639807 0.07706075 -0.23834963 -0.078182824
-0.03972154 0.11694757 -0.13919681 0.04306475 0.07375798 -0.09984013 0.18313253 0.12072992
0.29063743 -0.035213213 0.22938794 -0.040837426 0.33109546 0.002927334 -0.12764482 0.024853805
0.16593404 -0.0650567 0.026306767 0.1859941 -0.029191315 0.04025361 -0.019587655 -0.03680713
0.0850015 -0.09240557 -0.2258959 -0.038801104 0.10808555 0.027818546 -0.122103125 -0.16553918
-0.08624138 0.13372181 0.12621944 0.028067471 0.0689533 0.24442087 -0.061384853 -0.10947958
0.20820597 -0.08900442 0.1270142 0.21776907 0.05680251 -0.04726416 0.036189806 0.11742929
-0.22861528 -0.064710744 -0.073603384 -0.06599393 0.17466184 0.015789453 -0.04655017 0.03917671
-0.016621234 0.06794164 -0.09969158 -0.07609798 0.25239804 0.072154745 -0.16154444 0.009450858
0.042641778 0.014694512 0.009208143 0.13939555 -0.036249008 0.053217165 -0.057075262 0.124591954

MLP3.bias f4 [50]
00000000: 62dd 3ebd a923 a03c cb45 833d 5a89 e73d
00000010: 5bc9 fe3d 68e4 db3d d0b3 b83c 3b56 a03d
00000020: ea12 3b3e d5fa 933d 8fd6 2e3d 1b6a 22bb
00000030: 2823 9c3d 83e9 b23c 02ae 8e3d db16 563d
00000040: daf3 483d ddc6 503d 5c4c 023e b54a 2bbd
00000050: bb1b eebb e056 a6bc 380e 453d 9216 9d3c
00000060: 3933 113d d74d d03d fb02 f83d 7fb4 98bd
00000070: 3b1a 273d a0e9 2c3e 4dca aabc d181 683c
00000080: f662 cfbb b1de e9bd 8c56 f23c 3458 fbbd
00000090: 74bb dc3d 253d f2bd 74d3 29bc 3bab 95bd
000000a0: 0125 c5bd 8e5c ff3d fb3f 1e3e 8cfd 9e3d
000000b0: 933f ad3c e46e be3d f507 e73c 370d eb3d
000000c0: 6ea7 8ebd 8da8 983c
-0.046597846 0.019548254 0.06409796 0.113054946 0.12440749 0.107369244 0.022546679 0.07828947
0.18268934 0.07225577 0.042685088 -0.0024782482 0.07623893 0.021839863 0.06966783 0.05226789
0.04906068 0.0509709 0.12724441 -0.041819293 -0.0072664893 -0.020305097 0.048109263 0.019175801
0.03544924 0.10171097 0.121099435 -0.07456302 0.0407965 0.16885996 -0.020848418 0.014191107
-0.0063289357 -0.11419428 0.029582284 -0.12272683 0.10777941 -0.11828069 -0.010365356 -0.0730805
-0.096261986 0.12468825 0.15454094 0.07763204 0.021148479 0.092984945 0.028202036 0.1147713
-0.069655284 0.018635059

MLP4.weight f4 [7, 50]
00000000: 9fa9 aa3d fd71 5a3e b5ea 96bc e94a 07be
00000010: da96 4fbe 1bb1 7dbd 84a5 87bd 7e5b 203e
00000020: d916 f5bd 0829 81bd 4d45 4dbc 5457 e0bd
00000030: afce 57be 46c7 823e 7fdf 14be 18e4 e2bd
00000040: 11e0 4e3e 1ff0 263e f96c dcbd b8ea 523e
00000050: 1ae8 b8bd 92cf e13d cbf7 99bd 92c1 2dbd
00000060: 065e 4b3d 0cd6 b93e 5ce6 323e f366 10be
00000070: 8824 a23d 59c6 a43d 0929 593d 8c3f 7abd
00000080: cf45 e63c 43cb 9cbd e823 823d 1332 8fbe
00000090: 4b87 93be b81d 33be fcd9 9fbe a97c 873d
000000a0: b897 263e 7df0 c93d 90d7 733d f42f 9d3d
000000b0: 9c92 c23d 10c9 07bd 6137 2c3d c052 2e3d
000000c0: 8e0c 303c c263 91be 8f6f 803c 21ff 77bd
000000d0: 774e 753d 56a9 f2be 559b 013e 12cf 353e
000000e0: d071 9e3d 105d 31bd bc69 023e 017d 323e
000000f0: d4b2 9d3d 6c4b 35be e4b6 adbe 3bf6 983b
00000100: 7511 b5be 1198 6e3e 17ed 6a3e 46ee 163e
00000110: 92b1 f43b 9335 e0bc 1d79 413d e787 fd3d
00000120: e5d3 79be 8cb7 b6bd 89ae 44bd 37f1 933e
00000130: 569f f5bd ee0b 12be 5cbe e23d 8a53 193d
00000140: 31dd 70bd 8f43 57be 4835 783e 0b51 133d
00000150: e650 dc3d 80f7 c6be 8eab c13d a7d8 453e
00000160: ce83 193e c612 013e 3077 c3bb 2b95 c73c
00000170: dd85 5bbe f145 3d3e de5a 9fbd dc73 8a3d
00000180: dacf 4f3e 4f7f 33be 1ff1 c6be 6a8c b3be
00000190: 1c0c 3a3e c760 443d 1770 5f3d 1fb7 133e
000001a0: 095d 3b3e 64e4 06bd 1e6a 75be 98ce 0ebe
000001b0: 8038 363e 0f62 3fbe ce26 353e 9a5f d0be
000001c0: ffba c1bd dac0 aa3d a3bd a5be 2402 083d
000001d0: e307 273e 9903 02bd 0bec b43e 68b1 033e
000001e0: 3ef6 07be 50ad 7bbe 571b 13be 7c33 07be
000001f0: d281 373e 04c9 883e a542 9f3d 63af 083e
00000200: 3e2b cfbd 27c9 013e 5853 00be 7cb9 02bf
00000210: 1655 95bc 120a 67be ed3b 353d 74cc 68be
00000220: c95c fe3d 4de3 5c3e 2d56 2dbe 038a 353e
00000230: 448c c63d 969b b4bc e7ac 0a3e 43d4 413e
00000240: ea83 743c 31ba 48be e87e e93c 352e 4c3e
00000250: 0340 f43d 51a0 c3be 1a21 4f3e b147 babd
00000260: addb a33d 9410 63be 91b1 93bc 9458 193e
00000270: 5a89 26bf 1f0c 913b 495d da3c 4564 803d
00000280: 408f 1cbf fa1f 7f3e 2c99 2d3e 393a a6bc
00000290: afa9 6ebe 56e2 29be e5cd e13d 406a 4b3e
000002a0: 3ff5 98bd 4644 2d3e 917f 5a3e 9062 d0be
000002b0: 2c21 aabe e3b6 563e 4324 803d d8b3 60be
000002c0: 2925 d13d a8b1 88bd 95ca 12bc 81ff c33c
000002d0: 2f12 17be 418a a5be 1d29 333e 3457 8d3d
000002e0: d412 233e b36d 703e ece9 41be 832c 623d
000002f0: e4f9 b9be 34fd 643d 78aa f7be 1f53 023e
00000300: 4a1d 34be d4c7 bb3d f78b 6ebd 2697 47b9
00000310: 49d9 c3bd c424 0dbe ebfa bbbd 8739 a6bd
00000320: f59a 02be 9d53 90be 0479 6f3d 3c4b 3d3e
00000330: 6f14 103d e3fa 1b3e 88cb 1abe 3014 223e
00000340: 99d0 093e 71a9 4fbe 14c5 b43e fa05 133e
00000350: 6e01 d3be 2f86 36bd b748 92be fb8c 2f3e
00000360: 1c17 b43d f916 ccbd 8ce6 8dbe dd85 a63d
00000370: 1482 433d 4f94 78be 7aaf 923e 074c 2b3e
00000380: 1d53 863c 13d4 473e aeee 1d3e 08b0 523e
00000390: 9d50 c73d ef9a 293e 46d2 243e a06c a53d
000003a0: 7e71 63be 28e6 cdbe 3b27 203e 8673 00bf
000003b0: 1942 bdbe 1705 ddbe c058 3c3d 1fea ee3d
000003c0: d888 093e ef1a ffbb 8ffd 38be e55c e6bd
000003d0: 45b7 61bc b9ce 30be ce02 283e 7603 5e3d
000003e0: e66d 18be 48ef 6e3d 1e8a 34be e246 ffbb
000003f0: 8321 56be fc37 83bd 3551 dc3d d198 82bd
0.08333134 0.21332546 -0.018422464 -0.1321217 -0.20272389 -0.06193648 -0.066233665 0.15659901
-0.119672485 -0.06306654 -0.01252873 -0.109541565 -0.21074937 0.2554266 -0.14538382 -0.11078662
0.20202662 0.16302536 -0.107629724 0.2059735 -0.09028645 0.11025919 -0.07517966 -0.04242093
0.049650215 0.36296117 0.17470688 -0.14101772 0.07917124 0.08045644 0.05301765 -0.06109576
0.02810946 -0.076559566 0.06354505 -0.2796789 -0.28814158 -0.17491806 -0.31220996 0.06615574
0.16268814 0.098603226 0.05953175 0.07675162 0.0950062 -0.033150733 0.042045 0.042559385
0.010745181 -0.28396422 0.015678195 -0.060546044 0.059889283 -0.47394818 0.1265691 0.17754772
0.07736552 -0.043301642 0.12735647 0.17430498 0.077001244 -0.17704552 -0.33928597 0.004668025
-0.3536488 0.23300196 0.22942005 0.14739332 0.007467457 -0.027369296 0.047234643 0.12379437
-0.24397238 -0.089217275 -0.048018012 0.2889497 -0.119932815 -0.14262363 0.110714644 0.037433185
-0.058804695 -0.21021865 0.24239075 0.03596596 0.10757618 -0.38860703 0.094565496 0.19320928
0.14991686 0.12604818 -0.005965136 0.024363121 -0.21437784 0.18483712 -0.077810034 0.0676038
0.20294133 -0.17529033 -0.38855836 -0.35068065 0.18168682 0.047943857 0.054550257 0.14425324
0.18297209 -0.032932654 -0.23966262 -0.13945997 0.1779499 -0.1868975 0.17690584 -0.40697938
-0.09459495 0.08337565 -0.32371244 0.033205166 0.16311602 -0.031741712 0.35336336 0.12860644
-0.13277528 -0.24577832 -0.14365898 -0.13203233 0.17920616 0.26715863 0.07776383 0.13348155
-0.1011567 0.1267439 -0.12531793 -0.51064277 -0.018229049 -0.22562435 0.044246603 -0.22734243
0.12420041 0.21571083 -0.16927405 0.17728429 0.09694722 -0.022046845 0.1354252 0.18928628
0.014924029 -0.19602276 0.028502896 0.19939502 0.11926272 -0.3820825 0.20227471 -0.09095705
0.08000884 -0.22174293 -0.018029006 0.14975196 -0.6505333 0.004426494 0.02665581 0.06269125
-0.6115608 0.24914542 0.16952962 -0.020291435 -0.23306917 -0.16590247 0.110255994 0.1986475
-0.07468652 0.16920575 0.21337725 -0.40700197 -0.33228433 0.20968203 0.062569164 -0.21943605
0.10212166 -0.0667451 -0.008959432 0.023925545 -0.1475303 -0.32332042 0.17496152 0.06901398
0.15925151 0.23479347 -0.1893689 0.05521823 -0.36323464 0.055905536 -0.48372245 0.1272702
-0.17589298 0.091689736 -0.05823895 -0.00019034426 -0.09562928 -0.13783556 -0.09178718 -0.08116441
-0.12754424 -0.28188792 0.05846502 0.18485731 0.035175737 0.15232424 -0.15116704 0.15828013
0.1345848 -0.2027948 0.3530661 0.14357749 -0.41212028 -0.04456156 -0.28571102 0.17143624
0.0879347 -0.09965319 -0.27714956 0.08131001 0.047731474 -0.24275325 0.28649503 0.16728221
0.016397053 0.19514494 0.1542308 0.20574963 0.09732173 0.16563009 0.16095838 0.08077359
-0.22211263 -0.40214658 0.15639965 -0.50176275 -0.3696449 -0.43167946 0.045983076 0.11665749
0.13431108 -0.007785193 -0.18065475 -0.11248187 -0.013776605 -0.17266358 0.1640732 0.05420252
-0.14885673 0.058333665 -0.17630813 -0.0077904323 -0.20911221 -0.064071625 0.107576765 -0.06376804

MLP4.bias f4 [7]
00000000: f218 ecbd f33f c63d 1d43 523d 82aa 573c
00000010: 552c aa3c 8e3e 823d 66bf 053e
-0.115281954 0.09680166 0.051333535 0.013163211 0.020773092 0.063595876 0.13061294
