DQN/final_dqn_against_negaMax2/DQN_AgainstNegaMax_Epochs0.pth (torch, 493259 bytes, 12 tensors)

conv1.weight f4 [32, 1, 5, 5]
00000000: baf9 a63d 3c3b 6b3e e794 92bd 63d9 883e
00000010: b4c3 32bd 55c7 a23d 4f1d 5dbd ca11 553d
00000020: 17fc 5b3e e2a8 9ebe 52d3 e73d bb4d 0f3d
00000030: aa1b 523e e382 0b3e 94c5 973e d164 32bd
00000040: b879 923e 4ffc 203c 8bd7 0c3c 319f f03d
00000050: 2c3c a7bd aeb4 84bd 6c76 1cbe bcf0 613e
00000060: 00c2 86be 536c 4bbd 8c16 28bd 30cd b3bd
00000070: cc9d 643c 5226 86be 1b17 383e 595f 64be
00000080: 1dc2 363e 070c 563b 9733 2fbe ae16 fd3d
00000090: 4550 ff3d fef9 8c3e a4b6 c03c 8008 abbd
000000a0: 1684 1c3e d055 13be 3d40 aa3d 9bde 4b3e
000000b0: bbc6 783e 4625 b8bd c45d 813d 2528 7c3d
000000c0: 2dd4 623e e0ed 42be bed0 6cbe 1276 fabd
000000d0: 2ba5 45be 52bf 9d3e 4271 5fbd 4526 043e
000000e0: 1aa8 6a3d 76b0 373d 263d 5e3e f3fc 7cbe
000000f0: 7304 b43c bb61 fabd ac7f d43d f669 273d
00000100: cf19 803e 6c76 cabd 54f4 963e 8f14 64be
00000110: 5522 4bbe 00aa ecbd 5f5a 993e 76c0 183e
00000120: 09a3 893e 4e62 69be 547e 92be c4c8 8fbd
00000130: 51a7 32be ed77 273d 3ee7 b73d 19b5 2c3e
00000140: d764 5dbd 9eb2 fdbd 7d6f e93d 39fe 17bd
00000150: 9905 213e 834b edbd cc7c de3d 8a4a 61be
00000160: 6d5f 43be bafc 373e 7d57 173e 6db8 633b
00000170: 74c8 c33d 523d a13e c26d 52be c61b 1bbe
00000180: 66cc 993e a1e3 f4bd ff77 2ebe 65ac bcbe
00000190: 1e32 52be 747e b73c bc3a 78bd 1aa4 e5bd
000001a0: 5ef6 9cbb 1ff6 36be cafc e7bd 100a 84bd
000001b0: a5b1 61be 31b9 6dbe f231 9d3e 9924 223e
000001c0: 50c7 0e3e dfc5 8ebe 0fdd 48be f610 08be
000001d0: 8955 cdbc 494e 9ebe 0db9 9dbd a6f2 16be
000001e0: b1cf 103e 0269 92bd 9136 0f3c 7511 29be
000001f0: 2802 8bbe d119 e1bd 2b26 1ebd b8cc 3f3c
00000200: 8d89 ee3d 5ae7 9dbe 4e8a 2c3e 94b3 453d
00000210: 02fb 62be 4c05 823e 04a2 953c 8430 2dbd
00000220: e1b5 5abe e782 6ebe de98 163d eac2 53bd
00000230: 7c3b 303e f950 c1be a418 3b3e 6fa4 6fbe
00000240: f457 5abe 2954 bf3d e51d 8b3e 8d58 093e
00000250: 256e 543e 4a2a 03be 6213 843c a321 3ebd
00000260: bb9c 353d e616 ebbd 1928 a33e a226 5fbe
00000270: 50f6 263e 60f7 883e 3e7a 283e cbe7 8abe
00000280: 87b6 ac3e 61b1 7d3d 46f4 4a3e 1c2b 86be
00000290: ab1e f23d a266 8bbd 13cd 08be 15aa b03e
000002a0: fc47 2dbd d62d b0bd 3cae d1bd 101d 08be
000002b0: cf61 5c3e c0dd d3bd a854 64be 1227 95bc
000002c0: 9505 7ebe 61bd d23d f174 5e3e 0a46 e5bd
000002d0: bdd6 213d 552c 673e 1201 bd3d 38ae 51bd
000002e0: 0034 1d3e 7697 ca3d 6000 153e 2015 24bd
000002f0: 0d2f 80bd bdb2 0a3d 51c2 32be d24d 48bd
00000300: bce5 383e e145 5e3e 543c 4cbd caf8 cc3c
00000310: 79a9 c8bc 468c 8c3d deeb c23d dea6 e43d
00000320: 4b1d 20be c159 8e3d cb89 fb3d 06e8 a73c
00000330: 81c9 2cbd 0ec7 f4bd 7259 84be 598b 8bbe
00000340: 1469 0bbe 9aec fa3d a2cf 853e 8991 613a
00000350: d4b3 6dbe 9607 b7bd 9d3a 22be e7cc 9f3e
00000360: 8825 d5bb 4ea2 87bd 4c10 443e 64e6 7fbd
00000370: e956 7bbe 5f45 183e d1bd f9bd 6ba7 97bd
00000380: cb3e 53be bd79 093e 1df9 623e 6f1e 6d3d
00000390: 23ac 6dbe c4b9 0bbe 1fc7 b0be 5588 713e
000003a0: 9779 103e 3a31 7f3e ff6a 2c3e 1508 c23d
000003b0: 0251 5ebd 357d a0be f221 37be e60e 5cbe
000003c0: 8412 5e3e 1b99 fdbc 73ee febd 37b8 08be
000003d0: 5466 ca3c 2e68 a1bd 8778 4ebd 018b 893d
000003e0: ecdd cebc 3ec0 263e 127c 113d 684a 82be
000003f0: 2cb2 3fbd 9a94 6dbe fbfa 96bd fdf9 87be
0.081531 0.22971815 -0.07157307 0.26728353 -0.04364367 0.07948176 -0.05398303 0.052018918
0.21482883 -0.30988222 0.11319603 0.03498624 0.20518366 0.13624148 0.29642928 -0.043553177
0.2860849 0.00982578 0.008596311 0.11749113 -0.08165774 -0.064797744 -0.1527955 0.22064489
-0.26319885 -0.049663853 -0.041037127 -0.08779371 0.013953637 -0.2620111 0.17977564 -0.22301997
0.17847486 0.0032660977 -0.17109524 0.123578414 0.12466482 0.2753448 0.02352459 -0.083512306
0.15284762 -0.14388204 0.08313034 0.19909136 0.2429456 -0.08991484 0.063167125 0.061561722
0.22151251 -0.19036055 -0.23126504 -0.122295514 -0.19301288 0.30810028 -0.05455137 0.12905224
0.05728922 0.04484602 0.21703014 -0.24705867 0.021974778 -0.12225672 0.10375914 0.040872537
0.2501969 -0.098858684 0.29483283 -0.22273467 -0.19837315 -0.115558624 0.2995176 0.14917168
0.26882198 -0.22791407 -0.28612006 -0.07020715 -0.17446639 0.040885855 0.08979653 0.16865958
-0.054051246 -0.12387584 0.11398218 -0.03710768 0.15724792 -0.11586668 0.10863647 -0.2200109
-0.19079371 0.17967501 0.14779468 0.0034747378 0.09559718 0.31492096 -0.20549682 -0.15147313
0.30038756 -0.11957479 -0.17037962 -0.36850277 -0.2052693 0.022399165 -0.06060289 -0.112129405
-0.0047901114 -0.17867325 -0.113275126 -0.06447232 -0.22040422 -0.23215176 0.30702168 0.15834273
0.13943219 -0.2788534 -0.19615577 -0.1328772 -0.0250652 -0.30919102 -0.07701311 -0.14741
0.14141728 -0.07148935 0.008741037 -0.16510566 -0.27150083 -0.10991252 -0.03861062 0.011706524
0.116473295 -0.3084057 0.16849634 0.048266962 -0.22166064 0.25394666 0.018265732 -0.042282596
-0.21358444 -0.23292123 0.03676688 -0.051699556 0.17210191 -0.3775709 0.18271118 -0.2340257
-0.21322614 0.09342224 0.27171245 0.13412686 0.20745142 -0.12809101 0.016122524 -0.046418797
0.044338923 -0.11478977 0.3186653 -0.21792081 0.16304898 0.26751232 0.16452882 -0.2712997
0.33733007 0.06193674 0.19819745 -0.26204765 0.11822256 -0.06806685 -0.1335948 0.34504762
-0.042304978 -0.086024925 -0.10238311 -0.13292336 0.21521686 -0.1034503 -0.22297919 -0.018207107
-0.24806817 0.102900274 0.21724297 -0.111949995 0.03951143 0.22575505 0.0922872 -0.05119154
0.15351868 0.0989217 0.14550924 -0.04005921 -0.06258974 0.033861864 -0.17456938 -0.04890234
0.18056387 0.21706344 -0.04986222 0.025020976 -0.024494873 0.068626925 0.09517644 0.1116464
-0.15636174 0.06950713 0.12282141 0.02049638 -0.042184357 -0.11952029 -0.2584949 -0.2725475
-0.13614303 0.122521594 0.26134974 0.0008604755 -0.2321313 -0.08936994 -0.15842672 0.31211016
-0.006504718 -0.06622754 0.19146842 -0.062475577 -0.24544872 0.14870213 -0.12194408 -0.07404979
-0.20629422 0.13425346 0.22165342 0.05789035 -0.23210196 -0.13645083 -0.34526917 0.23587163
0.14108883 0.24921122 0.16837691 0.09474198 -0.054276474 -0.31345525 -0.17884043 -0.21490058
0.2168675 -0.030956795 -0.12447824 -0.13351522 0.024706997 -0.07881199 -0.050407913 0.06715966
-0.025252305 0.16284272 0.035518713 -0.25447392 -0.046800777 -0.23201218 -0.073720895 -0.26557913

conv1.bias f4 [32]
00000000: 7bda 7fbb d7a7 033e eb46 e7bd cd0f 2d3e
00000010: e9da 8ebd 8a0b 1dbe ad22 983d cedc f83d
00000020: 323d 5b3e 89f3 03be 752f b4bd ac2d c73c
00000030: ab04 d83d 935c 0e3e be33 3a3e 4eb0 03bc
00000040: 77cd 1a3e eb17 313e 7de6 b0bc 0dc8 343e
00000050: de7c f33d adb2 373e 8891 09be 5154 70bd
00000060: ebbf 38bd f867 f7bb 6163 573e c700 bebd
00000070: a8a0 213e 8ae2 abbd 277b 3d3e 9f26 fc3c
-0.0039040137 0.12856995 -0.112928234 0.16900559 -0.069753475 -0.15336433 0.07428489 0.1215149
0.21410063 -0.1288587 -0.08798114 0.02431377 0.10547765 0.13902502 0.181838 -0.00803764
0.15117441 0.1729428 -0.02159428 0.17654438 0.11889051 0.17939253 -0.13434422 -0.05867416
-0.045104902 -0.007550236 0.21034004 -0.09277492 0.15783942 -0.08392818 0.1850401 0.030780135

conv2.weight f4 [32, 32, 5, 5]
00000000: ee1c 90bd bd26 9fbc 932b 88bd 5901 463d
00000010: 900a 2ebd 9ba3 ab3d 2f18 9abd d4e0 3abc
00000020: 3605 84bb f81b ebbd b9eb a7bc 7146 a6bd
00000030: d1bf c63c 1f75 cabc b9a7 d83d 6a12 03bd
00000040: 7656 953c f52c 5dbd 7645 b33c c235 e83c
00000050: 9e4e 33bd 99b4 423d f1d6 a0bd 2428 083d
00000060: 5cff fabc 80e7 d2bc 35df a23c 6f6a cb3c
00000070: 8b25 adbc eeac 0ebc 4685 283b 3bf1 1fbd
00000080: f730 c93c 20ac 4e3d 7587 3a3d a752 b53b
00000090: 5c7d 8b3b 7d90 4fbd 1f58 fbbc 4f38 9a3d
000000a0: d53b 76bd 1a12 febc 66d2 8fbc 1103 34bd
000000b0: 571c 423c 2bd7 0b3d 0f7c 093d 7cb0 acbd
000000c0: 9b91 7d3d 56d0 0cbd 0543 e93c a234 6a3d
000000d0: a6c7 de3d 6ef9 8b3c d62d 763d e26b 10bd
000000e0: 8589 10be 8f4e babd df31 1bbd 5e82 f3bd
000000f0: fb43 7b3c 87c2 4e3c e18e 343d c055 b539
00000100: 1aa7 9f3d e8ee c93c 2065 23bd 35da 25bd
00000110: fcd2 0a3d 4314 9a3c 5103 a03d 717e 3cbb
00000120: db21 f7bd 4fbf ff3b c977 5abd 11e8 c93c
00000130: 1779 683c 8e35 00bc 0bfe 17bc 05c6 b4bd
00000140: f6a8 b93d 69bf 6b3d 8bc7 943d ab90 723c
00000150: beb8 41bc 5a9b 1a3d de2f 30bc 43b9 ccbc
00000160: 36bb 59bc 7a6f b8bd eb83 bfbc 6f08 d0bb
00000170: 9141 973d 0c8d 78bd e3d5 4c3d 5aef 683d
00000180: f30c 8b3c bfcc 43bc 97ec f23d 15d5 17bd
00000190: 9c41 b1bd 6d5b 3cbd 2d30 75bd d8a3 b0bd
000001a0: 58a5 063d c28a 4b3e d527 d3bc d1d1 c0bc
000001b0: 0257 133c 1705 25be 9104 473d 88c8 e13d
000001c0: d64f 6c3d bea9 f3bc 45b4 1c3d b0cf 67bd
000001d0: e4b3 41bb ae78 c43d 80ae f7bc 8570 38bd
000001e0: d6ee 1c3e c0d2 133d 8893 0e3e 5474 aa3d
000001f0: 671e e23c 039a 263c 2b96 fd3d 7294 39bd
00000200: 865d 3bbd 19d2 433d 5e3b cdbc bf81 493c
00000210: 4799 403d b3e2 a3bd 6952 343d 7f55 263c
00000220: 269d 5d3d eb46 04bc edef d83d 3385 48bc
00000230: 297c a5bd ee03 fe3d 72a6 983d c59f bebc
00000240: 6928 87bd 57d2 10bd 34d6 3d3c a49d 1a3e
00000250: a53c 5c3d e061 04bc 8f53 973d 9b22 623d
00000260: 63cf 23bb a211 25bd 1c95 41bd 5bb0 c63d
00000270: 444a d0bc 9c28 f53c cc6d e6bc 4de9 553c
00000280: b763 e0bb ab82 62bc 0960 353d 663b a73b
00000290: e3cc d23c ecda 0fbd 6129 3dbd 859e 12be
000002a0: d1b9 753d 010f fb3c 7daf 073c a4d3 acbc
000002b0: 879a c9bc 82ff 57bd 1e09 d63d 5eed c73b
000002c0: b497 42bd 9f3d 49bb 4a04 113d 0494 bdbd
000002d0: 7972 81bd a694 6d3d bc84 c03c bd35 663d
000002e0: d3d2 b7ba e998 413d af99 8a3c c1d8 f939
000002f0: 095c fcbc edca 36bc 65dd 3a3c 7c94 a0bd
00000300: 3617 a13d 0c6f 86bd d3fa 923d eace 2fbd
00000310: 0ff4 e53c 7577 9abd f4fd 90bc 164f aebd
00000320: bc6b 0e3d 8769 0ebc 1705 09bd a161 233d
00000330: fa20 a3bd 8edc 1f3d 6393 353d 434e e93c
00000340: 68ba b5ba 2195 7c3c bcd7 01bb bad3 42bb
00000350: c1ed b23c e7a7 28bd 0f02 743c e45b 643d
00000360: e38e b53c 1b4e c93c 84a7 383d 3eea f6ba
00000370: c5e7 8e3c 0ed2 b23d 81e0 643d 302a b23d
00000380: 1a10 fc3c c904 393d 7bf5 823c c253 0ebd
00000390: 1e41 7abd caad a63c 4afe bd3c 2f7e 903d
000003a0: ce1a e9bc adfc bf3c c9e8 b4bc d3f3 76bd
000003b0: a4b8 c7bc 184f ab3b 2998 acbd 425a 5b3b
000003c0: b929 a13d a9ed 23bd d6fe 0abc 6735 a73d
000003d0: fdc4 503c a655 f8bc 77ba bf3b 0150 b8bc
000003e0: 251c 6a3c a197 293d 603b 19bd d134 07be
000003f0: ff43 a3bc 2c66 0bbd 9813 383d bed6 33bd
-0.07036768 -0.019427652 -0.06648936 0.04834113 -0.042490542 0.08380815 -0.07524144 -0.011406142
-0.0040289415 -0.11479944 -0.020498144 -0.081189044 0.024261387 -0.02471405 0.105788656 -0.031999983
0.018229704 -0.053997952 0.021883707 0.028345946 -0.043776147 0.047535513 -0.07853497 0.033241406
-0.030639343 -0.025745153 0.019881824 0.024831025 -0.021136066 -0.008708222 0.0025714203 -0.039048415
0.024559481 0.05045712 0.04553934 0.0055335346 0.0042568874 -0.050674904 -0.030681668 0.07530271
-0.060115654 -0.03101449 -0.01755638 -0.043948237 0.011847577 0.034140747 0.033565577 -0.08432099
0.06190644 -0.034378372 0.02847434 0.0571791 0.10877924 0.01708671 0.060102306 -0.035259135
-0.1411496 -0.09097015 -0.037889358 -0.118901 0.015336032 0.012619621 0.044081572 0.000345869
0.07795544 0.024650052 -0.039891362 -0.0404913 0.033892617 0.01880849 0.078131326 -0.0028761888
-0.12067004 0.007804788 -0.053336892 0.02464679 0.014189026 -0.007825268 -0.009276877 -0.08826832
0.0906543 0.05755559 0.07264622 0.014804999 -0.011823831 0.03774581 -0.0107536 -0.024990683
-0.0132892635 -0.090056375 -0.023378333 -0.0063486616 0.07385553 -0.060681388 0.050008666 0.05686889
0.016973948 -0.011950671 0.11861532 -0.037068445 -0.08655092 -0.045985628 -0.059860397 -0.08625001
0.032872528 0.1987715 -0.02577583 -0.023537548 0.008992912 -0.16115223 0.04858834 0.110245764
0.057693325 -0.029744025 0.038257856 -0.05659455 -0.0029556686 0.0959333 -0.030234575 -0.045029182
0.15325484 0.03608966 0.13923466 0.08322969 0.027602388 0.010168555 0.12382158 -0.045307584
-0.045743488 0.047807787 -0.025052723 0.012299 0.047021177 -0.08002224 0.044023905 0.01015222
0.054104947 -0.008073549 0.10592637 -0.012238788 -0.08080322 0.12403093 0.07453622 -0.023269543
-0.065995045 -0.035356846 0.011586715 0.15099198 0.053768773 -0.008079976 0.073889844 0.055208784
-0.0024995438 -0.04030002 -0.047261342 0.09701606 -0.025426038 0.02992659 -0.028128527 0.0130561115
-0.0068478244 -0.013825099 0.04428104 0.0051035164 0.025732463 -0.03512089 -0.04618204 -0.14318283
0.05999166 0.030646803 0.008281586 -0.021097012 -0.024609817 -0.052733906 0.10450958 0.0061012944
-0.047507957 -0.0030706895 0.03540448 -0.09256747 -0.06320662 0.05800309 0.023500793 0.056203593
-0.0014024623 0.047264967 0.016918985 0.00047654475 -0.030805605 -0.01115678 0.011405324 -0.07840821
0.07865755 -0.06564149 0.07176747 -0.042921938 0.028070478 -0.07542316 -0.01769922 -0.08511178
0.034770712 -0.008692152 -0.03345212 0.039888028 -0.07965274 0.039028697 0.044330012 0.0284797
-0.0013864757 0.0154164145 -0.0019812426 -0.002972825 0.021841886 -0.04117575 0.014893069 0.055751696
0.02216286 0.024573376 0.04508163 -0.001883812 0.0174445 0.08731471 0.055878166 0.08699453
0.030769397 0.04517058 0.015986195 -0.034747846 -0.061097257 0.020346541 0.023192544 0.070553176
-0.028455164 0.023435915 -0.022083657 -0.060291123 -0.024380036 0.0052279346 -0.0842746 0.0033470546
0.07869286 -0.040021572 -0.008483609 0.081644826 0.012742278 -0.030314278 0.0058510858 -0.022499086
0.014288937 0.04140437 -0.03741014 -0.13203742 -0.019929884 -0.034032986 0.04494056 -0.043905966

conv2.bias f4 [32]
00000000: e77d 1a3c 531d 833c 8279 38bd 3cb5 2d3d
00000010: 3d42 793d de14 513d 4d5b 003d 0325 f0b8
00000020: d4ad 733b ed47 cabc 7881 873c e249 2cbd
00000030: 1f64 2a3d 3ca1 2e3d e328 3c3d 0176 6a3c
00000040: 0c9c b4bc 2a7c 213d faa1 663d d94a 60bc
00000050: 2569 0dbd 31f6 693c 8893 ccbc 423f 00bd
00000060: 5264 8dbc fa3d da3c 9144 75bb c353 d93c
00000070: e552 743d 09f4 3e3c fb19 803c 849b 41bd
0.0094294315 0.016005194 -0.045037754 0.042409167 0.060854185 0.05104529 0.03133707 -0.00011450986
0.0037182467 -0.0246925 0.016541228 -0.042062648 0.04159939 0.042634234 0.04593743 0.014310361
-0.022047065 0.039425053 0.056306817 -0.01368972 -0.0345241 0.014279888 -0.024972692 -0.031310327
-0.01725975 0.02664088 -0.0037424902 0.026529199 0.059649367 0.011654862 0.015637388 -0.047267452

conv3.weight f4 [32, 32, 5, 5]
00000000: 5802 9b3c fd6c 073d d3eb 52bc 9844 89bc
00000010: 7844 1f3c e4d0 d83c b389 003d 7413 0dbd
00000020: fa13 8d3c a672 a3bb 39ba 1c3c c32c 61b9
00000030: d7ee 413d bb33 e13d f17e a2bc b1b5 93bc
00000040: e9b5 0e3d 773e 3ebd 3d5d fb3d aed3 dc3d
00000050: b079 ea3d 7fc2 debc ccd4 ef3d 1587 c1bd
00000060: cc75 ad3d 3ffc 463d 3f54 803c 4950 fd3c
00000070: 5c9f 60bc e0c4 0d3d c6cb c53c 26f2 e8bc
00000080: 7a5c d93d 5e81 fb3c 9fc0 9c3d 4f17 b03c
00000090: de87 333b 0dbc b33d 050c e0bb ffe7 723d
000000a0: 5e15 ecbc bbc1 3bbd 3935 783d 7523 a13a
000000b0: ca8d 2dbe 877f a3bc f9a4 813c 9e2b 00be
000000c0: be73 1a3c 0362 d7bd 92a3 783d ecf7 073c
000000d0: aacf 02bd 8afc eeba 60b6 e03b a240 fe3a
000000e0: 0e98 eebc d2c5 f23c 8914 f43c 3a2d b23c
000000f0: 84da 61bd 456a 89bd a28c e93c 1c93 c23d
00000100: de26 723d 088d 2ebc e600 c93c 2ebb c2bc
00000110: 6bb8 96bc dac3 4cbd f66f a63b 42b8 3fbd
00000120: 0401 67bb ea7b 963c 0790 21bd 44ef 65bd
00000130: af69 6d3d 9645 8dbc 9df6 31bd 755a 02be
00000140: 74d4 e3bc 10e0 c5bd 7f69 d33c b6ae ff3a
00000150: 6af0 49bd 8773 223d 645a 41bd 8aa4 0b3d
00000160: cfcf c4bc 6b2c 7e3c 8cdc d83d f286 253b
00000170: 327f 853d 9eb0 273e d74b 46bc feab 803c
00000180: a4ea 8939 ec87 b3bd 5f14 013e 4c9a 90bd
00000190: bffc 81bd 515d b4bc bcd4 99bc 5f48 35bc
000001a0: 9243 b5bb c92e 71bb df29 0f3d dbe0 58bc
000001b0: a3b5 9cbd 5d21 08bc 0312 d739 36db b6bc
000001c0: 9b4c ac3d 60b3 323d 7fab 6c3d b25d a73d
000001d0: c376 62bb f3b1 843d be5d 12bb d5bc 6c3d
000001e0: bbf4 4b3c 070e a93b 5f31 00bd ea92 093e
000001f0: 41d4 1c3d b32c 43bc 9c2c 0bbd ba52 a93c
00000200: f688 653c 3375 aabc 81a7 09bd 44cc cb3c
00000210: 821c da3c a0a8 eabb 8be5 6b3a 4108 923d
00000220: 0d10 31bd 28c1 353d 479d 613d cf75 d03d
00000230: 85b3 60bc 4c8e 973d 1663 ed3d 03e6 46bd
00000240: 8c2c c63c a65a 81bd fe6d 5a3c eda5 4ebd
00000250: 887e 363d 19ab 25bd 893e debc 39f7 233d
00000260: f84a 023c 2d1a d93c a83c 03bd c98b a0bd
00000270: b688 00bd 7c2f 7e3d d162 503d b681 33bc
00000280: d245 413d 2801 203c 455d 583d d2d5 243c
00000290: db52 9bbd 52cb 71bd 7b62 75bb eb91 093e
000002a0: a616 9fbc 6ba2 32bd 765d 833d fcb6 80bd
000002b0: c505 263c d7ed ec3b c5c5 033d e0a4 aa3d
000002c0: 50a0 b639 f962 f83c d331 9d3c 1144 b23c
000002d0: 16e1 24bd ad97 5bba 06cc c33c 4ccb 8d3d
000002e0: 643d 023d 67f3 91bc a2ee ac3d b899 fabd
000002f0: d29f c6ba 57f7 093d 3397 15bd 4fcb 383d
00000300: e46a a93d 91cb 11bd 3b08 e03c 3c1c e8bc
00000310: 3367 17bc 0fda 783d c0cd 503c 8b1c aa3d
00000320: df26 0b3d 0a0b 913d 43d5 a23c 7822 e73d
00000330: f105 643c ace6 8a3c 26b1 893b 8597 17bd
00000340: 737b 0abc 62c2 463d 9dd3 e03d c0cb 633d
00000350: 0ec5 d13c 67f9 26be 105e 313d bd27 dc3c
00000360: bbc7 75bd 527a a6bc 0fe7 f33d 4558 01bd
00000370: 3b14 603d 9e42 10bc 8708 943c b8c6 f43c
00000380: 600c 4e3d 1564 df3a 20b5 0f3c d290 4dbd
00000390: f642 08bc dac9 3e3d f130 043d e8dc ed3c
000003a0: d5c5 933b 41b3 a3bd db1e 323c 95ab 813b
000003b0: cd19 3b3c 9d92 cf3b 0c4e f33d 8066 2cbe
000003c0: 6740 1ebd 3883 fdbb ec3b 653d ccb8 10bd
000003d0: 448a 57bc 462a 10bd e7c3 e6bd 32df d6bc
000003e0: 9598 37be 54f2 81bc 8e41 a9bb a8e8 b63d
000003f0: c511 1bbc 05ea 473d 1032 713d 03e9 883d
0.018922016 0.033062924 -0.012873608 -0.01675634 0.009720914 0.026466794 0.03138132 -0.03444238
0.01722144 -0.0049880324 0.009565883 -0.00021474347 0.047346916 0.10996195 -0.019835921 -0.018030973
0.03484145 -0.04644629 0.12273643 0.10782562 0.11448991 -0.027192352 0.1171051 -0.09449593
0.084697336 0.048580404 0.015665172 0.030922072 -0.013709869 0.034611583 0.024145018 -0.028435778
0.10613342 0.030701336 0.07653927 0.02149549 0.0027394216 0.08776102 -0.0068373703 0.05930328
-0.028818782 -0.045839053 0.060597632 0.0012293892 -0.1694862 -0.01995827 0.015825735 -0.12516639
0.009427009 -0.10516741 0.060702868 0.008298855 -0.031936325 -0.0018233221 0.0068576783 0.0019397924
-0.02912524 0.029635344 0.029794948 0.021750081 -0.055140033 -0.067097224 0.028509442 0.09500715
0.059119098 -0.010653742 0.024536561 -0.023770895 -0.018398484 -0.049991466 0.0050792648 -0.04680658
-0.0035248408 0.018369634 -0.039443996 -0.056136385 0.057962116 -0.017245095 -0.04344808 -0.12729819
-0.027811266 -0.09661877 0.02580714 0.0019507024 -0.049301542 0.039660957 -0.047205344 0.034092464
-0.024024872 0.01551352 0.10588941 0.0025257436 0.06518401 0.16375968 -0.012103043 0.015707012
0.00026305497 -0.087661594 0.12605427 -0.0706068 -0.063470356 -0.022017153 -0.018778197 -0.011064618
-0.0055317366 -0.0036801568 0.03495204 -0.0132372035 -0.07651832 -0.008308736 0.00041021415 -0.022321325
0.08413049 0.043628097 0.05778074 0.08172168 -0.003455565 0.064792536 -0.0022333707 0.05779727
0.012448485 0.005159143 -0.031297084 0.1343495 0.03828836 -0.011912513 -0.03397809 0.02066933
0.014009705 -0.020807838 -0.03360701 0.024877675 0.026624922 -0.007161215 0.0008998743 0.071304806
-0.043228198 0.04437366 0.055081632 0.1017872 -0.013714676 0.07400188 0.11591165 -0.0485592
0.024191163 -0.06316118 0.013331888 -0.050451208 0.044554263 -0.040446375 -0.027129428 0.04003069
0.007952444 0.02650174 -0.03204027 -0.07839162 -0.031380378 0.062057003 0.05087549 -0.0109562185
0.047185726 0.009765901 0.052823324 0.010060744 -0.07584163 -0.059031792 -0.0037442732 0.1343457
-0.01941998 -0.043611925 0.06414311 -0.062849015 0.0101332115 0.007230501 0.03217103 0.08332229
0.00034833187 0.030320631 0.019188797 0.021760972 -0.04025372 -0.00083767885 0.023900997 0.069235414
0.031796828 -0.017816259 0.08443953 -0.12236351 -0.0015153831 0.033683147 -0.036521148 0.045115765
0.08272341 -0.035594527 0.027347675 -0.028333776 -0.009240913 0.060754832 0.012744367 0.083062254
0.033972617 0.07082184 0.019877082 0.11285871 0.013917432 0.016955696 0.004202026 -0.037009735
-0.008452284 0.04852522 0.10977862 0.055614233 0.025606658 -0.16306077 0.043302596 0.026874417
-0.06000493 -0.020321999 0.11909305 -0.03157832 0.054706793 -0.008804945 0.018070472 0.029879913
0.05030477 0.0017043377 0.008771211 -0.05018694 -0.008316746 0.04657922 0.032273237 0.029036
0.0045096674 -0.07993174 0.010871614 0.0039572218 0.011419726 0.0063346163 0.11880121 -0.16835976
-0.038635638 -0.0077365898 0.05596535 -0.035332486 -0.013155524 -0.035196565 -0.11267834 -0.026229475
-0.17929299 -0.015862621 -0.0051652854 0.089310944 -0.009464686 0.048807163 0.058885634 0.066850685

conv3.bias f4 [32]
00000000: 59b8 573d 42ea 413d 327b 03bd 5c4c 543d
00000010: 552f d33c 6278 d7bc db55 a73c 47c2 9a3b
00000020: c9b1 e33c 4585 f5ba 5dca bf39 46d1 ff39
00000030: c02a ef3c 386b 9f3c 6959 223c 2865 fa3c
00000040: 7c5b 973b cd74 cd3b b052 943c 2d8b 0e3d
00000050: b306 1d3c a8d2 d33b 6554 d23c d70a 0f3c
00000060: 343d 263d dbd4 d53c a6b4 5e3d 146f 5c3d
00000070: 9f5b 313c 4f83 0b3d c1a1 d2bb 93a7 4a3d
0.052666042 0.047342546 -0.03209991 0.051830634 0.025779406 -0.02630252 0.020426681 0.0047228667
0.027794736 -0.0018731734 0.0003658113 0.0004879331 0.02919519 0.019460306 0.009909012 0.030565813
0.00461906 0.0062700273 0.018105835 0.034800697 0.009584117 0.006464321 0.025675008 0.008730612
0.04058571 0.026102474 0.0543715 0.05381687 0.010825067 0.034060773 -0.006427974 0.049476217

MLP1.weight f4 [50, 1344]
00000000: 4d5f fcbc 15b1 803d d0b2 233d f39a 2d3d
00000010: b89c 00bd 1c7e fabc f310 bcbb eeba b63c
00000020: 473c f0bb 8be8 d43c 8a78 493c 8444 603d
00000030: d147 0fbc f947 4e3c 391f 123d 3318 6dbb
00000040: 8862 f1bc 757e c93c 1571 40bd 200e 1e3d
00000050: de18 a63c d0f9 683b e7f2 96bc b30f 763c
00000060: f4a3 7a3d 22b3 c53b 26d3 b4bb bbaa debb
00000070: 7d15 903b 89e3 313d c0db 88bb 24db b43a
00000080: 1223 8d3a 2de8 cf3a 9261 593c a1f8 aabd
00000090: 73d8 f8ba 0eb5 57bc 9722 a93c f07f b73c
000000a0: 325c 5cbc a516 19bd 3075 c33c 3d36 86bd
000000b0: 261d ee3b 234e 943d 935f 9c3c c301 9f3c
000000c0: 4f3e 533d 16d2 743b 5812 603d a349 a73c
000000d0: 6c2b efbb 045c c1bc 6711 cbbc 0db0 87bc
000000e0: 5120 13bd fe8f 253d 559e 2b3d 3cab 96bc
000000f0: 5564 213d c90e e4bc 0337 443c 649b 93bc
00000100: 1ec4 603d 0180 003d c38b b8bc b3db ac3c
00000110: 8e3c 03bc 3b2d 3a3d 05ac 04bb 94b5 dd3c
00000120: 8cc3 863d c54f e0ba 012f 0bba bb4c 033d
00000130: 4a46 923c 5fb8 ddbc f8f8 4abd 2ebc 463d
00000140: b84f 47bd 419a 473d 7a1a 4b3c add9 97bc
00000150: 50a4 15be c85a 90bd 4ac9 6bbd dba3 df3b
00000160: 180c b0bc a3e0 9abd 2a41 ba3c 7f89 c1bd
00000170: 70d5 a9bb a2f0 56bc 5ba6 99bd a840 f2bb
00000180: 786a 53bc d612 30bd fa15 01bd d775 54bb
00000190: 8726 12bd 021c e0bc de2d 3c3d 8d8b 943d
000001a0: d940 6fbd 8f61 f23c 911f f13c 0e47 333c
000001b0: 27b5 71bd 9f17 143c 4306 9d3d e530 2b3c
000001c0: 1619 02bd 0bb0 9d3d 30da 533b 45ef ecbc
000001d0: b79b da3c 42fc e83c f698 abbd f736 6fbd
000001e0: 0821 41bd 90ae 463d 80bf 8abd 77fa 76bd
000001f0: 166b 0b3d 485c aebc 53c5 86bc 0ee5 55bd
00000200: e0b8 0bbd e744 e83b 874c 0e3c 7075 8c3d
00000210: 66b2 aebc 4e1a f83c b5a5 80bc 9064 47bd
00000220: babf aa3c 74ac 1b3d ff19 833c 9071 2d3c
00000230: c6eb a5bc e172 833b 41f0 b6ba 405d ebbc
00000240: ef49 0abc 6f5b d1bb 722d 41bd c30d db3c
00000250: c3a0 283d 4fe8 ab3c c06d 04bc 1114 1aba
00000260: 4865 c8bc 132f 24bd b741 823d 6cb6 a33c
00000270: caf3 91ba 9d1d 3cbd 23ab e6bc dea0 12bd
00000280: 8962 e53c 14cb 94bd f030 5e3b 1809 bd39
00000290: a240 1f3d 62b7 5bbd 5998 8b3d e7f1 f63c
000002a0: c6b8 b23d 27ff 923d b979 bc3d 8217 1e3d
000002b0: c936 9cbc 8b48 8ebc e772 e6bd cb1d 993d
000002c0: 72c2 073d 4153 16ba aa0b c43c 2f37 1a3d
000002d0: 29f3 0c3d 0e63 93bd 2f65 863c 1ac2 20bc
000002e0: 6069 263d 8f6e c4bc cf8c 14bd aace edbc
000002f0: e16a c0bc f0ad e43c 1c42 a1bc 8707 febc
00000300: ec69 57bb 0b9a 1a3d 0a7e 2c3a fc8f 143d
00000310: 73aa b53c d8fb 393c 3688 dfbb 89a2 923c
00000320: 649e 903c afcf d53c 8db8 f73c df48 3ebd
00000330: cf74 febc ab2d b33a a6c2 aa3b d1c4 173c
00000340: 1f2a a3bc 21a2 84bd f54f 0ebd 5528 bcba
00000350: 5529 743d 35d5 053d f524 b93c 161d 8e3d
00000360: 63aa 2cbd 05a1 7a3c 7ed0 203b 0066 153c
00000370: 82d0 433c 323d 25bd 72e0 1f3d d49f be3c
00000380: 7571 65bd 600e e73b b313 bb3c c794 663d
00000390: 4e33 103b 1d13 87bc c8d5 0cbd b99e 01be
000003a0: 551a 32bb 75a2 273d 45cb f53c 1997 653d
000003b0: bf30 0c3d 3c64 4abc ab8b c23c 92f1 2ebd
000003c0: 07e0 bf3c 6f42 5a3d 3b5c 5e3a 1c65 18bd
000003d0: f86d ddbc ab3b a7bd e7f1 a43d 605b 95bd
000003e0: b006 183d dce8 843c 9040 bc3c 9266 08bd
000003f0: 221a 893d a79a 6e3d 177d a0bb ff07 633d
-0.030807162 0.06283776 0.03996545 0.0423841 -0.03139946 -0.030577712 -0.005739325 0.022305932
-0.0073314044 0.025989791 0.012296805 0.05475284 -0.00874515 0.012590402 0.035674307 -0.0036177754
-0.029465929 0.024596432 -0.046982843 0.03858769 0.02027553 0.003554929 -0.018426372 0.015018391
0.061191514 0.006033317 -0.005518335 -0.006795255 0.004397093 0.043429885 -0.004176587 0.0013798219
0.0010767898 0.001586204 0.0132678915 -0.083482035 -0.0018985405 -0.013165725 0.020646377 0.022399873
-0.013449715 -0.03737511 0.02385959 -0.06553314 0.0072666584 0.07241466 0.019088542 0.01941002
0.051573094 0.0037356666 0.054704994 0.020420855 -0.0072988775 -0.023603447 -0.024788572 -0.01656344
-0.03591949 0.040420525 0.041899044 -0.018392198 0.039402325 -0.027839081 0.011976006 -0.018018432
0.054874532 0.031372074 -0.022527581 0.021100855 -0.008010043 0.04545329 -0.0020244133 0.027064122
0.06580266 -0.0017113617 -0.00053094333 0.032055598 0.017855782 -0.027065454 -0.04955384 0.048519306
-0.04866001 0.048731092 0.012396449 -0.018536413 -0.14613461 -0.07048565 -0.05756501 0.006824953
-0.021490142 -0.07562377 0.02273615 -0.094500534 -0.0051829144 -0.013118895 -0.07502433 -0.0073929615
-0.012903802 -0.042986713 -0.0315151 -0.003241887 -0.035681274 -0.027357105 0.04594218 0.0725318
-0.058411453 0.029587535 0.029433997 0.010942234 -0.05901065 0.009038835 0.0766721 0.010448669
-0.031762205 0.07699593 0.0032326095 -0.028922686 0.026685579 0.028440598 -0.08378784 -0.058402028
-0.04715064 0.04850632 -0.06774807 -0.060297456 0.034037672 -0.021284238 -0.016451513 -0.052220397
-0.034111857 0.007088292 0.008685238 0.06858337 -0.021325301 0.03028598 -0.015704015 -0.04867989
0.020843375 0.03800626 0.016003607 0.010586157 -0.020254027 0.0040114974 -0.0013957099 -0.028730989
-0.008440479 -0.0063890736 -0.04716248 0.02673996 0.04116894 0.020984797 -0.008082807 -0.0005877624
-0.024462357 -0.040083956 0.0636019 0.019984446 -0.0011135277 -0.04592668 -0.028157776 -0.035797946
0.028001087 -0.072652966 0.003390368 0.00036055665 0.038879998 -0.053641684 0.068161674 0.030144645
0.08726649 0.07177573 0.09202904 0.038596638 -0.019069092 -0.017368576 -0.11252385 0.07476386
0.033144422 -0.00057344517 0.023931343 0.037650283 0.034411583 -0.071966276 0.01640567 -0.009811902
0.040627837 -0.0239785 -0.036267098 -0.02902921 -0.023488464 0.027914971 -0.019684844 -0.031009449
-0.003286953 0.037744563 0.00065800606 0.036270127 0.022176003 0.011351548 -0.0068216575 0.017899768
0.017653652 0.026100008 0.030239368 -0.046456214 -0.031061558 0.0013670226 0.005211192 0.009263233
-0.019917546 -0.06476236 -0.03474422 -0.0014355282 0.05960973 0.032674033 0.02260063 0.069391415
-0.04215468 0.015297179 0.0024538334 0.009118557 0.011951568 -0.040341564 0.039032407 0.023269571
-0.056016404 0.007051274 0.022836542 0.05629423 0.0022003236 -0.016488606 -0.034383565 -0.12658204
-0.002717634 0.040926415 0.030004153 0.0560523 0.034226175 -0.012352999 0.02374824 -0.04271085
0.023422254 0.053286012 0.00084823713 -0.0372058 -0.027029976 -0.08165678 0.08053952 -0.07292819
0.037115753 0.016224317 0.022980005 -0.033300944 0.066944376 0.058252957 -0.0048977244 0.055427548

MLP1.bias f4 [50]
00000000: 4121 3a3c 5c8a bebb e636 12bc f34b 2b3d
00000010: 3639 b43c 30f0 083d 2c23 913c cd79 a0bc
00000020: 506c 59bc 2a80 d2bb 7def ecbb 5fe7 ff3b
00000030: b436 7d3b dc0a ab3c dfb4 c63b 5250 e4bb
00000040: 7cbc 1e3c 4fe2 7a3d c3ed 423a 2ea9 e8bc
00000050: 8233 f73c 0ed1 85bc ebe6 153c f071 453b
00000060: 172b 7f3c 1909 e6bc 0009 e63c ff22 f13c
00000070: 6518 fe3c b779 633d 8661 dcbc 8b28 f23a
00000080: 3eff 98bc fdac f7bc 3a69 2d3d 0a63 09bc
00000090: 82b4 abbc e0c0 2dbd 4aba 003c 6ecc 75bc
000000a0: 90e9 583c ac70 8ebc 265c bc3c ce4c f53c
000000b0: 51f7 2fbc 77cd 2f3d 9fb9 81bc aa62 d93c
000000c0: f294 4d3d 53a0 e0b9
0.011360467 -0.0058148336 -0.008924222 0.041820478 0.021999937 0.033432186 0.017716967 -0.01958933
-0.013270453 -0.0064239698 -0.0072306977 0.007809564 0.0038637342 0.020879202 0.006064042 -0.0069675827
0.009688493 0.06125098 0.0007435942 -0.028400984 0.030175928 -0.016335037 0.009149293 0.0030127726
0.015574238 -0.02808051 0.028080463 0.029435633 0.031017492 0.055536 -0.026901972 0.0018475218
-0.018676396 -0.030233854 0.04233668 -0.008385429 -0.020960096 -0.042420268 0.007856915 -0.015002353
0.013239279 -0.01738771 0.022993159 0.02994385 -0.010740117 0.042920556 -0.015835581 0.026536305
0.050190873 -0.0004284406

MLP3.weight f4 [50, 50]
00000000: 8ab0 60bd 6c63 123e 9cfb cfbc d18c 233e
00000010: 1eed 753d 71f7 d9bc cae6 0b3e f17e 493d
00000020: b759 773e fb79 513d 19af e0bd ae35 c1bd
00000030: 2df7 323d 66d1 18be ac49 99bd 2be0 9e3c
00000040: 8bea 4d3d 99bf a43c adab 91bd 88a1 debd
00000050: 8df0 513d 87cf a2bd d8c6 c8bc a708 9dbb
00000060: a691 683d 543c 7cbc d080 8c3d d514 a23c
00000070: b0b8 89bc 3a02 dc3c 0c2d 9f3d 7a58 0cbe
00000080: 0a4d a63e 0686 dcbd 939b 243d a757 213d
00000090: 5899 99bd 8d54 c4bd 0a86 cd3c b1ce fdbd
000000a0: f77e 583e b0f6 d53d 9720 71be eb86 093e
000000b0: d31a 18be 5965 d93d cee5 65bd f75f 46bd
000000c0: ef31 1d3e 120b fe3d 00e2 b93b bb0c 5e3e
000000d0: e04a 87bd 4ec1 f9bd 4110 143e 028f 103e
000000e0: d450 d0bd ea74 883d d1a9 07be df9d f93d
000000f0: 0cee a2bd c998 cebd e618 b93c 097b b03d
00000100: 46d6 31bd ada5 2abe d245 0e3e b88b 04be
00000110: a3d0 35be b838 9dbd c07a 753d bc99 533d
00000120: 26ce a63c 5c56 223d 3072 883d edd6 e3bd
00000130: db5a 473d e018 d63d 37e1 4e3e 9025 e13d
00000140: 138f cabd 8dc9 f1bd c6e6 843d ab2e 03be
00000150: 58d4 a6bd b563 8d3d 1c04 bbbd 7c36 f43d
00000160: 0d1d 89bd 10b1 993d c310 b6bd cdb4 213e
00000170: c9da ae3d bd97 8e3d 77cc 893d b256 7dbd
00000180: 6f08 c93d b2c7 d33d 33f9 b0bd b33a 9a3d
00000190: b742 823c 308e 223d 1309 f6bd e682 5abd
000001a0: a49a cdbd ff9b 813d b300 0e3e e225 a3bd
000001b0: ad4b 4fbe c43a 28be e0ed edbd fd70 f33d
000001c0: 7f73 ef3d 0692 1b3e 52b6 35bd 3d71 6e3d
000001d0: 225a 11be 781e 9d3c c70f 333e 610a 5aba
000001e0: 4346 c43d dd3b 00be ad43 10bd f0da dcbd
000001f0: d460 363e a704 3a3d cc6b b2bd e74b 34bd
00000200: a7cc b3bd ca06 923c df95 9a3e 5af1 1e3d
00000210: 0941 f33d 64d8 0c3e ffff e6bd 1dd1 91bd
00000220: e809 ff3d 8f21 adbd 12c4 c0bd 8f43 e03c
00000230: 3ac5 903e 737d 15bd 07f4 f5bc 3c89 343e
00000240: e6a2 0fbd bd71 f73d a7c4 6f3d 1dc0 86bd
00000250: f1aa d63d adc8 0cbd 165f a53c 9c2a 70bb
00000260: da54 033d da34 d33d 7088 6f3c 155e 9fbd
00000270: d319 013c ed00 16ba 547e 2b3e 1f8c d83d
00000280: e770 0f3e 004c 3abe 077f 083e b09b 37bd
00000290: 29a5 ae3e 8c05 b53c 14b6 2fbe 744d 86bd
000002a0: 19d7 143d 991e 54be 4f93 5ebe 3c69 93bd
000002b0: 2a3b ebbd bee6 953e a104 cb3c 336f 803e
000002c0: ea1e 4b3e eb09 a63d 25aa 0cbe 2cc7 903d
000002d0: e1fa 3b3d 5880 9c3d 7cb8 45be a4b5 c5bd
000002e0: 422c 46bc 0dd7 ce3d 0cbc e8bd e09c 7f3d
000002f0: 0ffc 9c3d 0474 acbd b077 4d3e cacb 263e
00000300: b5fa 9a3e 277c f2bc 7d48 603e 714a e4bc
00000310: 3a11 b03e 22da 82bc ce77 0cbe 70cb 373d
00000320: 6b5c 193e b52a e2bd 1f67 b93c 0635 2a3e
00000330: 4c0d b9bc 5fd4 003d c453 e4bc 3daf 6cbd
00000340: aba9 bd3d 687a c0bd 1932 67be 193e 64bd
00000350: 0368 af3d 61fc 9d3c 370c 10be c3d4 14be
00000360: 24b4 d8bd e3fe f23d 88be e23d 1039 cd3c
00000370: cf4f 843d 6ccc 5e3e 8e3d d6bd 5130 edbd
00000380: a522 323e 566f d3bd 5297 cf3d 9e03 423e
00000390: 85ef 733d 9455 75bd 21eb d43c 84f0 da3d
000003a0: c665 51be ba5f 48bd a826 d9bd fdfc b3bd
000003b0: c0a2 223e 9cc1 bb3d e77a 59bd 3982 603d
000003c0: bce0 32bb 94cb 473d aa10 b7bd 5452 a7bd
000003d0: 0054 823e 0c3b 913d 3419 34be a64d 293a
000003e0: a223 ac3b 8c0c 00bc 2da3 d4bb 93c9 e43d
000003f0: 371c 6dbd 417c 083d 3621 52bd 9211 043e
-0.05485586 0.14295739 -0.025388531 0.15971686 0.060040586 -0.026607247 0.13662258 0.049193326
0.24155317 0.05114172 -0.10970897 -0.09434067 0.043692756 -0.14923629 -0.07484755 0.019394001
0.050272506 0.020110892 -0.07112823 -0.108706534 0.051254798 -0.07949739 -0.024508879 -0.004792291
0.056779526 -0.015395243 0.068605065 0.019785324 -0.016811699 0.02685653 0.07772264 -0.13705626
0.3248065 -0.107677504 0.04018743 0.039390232 -0.07499951 -0.09586439 0.025088329 -0.12392939
0.21142183 0.104474425 -0.23547588 0.13430373 -0.14853983 0.10615034 -0.056127362 -0.048431363
0.1535108 0.12404455 0.0056726933 0.21684544 -0.06606078 -0.12195073 0.14459325 0.14117053
-0.10171667 0.066629246 -0.13248374 0.12188315 -0.0795556 -0.10087735 0.02259488 0.08617217
-0.043417238 -0.16664763 0.13893822 -0.12943923 -0.1775537 -0.07676834 0.059931517 0.051660284
0.020361971 0.03963314 0.066624045 -0.11124978 0.04867063 0.10453963 0.202031 0.109934926
-0.098905705 -0.11806021 0.06489329 -0.12810771 -0.0814597 0.06903783 -0.09131643 0.119244546
-0.06694994 0.07504475 -0.08889916 0.15791626 0.08537824 0.069625355 0.06728452 -0.061850257
0.09816062 0.10340823 -0.08641281 0.07530727 0.015900953 0.03968638 -0.120134495 -0.05334749
-0.10039261 0.06328582 0.13867454 -0.0796621 -0.20243712 -0.16428667 -0.11617637 0.11886785
0.11691951 0.15192422 -0.044363327 0.05821346 -0.14194539 0.019179568 0.17486487 -0.00083175866
0.09583714 -0.12522836 -0.03522079 -0.107839465 0.17810374 0.045414593 -0.08711967 -0.0440177
-0.08779269 0.017825503 0.30192468 0.03880439 0.11877639 0.13754421 -0.11279296 -0.07119963
0.12453061 -0.084536664 -0.094123974 0.027375964 0.28275472 -0.03649659 -0.030023588 0.17630476
-0.03506746 0.12082241 0.05853715 -0.065796115 0.10481823 -0.034371067 0.020186942 -0.003664649
0.032063343 0.10312815 0.014619932 -0.077816166 0.007879692 -0.0005722184 0.16747409 0.10573601
0.14007913 -0.18193054 0.13329707 -0.04482621 0.34110382 0.022097372 -0.17159301 -0.06557742
0.036337946 -0.20714797 -0.21735881 -0.07197806 -0.11485894 0.29277605 0.02478248 0.25084838
0.19836012 0.081073605 -0.1373678 0.07069239 0.045893554 0.07641667 -0.19308656 -0.09653786
-0.012095513 0.100996114 -0.11363992 0.062405467 0.07665264 -0.08420566 0.20065188 0.16288677
0.302694 -0.029600216 0.21902652 -0.027867528 0.34388143 -0.015973154 -0.13717577 0.044871747
0.14976661 -0.11043302 0.02263218 0.1662179 -0.022589348 0.031452533 -0.027871974 -0.057784308
0.09260877 -0.09398347 -0.22577704 -0.055723283 0.085647605 0.019285383 -0.1406716 -0.14534287
-0.10581234 0.11865022 0.11071497 0.025051624 0.06460535 0.21757668 -0.104609594 -0.11581481
0.17396028 -0.1032397 0.10136284 0.18946692 0.059554596 -0.059896067 0.025991024 0.10690406
-0.2044898 -0.048919417 -0.10603076 -0.08788488 0.15882397 0.091677874 -0.053095724 0.05481169
-0.0027294597 0.04877813 -0.08938725 -0.0817 0.25454712 0.070913404 -0.17587739 0.0006458409
0.005253271 -0.007815491 -0.0064891786 0.1117126 -0.057888236 0.033321623 -0.051301204 0.12897328

MLP3.bias f4 [50]
00000000: 21f8 7ebd ed98 ff3a d48e 403d 3439 053e
00000010: bf53 f63d 1caa d53d da89 39bc aa2a 923d
00000020: 7a49 3f3e d975 913d 1811 513d ad3b 7ebb
00000030: 89e7 823d c782 063d 1181 7b3d eb84 333d
00000040: 733b 533d bd62 8c3d 6e85 d53d 830c 1bbd
00000050: 6b63 8cbc d37d f9bc e104 693d bbb6 2c3c
00000060: 383f 0f3d 70aa c53d 8029 f43d 25e8 a0bd
00000070: 3b6c 1a3d a4c4 343e f242 f8bc 9467 0dbb
00000080: 8c82 2cbc cb51 fcbd 56b0 123d bf26 d8bd
00000090: af3d 023e af91 e7bd 571d a6bc 16b2 4bbd
000000a0: 77e2 c0bd 5d4d 0e3e 2745 153e 3148 d03d
000000b0: cb38 aa3c 1f6f a53d fa8d 0b3d 91ce d03d
000000c0: b2f0 8abd 572d d93c
-0.062248353 0.0019500531 0.04701121 0.13010103 0.12027692 0.104328364 -0.01132437 0.07137044
0.18680373 0.07102556 0.051041692 -0.0038792894 0.06391818 0.032839563 0.061402384 0.043827932
0.051570367 0.0685477 0.1042584 -0.03785373 -0.01713725 -0.030455505 0.05688942 0.010541613
0.0349724 0.09651649 0.11921978 -0.07856778 0.037700873 0.17653137 -0.03030536 -0.002157663
-0.010529172 -0.12320288 0.0358127 -0.10554265 0.12718843 -0.11307084 -0.020277662 -0.049730383
-0.09418195 0.13896699 0.14577161 0.101700194 0.020779034 0.08077835 0.034070946 0.101956494
-0.0678419 0.026510878

MLP4.weight f4 [7, 50]
00000000: 584c ce3d 91a0 193e 2958 4cbc c43e 29be
00000010: 9fa3 36be 42a8 20bd a09b b2bd 5b12 ee3d
00000020: 422d cfbd 37ac 3dbd e01e 973c fcf3 0ebe
00000030: 48fc 61be 77db 6e3e dd24 30be 61dc 20be
00000040: 7841 3d3e 9b61 263e 486a 01bd b7ee 3f3e
00000050: 4d9e 8bbd 7e38 af3d baa9 94bd 42e0 f9bc
00000060: 6170 953d c15b b33e 21c9 0e3e d816 02be
00000070: 3fdc 7c3d b3ad 8a3d e5d0 033d 37bb debd
00000080: dde6 943d d701 98bd 7f8a 7b3d c691 90be
00000090: 2ec5 8dbe 3263 15be 7907 8dbe 0ffb 793d
000000a0: 160d 833d a4d7 ae3d a7ec 193d 3a49 b83d
000000b0: 7c69 a43d 38d1 23bd 3d6e 303d c800 1a3d
000000c0: 83d5 783c 6f53 94be 7c2e 413c cc54 2dbd
000000d0: ebff 6f3d ee9d e3be d666 e13d 39df 2c3e
000000e0: 40f4 243d a58a 17bd 5312 d23d 8cc5 173e
000000f0: 2a78 093d 70a6 4ebe 7ff9 a4be 5ef7 aebb
00000100: 2ff7 b4be 1c5e 553e 3419 583e 1ec7 0a3e
00000110: 58e7 1d3c ae4c 35bd 259a 0b3d 1bdc eb3d
00000120: f733 7cbe 31be c8bd 6039 42bd 54b0 813e
00000130: 4a98 05be 1ebf 0bbe e05a bb3d c8cd cf3c
00000140: c7b1 3ebd 024c 5bbe 8f45 f03d acc5 a13c
00000150: 99c0 bc3d 822c c5be 6845 8d3d b798 293e
00000160: c630 c93d b4e1 da3d ef17 373d b1bd 1c3c
00000170: ce98 46be ac9d 2a3e 3227 92bd df0e 8c3d
00000180: 3c0a 3e3e 294a 21be 0835 c3be 8c64 babe
00000190: a795 3b3e efc2 963c 620f 523d 7673 be3d
000001a0: 5531 373e ae6f 14bd 858b 7cbe c9fd 0cbe
000001b0: 8d16 283e f5a6 0dbe 92b4 ec3d c426 babe
000001c0: 71e4 a7bd 063c aa3d bf9c 9cbe 905b f93b
000001d0: 7916 223e b6db d7bc 3c45 793e 9cb4 e53d
000001e0: 0b79 fdbd 3c33 73be 7d1e 1ebe 236e 05be
000001f0: 4e20 233e 4440 573e 785c 7c3d d725 b03d
00000200: 4217 b2bd 33e2 e43d 2ca1 f5bd b196 fabe
00000210: 2e8b 343d ad5e 29be f088 143d 26e0 4ebe
00000220: 11ab 033e 764d 613e 9ead 19be c16e 283e
00000230: a3ad 733d 9cf6 d8bc 5aef 0c3e 665f 353e
00000240: fcc5 b33c 3cde 22be 40da a93c 02d7 2e3e
00000250: 53a6 8a3d 6793 bfbe aec1 313e eb13 5ebd
00000260: 47f6 5e3d 4f9d 78be 2ea7 25bd bdb3 033e
00000270: ca10 1ebf c67f 6dbb 3165 053c 390e 5a3d
00000280: ce76 18bf 861e 553e 363d 0f3e 977b 06bd
00000290: 9465 7cbe df83 36be 9a1e c83d 358b 423e
000002a0: ffe1 99bd 914a 203e 320f 2f3e 7f07 b5be
000002b0: ec81 a2be 5e3c 433e 5dab 543d 992d 5abe
000002c0: b334 b43d 5d6f c4bd 2505 a0bc 18ff e73b
000002d0: 7a1c 13be 1dc6 a0be cccf fe3d 7d54 a43d
000002e0: 7076 123e 85e8 443e 4eee 5dbe 0c22 2f3c
000002f0: a65e 9fbe 35c1 393d e611 cebe 0fbe f33d
00000300: 46b2 3ebe cd87 983d e058 0bbd eef8 b93b
00000310: bf91 d1bd d588 05be afc6 d5bd 147e e0bd
00000320: b7cc 07be 9b8a 8dbe 6882 333d 0306 213e
00000330: 415e bb3c ad15 0e3e 577d 31be 07dc 1e3e
00000340: 2679 dc3d c4fd 4cbe 233f 933e ec31 d93d
00000350: e7c2 cebe 1c9e 3cbd c5b3 90be 697a 093e
00000360: a162 9d3d fa59 c4bd 6d63 69be 19dd 8c3d
00000370: 61d1 023d ad3c 5abe e82d 6e3e bbd8 203e
00000380: 6d4e 603a 1d0f 2c3e 9a3d 163e 1306 273e
00000390: c146 b03d 1e55 1a3e 62a8 133e 11c0 4e3d
000003a0: 0ad7 56be f141 b7be 3673 113e fc21 f1be
000003b0: bf1d b6be ba13 cbbe 6114 a93c 8cb2 d63d
000003c0: c24f 093e 59ef 87bc 006c 28be be59 debd
000003d0: 1a87 05bc 6ccd 21be f9a9 1c3e 81ba 373d
000003e0: ccc7 0ebe 65e2 0a3d 5efc 31be 7804 9a3c
000003f0: e699 4abe 52d3 9cbd fae8 dc3d 07c8 7abd
0.10073155 0.15002657 -0.012472191 -0.1652785 -0.17835854 -0.039222963 -0.08721089 0.11624595
-0.10116054 -0.046306815 0.01844734 -0.1396026 -0.22068894 0.23325907 -0.17201562 -0.15709068
0.18482006 0.16248171 -0.0315955 0.18743406 -0.06817303 0.08555697 -0.07258935 -0.030502442
0.07296825 0.3503094 0.13943912 -0.12704027 0.06173348 0.06771412 0.03218164 -0.10875552
0.07270596 -0.07422226 0.061411377 -0.28236216 -0.276895 -0.14588621 -0.27544764 0.061030444
0.0639898 0.08537224 0.037579205 0.08998342 0.08027932 -0.03999445 0.04307388 0.0375984
0.015187624 -0.28969905 0.011790868 -0.042317197 0.05859367 -0.44456428 0.110059425 0.16882028
0.040271997 -0.036997456 0.10257401 0.14821452 0.033561863 -0.20180678 -0.322216 -0.005339547
-0.35344836 0.20836681 0.21103364 0.1355252 0.009637676 -0.04426258 0.03408255 0.11516591
-0.24629198 -0.09801901 -0.047418 0.2532984 -0.13046375 -0.13647124 0.091481924 0.025366679
-0.04655626 -0.21415713 0.11732017 0.019747578 0.092164226 -0.3851052 0.06898004 0.16562162
0.09823756 0.10687581 0.04470056 0.00956671 -0.19394228 0.1666171 -0.07136382 0.06838774
0.18558592 -0.15750946 -0.38126397 -0.36404836 0.18318807 0.018403498 0.0512842 0.09299366
0.17889912 -0.03623932 -0.24662597 -0.13768686 0.16414852 -0.1383322 0.115578786 -0.363577
-0.081978686 0.0831223 -0.30588338 0.007609792 0.15828885 -0.026349884 0.24342817 0.11216089
-0.12376603 -0.23750013 -0.15441318 -0.13030295 0.15930292 0.21020609 0.061611623 0.086009674
-0.08695842 0.111759566 -0.11993632 -0.48943093 0.044078045 -0.16540022 0.036263406 -0.20202693
0.12858225 0.22002205 -0.15007636 0.164485 0.059491765 -0.02648478 0.1376318 0.17712173
0.021944992 -0.15905088 0.020733953 0.17074206 0.06770005 -0.37417147 0.17359039 -0.054218214
0.054434087 -0.24278758 -0.040442638 0.12861533 -0.6174437 -0.003623949 0.008141802 0.05323622
-0.5955628 0.20812425 0.13988194 -0.03283271 -0.24648124 -0.17823742 0.09771462 0.18998416
-0.075138085 0.15653445 0.1709564 -0.35357282 -0.31739748 0.19065997 0.051921237 -0.21306457
0.08799114 -0.09591553 -0.019533703 0.00707997 -0.14366332 -0.31401148 0.12441978 0.08023927
0.14302993 0.19229324 -0.21672937 0.01068927 -0.311269 0.045350272 -0.4024803 0.11901485
-0.18622693 0.07447777 -0.034020305 0.0056754267 -0.10232877 -0.13040479 -0.104382865 -0.109615475
-0.13261686 -0.2764481 0.043825537 0.1572495 0.022872092 0.13875456 -0.1733297 0.15513621
0.10765295 -0.20018679 0.28759107 0.10605225 -0.40383074 -0.046049222 -0.28262153 0.13425602
0.076848276 -0.09587474 -0.22791834 0.068781085 0.03193796 -0.21312208 0.232597 0.15707676
0.0008556608 0.1680264 0.14671937 0.16310911 0.08607245 0.15071532 0.14419702 0.050476138
-0.20980468 -0.35792497 0.14204106 -0.4709624 -0.3556957 -0.39663488 0.0206396 0.10483274
0.13409331 -0.016593622 -0.16447449 -0.10856961 -0.0081498865 -0.15801018 0.15299214 0.0448556
-0.13943404 0.033907313 -0.17381427 0.018800959 -0.1978527 -0.07657494 0.10786624 -0.061225917

MLP4.bias f4 [7]
00000000: 9b09 03be d8f2 ee3d a624 8b3d 4ce5 a03b
00000010: 8069 a43c 1d81 aa3d 2b0a 023e
-0.12796633 0.116674125 0.067940995 0.004910147 0.020069838 0.08325408 0.12699191
