DQN/final_dqn_against_negaMax2/DQN_AgainstNegaMax_Epochs20000_player2.pth (torch, 493491 bytes, 12 tensors)

conv1.weight f4 [32, 1, 5, 5]
0.021372342 0.051161822 0.023110626 -0.04049841 0.1519165 0.030575702 0.014483892 -0.1969063
0.2869321 0.36539564 -0.11977229 0.1904929 -0.12580495 0.17666087 0.02329059 -0.30356824
0.013078068 -0.12279086 0.17283437 0.06916417 -0.0371558 0.25032842 0.09768015 -0.08017073
-0.23882096 -0.072233886 0.14544274 -0.009927416 -0.3128555 -0.14955263 0.036282636 0.29187265
-0.0043744976 -0.17503637 -0.24744497 -0.00859281 -0.22201572 0.056134567 0.11503487 -0.20162374
-0.09252803 -0.11401209 -0.12201597 0.07263959 -0.04195854 0.0693871 0.31605348 -0.16665797
0.09273363 -0.078528464 -0.014621794 0.35082537 -0.12301083 -0.05695001 -0.22643244 -0.07917912
0.28749025 -0.27901325 -0.25259656 0.16068806 0.1409204 0.11472726 0.20905036 0.20563656
-0.010067213 0.09557896 0.006217763 -0.22083557 -0.12105284 -0.1904978 0.19642393 -0.086997114
0.05784427 -0.29116085 -0.14899229 -0.13416278 -0.3409996 -0.1506842 -0.18655927 0.18961322
-0.028934784 -0.057964925 0.3231224 -0.22949256 -0.19444315 0.069270834 -0.11661737 0.06297815
-0.13721646 0.10941684 -0.1467398 -0.28547364 0.026055723 0.27903453 -0.0630073 0.15117095
-0.20331715 0.102694765 -0.22207816 0.067323014 0.008610476 -0.16007133 0.3096114 -0.20251815
-0.10660922 0.120669454 -0.0023647523 0.27010116 0.10662854 0.11999304 -0.14592616 -0.03827208
0.011397267 -0.0034509948 0.16741359 0.02958141 0.13758066 0.13556543 -0.1481014 -0.3183373
0.17363027 0.036714155 0.06450771 0.022387793 0.2679036 0.15548427 0.19515345 0.24847396
0.121726125 -0.2214585 0.18816029 0.29454374 0.18726635 -0.121955 0.07285479 -0.060176898
0.010199529 -0.16795617 0.11075138 -0.27469495 0.24334516 0.2859499 0.134238 0.17328186
-0.105113834 -0.33781055 0.081346884 -0.0048965844 0.13969576 0.27439442 -0.089452244 0.15752459
0.20837617 -0.11182483 0.15336205 0.11969503 0.25310513 0.124111846 0.24903308 -0.038116317
0.13957256 -0.43702003 -0.032945916 -0.04920901 0.18326277 -0.26666844 -0.1930683 0.07622893
-0.16973503 0.0951978 -0.15674393 -0.0054602856 0.1874807 -0.25204268 0.21729618 -0.08732536
0.12748249 -0.017865798 0.26606888 0.082522355 0.1796244 0.33472082 -0.14427058 0.30906972
-0.1503498 0.03152459 0.14090134 -0.17119817 0.15846416 -0.35619617 0.17920369 0.3074524
0.34306878 0.022179121 0.044825926 0.22091207 0.06556212 -0.057780247 -0.14141655 0.1888895
-0.19500963 0.2512083 0.20610121 -0.19215725 -0.10888573 0.27836132 0.23896644 -0.0010117058
0.25179923 -0.04203158 -0.17310618 0.009581047 0.32742646 0.120953925 -0.27092856 0.039766937
-0.0060650846 0.22825734 0.17606895 0.31558466 -0.0148179475 -0.14626952 0.15835994 -0.1164169
-0.26299888 0.05604416 0.17153285 -0.21632694 -0.14741474 -0.14542817 0.31274468 -0.0047804243
0.14945038 0.11746928 0.03750311 0.15118901 -0.1352368 0.16278237 -0.12659965 -0.17057474
0.21236561 0.12844324 0.14277029 -0.10445657 -0.034724336 0.32633135 -0.21662465 -0.10114206
-0.06109466 0.055227224 -0.015229135 -0.21786748 -0.21137023 0.06335868 -0.0005632271 0.17262822
00000000: 0d15 af3c 0f8f 513d 7f52 bd3c a9e1 25bd
00000010: 0090 1b3e e579 fa3c d94d 6d3c cea1 49be
00000020: c4e8 923e 2315 bb3e 2d4b f5bd 9210 433e
00000030: 03d3 00be 96e6 343e e8cb be3c 4c6d 9bbe
00000040: 6545 563c c679 fbbd 7efb 303e f2a5 8d3d
00000050: ae30 18bd 0c2b 803e 880c c83d 8d30 a4bd
00000060: 7b8d 74be 5cef 93bd f1ee 143e 9aa6 22bc
00000070: 992e a0be 5324 19be 1a9d 143d 5570 953e
00000080: f257 8fbb bc3c 33be 3762 7dbe dbc8 0cbc
00000090: 1758 63be 5ced 653d 6797 eb3d 7476 4ebe
000000a0: 567f bdbd 2c7f e9bd 82e3 f9bd 11c4 943d
000000b0: b8dc 2bbd d31a 8e3d c3d1 a13e 63a8 2abe
000000c0: 21eb bd3d 88d3 a0bd 4090 6fbc 629f b33e
000000d0: 1aed fbbd 6a44 69bd e8dd 67be aa28 a2bd
000000e0: ec31 933e d3da 8ebe 5654 81be 698b 243e
000000f0: 704d 103e 20f6 ea3d 4c11 563e 6492 523e
00000100: f4f0 24bc e7be c33d 60be cb3b b822 62be
00000110: 8dea f7bd db11 43be 5b23 493e 8b2b b2bd
00000120: 1dee 6c3d 0913 95be 6f91 18be f861 09be
00000130: 8097 aebe f54c 1abe 6509 3fbe f829 423e
00000140: a408 edbc a16c 6dbd 4d70 a53e 1900 6bbe
00000150: 1b1c 47be dedd 8d3d 16d5 eebd b0fa 803d
00000160: 7982 0cbe f015 e03d f542 16be 9a29 92be
00000170: d072 d53c 9ddd 8e3e f909 81bd 8fcc 1a3e
00000180: 5f32 50be a251 d23d 7568 63be a6e0 893d
00000190: f412 0d3c bde9 23be 6385 9e3e eb60 4fbe
000001a0: ef55 dabd 8c21 f73d f6f9 1abb b34a 8a3e
000001b0: 1060 da3d e9be f53d ab6d 15be 2fc3 1cbd
000001c0: 9abb 3a3c 162a 62bb 786e 2b3e b754 f23c
000001d0: f2e1 0c3e aad1 0a3e e5a7 17be 1bfd a2be
000001e0: 22cc 313e 9561 163d 9e1c 843d 9b66 b73c
000001f0: a92a 893e 4537 1f3e 4ed6 473e f56f 7e3e
00000200: 8c4b f93d 04c6 62be 17ad 403e 70ce 963e
00000210: c0c2 3f3e 8bc3 f9bd e434 953d 0d7c 76bd
00000220: ed1b 273c b4fc 2bbe 9fd1 e23d d1a4 8cbe
00000230: 792f 793e 0668 923e b075 093e cd70 313e
00000240: ec45 d7bd 81f5 acbe 3299 a63d 8773 a0bb
00000250: 680c 0f3e 6d7d 8c3e bd32 b7bd 204e 213e
00000260: 9060 553e 6b04 e5bd f10a 1d3e ab22 f53d
00000270: ff96 813e 5a2e fe3d 8702 7f3e db1f 1cbd
00000280: 1cec 0e3e 17c1 dfbe 4cf2 06bd 638f 49bd
00000290: 3ca9 3b3e c488 88be b2b3 45be ea1d 9c3d
000002a0: 05cf 2dbe 10f7 c23d 7b81 20be 32ec b2bb
000002b0: f1fa 3f3e bd0b 81be e482 5e3e a3d7 b2bd
000002c0: c58a 023e 4b5b 92bc 2e3a 883e 7b01 a93d
000002d0: 75ef 373e 8760 ab3e abbb 13be 633e 9e3e
000002e0: 4cf5 19be ee1f 013d 7148 103e 934e 2fbe
000002f0: 6e44 223e 585f b6be 2c81 373e 676a 9d3e
00000300: b6a6 af3e fdb0 b53c 649b 373d c636 623e
00000310: 6f45 863d fbaa 6cbd 80cf 10be 406c 413e
00000320: 9bb0 47be 609e 803e 320c 533e dfc4 44be
00000330: 7bff debd 6085 8e3e 9eb3 743e 379b 84ba
00000340: d4eb 803e 4e29 2cbd bf42 31be d3f9 1c3c
00000350: 71a4 a73e b1b6 f73d 26b7 8abe a8e2 223d
00000360: 9ebd c6bb 4bbc 693e 6b4b 343e 5094 a13e
00000370: fac6 72bc adc7 15be 1c29 223e fc6b eebd
00000380: caa7 86be 908e 653d 4fa6 2f3e cf84 5dbe
00000390: e4f3 16be 1feb 14be 1220 a03e 1ba5 9cbb
000003a0: 8509 193e bc93 f03d dc9c 193d 4bd1 1a3e
000003b0: 847b 0abe 6cb0 263e 57a3 01be 25ab 2ebe
000003c0: 5f76 593e a086 033e 6032 123e 54ed d5bd
000003d0: 1b3b 0ebd e714 a73e dad2 5dbe 9123 cfbd
000003e0: 653e 7abd f135 623d 9f83 79bc a718 5fbe
000003f0: 7071 58be 32c2 813d 88a5 13ba 74c5 303e

conv1.bias f4 [32]
0.06118279 0.20949674 -0.10213342 0.19156513 0.14968678 0.052205443 0.035218854 0.12025589
0.0794008 -0.13852842 -0.010644873 0.054379214 0.18264091 0.13135165 -0.081067175 -0.14642125
0.06294568 0.23705223 0.07720431 0.17656925 -0.039320998 -0.12969893 0.2561987 -0.109202944
-0.1240123 0.15063731 -0.08371954 0.13961448 0.128053 0.09449216 0.10096865 0.1946103
00000000: ce9a 7a3d 5086 563e 542b d1bd a629 443e
00000010: 7e47 193e 60d5 553d a541 103d b848 f63d
00000020: e39c a23d 65da 0dbe d567 2ebc bdbc 5e3d
00000030: 3806 3b3e 0c81 063e 8c06 a6bd 74ef 15be
00000040: aae9 803d d2bd 723e 4b1d 9e3d 92ce 343e
00000050: 0e0f 21bd cccf 04be 7a2c 833e cba5 dfbd
00000060: 29fa fdbd ab40 1a3e 2675 abbd 19f7 0e3e
00000070: 5320 033e 1b85 c13d a7c8 ce3d ec47 473e

conv2.weight f4 [32, 32, 5, 5]
-5.496338e-05 -0.017198598 0.04653318 0.013421795 0.009494131 -0.00016443273 0.043262877 0.0887299
-0.008053431 -0.10066043 -0.0043332153 -0.045410663 -0.06827543 0.04960403 0.000930236 0.052751694
0.078756705 -0.022152029 -0.066584215 -0.024392234 0.043969348 0.03499081 -0.051064286 0.01859067
-0.11287074 0.05396632 -0.028330248 -0.013305165 -0.0018804655 0.005388789 -0.026679026 0.060623303
0.002238786 0.015554779 0.08632534 0.047968864 0.041605942 0.04655679 0.004510007 0.102864616
0.011791156 -0.027085334 -0.034627486 0.019896809 0.13876727 0.020052636 -0.027113564 0.06547113
-0.015897177 0.06035691 0.011325181 0.022401322 -0.038304776 -0.074612 0.0037152127 -0.071781464
-0.03548397 -0.014718053 -0.056594446 -0.044540398 -0.029546145 -0.008879681 -0.056086242 0.032711864
-0.0060385666 0.015688688 -0.05178477 -0.11403486 -0.01021794 -0.009011919 -0.05067143 -0.100549996
0.016861962 0.13426173 0.06564305 0.07949932 0.046707183 -0.0640754 -0.060546312 0.059368014
0.032291442 0.0460697 0.059349112 -0.07741359 0.024076961 0.04260463 0.011198127 -0.009610643
-0.056308676 0.01679635 -0.056614403 -0.025042657 0.04017516 -0.03742103 -0.035433285 0.025081892
0.02789615 0.027859824 -0.0064239614 -0.006643973 -0.030459294 0.062432293 -0.0733552 -0.033933517
0.03198053 -0.009512096 -0.01372153 -0.002451252 0.09037791 0.10481418 -0.08645547 0.086139224
-0.006905068 -0.015676519 0.04916465 -0.017673654 0.04771657 0.058389734 0.027374374 0.11362234
-0.019348562 0.020666214 -0.023475831 -0.08619511 0.067781806 0.007951283 0.047312547 -0.066090465
0.0022368769 -0.09114881 -0.030014543 0.04961933 -0.103501886 -0.004926243 0.06740273 -0.05078858
0.09954842 -0.0691613 -0.019074768 -0.051423986 0.02107125 0.005331775 -0.03666244 0.013741427
0.014901557 -0.055747684 -0.06418818 -0.01911317 0.016422588 0.014755108 -0.078925304 -0.07375937
0.056246508 0.013555784 0.03029148 0.009625127 0.031007107 0.07410259 0.03382982 0.01230313
0.025134915 -0.014644998 0.027018892 -0.06873156 -0.02735114 -0.0112111 -0.107574984 0.028157335
0.0430975 -0.04707615 0.03660529 -0.016584044 0.021412393 -0.022974363 -0.059524864 0.064896904
-0.04929173 -0.013576086 -0.030335814 -0.03194409 0.046987597 -0.07389194 -0.019090068 0.09864067
-0.016462414 0.032866277 0.0561812 -0.0463101 0.08860841 0.024945853 0.010621782 -0.007240311
-0.04128085 0.09947485 0.0055415295 0.020990757 -0.07420815 0.05015705 0.053550832 -0.021513436
-0.07573504 -0.076881774 -0.049032804 -0.07709828 0.06546874 -0.0060140127 0.07304892 -0.065028
-0.120279886 0.07063161 -0.07532645 0.017428659 -0.0575051 -0.13108407 -0.022317508 -0.08771416
0.16269155 -0.039581206 -0.06215485 0.055013094 -0.022756247 -0.0015188258 0.056290217 -0.07369453
-0.038103648 0.009696437 0.0039251414 0.04337244 -0.07492878 -0.010033351 0.047021616 -0.053475216
-0.00056888786 0.06816807 -0.020448305 0.031817365 0.021688355 -0.0019328047 -0.07875858 0.029509537
-0.039854832 -0.008555428 -0.021280799 0.06847035 0.031747945 0.005316344 0.048501693 -0.11152469
0.027737793 -0.022740824 0.003449756 0.03572258 -0.057766803 0.0005831603 -0.012837918 0.061538298
00000000: 7b88 66b8 13e4 8cbc 9399 3e3d 17e7 5b3c
00000010: 468d 1b3c 936b 2cb9 6a34 313d 06b8 b53d
00000020: 8af2 03bc 0e27 cebd a5fd 8dbb 8800 3abd
00000030: fdd3 8bbd 982d 4b3d 15db 733a 2912 583d
00000040: 324b a13d 2c78 b5bc 4e5d 88bd 39d2 c7bc
00000050: 3419 343d 8652 0f3d c928 51bd 764b 983c
00000060: c628 e7bd ca0b 5d3d d614 e8bc e8fd 59bc
00000070: f479 f6ba 7094 b03b f98d dabc 2450 783d
00000080: 99b8 123b 79d9 7e3c 57cb b03d 007b 443d
00000090: fe6a 2a3d 55b2 3e3d aec8 933b afaa d23d
000000a0: b12f 413c 10e2 ddbc 8dd5 0dbd a2fe a23c
000000b0: 0219 0e3e 6d45 a43c 441d debc ba15 863d
000000c0: cc3a 82bc cf38 773d 418d 393c fa82 b73c
000000d0: 78e5 1cbd 2dce 98bd ed7a 733b 2902 93bd
000000e0: a457 11bd fd23 71bc 94cf 67bd fe6f 36bd
000000f0: c20a f2bc 157c 11bc b0ba 65bd e0fc 053d
00000100: 2bdf c5bb 9085 803c 441c 54bd 1c8b e9bd
00000110: 2669 27bc baa6 13bc d88c 4fbd 28ed cdbd
00000120: 1922 8a3c e87b 093e dd6f 863d 8ad0 a23d
00000130: 0850 3f3d f739 83bd 69ff 77bd e02b 733d
00000140: 0844 043d 95b3 3c3d 0e18 733d 048b 9ebd
00000150: 0c3d c53c 3182 2e3d 5978 373c f575 1dbc
00000160: eda3 66bd 8098 893c 81e4 67bd 4226 cdbc
00000170: b58e 243d cb46 19bd 7e22 11bd 8a78 cd3c
00000180: 7786 e43c 493a e43c 1880 d2bb afb5 d9bb
00000190: c585 f9bc 01b9 7f3d 403b 96bd dffd 0abd
000001a0: 04fe 023d 9fd8 1bbc 45d0 60bc 2fa5 20bb
000001b0: 0e18 b93d d1a8 d63d 910f b1bd c369 b03d
000001c0: e943 e2bb 0b6c 80bc df60 493d 57c8 90bc
000001d0: 7372 433d 132a 6f3d 3940 e03c d4b2 e83d
000001e0: e080 9ebc 314c a93c 6350 c0bc 1087 b0bd
000001f0: 30d1 8a3d 1946 023c cdca 413d 705a 87bd
00000200: 9198 123b 3aac babd 0fe1 f5bc a33d 4b3d
00000210: ccf8 d3bd 526c a1bb 710a 8a3d b007 50bd
00000220: 0be0 cb3d 71a4 8dbd b042 9cbc f5a1 52bd
00000230: 9d9d ac3c 2cb6 ae3b 5b2b 16bd b923 613c
00000240: a925 743c af57 64bd 1875 83bd 3993 9cbc
00000250: aa88 863c 69bf 713c 97a3 a1bd 270f 97bd
00000260: bd62 663d 1419 5e3c d625 f83c b5b2 1d3c
00000270: 9e02 fe3c 19c3 973d 2391 0a3d 1193 493c
00000280: bde7 cd3c 93f1 6fbc b956 dd3c 22c3 8cbd
00000290: 7f0f e0bc c3ae 37bc 4650 dcbd 36aa e63c
000002a0: 0187 303d ecd2 40bd 6eef 153d 43db 87bc
000002b0: 0b69 af3c bb34 bcbc 58d0 73bd abe8 843d
000002c0: 20e6 49bd 3b6e 5ebc d082 f8bc ced7 02bd
000002d0: 1176 403d a854 97bd c662 9cbc 1f04 ca3d
000002e0: 2fdc 86bc ca9e 063d 421e 663d a9af 3dbd
000002f0: 5378 b53d 3f5b cc3c fc06 2e3c 2140 edbb
00000300: 1c16 29bd 78b9 cb3d b895 b53b cff4 ab3c
00000310: 71fa 97bd 7b71 4d3d 1e58 5b3d f23c b0bc
00000320: f91a 9bbd 3174 9dbd 9fd6 48bd b4e5 9dbd
00000330: 7a14 863d 3211 c5bb ac9a 953d 662d 85bd
00000340: 4d55 f6bd 4ea7 903d c144 9abd 8cc6 8e3c
00000350: 788a 6bbd e73a 06be 35d3 b6bc 7ba3 b3bd
00000360: 9d98 263e e71f 22bd 1696 7ebd 6955 613d
00000370: 4f6b babc 5613 c7ba 9290 663d 28ed 96bd
00000380: 9212 1cbd cedd 1e3c 799e 803b 4da7 313d
00000390: 4374 99bd ed62 24bc bd99 403d d408 5bbd
000003a0: 6b21 15ba b39b 8b3d 3483 a7bc ed52 023d
000003b0: c7ab b13c 2a56 fdba 2e4c a1bd fcbd f13c
000003c0: d23e 23bd 112c 0cbc 1255 aebc 2f3a 8c3d
000003d0: 220a 023d ba34 ae3b b6a9 463d 0f67 e4bd
000003e0: 5e3a e33c f74a babc 4d15 623b d751 123d
000003f0: e29c 6cbd 3adf 183a 2156 52bc 950f 7c3d

conv2.bias f4 [32]
0.017765235 0.0544107 0.026741058 0.03092369 0.035579678 0.05166081 0.000577742 0.067322
0.045941044 -0.02422312 0.030944008 -0.013934194 0.015230987 0.07867134 0.07180852 0.045159142
0.037841402 0.037318513 0.02608627 -0.02378294 0.010738097 0.03659286 0.045500547 0.025117751
-0.005028977 0.029988807 0.020107307 -0.023496563 -0.04241057 -0.04278289 0.03709066 0.019580252
00000000: 6688 913c c1dd 5e3d 1010 db3c ae53 fd3c
00000010: ffbb 113d 499a 533d 9c73 173a 1ee0 893d
00000020: ad2c 3c3d 916f c6bc 4a7e fd3c 3f4c 64bc
00000030: 648b 793c 711e a13d 5810 933d cbf8 383d
00000040: 96ff 1a3d 4cdb 183d e0b2 d53c 71d4 c2bc
00000050: d8ee 2f3c 65e2 153d c85e 3a3d bec3 cd3c
00000060: 1eca a4bb 16ab f53c 14b8 a43c dd7b c0bc
00000070: b5b6 2dbd 1d3d 2fbd 60ec 173d c466 a03c

conv3.weight f4 [32, 32, 5, 5]
-0.05401921 0.017602628 0.04562737 -0.014939668 -0.057788126 -0.082284145 0.008377773 -0.036805734
0.038744908 -0.065686315 0.06436942 0.053188715 0.07276353 0.020435536 -0.05063146 0.0036603888
0.055990845 0.013735846 -0.013029926 -0.038337618 0.013598525 0.02925101 0.0531583 -0.027565788
-0.052774526 0.0029766727 -0.065898955 0.0043957997 -0.03277081 -0.028198848 -0.0013883136 0.0025483149
0.003601878 -0.063468 0.08560552 0.034708645 0.024953442 -0.027757276 -0.011659849 0.14128146
-0.031748943 -0.022225063 -0.030613003 0.06837285 0.12627792 -0.06451546 0.11269715 0.0751686
0.00959232 0.048274357 -0.090962395 -0.013242009 -0.053170014 0.060752485 0.08322321 -0.07664945
0.011092595 0.025526643 0.03083181 0.053778328 -0.039375227 0.017241986 0.053843293 0.0637815
0.053818326 0.005132466 0.07897611 0.11072934 0.0047191875 -0.03788011 0.057470117 0.03517845
0.06791822 -0.04730703 0.005071496 0.0919617 0.029034039 0.08617114 -0.012513155 0.06354927
-0.0035083215 0.14149275 0.02922224 0.004640385 -0.019696064 -0.06268883 0.0057640346 0.0348078
-0.041382805 -0.023679385 0.076463185 -0.005007041 0.0107450215 -0.035166185 -0.055016804 -0.10892229
-0.092261605 -0.15677002 -0.12132745 -0.0008521056 -0.06286338 0.029265152 0.014829644 0.07832832
0.09265867 -0.06741031 0.08670727 0.065837294 0.08998603 0.024329705 0.050893135 0.02770934
0.10260961 0.054898523 0.008040502 -0.02739486 -0.011411046 0.024508648 -0.03037635 -0.08042405
0.046431493 -0.08889681 -0.07998004 -0.06593334 -0.078034796 0.052404646 -0.025719287 0.084421374
0.0076785395 0.017998364 0.067107484 0.084514484 -0.0799653 -0.09000821 0.0706083 -0.00024777016
-0.026700987 -0.029958367 -0.046035983 -0.011205747 0.0038288312 -0.006591058 -0.07236277 -0.0693894
-0.01647524 -0.09735526 -0.0066114184 -0.046530083 -0.11547421 0.08535734 0.030208658 -0.0029323436
-0.040707216 -0.027788563 0.04815653 -0.042716026 -0.037276655 -0.09630987 -0.09099846 -0.008510711
0.053202372 -0.16093747 0.026407653 0.02522949 -0.04510845 -0.10792169 0.056719724 -0.035050504
-0.10342207 0.0022143812 -0.04995125 0.0042719287 -0.02454368 0.009943143 0.06698338 -0.006706785
0.041038476 0.027688775 0.07304552 -0.008498927 0.014678147 0.050771885 0.036084246 0.019597255
0.046052616 0.0029184609 0.011130453 0.07545739 0.08160302 0.039764997 0.0029565499 0.038601466
0.04851675 0.017877474 -0.07109682 0.022410147 -0.09540293 -0.051416837 -0.07668895 -0.15277648
0.06252571 -0.006101264 -0.025999438 0.03608783 -0.022399448 0.0047983 -0.018577613 -0.0033466374
0.008574108 0.0035552997 -0.12285504 -0.05608566 -0.034539882 -0.014937332 0.08270232 -0.00039743521
-0.011636551 -0.020182641 0.10712975 0.111357175 0.09818427 0.08740485 0.06901649 0.0336414
0.029311942 -0.05047082 -0.00418481 -0.027813714 -0.023600766 0.04088097 -0.054078355 -0.05831632
-0.033619907 -0.022286996 0.04109274 -0.053679615 -0.05909183 -0.049693577 0.06033326 0.09503193
0.028902909 0.0030318368 0.0017834872 0.03944166 -0.03971841 0.017698733 0.08834926 0.01695099
0.10178486 -0.004843542 0.11328756 0.0054142373 0.028613647 -0.022021946 0.019216346 -0.032480743
00000000: 3f43 5dbd 6333 903c c4e3 3a3d 82c5 74bc
00000010: 3eb3 6cbd 9784 a8bd ed42 093c 9cc1 16bd
00000020: fbb2 1e3d 8c86 86bd 1dd4 833d 69dc 593d
00000030: 0c05 953d 6d68 a73c ef62 4fbd 22e3 6f3b
00000040: a856 653d 500c 613c 797b 55bc e807 1dbd
00000050: 59cc 5e3c d09f ef3c 85bc 593d a6d1 e1bc
00000060: 1a2a 58bd 4814 433b 08f6 86bd a40a 903b
00000070: af3a 06bd 4501 e7bc 13f8 b5ba a101 273b
00000080: 7c0d 6c3b 83fb 81bd f251 af3d a72a 0e3d
00000090: 296b cc3c 3a63 e3bc f408 3fbc 16ac 103e
000000a0: 2e0b 02bd 5611 b6bc 1fc8 fabc 1107 8c3d
000000b0: 004f 013e ae20 84bd c3cd e63d fff1 993d
000000c0: 1b29 1d3c 55bb 453d 7e4a babd 03f5 58bc
000000d0: cdc8 59bd 99d7 783d ee70 aa3d 63fa 9cbd
000000e0: b7bd 353c 401d d13c fe92 fc3c aa46 5c3d
000000f0: eb47 21bd 113f 8d3c c98a 5c3d e09f 823d
00000100: 9b70 5c3d 3f2e a83b 3abe a13d 10c6 e23d
00000110: 6aa3 9a3b 2d28 1bbd c965 6b3d 4717 103d
00000120: b518 8b3d 04c5 41bd cb2e a63b 6a56 bc3d
00000130: cbd8 ed3c 7f7a b03d fa03 4dbc 1f26 823d
00000140: deeb 65bb 7ae3 103e 7b63 ef3c 5f0e 983b
00000150: a459 a1bc 0063 80bd 3ae0 bc3b a092 0e3d
00000160: 0481 29bd 45fb c1bc bb98 9c3d 1b12 a4bb
00000170: e30b 303c 6b0a 10bd 4d59 61bd a612 dfbd
00000180: a7f3 bcbd 5288 20be 877a f8bd d75f 5fba
00000190: 84be 80bd 79bd ef3c 09f8 723c 996a a03d
000001a0: d4c3 bd3d 6b0e 8abd 9593 b13d b4d5 863d
000001b0: 984a b83d 174f c73c 5275 503d b3fe e23c
000001c0: fd24 d23d 46dd 603d 4fbc 033c 2f6b e0bc
000001d0: 65f5 3abc 5cc6 c83c d3d7 f8bc 5db5 a4bd
000001e0: f32e 3e3d 880f b6bd 93cc a3bd 0f08 87bd
000001f0: b5d0 9fbd 41a6 563d 41b1 d2bc 1de5 ac3d
00000200: 429c fb3b 4e71 933c a66f 893d ee15 ad3d
00000210: d9c4 a3bd 3956 b8bd 169b 903d 26e7 81b9
00000220: 07bc dabc 406b f5bc 3a90 3cbd 4f98 37bc
00000230: 21ed 7a3b cdf9 d7bb ef32 94bd 081c 8ebd
00000240: 15f7 86bc 3262 c7bd 99a4 d8bb 5496 3ebd
00000250: be7d ecbd d4cf ae3d 2678 f73c 902c 40bb
00000260: 9cbc 26bd d7a4 e3bc c83f 453d 00f7 2ebd
00000270: 68af 18bd 1c3e c5bd 675d babd 8270 0bbc
00000280: bbea 593d cbcc 24be dd54 d83c 13ae ce3c
00000290: a3c3 38bd 0c06 ddbd f152 683d 1e91 0fbd
000002a0: f3ce d3bd 271f 113b af99 4cbd 89fb 8b3b
000002b0: d40f c9bc 91e8 223c 952e 893d 97c4 dbbb
000002c0: f617 283d 92d3 e23c e498 953d 153f 0bbc
000002d0: 9c7c 703c 2ef6 4f3d 13cd 133d 6c8a a03c
000002e0: aba1 3c3d a643 3f3b 815c 363c 6789 9a3d
000002f0: 7c1f a73d 9fe0 223d adc2 413b 921c 1e3d
00000300: 80b9 463d c873 923c 369b 91bd 7c95 b73c
00000310: 9d62 c3bd 769a 52bd 190f 9dbd 7071 1cbe
00000320: 7b0d 803d 1ded c7bb c6fc d4bc d5d0 133d
00000330: 0c7f b7bc 0f3b 9d3b 1430 98bc 4253 5bbb
00000340: 6a7a 0c3c 0800 693b 6c9b fbbd 14ba 65bd
00000350: b179 0dbd b6bb 74bc d55f a93d da5e d0b9
00000360: 3ba7 3ebc 1156 a5bc d866 db3d 3b0f e43d
00000370: d614 c93d 5001 b33d 8458 8d3d 91cb 093d
00000380: 991f f03c 7eba 4ebd bb20 89bb 96d9 e3bc
00000390: 6556 c1bc ce72 273d 4481 5dbd 18dd 6ebd
000003a0: 07b5 09bd 3893 b6bc dc50 283d 28df 5bbd
000003b0: 460a 72bd 7e8b 4bbd 0220 773d 1aa0 c23d
000003c0: cbc5 ec3c c8b1 463b e6c3 e93a 948d 213d
000003d0: c5af 22bd effc 903c 75f0 b43d cddc 8a3c
000003e0: 9574 d03d 93b6 9ebb 4f03 e83d ea69 b13b
000003f0: 2b67 ea3c 5e67 b4bc 996b 9d3c 870a 05bd

conv3.bias f4 [32]
0.02253634 0.03358938 -0.062004734 0.022169096 -0.025762815 0.09772811 0.014382179 -0.04679773
-0.013642753 0.0028893834 -0.007951403 -0.012170207 0.02172687 0.034064036 0.05880775 0.041414414
0.043790944 0.037761368 -0.023182811 0.011764628 0.03170581 -0.018233396 0.06872367 0.053469192
0.039350312 -0.0026656166 0.040258743 -0.0522681 -0.0057046087 0.02914063 0.00845424 -0.019753864
00000000: 219e b83c 0595 093d adf8 7dbd f79b b53c
00000010: 8a0c d3bc ad25 c83d 3ba3 6b3c faae 3fbd
00000020: da85 5fbc cf5b 3d3b 9a46 02bc 8c65 47bc
00000030: 8dfc b13c bb86 0b3d 65e0 703d 29a2 293d
00000040: 225e 333d aaab 1a3d e1e9 bdbc 6dc0 403c
00000050: f4dd 013d 345e 95bc ffbe 8c3d 8302 5b3d
00000060: cb2d 213d a0b1 2ebb 5ae6 243d 1317 56bd
00000070: baed babb 55b8 ee3c a783 0a3c dbd2 a1bc

MLP1.weight f4 [50, 1344]
-0.004133848 0.024570806 0.044723794 0.065560356 0.036794454 0.052906573 0.037432235 -0.026316734
-0.01385361 0.08979988 0.06810635 -0.031801637 0.019384123 -0.015707659 0.019412618 0.03539593
0.040137097 -0.031000227 -0.13331854 0.0009913626 -0.08692427 -0.009512347 -0.05719143 0.06782555
-0.029131098 0.02138103 0.0050502503 -0.003592005 -0.0052227112 -0.005367204 0.023398316 -0.007145616
0.029340683 0.06111111 -0.02051992 -0.017699597 -0.031074 0.029525638 -0.003767428 0.01134496
0.049901634 0.031502265 0.029319268 0.060248356 -0.019317998 -0.02772107 -0.004814169 0.02637706
0.029148659 0.030444227 0.017112104 -0.050559632 -0.024093933 -0.01496628 -0.01343999 0.06646277
0.023955518 0.042938575 -0.02807934 -0.031471163 0.054836996 -0.04315851 -0.026912864 -0.043634012
-0.015994933 0.044897947 0.062608264 -0.05533853 0.026000043 0.06693118 0.123849876 0.06013015
-0.05694857 0.1030123 -0.04207104 0.036286224 0.0006966243 -0.037088186 -0.03694694 -0.08847235
0.020840215 0.010297057 0.12339167 0.093797445 0.15717715 -0.11559651 -0.0400594 0.028337555
-0.031619236 0.023765275 0.00085642765 0.0930711 -0.0035366316 0.015302972 0.0522408 0.008895405
0.039992984 0.047754996 0.048216388 -0.0024373839 0.02759483 0.056584563 0.04077646 0.05986251
-0.0030573667 0.053027958 -0.030834215 0.001337341 -8.4475825e-05 -0.04258492 -0.00672593 0.028944384
0.0720254 0.012541057 0.049208038 -0.027027218 0.008276181 0.031281665 0.01068651 0.04659176
-0.07151946 -0.0331394 -0.0203967 -0.04858501 -0.039546907 -0.09848104 0.09366125 0.017426668
-0.1391376 -0.00825451 0.03864043 -0.017659215 -0.044379104 0.036988605 0.10556979 0.048244305
-0.009651912 0.009012077 0.015829481 0.050945554 0.04855753 0.027379045 0.00038998763 0.026756654
-0.00018480486 0.016156306 0.0049216114 -0.020682849 0.069610134 -0.027623586 0.041687768 -0.004397774
0.0012351192 0.016195796 -0.035693694 -0.019519042 -0.025244903 -0.022142721 0.05128319 0.05303
-0.027212523 0.041977294 -0.026123993 -0.0401508 -0.005039054 -0.041168965 -0.020361105 -0.049211532
0.10016782 0.053370975 -0.0104262065 -0.022881942 0.028222552 -0.028856497 0.01204144 0.09135034
0.08403871 0.04057059 0.07227668 0.026825538 0.048670225 -0.00090348284 -0.028421074 0.04881152
-0.03608527 -0.036923725 -0.0018558145 0.06560412 0.018654011 0.027272068 -0.04473086 0.028972207
0.017062683 0.027777871 0.02227508 -0.025619362 -0.026695512 -0.077742085 -0.0019178912 -0.030585036
-0.0133855045 -0.043176234 -0.047654685 -0.040536523 0.036801863 -0.08386251 -0.06654714 -0.030597754
0.011672064 -0.041480865 -0.055051584 -0.07327337 -0.043365963 -0.12074912 0.05169154 0.04554975
-0.08433353 -0.03377946 0.070003055 0.008459814 0.013302279 -0.017757505 0.06829291 0.005497028
0.012080555 -0.037366174 0.041820616 -0.02199025 0.026663037 -0.005328079 0.051587638 0.061771214
0.061107032 0.02609647 0.04153298 0.031738993 0.013919047 -0.034148235 -0.010314393 0.074283086
-0.03074961 0.08147998 0.0023751487 -0.017476814 0.00079739693 -0.028849764 0.02166062 0.00873335
-0.044636916 0.017530778 -0.011014267 0.014071101 0.008389052 0.045101967 0.00124499 -0.030002952
00000000: 3b75 87bb b748 c93c 4c30 373d 8244 863d
00000010: c8b5 163d 90b4 583d 8b52 193d 3196 d7bc
00000020: 40fa 62bc 00e9 b73d 587b 8b3d 6f42 02bd
00000030: 74cb 9e3c 59ad 80bc 3607 9f3c 53fb 103d
00000040: cc66 243d 30f4 fdbc a884 08be 9cf0 813a
00000050: 5a05 b2bd add9 1bbc 9041 6abd 1fe8 8a3d
00000060: 57a4 eebc 4527 af3c 927c a53b d867 6bbb
00000070: 4723 abbb 5fdf afbb d3ad bf3c c625 eabb
00000080: df5b f03c a54f 7a3d 6419 a8bc bffe 90bc
00000090: e78e febc c0df f13c f4e6 76bb 36e0 393c
000000a0: a865 4c3d 8508 013d f62e f03c fbc6 763d
000000b0: c740 9ebc 4c17 e3bc 2dc0 9dbb b414 d83c
000000c0: 2bc9 ee3c 2c66 f93c af2e 8c3c 9e17 4fbd
000000d0: a460 c5bc 2135 75bc 6733 5cbc a21d 883d
000000e0: 5d3e c43c 5ce0 2f3d a506 e6bc e8e7 00bd
000000f0: c29c 603d fac6 30bd 5e78 dcbc 94b9 32bd
00000100: ce07 83bc e9e6 373d c338 803d a8aa 62bd
00000110: 0bfe d43c 3713 893d 01a5 fd3d 084b 763d
00000120: e742 69bd 1df8 d23d af52 2cbd dda0 143d
00000130: aa9d 363a c8e9 17bd ad55 17bd fe30 b5bd
00000140: 19b9 aa3c fdb4 283c c6b4 fc3d e018 c03d
00000150: 0cf3 203e ddbd ecbd 5315 24bd 2924 e83c
00000160: 2c83 01bd 65af c23c e381 603a 109c be3d
00000170: d5c6 67bb 51b9 7a3c 73fa 553d 08be 113c
00000180: afcf 233d be9a 433d 8c7e 453d 84bc 1fbb
00000190: 8e0e e23c 37c5 673d 3805 273d 6432 753d
000001a0: 1a5e 48bb d833 593d 0998 fcbc b849 af3a
000001b0: 9d28 b1b8 866d 2ebd 3165 dcbb c61c ed3c
000001c0: 0e82 933d 0179 4d3c 5e8e 493d 2f68 ddbc
000001d0: d298 073c 3421 003d 7916 2f3c 00d7 3e3d
000001e0: cb78 92bd 2ebd 07bd fb16 a7bc 1301 47bd
000001f0: f0fb 21bd 6db0 c9bd 78d1 bf3d 5fc2 8e3c
00000200: 167a 0ebe ed3d 07bc 6d45 1e3d 0faa 90bc
00000210: ddc6 35bd 5d81 173d f934 d83d d29b 453d
00000220: 0e23 1ebc 64a7 133c d4ac 813c 49ac 503d
00000230: 43e4 463d 054a e03c 4177 cc39 c530 db3c
00000240: 2dc8 41b9 3b5a 843c 7845 a13b 146f a9bc
00000250: c28f 8e3d dc4a e2bc cbc0 2a3d 341b 90bb
00000260: b9e3 a13a 0cad 843c 8d33 12bd 66e6 9fbc
00000270: 66ce cebc a764 b5bc 520e 523d fc35 593d
00000280: ccec debc 62f0 2b3d fc01 d6bc 2a75 24bd
00000290: a61e a5bb caa0 28bd 55cc a6bc 0892 49bd
000002a0: c924 cd3d 869b 5a3d aed2 2abc e972 bbbc
000002b0: fb32 e73c 7664 ecbc 7649 453c e315 bb3d
000002c0: 7d1c ac3d 592d 263d cc05 943d 3bc1 db3c
000002d0: 6e5a 473d b5d7 6cba 50d3 e8bc 97ee 473d
000002e0: 26ce 13bd 553d 17bd cd3e f3ba 745b 863d
000002f0: 4cd0 983c ac69 df3c b537 37bd 1f57 ed3c
00000300: 0ac7 8b3c 6b8e e33c 3b7a b63c b2df d1bc
00000310: 8cb0 dabc 3e37 9fbd c061 fbba 788d fabc
00000320: e04e 5bbc 90d9 30bd 8f31 43bd a009 26bd
00000330: 8dbd 163d 1cc0 abbd de49 88bd 24a8 fabc
00000340: 2f3c 3f3c d7e7 29bd c57d 61bd 5910 96bd
00000350: 82a0 31bd 514b f7bd 82ba 533d 6092 3a3d
00000360: 0fb7 acbd 555c 0abd c35d 8f3d 089b 0a3c
00000370: cdf1 593c 3078 91bc 27dd 8b3d 6a20 b43b
00000380: 85ed 453c 460d 19bd 184c 2b3d e624 b4bc
00000390: 716c da3c 2b97 aebb 8f4d 533d d003 7d3d
000003a0: 5e4b 7a3d 44c8 d53c 7c1e 2a3d bf00 023d
000003b0: b70c 643c 05df 0bbd b3fd 28bc bb21 983d
000003c0: 9be6 fbbc fade a63d 62a8 1b3b 892b 8fbc
000003d0: 6708 513a 5756 ecbc 9d71 b13c 5316 0f3c
000003e0: 33d5 36bd b59c 8f3c 2f75 34bc 7a8a 663c
000003f0: 3c72 093c d7bc 383d ef2e a33a c0c8 f5bc

MLP1.bias f4 [50]
0.021792967 0.023840403 -0.005955812 0.021684868 0.014965761 0.0044272393 0.0052425903 -0.0043617105
-0.002740862 0.047640182 -0.020459745 -0.007219043 -0.0038855313 -0.028726779 -0.02082664 0.0040203533
0.031503674 0.027216561 -0.010034645 0.021338018 0.019325811 -0.007678365 -0.016634988 -0.01146504
-0.047677547 0.03213393 -0.008648211 -0.022098202 -0.03423401 -0.0018533405 -0.023789585 -0.045906544
0.016132826 0.031766355 0.047272325 0.019138543 -0.01987313 -0.06682454 -0.028598314 -0.0151009755
0.015271721 0.0120296 -0.01103 0.02890486 -0.04414209 -0.01992627 -0.004280547 -0.0026036187
-0.011513735 0.037517224
00000000: 2a87 b23c f34c c33c f928 c3bb 77a4 b13c
00000010: f432 753c 6012 913b 09ca ab3b aeec 8ebb
00000020: 09a0 33bb 5a22 433d 329b a7bc b98d ecbb
00000030: 66a4 7ebb 6c54 ebbc a19c aabc 2bbd 833b
00000040: ff09 013d 44f5 de3c 5a68 24bc 11cd ae3c
00000050: 2a51 9e3c cb9a fbbb 1946 88bc ddd7 3bbc
00000060: 8849 43bd de9e 033d 3ab1 0dbc 4a07 b5bc
00000070: f638 0cbd caeb f2ba 60e2 c2bc 8008 3cbd
00000080: fd28 843c 701d 023d a0a0 413d 6fc8 9c3c
00000090: f9cc a2bc 4edb 88bd 0347 eabc 156a 77bc
000000a0: 3e36 7a3c cd17 453c 2cb7 34bc e3c9 ec3c
000000b0: 56ce 34bd 6b3c a3bc d543 8cbb 79a1 2abb
000000c0: 1ba4 3cbc a9ab 193d

MLP3.weight f4 [50, 50]
0.0634416 0.13293281 0.05547681 0.012453274 -0.12198485 -0.109916545 -0.00903374 0.168722
0.015923446 -0.1579294 -0.12511389 0.062312923 0.09296675 0.09874399 -0.095516235 -0.16703323
0.026594238 0.086824775 0.05755835 -0.1383465 -0.06107899 0.080067284 0.106416054 0.093417384
-0.15304686 -0.0030000773 0.11584112 -0.04993599 0.02249771 -0.16089192 0.0066833254 -0.21361634
0.15005377 0.026079519 -0.17536506 -0.096380316 0.21394618 -0.009877094 0.041507296 -0.19688152
-0.11465886 0.007719956 -0.08167576 0.15061656 0.060918298 -0.09737864 -0.04293157 0.04033369
0.0791028 0.08927111 -0.008354753 0.11105287 -0.002007005 -0.08131918 0.034723826 0.030267976
0.019544544 -0.008599222 -0.006331841 0.10981186 -0.054858953 0.08456234 0.16716392 -0.0890362
-0.09744989 0.0028464322 -0.041381497 0.019658647 0.051611107 0.13327889 -0.19159462 0.07907001
-0.08657781 -0.06703817 -0.024152754 0.078575134 0.17926271 -0.113856986 0.03152444 -0.0038732386
0.08252214 -0.27751026 -0.19027092 -0.047655083 0.08535362 0.15210679 -0.15145573 0.098543674
-0.029535094 0.08769948 -0.127154 0.090547085 0.044174913 -0.0070661255 -0.051649176 -0.10682061
-0.26475158 0.104940556 0.13512766 0.026859103 0.06885469 0.14756319 -0.10129088 0.09727772
-0.08681665 0.20708095 0.16431697 -0.0991336 0.09946308 0.122670755 0.08453855 0.13420154
0.18613952 -0.017752942 0.103220396 0.0902976 -0.100210026 0.07467568 0.0035051059 0.063135535
-0.0015005823 0.1266248 -0.3156926 -0.055316124 0.07885547 -0.065638885 -0.12992907 -0.18626627
-0.21428263 0.05060328 0.13555276 -0.17983271 0.09370433 -0.05926157 0.098534405 -0.13153213
-0.010488896 -0.08521453 0.14373699 0.03760303 0.06791686 0.13006008 0.032806218 0.1462506
-0.09956148 0.12047123 0.06302051 -0.02510597 0.15971982 0.00013887281 0.10664764 -0.103411786
0.1780218 0.082388654 -0.037049633 -0.035465594 0.030050859 -0.09871171 -0.22096966 -0.0030094709
-0.17715648 0.16974045 0.08396197 0.024416078 0.026839528 -0.05404138 -0.12080558 -0.19405873
0.02576338 -0.08681512 -0.12189293 0.03135686 -0.087180346 0.12307014 -0.08484894 0.18504867
0.029059786 0.0893635 0.12224855 -0.17871536 -0.011766828 -0.13077354 -0.23377219 0.16113107
-0.20728265 0.1189801 -0.2035152 -0.038127244 -0.030250618 -0.27407292 -0.12144344 0.10376255
0.11303491 0.007605539 -0.044624973 -0.12371112 -0.045179963 0.067937545 -0.0901316 0.17459655
-0.101041235 -0.10291829 -0.06525181 -0.13356774 0.074687414 -0.25101203 0.12625794 0.31302062
0.25582275 -0.061721507 0.04991378 0.0045293435 -0.057002246 -0.026343144 0.32657993 -0.1328214
0.02648064 0.33798784 0.04996249 -0.18276411 0.068480045 -0.09533937 0.20448974 0.058702394
-0.10610501 -0.021503532 -0.24025856 0.23711893 0.045220826 -0.035630394 -0.28060973 -0.20904452
0.107398435 -0.087401204 0.13948558 -0.07912307 0.23136368 -0.1933333 0.20909339 -0.057747506
0.22973058 0.10503028 -0.2532452 0.116812885 0.08623072 0.22049859 0.283021 -0.20316698
-0.07692938 0.12757619 0.0067752656 -0.091826916 -0.19475502 -0.019862784 0.011237336 -0.080380924
00000000: abed 813d 8a1f 083e a73b 633d d108 4c3c
00000010: 31d3 f9bd ed1b e1bd 4002 14bc 76c5 2c3e
00000020: e371 823c 3fb8 21be db1d 00be d63b 7f3d
00000030: 5a65 be3d 4a3a ca3d 049e c3bd c20a 2bbe
00000040: 29dc d93c 30d1 b13d 4ec2 6b3d b4aa 0dbe
00000050: f72d 7abd 51fa a33d a9f0 d93d 9d51 bf3d
00000060: 51b8 1cbe f29c 44bb 1c3e ed3d ae89 4cbd
00000070: 1e4d b83c dac0 24be ccff da3b 3ebe 5abe
00000080: b2a7 193e b7a4 d53c e692 33be 0b63 c5bd
00000090: b514 5b3e 89d3 21bc 8e03 2a3d 4f9b 49be
000000a0: 44d2 eabd aff7 fc3b 9f45 a7bd 3a3b 1a3e
000000b0: 7785 793d 746e c7bd 04d9 2fbd f034 253d
000000c0: a600 a23d c6d3 b63d 60e2 08bc b06f e33d
000000d0: f587 03bb ac8a a6bd 923a 0e3d 8cf4 f73c
000000e0: e11b a03c c0e3 0cbc 557b cfbb 0ae5 e03d
000000f0: c8b3 60bd 052f ad3d 052d 2b3e 9c58 b6bd
00000100: cf93 c7bd 358b 3a3b a57f 29bd 2c0b a13c
00000110: 2b66 533d 437a 083e 6131 44be 75ef a13d
00000120: b54f b1bd 4f4b 89bd ffdb c5bc 00ec a03d
00000130: a590 373e da2d e9bd c51f 013d 29d6 7dbb
00000140: 5e01 a93d d315 8ebe 61d6 42be fa31 43bd
00000150: e1cd ae3d e2c1 1b3e 3617 1bbe 44d1 c93d
00000160: 95f3 f1bc c99b b33d a834 02be c070 b93d
00000170: c1f0 343d f58a e7bb 168e 53bd c4c4 dabd
00000180: 858d 87be 13eb d63d e85e 0a3e 9f07 dc3c
00000190: b003 8d3d ce1a 173e 9871 cfbd 8b39 c73d
000001a0: eecc b1bd 070d 543e b542 283e 8f06 cbbd
000001b0: 4db3 cb3d ce3a fb3d 8c22 ad3d 216c 093e
000001c0: 5c9b 3e3e 9e6e 91bc 3765 d33d f3ed b83d
000001d0: ea3a cdbd 90ef 983d ebb5 653b 344d 813d
000001e0: 30af c4ba eea9 013e 76a2 a1be 2993 62bd
000001f0: fa7e a13d ae6d 86bd 200c 05be 96bc 3ebe
00000200: e86c 5bbe 6345 4f3d 58ce 0a3e 1126 38be
00000210: 0ee8 bf3d 43bc 72bd 68cc c93d 5cb0 06be
00000220: 9ed9 2bbc f584 aebd ca2f 133e a305 1a3d
00000230: ff17 8b3d 782e 053e d05f 063d b8c2 153e
00000240: e4e6 cbbd 9fb9 f63d e610 813d 09ab cdbc
00000250: 988d 233e 639e 1139 146a da3d 8fc9 d3bd
00000260: 594b 363e 62bb a83d 5bc1 17bd 5f44 11bd
00000270: 382d f63c 5d29 cabd df45 62be 8b3a 45bb
00000280: 8268 35be 71d0 2d3e 41f4 ab3d 3a04 c83c
00000290: 92de db3c 7e5a 5dbd ea68 f7bd 55b7 46be
000002a0: b90d d33c 20cc b1bd 00a3 f9bd 0d70 003d
000002b0: 9c8b b2bd 330c fc3d 48c5 adbd 667d 3d3e
000002c0: ca0e ee3c 3604 b73d 735d fa3d 2901 37be
000002d0: a7c9 40bc 80e9 05be fa61 6fbe 8bff 243e
000002e0: e741 54be d7ab f33d 4a66 50be 502b 1cbd
000002f0: 25d0 f7bc 4953 8cbe 57b7 f8bd 7681 d43d
00000300: d97e e73d e337 f93b adc8 36bd 415c fdbd
00000310: a00e 39bd d722 8b3d eb96 b8bd 70c9 323e
00000320: b5ee cebd d3c6 d2bd bea2 85bd fbc5 08be
00000330: b7f5 983d a684 80be c349 013e 3d44 a03e
00000340: 33fb 823e b1cf 7cbd 6472 4c3d e36a 943b
00000350: 307b 69bd 94cd d7bc 7c35 a73e 5502 08be
00000360: eded d83c be0c ad3e 78a5 4c3d 8426 3bbe
00000370: 443f 8c3d 4a41 c3bd c265 513e ec71 703d
00000380: 954d d9bd 2d28 b0bc 5706 76be 4ecf 723e
00000390: 7939 393d 2df1 11bd 14ac 8fbe c40f 56be
000003a0: b6f3 db3d 67ff b2bd 4fd5 0e3e 470b a2bd
000003b0: 9aea 6c3e 2af9 45be 941c 563e a688 6cbd
000003c0: 7e3e 6b3e 1e1a d73d 5ba9 81be 983b ef3d
000003d0: bb99 b03d 62ca 613e 21e8 903e 010b 50be
000003e0: 278d 9dbd 55a3 023e 0c03 de3b c00f bcbd
000003f0: dc6d 47be 47b7 a2bc ce1c 383c c19e a4bd

MLP3.bias f4 [50]
0.007844119 0.043899246 0.080119856 0.13152231 0.000279761 0.042704344 0.07650353 -0.12356984
-0.032975763 0.06233565 0.022638047 0.20203747 -0.1256306 -0.07872514 -0.004458989 0.055774037
0.050044518 -0.0021240555 0.13234182 0.12625664 -0.13238278 -0.04637247 -0.08308001 0.10578701
0.052610684 -0.032894824 -0.034029305 -0.06131896 0.068794 0.014367207 0.0045818184 -0.09074072
-0.006339951 0.09338499 -0.07050306 0.10675448 0.040840656 0.15559459 0.10375752 0.11857488
-0.05812382 0.02448542 0.11495887 0.114947334 -0.025114357 -0.13464355 -0.089977615 -0.121683694
0.12977895 -0.01846502
00000000: 9f84 003c b2cf 333d e115 a43d c9ad 063e
00000010: e3ac 9239 c0ea 2e3d e2ad 9c3d 2f12 fdbd
00000020: 9811 07bd ab53 7f3d 6d73 b93c e9e2 4e3e
00000030: 4fa5 00be a53a a1bd b61c 92bb 5173 643d
00000040: 7bfb 4c3d bd33 0bbb 9d84 073e 6c49 013e
00000050: 5a8f 07be 0ff1 3dbd da25 aabd dca6 d83d
00000060: 4d7e 573d b9bc 06bd 5062 0bbd 9729 7bbd
00000070: dee3 8c3d 6f64 6b3c 1423 963b 45d6 b9bd
00000080: 5dbf cfbb a140 bf3d e963 90bd 18a2 da3d
00000090: 8848 273d 3054 1f3e d37e d43d 63d7 f23d
000000a0: 3e13 6ebd a695 c83c 8e6f eb3d 8269 eb3d
000000b0: a0bc cdbc 00e0 09be 2f46 b8bd 4d35 f9bd
000000c0: c6e4 043e f443 97bc

MLP4.weight f4 [7, 50]
-0.024807936 -0.07544727 -0.11810805 0.041483212 -0.21330138 -0.1272027 -0.061245695 -0.07087673
0.2244999 -0.1941042 0.1402086 0.17973015 0.0037984687 0.1430953 0.14843132 -0.14505081
-0.10859241 -0.2921932 -0.045122918 0.22307311 0.06393451 -0.13254067 0.234748 0.019636253
0.012951435 0.22863805 0.18175505 -0.05880112 0.09696505 -0.08136546 -0.054693814 0.29060075
0.13242438 -0.47021103 -0.07543923 -0.2090127 -0.29987273 0.06584217 -0.064732224 0.12224933
-0.061893795 -0.045485646 0.22938544 0.06968268 0.086060435 -0.12221908 -0.15332538 -0.22896193
-0.0840569 0.1172929 -0.07253787 0.026456583 -0.13786967 0.23389626 -0.032488696 -0.25586727
0.4037052 -0.13907932 0.098155275 -0.06928897 -0.012175116 0.07047263 0.05684652 -0.11800698
-0.22307627 -0.060275037 -0.011351051 -0.29640922 -0.0011108724 -0.099703 0.06492349 0.14351414
0.14094578 0.029339701 0.3654548 -0.092006356 0.0717464 -0.213048 0.24939798 0.047642283
0.091884494 -0.0656387 0.19021611 -0.08597166 0.22191106 0.07629863 -0.3072122 0.024840677
-0.036564145 -0.08874134 -0.13178796 0.21926709 0.16591617 0.17146039 0.0014857681 -0.057309978
-0.11173341 -0.30304205 0.083435714 -0.18554991 0.23702832 0.092867814 0.03969329 0.09504148
-0.05147109 -0.3222402 -0.14647561 -0.049843084 0.25330418 0.089180924 0.15698588 0.10498855
-0.13829345 0.14638676 -0.3224384 0.26129517 0.17672667 -0.03129 0.16517459 0.01335282
0.12425803 0.22982268 0.24290249 -0.1823968 -0.08758786 -0.08227857 -0.01301755 -0.107350655
-0.030362163 0.17455795 0.044344805 0.15564531 0.20165797 0.04762536 0.26032048 -0.28259304
-0.39029285 -0.03676372 -0.11548339 -0.029811248 -0.30191472 0.15556821 0.12502941 0.026449384
-0.1196868 0.102075726 -0.25713947 -0.001362487 0.32650194 0.11919417 0.1885167 0.14695576
-0.11397028 0.20239562 -0.35448903 -0.17391664 0.18114005 -0.002466567 -0.14225352 0.2768271
0.24707589 0.037994232 -0.2799928 0.05297089 -0.24954398 -0.067389585 0.064182095 -0.030588558
-0.147334 0.17589991 -0.018657269 -0.23498583 0.34091875 -0.3397057 0.06470855 0.20128016
0.07040928 -0.15808794 0.08365584 -0.11923872 -0.3007148 -0.16933748 -0.034680847 0.060502656
-0.058045086 -0.09537148 0.26104096 0.1896388 -0.14469956 0.12945174 -0.29520792 0.14413051
0.025512557 -0.0013733194 -0.00044746554 -0.044173475 0.23214394 0.28901535 0.105638474 0.043411918
0.029691793 0.16421822 0.14170298 0.12521286 -0.33090213 -0.13143791 0.31323087 -0.18680063
-0.15067601 -0.12294999 -0.053150825 0.13353138 -0.20703591 0.0720206 -0.08637402 -0.008600525
-0.06800892 -0.24155992 0.099098355 -0.18055649 0.032788668 -0.027692858 0.06802318 -0.1438789
0.14698479 -0.15688339 0.11336785 -0.22049804 0.1880729 -0.3342668 -0.1684271 -0.050796904
-0.01461059 -0.24604797 0.18433785 -0.1612859 -0.2479237 0.13048667 0.082751974 0.1570031
0.08524166 -0.10633982 0.17989755 0.01597584 0.19591849 -0.2905484 0.13607809 0.21890543
0.06960166 0.04899952 -0.16306604 0.175029 0.19579127 -0.12707159 -0.22642368 -0.22293264
00000000: 033a cbbc 1984 9abd a2e2 f1bd 4dea 293d
00000010: ad6b 5abe 6d41 02be c4dc 7abd d227 91bd
00000020: 4de3 653e 40c3 46be d892 0f3e 2e0b 383e
00000030: bbef 783b 9387 123e 61fe 173e 3388 14be
00000040: b365 debd 599a 95be cfd2 38bd 476d 643e
00000050: 19f0 823d beb8 07be c861 703e 35dc a03c
00000060: 4132 543c 1820 6a3e ff1d 3a3e 71d9 70bd
00000070: 9d95 c63d efa2 a6bd 9f06 60bd 9fc9 943e
00000080: 429a 073e 80bf f0be e27f 9abd 6d07 56be
00000090: eb88 99be 42d8 863d 5492 84bd db5d fa3d
000000a0: 5984 7dbd 284f 3abd 04e4 6a3e cbb5 8e3d
000000b0: 7440 b03d ff4d fabd 5401 1dbe ff74 6abe
000000c0: 0626 acbd 4337 f03d bc8e 94bd 7abb d83c
000000d0: b52d 0dbe 8082 6f3e de12 05bd 0901 83be
000000e0: 73b2 ce3e cf6a 0ebe a205 c93d 60e7 8dbd
000000f0: 237a 47bc f453 903d e6d7 683d a5ad f1bd
00000100: 1b6e 64be f5e2 76bd c2f9 39bc f3c2 97be
00000110: b19a 91ba 1631 ccbd 9bf6 843d 5ff5 123e
00000120: 1754 103e d059 f03c e41c bb3e d46d bcbd
00000130: c7ef 923d 4129 5abe 2f62 7f3e 8e24 433d
00000140: f02d bc3d 956d 86bd 03c8 423e e911 b0bd
00000150: a73c 633e 7542 9c3d eb4a 9dbe ad7e cb3c
00000160: 49c4 15bd 05be b5bd 6cf3 06be 8d87 603e
00000170: eee5 293e 5093 2f3e 1bbe c23a debd 6abd
00000180: 7cd4 e4bd 5428 9bbe 58e0 aa3d cc00 3ebe
00000190: 8db7 723e 7b31 be3d 6e95 223d 1ca5 c23d
000001a0: 5ad3 52bd abfc a4be b4fd 15be 4328 4cbd
000001b0: 16b1 813e 7da4 b63d e8c0 203e 3d04 d73d
000001c0: cc9c 0dbe 69e6 153e a516 a5be 7bc8 853e
000001d0: d6f7 343e f129 00bd 8723 293e c9c5 5a3c
000001e0: fe7a fe3d a356 6b3e 6ebb 783e 3ac6 3abe
000001f0: 4461 b3bd ab81 a8bd 9047 55bc a9da dbbd
00000200: 12ba f8bc 52bf 323e e6a2 353d 7c61 1f3e
00000210: 6d7f 4e3e cf12 433d ba48 853e 09b0 90be
00000220: 77d4 c7be 8e95 16bd 8e82 ecbd b836 f4bc
00000230: 9194 9abe 464d 1f3e b607 003e 61ac d83c
00000240: 5a1e f5bd 140d d13d c9a7 83be 7a95 b2ba
00000250: 432b a73e 131c f43d 860a 413e 927b 163e
00000260: 4069 e9bd cc40 4f3e 967f b5be 3417 32be
00000270: c77c 393e 21a6 21bb e8aa 11be 48bc 8d3e
00000280: 7601 7d3e d79f 1b3d 375b 8fbe 01f8 583d
00000290: 7588 7fbe 8d03 8abd e771 833d db94 fabc
000002a0: b9de 16be 1b1f 343e 21d7 98bc 20a0 70be
000002b0: e78c ae3e e8ed adbe eb85 843d 631c 4e3e
000002c0: be32 903d cee1 21be c153 ab3d 6e33 f4bd
000002d0: 4af7 99be ce66 2dbe 810d 0ebd a2d1 773d
000002e0: afc0 6dbd 1f52 c3bd 29a7 853e ac30 423e
000002f0: 1f2c 14be ff8e 043e 7e25 97be f396 133e
00000300: b6ff d03c f400 b4ba cf99 eab9 3fef 34bd
00000310: 24b7 6d3e d2f9 933e fc58 d83d b2d0 313d
00000320: 343c f33c d228 283e 961a 113e cd37 003e
00000330: 016c a9be a997 06be cc5f a03e aa48 3fbe
00000340: d04a 1abe 34cd fbbd aeb4 59bd 73bc 083e
00000350: 3901 54be 897f 933d dde4 b0bd 37e9 0cbc
00000360: 4348 8bbd 7c5b 77be 14f4 ca3d cde3 38be
00000370: 694d 063d 22dc e2bc bd4f 8b3d fe54 13be
00000380: 2e83 163e 0aa6 20be 672d e83d 3dca 61be
00000390: 2f96 403e 0525 abbe 2778 2cbe 6a10 50bd
000003a0: 4261 6fbc 00f4 7bbe 10c3 3c3e 2228 25be
000003b0: b6df 7dbe 4c9e 053e de79 a93d 6cc5 203e
000003c0: 2e93 ae3d b1c8 d9bd 1037 383e c4df 823c
000003d0: db9e 483e c3c2 94be 0e58 0b3e bf28 603e
000003e0: 518b 8e3d b8b3 483d c9fa 26be cd3a 333e
000003f0: 827d 483e 0e1f 02be 9cdb 67be 7448 64be

MLP4.bias f4 [7]
-0.047479045 -0.041502003 0.0098469285 -0.095943816 0.14803666 0.07127745 -0.07721171
00000000: 6379 42bd 01fe 29bd 0355 213c 317e c4bd
00000010: ec96 173e e9f9 913d 2c21 9ebd
