DQN/final_dqn_against_negaMax2/DQN_AgainstNegaMax_Epochs10000_player2.pth (torch, 493491 bytes, 12 tensors)

conv1.weight f4 [32, 1, 5, 5]
00000000: 4784 f43c 9caa 5f3d 1c9c 1b3d 2b7e 58bd
00000010: ddf1 103e 1b57 0a3d 4aff 1a3c 86d3 37be
00000020: dba4 913e 1dbe c03e 7854 f0bd d3dd 383e
00000030: 871d 0fbe 2199 1e3e 29a0 183d 58c2 99be
00000040: 0bfc 103d 1ac0 debd 4ece 3b3e 89ed 7f3d
00000050: d8ef e5bc 78d9 6b3e cd3b bc3d 331d b2bd
00000060: 73c9 76be ed5d 9bbd 2545 1d3e 88ae 95bc
00000070: 009c 91be 46e5 11be c1b7 653d 1e25 963e
00000080: 4d30 963b 8066 4fbe f55d 67be fb19 95bb
00000090: 627e 41be ce99 8c3d df31 e53d 3953 49be
000000a0: 3801 d8bd b273 dfbd 5f12 07be d892 a43d
000000b0: 8333 03bd cb13 b83d e192 9a3e c437 18be
000000c0: 6b10 d63d b445 b5bd 8a9b d1bc c5d6 af3e
000000d0: 030c dcbd b36b a3bd 3e8e 51be 49f9 6dbd
000000e0: 3c63 743e 4373 88be 0cf7 81be 4889 113e
000000f0: 3a1a 153e dd39 003e 2d5f 533e 88a0 413e
00000100: 9037 6cbc 6afd bd3d 0922 74bc 7d73 5bbe
00000110: 76d2 f9bd 3e38 3ebe 1f27 4a3e cb48 c9bd
00000120: 6329 773d 0af1 92be 7a6b 1abe e101 ffbd
00000130: ecb6 a7be 13ec 2fbe 1be8 28be 0661 3b3e
00000140: a7d8 4ebd 7bd3 7fbd f2e0 a13e c76d 68be
00000150: 3314 56be 7f7f 543d 1c28 bdbd b483 9a3d
00000160: 5bac 04be 7f96 de3d 787c fabd 68c1 98be
00000170: 65d1 873c d5a7 8d3e 0e8d 71bd e6ae 2d3e
00000180: 6d02 4bbe 46b4 d43d d59b 4fbe ce68 913d
00000190: 8746 8cbc 2812 05be 7de9 893e b8ea 80be
000001a0: 30f2 e5bd 8c21 ef3d 5c10 15bd 62c1 8c3e
000001b0: b4e3 df3d 9fc6 fe3d 8ced 05be 5c3e bdbc
000001c0: 9e9c a4ba a7a9 92bc 46a8 2a3e ce16 163d
000001d0: 434a 083e 9587 133e 6277 0ebe 05b8 93be
000001e0: c09c 203e 5bbc b63c d054 9e3d 2c35 9c3c
000001f0: a590 803e 3da5 133e 6a25 333e 0fe2 833e
00000200: 859e 093e c594 44be 8479 3e3e 7102 923e
00000210: 18f7 523e 682b f7bd 4679 923d f260 6abd
00000220: 8171 64bc cd81 17be ea05 073e 87ed 88be
00000230: 4a78 6a3e 999d 923e e392 023e 8d2e 2f3e
00000240: 1ddd c3bd 57a1 9fbe 8498 683d 95f9 243c
00000250: c65a 133e 76b8 903e 2d4c e5bd 1419 0c3e
00000260: 0f34 653e 6f50 ebbd 7136 243e b474 e03d
00000270: 30f0 823e 77e9 0c3e 8fbe 5d3e e419 07bc
00000280: 56a9 063e b50a dabe cef0 bcbc d499 aabc
00000290: b4ae 1f3e 4eb5 8ebe 9fc2 51be 8d9b 9b3d
000002a0: aca4 21be 9608 ae3d a38a 15be 49e5 89bc
000002b0: 5bd9 403e 5028 60be d56c 5d3e af21 82bd
000002c0: b901 143e 5cfc 3cbc 0f11 8e3e 9ee1 cd3d
000002d0: f1b8 333e 6fa4 ac3e fe91 38be 8498 893e
000002e0: b02c fdbd ba88 673d 8cd5 1b3e 99f7 0bbe
000002f0: 92e4 183e 5d1e b0be c46c 283e 402a 933e
00000300: 29c1 aa3e ec56 ba3c 3458 4c3d 049c 5b3e
00000310: 010b ab3d 9be6 57bd 198b 28be 0cd1 393e
00000320: e5e9 21be 35b4 843e 90dc 3f3e b53e 39be
00000330: c7dd b2bd e8d9 833e 3c8f 683e b38a b2bb
00000340: acb9 753e 14e8 59bd ec0f 23be 1cb8 b4ba
00000350: 895a a23e d899 073e cb22 71be 33aa 603d
00000360: 06e5 cabc c397 553e 4c5a 313e 67a0 a83e
00000370: 8338 aebc 8686 ffbd d6ea 1d3e 6407 e7bd
00000380: b3f6 7fbe eff0 c13d db48 563e 20b5 54be
00000390: 4a18 20be 9539 e9bd 1a4c 9d3e 73b9 9abc
000003a0: 936f 143e ed11 0e3e fe24 ed3c 5b22 1f3e
000003b0: 7844 15be 42b3 273e d7e8 05be 9e5f 22be
000003c0: e5e0 653e be06 e03d 8732 103e 138e aebd
000003d0: 89e5 bfbc b155 9e3e df80 4bbe 18a0 dabd
000003e0: 1940 96bd ed39 303d f951 c7bc 7dfb 59be
000003f0: 5f20 49be d6b0 7e3d 0ec2 bfbc 232b 363e
0.029848231 0.054606065 0.037990674 -0.0528547 0.14154764 0.033774476 0.00946028 -0.17951784
0.28446087 0.37645045 -0.11734861 0.18053369 -0.13976108 0.15488102 0.037262116 -0.30031085
0.035396617 -0.10876484 0.18340418 0.06248239 -0.028068468 0.23032176 0.091910936 -0.086969756
-0.24100284 -0.07586274 0.15358408 -0.0182717 -0.2843933 -0.14247617 0.056083445 0.29325193
0.0045833946 -0.20253944 -0.22594436 -0.0045502163 -0.18895867 0.068652734 0.11191153 -0.19660653
-0.105471075 -0.10910739 -0.13190602 0.08035821 -0.032031547 0.0898815 0.30190185 -0.14865023
0.1045235 -0.088511854 -0.025586862 0.34343544 -0.107444786 -0.07979526 -0.20464417 -0.058099065
0.2386598 -0.26650438 -0.25383794 0.14212525 0.14560786 0.12522073 0.20641775 0.18908894
-0.014417544 0.092768505 -0.014900693 -0.21430774 -0.12198345 -0.18576142 0.19741486 -0.09828337
0.060342204 -0.28699523 -0.15080062 -0.1245153 -0.32756746 -0.17179899 -0.16494791 0.1829873
-0.050499585 -0.062457543 0.31616932 -0.22698127 -0.20906143 0.051879402 -0.09236166 0.07544652
-0.12956373 0.108685486 -0.12230772 -0.29835057 0.01657934 0.27667108 -0.05897241 0.1696125
-0.19825144 0.10385947 -0.20274289 0.07100068 -0.017123474 -0.12995207 0.2693595 -0.25179076
-0.11227834 0.116763204 -0.036392555 0.2749129 0.10932103 0.12440228 -0.13078898 -0.023101024
-0.0012558883 -0.017903162 0.16665754 0.036642842 0.13309579 0.14407189 -0.13912728 -0.28851333
0.15684795 0.022306612 0.077310205 0.019068323 0.25110355 0.14418502 0.17494741 0.25758407
0.13439377 -0.19197376 0.18601042 0.28517488 0.20602071 -0.12068826 0.07152037 -0.05722136
-0.013943077 -0.14795609 0.1318585 -0.2674372 0.22897449 0.28635862 0.12751345 0.17107601
-0.095636584 -0.3117778 0.056786075 0.010069271 0.14390096 0.28265733 -0.1119617 0.13681442
0.2238314 -0.11489951 0.16036393 0.10959759 0.25573874 0.13760935 0.21654724 -0.008245919
0.13150534 -0.42586294 -0.023064043 -0.020825304 0.15593988 -0.278727 -0.20484398 0.07598028
-0.15785474 0.084977314 -0.14603667 -0.016832964 0.18832915 -0.21890378 0.21623547 -0.06354081
0.14453782 -0.011534777 0.2774739 0.10052799 0.17551018 0.33719203 -0.18024442 0.26874173
-0.12362039 0.056526877 0.1521818 -0.1366867 0.14930943 -0.34398165 0.16447741 0.28743172
0.33350495 0.022746526 0.049888805 0.21446234 0.08351708 -0.052710157 -0.16459312 0.18146151
-0.1581188 0.25918737 0.18736482 -0.18090327 -0.08733707 0.25752187 0.2271089 -0.005448663
0.2399661 -0.053199843 -0.15924042 -0.0013787779 0.31709698 0.1324228 -0.23548429 0.054849815
-0.02476741 0.20858674 0.17319602 0.32934877 -0.021267181 -0.1247683 0.15421614 -0.112807065
-0.24996452 0.094697826 0.2092623 -0.20772219 -0.15634266 -0.11387936 0.30722123 -0.018887257
0.14495687 0.13874026 0.028948303 0.1554045 -0.145769 0.16376975 -0.13077103 -0.15856788
0.22449072 0.10938786 0.14081775 -0.08523192 -0.02342488 0.30924752 -0.19873379 -0.10675067
-0.073364444 0.043023992 -0.02433108 -0.21287341 -0.19641255 0.062180363 -0.023407962 0.17789893

conv1.bias f4 [32]
00000000: f8ab 6b3d dfd0 4d3e f117 d7bd aea5 443e
00000010: ee05 143e 4268 4a3d cf6c 1d3d ca78 ea3d
00000020: dcff a43d 2058 12be 4da2 8fbc d703 6a3d
00000030: 8f30 2f3e 0f65 003e 7605 afbd 1f46 17be
00000040: 3184 833d e2c0 643e 66d2 973d f77d 2b3e
00000050: bb62 46bd d98c 0cbe 5395 633e f7e7 cfbd
00000060: b159 0fbe 0288 113e 9762 b9bd dff2 043e
00000070: 5955 003e fe65 ad3d 7a38 d03d 37b1 3d3e
0.05753705 0.20099209 -0.10502613 0.19203827 0.14455387 0.049415834 0.038433846 0.1144882
0.08056614 -0.1429143 -0.017533446 0.05713257 0.17108367 0.12538551 -0.085459635 -0.14772843
0.06421698 0.22339204 0.07413177 0.1674727 -0.048434 -0.13725604 0.22224931 -0.10151666
-0.13999058 0.14212039 -0.09052008 0.12983273 0.12532558 0.08466719 0.10167022 0.18524633

conv2.weight f4 [32, 32, 5, 5]
00000000: bfc8 023b 6fce 70bc 6940 293d c132 0a3c
00000010: 768f 113c ad12 183c 2c64 d43c acaf 833d
00000020: ab98 d5ba 5343 bdbd 7059 d2bc 2c13 52bd
00000030: e8c7 a9bd 27ea 4f3d 2d79 6d3c 3c4f 413d
00000040: a349 b53d 19c1 78bc 307a 82bd 6aab 88bc
00000050: 594e ff3c 5235 293d 1fbe 6abd be42 853c
00000060: b2c4 e4bd b222 603d 3ae5 62bc 06a2 98bc
00000070: e25c d0bb eb48 a33b 4086 b5bc 4947 9b3d
00000080: fcdd 2c3c 77ca 2b3c faec af3d ec7a 913c
00000090: b182 fd3c c0e8 343d 7461 cf3b 31f4 a83d
000000a0: e1d9 d23c 5afe cbbc c88b fcbc 8ce4 a13c
000000b0: 81c9 0e3e 64b7 c43c 7a39 12bd 0bac 563d
000000c0: fae3 b2bc 3170 843d bcb2 e83c 0c21 6d3d
000000d0: e753 16bd aae3 71bd 9c9e 333a ef62 8fbd
000000e0: 341c 0ebd 3c30 9fbc e048 8cbd c9fb 61bd
000000f0: 2a57 cabc bec1 8ebc ee0a 45bd 8e29 1c3d
00000100: a2e3 eb3b 8124 663c 9c24 33bd 02ca dfbd
00000110: 2fa4 343c 7ffe 5abc 1ea4 13bd 33d9 cabd
00000120: 7a0e 3d3c f8c4 033e 30eb 983d 7b07 9b3d
00000130: 296e 523d dbda 6abd b445 6abd 2b70 5e3d
00000140: b678 e13c 2d4b 0a3d deba 6b3d b823 acbd
00000150: 060a e93c 6df3 593d 38ce d6bb 7e52 3cbc
00000160: dd61 79bd ada1 a63c 0d75 04bd 01a5 0abd
00000170: 8819 053d 7932 1ebd cfd0 02bd 0d4b a73c
00000180: 1f41 a13c b898 d63c 1b20 e3ba 406e 41bc
00000190: c863 cfbc 2646 803d f2e7 82bd f794 2cbd
000001a0: 2f96 fb3c ff87 2c3c 03d4 123c 0013 b2bb
000001b0: 1051 af3d 3e38 c73d 1c44 a5bd 26f2 a53d
000001c0: 7986 0abc 8dba a3bc 4e85 503d ea98 c3bc
000001d0: 3eb5 393d 55ff 663d 7375 303d e5c9 083e
000001e0: 9935 a7bc 5838 da3c 9ebb 20bd 4515 c3bd
000001f0: 4d60 843d 1c52 a73c 501b 373d 44b6 97bd
00000200: 2d2d cb3a 056f b2bd f862 d5bc d31b 4f3d
00000210: 9fe3 d5bd bb2f b6bb b259 7e3d be67 7abd
00000220: 2285 c83d 1b2a 7ebd af4f 0bbd 9d31 76bd
00000230: 7750 713c b1d6 383c 0bca c4bc 9a26 983c
00000240: 6ac7 e73c fc67 6abd cdce 85bd ea4c c2bc
00000250: ae01 9c3c b41b b03c e7b1 95bd bd2f 82bd
00000260: 1143 403d 5162 623c 1131 fa3c 7688 ce3c
00000270: 01f8 083d 8d07 943d 7e2c 043d 1d7d da3c
00000280: e026 ce3c 5696 9fbc ff5a 9d3c 5745 8abd
00000290: 8583 09bd 458b 16bc 37b3 e1bd 7065 dd3c
000002a0: d9b7 383d 2c5b 10bd c42e 143d f9d4 a5bc
000002b0: c51f 7b3c 76f7 b1bc 0809 69bd a0aa 793d
000002c0: 3c1b 2dbd 00eb 3fbb b1dc 1ebd 2585 1fbd
000002d0: 4567 673d 8930 78bd 636e 5dbc 711e cd3d
000002e0: 3545 68bc b08c 343d 1005 503d c4ea 0abd
000002f0: 7300 bd3d 4064 ac3c 16ed d53b 35f7 363c
00000300: a89d ffbc b39b bd3d 7599 d53c bbeb 5d3c
00000310: cc43 9bbd 3340 2b3d a63d 2b3d 6163 c3bc
00000320: ac00 53bd decb 85bd 6ec5 54bd 2eaf 99bd
00000330: 89e3 663d fe38 9fba 9773 9e3d 460a 5ebd
00000340: 64e3 bebd 7356 813d cf1a 75bd 9eb9 603c
00000350: 379c 98bd a43f ecbd 780b 02bd c36a 90bd
00000360: ebde 253e 6bee 57bc e98f 6abd 2558 9b3d
00000370: d493 9cbc df00 efba 922c 603d ecdd 9bbd
00000380: cf37 18bd 107c c7ba 651b 443c db05 803d
00000390: 03ac 8dbd 8022 09bc c278 523d 7c33 ccbc
000003a0: 4a8d 863b ccf0 893d 1576 69bc bae2 8a3c
000003b0: b8f6 3bbc cad3 223c fd96 37bd d888 323c
000003c0: cd84 41bd f942 003c d328 eaba 02c9 a33d
000003d0: 4beb 143d e929 60bc 421a 0c3d 881b d5bd
000003e0: bb5b 8a3c eca5 01bd a785 7b3c 93c5 0a3d
000003f0: 1003 5dbd f8cf 833c 0733 b5bc e262 853d
0.001995608 -0.014697655 0.041321192 0.008434952 0.008884301 0.009281796 0.025926672 0.06429991
-0.0016296109 -0.09241357 -0.025677413 -0.051287815 -0.08290082 0.050760414 0.014494223 0.047194704
0.08851936 -0.015182757 -0.06370962 -0.0166833 0.031165289 0.041310616 -0.05731022 0.016267177
-0.11170329 0.054720588 -0.013848597 -0.018631946 -0.0063587287 0.0049830577 -0.022158742 0.07581956
0.010550972 0.010485283 0.085901216 0.017758809 0.030946108 0.04416728 0.006328756 0.08249701
0.025738658 -0.024901558 -0.030828372 0.0197623 0.13944055 0.024013229 -0.035699345 0.052410167
-0.021837223 0.06466711 0.02840554 0.057892844 -0.03670111 -0.059055008 0.0006851943 -0.07001292
-0.034694865 -0.01943218 -0.06849837 -0.05517176 -0.024699766 -0.017426368 -0.048106126 0.038125567
0.007198767 0.014046789 -0.043736085 -0.10927202 0.011025473 -0.013366341 -0.036045186 -0.09904709
0.011539096 0.12868106 0.074667335 0.07569786 0.05137459 -0.057337623 -0.05719538 0.05430619
0.02752338 0.0337631 0.057551257 -0.0840525 0.028447162 0.053210665 -0.006555345 -0.011494277
-0.060884345 0.020340765 -0.03233819 -0.033848766 0.03249505 -0.038622353 -0.031937417 0.02042153
0.019684372 0.026195869 -0.0017328294 -0.011806071 -0.025316134 0.0626338 -0.06391896 -0.04213425
0.030711262 0.010530471 0.00896168 -0.005434394 0.08560383 0.09727524 -0.080696315 0.08102827
-0.008454912 -0.019986415 0.05090838 -0.023876626 0.04533886 0.056395847 0.04308076 0.13358267
-0.0204113 0.026638195 -0.039241426 -0.09525541 0.064636804 0.020424895 0.04470378 -0.07407811
0.0015501134 -0.087125815 -0.026048169 0.050563645 -0.10443806 -0.005559889 0.06209726 -0.061134093
0.09791018 -0.062051874 -0.03401154 -0.06010591 0.014728657 0.011281655 -0.024022123 0.018573094
0.02829333 -0.057228073 -0.06533585 -0.023718316 0.01904377 0.021497585 -0.07309323 -0.063567616
0.04693896 0.013817386 0.030540975 0.025211554 0.03343964 0.07228003 0.032268994 0.026670987
0.025165021 -0.019480865 0.01920843 -0.06751507 -0.033572692 -0.009188478 -0.11020511 0.027025908
0.045097206 -0.0352432 0.03617741 -0.020243155 0.015327399 -0.021724444 -0.05689338 0.060953736
-0.0422623 -0.0029284358 -0.038784686 -0.038945336 0.05649497 -0.06059316 -0.013515088 0.10015572
-0.0141766565 0.044079483 0.050786078 -0.033915296 0.09228601 0.021043897 0.006528507 0.011167337
-0.031203106 0.09258213 0.02607415 0.013544972 -0.075812906 0.041809272 0.04180684 -0.023851098
-0.051514313 -0.06533025 -0.051946096 -0.07504116 0.05636934 -0.0012147722 0.07736891 -0.054209016
-0.09320715 0.06315317 -0.05984002 0.01371613 -0.074516706 -0.11535576 -0.03174922 -0.07051613
0.16198318 -0.013179402 -0.05726615 0.075851716 -0.019113459 -0.0018234513 0.054730006 -0.076106876
-0.0371626 -0.0015219469 0.011969422 0.06251117 -0.06917574 -0.008370042 0.051384695 -0.024926893
0.0041061984 0.067353815 -0.014249344 0.016953815 -0.011472397 0.00993819 -0.044821728 0.010896884
-0.04724579 0.0078284675 -0.001786495 0.079973236 0.036357205 -0.013681867 0.03420473 -0.10405642
0.016889444 -0.031652376 0.015351689 0.033879828 -0.053958 0.016090378 -0.022119058 0.06513001

conv2.bias f4 [32]
00000000: 68ad 9d3b 5cf1 563d dfa5 c53c 1efa 873c
00000010: c087 133d d24c 5b3d 8936 b63b f4f9 7c3d
00000020: dad4 343d 5b7f bbbc b370 043d 2145 19ba
00000030: b626 a33c 74ab 923d da25 923d 73ef 0a3d
00000040: 5ef9 113d e8e3 1b3d c590 b03c 50c6 9fbc
00000050: 68f7 3b3c 02d9 e53c e0e7 233d f80a 8b3c
00000060: f43d 00bb 4dfd 4e3c 23bb 813c 2173 9fbc
00000070: 3ed2 18bd 2182 23bd 00f2 0a3d b3e0 983c
0.0048119314 0.052476272 0.024126945 0.016598757 0.036018133 0.05354006 0.0055607003 0.06176181
0.044148304 -0.022887876 0.03233404 -0.0005846788 0.01991592 0.07161608 0.07136126 0.033919763
0.035638206 0.038059145 0.021553406 -0.019503742 0.01147256 0.028057579 0.040016055 0.016973004
-0.0019568177 0.012633634 0.015836304 -0.019464077 -0.037309878 -0.039919022 0.033922195 0.018661832

conv3.weight f4 [32, 32, 5, 5]
00000000: 1b8e 56bd a488 af3b e436 b03c a7f6 87bc
00000010: 24c8 7bbd 1a33 91bd e5ba 983c 7a70 d0bc
00000020: 00f8 593d fb68 8dbd 9508 843d f26e 4f3d
00000030: 1c58 9b3d 66c8 d33c 11df 50bd 87a1 163c
00000040: 3561 143d 36fd 943c 687a 23bc 02ac 32bd
00000050: 7c20 bebb 90ff 393b 0014 393d bde5 02bd
00000060: 0977 98bd f08c a03b 520c 6dbd 163b 90bb
00000070: 4b9e 6dbc d546 8fbc d652 7b3b bdfb ff3b
00000080: 87fd 893c 3090 62bd ad1f be3d c0ec bb3c
00000090: 8cd6 c43c 6786 0dbd 5145 97bc 58a3 053e
000000a0: 91f3 0bbd 46ba 19bd 527c d0bc 5fc8 7e3d
000000b0: 37c5 0d3e 0bc6 68bd 13be f43d eca0 503d
000000c0: 6b06 0a3d 3bd8 403d 338b 9cbd a000 a2bc
000000d0: 03d9 10bd 0fa0 163d d561 9f3d d89b 75bd
000000e0: a442 9eba 82ed 043d 0a9a 253d 6ee1 493d
000000f0: 339c 3abd bc1a 913c 6c52 273d 617a a63d
00000100: 480d 863d 3f13 343c aae0 963d c4f6 f03d
00000110: f4e3 0cbc 1496 2bbd c36a 423d 33ca b83c
00000120: 4f3c 543d 9d85 70bd bd70 703c fdc9 923d
00000130: 5ed0 e13b 6243 ad3d 60dd c93c 7f71 853d
00000140: 58b6 f83b e99f 033e 530a 053d 74a9 83bc
00000150: 1057 d6bc 0a9f 65bd eb7d ca3c fb0d 8f3c
00000160: f020 febc e45e a4bc a024 943d 303a a1bc
00000170: 6c40 96bc 0a1e 11bd 1d13 36bd 8bf6 ccbd
00000180: c65b a9bd d15f 02be 1028 9cbd 1dc2 49bb
00000190: 705a 65bd 48f4 873c 128c 443c c29a 4b3d
000001a0: dc5f a63d a015 a8bd 5efe a73d 0e4e 6c3d
000001b0: 0c33 c23d 6c7d b43c 3a0a ea3c 6486 be3c
000001c0: 2a89 ba3d e7e8 6e3d e3a3 703b 3158 bcbb
000001d0: e334 63bc 6da2 9e3c 5523 89bc e07e a0bd
000001e0: 32a1 133d c5ff aebd 930e a0bd 6a8b 6fbd
000001f0: 87c0 50bd 0ba5 873d 0782 9dbc f709 963d
00000200: 8a1c 223c ce2a df3c d138 763d ae73 b83d
00000210: bff6 12bd 2eb4 c1bd b203 933d 00d6 cdbb
00000220: 49e7 15bc 7869 15bd 83ed 54bd ec69 8bbc
00000230: 477c 883c 78f7 0cbb bc12 b9bd 599f 92bd
00000240: d628 08bb 24e0 d0bd e23d 76bc e674 65bd
00000250: c11e f5bd fbc1 7b3d 008f 193d 668b 993b
00000260: 9693 29bd 7b2d 09bd 0069 513d 4809 3fbd
00000270: 10ec 09bd 5eb0 a0bd 8e18 a5bd 6881 d2bb
00000280: fddb 573d 283f fabd 406b 863c 3fb3 003d
00000290: 893d 14bd 8001 bdbd eb2b 4a3d f417 22bd
000002a0: 9a6f adbd 5ba9 4d3c f665 8fbd 06ca 0a3c
000002b0: 75ba 1ebd f6a7 bf3b 14f8 543d 923e 5cbb
000002c0: b1be 363d c11e c43c f92c 843d be5e 94bc
000002d0: 3c63 bbbb f7d5 0c3d faeb bf3c 1464 9e3c
000002e0: 5517 163d 0197 a03c 2475 6e3c a39a 913d
000002f0: 5697 a63d 8ff8 243d 74d8 fa3b 7076 153d
00000300: 8ba6 623d 5f15 033d 93ef 6abd a2f4 a03c
00000310: 4db1 b1bd ed70 4abd 9148 fbbd 997b 22be
00000320: 19e6 273d eb69 9bbc f4d5 09bd e430 253d
00000330: e509 a3bc df6a 5abb 231e 80bc 90f5 31bc
00000340: 0bbb 433c 0c2c d23b 40ba eabd e79c 86bd
00000350: 4aa5 61bc c44f 9cbc 5646 b03d 9684 083c
00000360: 266c fbbb c4a1 b7bc d505 cb3d ce7a d83d
00000370: 1ba7 8f3d 88fa 903d 594f 693d 496f f33c
00000380: b271 ca3c 2aeb 13bd 3c5c ba3b aec4 16bd
00000390: 13da c2bc dc19 173d 999d 82bd a5dc 06bd
000003a0: a15d 2abd 9572 c3bc 9521 403d 6ffd 07bd
000003b0: 4b79 62bd d7f3 13bd 8ce6 863d 0047 5d3d
000003c0: 611d 933c 0999 3f3b d607 d83b 463a 4b3d
000003d0: 24e3 2ebd 0baf b83c 98b3 923d ba37 b53c
000003e0: 167f af3d ec30 a83c 5779 b73d cd71 443d
000003f0: 13ff 0c3d 8671 cbbc cf12 703c 2af5 b2bc
-0.052381616 0.005356865 0.021510549 -0.016597105 -0.061470166 -0.07089825 0.018643806 -0.025444258
0.053215027 -0.06904789 0.064469494 0.050642915 0.07585165 0.025852393 -0.050993983 0.009193785
0.036225516 0.018187147 -0.009977914 -0.04362107 -0.0058022123 0.0028381087 0.04518509 -0.031957377
-0.07444579 0.0048996136 -0.057873078 -0.004401575 -0.014503072 -0.01748983 0.0038348935 0.007811992
0.016844524 -0.05531329 0.092833854 0.02294004 0.024028085 -0.034552004 -0.01846567 0.13050592
-0.03416783 -0.03753116 -0.025449906 0.062202808 0.13844763 -0.056829493 0.11950316 0.050934717
0.033697527 0.047081213 -0.07643738 -0.019775689 -0.03536321 0.036773738 0.07782332 -0.059963077
-0.0012074304 0.032453068 0.040430106 0.049287252 -0.04555912 0.017712943 0.040850088 0.08128811
0.06545502 0.010990917 0.0736707 0.11765817 -0.00859927 -0.041891173 0.047465097 0.022557354
0.051815327 -0.058721174 0.014675316 0.071674325 0.0068912944 0.08460118 0.024641693 0.06515788
0.0075900964 0.1285397 0.03248055 -0.016072012 -0.026164562 -0.056059875 0.024718245 0.017462721
-0.031021565 -0.020064779 0.07233548 -0.019681066 -0.018341266 -0.035429038 -0.04445182 -0.10007962
-0.082694575 -0.12731864 -0.07624829 -0.0030785867 -0.05599445 0.016595975 0.011996286 0.049708135
0.081237525 -0.0820725 0.082028136 0.057691626 0.09482393 0.022032462 0.02856933 0.023257442
0.09108193 0.05832758 0.0036718778 -0.005747818 -0.01386759 0.01936456 -0.01674048 -0.078366995
0.0360424 -0.08544878 -0.0781528 -0.058482565 -0.05096486 0.06623276 -0.019227041 0.073261194
0.0098945 0.02724209 0.060112778 0.09006439 -0.035879847 -0.09458195 0.07178439 -0.0062816143
-0.009149381 -0.036477536 -0.05198432 -0.01701828 0.016660823 -0.0021509808 -0.090367764 -0.071592994
-0.0020776293 -0.101990014 -0.015029402 -0.056019686 -0.119687565 0.06146429 0.03748989 0.004685807
-0.041400515 -0.03349064 0.051125526 -0.04663971 -0.033672392 -0.07846139 -0.08061324 -0.006424118
0.05270003 -0.12219077 0.016408563 0.031420942 -0.036191497 -0.09228802 0.04935829 -0.039573625
-0.08468552 0.0125525845 -0.070018694 0.008471018 -0.038752038 0.00584888 0.0519944 -0.003360663
0.04461545 0.023940446 0.0645389 -0.018111583 -0.005718617 0.03438374 0.023427952 0.01933483
0.036643345 0.019603254 0.014554296 0.07109573 0.08134334 0.040276106 0.0076551978 0.036489904
0.05533461 0.032002803 -0.057357382 0.0196479 -0.086763956 -0.0494241 -0.122697 -0.15867461
0.040990923 -0.018971404 -0.033651307 0.04032983 -0.019902179 -0.003332786 -0.01563937 -0.010861769
0.01194645 0.006413942 -0.114613056 -0.065728955 -0.013772318 -0.019081004 0.086071655 0.008332392
-0.0076728044 -0.022416003 0.09913222 0.10570298 0.07014295 0.07079035 0.056960437 0.02971615
0.024712417 -0.03611294 0.0056872647 -0.036808662 -0.023785627 0.036889896 -0.063777156 -0.032925267
-0.041593198 -0.023858348 0.046907026 -0.033200677 -0.055291455 -0.036121216 0.06586942 0.05402279
0.017958345 0.0029235503 0.006592731 0.04961612 -0.042697087 0.022544404 0.07163161 0.022121299
0.085691616 0.02053114 0.089586906 0.04796009 0.034422945 -0.024834406 0.014652922 -0.021845419

conv3.bias f4 [32]
00000000: 8e72 5b3c 6cc2 d03c 58aa 74bd 60f6 fb3c
00000010: e5e9 d9bc 4487 c43d e44f ac3c 5823 1ebd
00000020: 0e9d 28bc a5ee 59bb 401e 00bc 7553 2bbc
00000030: b337 2d3c bf36 de3c 084b 2f3d af73 253d
00000040: fa26 383d 4d85 1b3d 6deb a5bc 683a 243c
00000050: 7d25 043d 4740 75bc f58a 7c3d 461c 573d
00000060: d873 1f3d 37d8 e0bb e4a0 f03c 1bad 4bbd
00000070: 687d 74bb 5424 b13c a333 2b3c 59ea 20bc
0.013394011 0.025483333 -0.059732765 0.03075713 -0.026600787 0.09596112 0.021034189 -0.038607925
-0.010291351 -0.0033253815 -0.007819712 -0.010456909 0.010572362 0.027125714 0.042796165 0.040393528
0.044959046 0.037968922 -0.020253861 0.010023691 0.032262314 -0.014968938 0.061655957 0.052517198
0.038928837 -0.0068617123 0.029373594 -0.049725633 -0.0037306193 0.021623768 0.010449323 -0.009821498

MLP1.weight f4 [50, 1344]
00000000: e935 23bc 1c0c 753c 13da 253d 6ffc 603d
00000010: d3ee 023d 31d2 893d 70f4 693d 41b2 06bd
00000020: 49a8 0abd a06e a43d 1b48 b73d 37cd d8bc
00000030: 5472 9e3c c9f5 2abb d57a fbba 1487 9c3c
00000040: 57d1 353d 0ad2 46bc b0b8 a1bd 87ad d0bc
00000050: cfde b3bd 3ddc c7bb 03a1 a239 9bc9 083d
00000060: 5edf 10bc 468f 08bb cb88 60bc 7a79 b73b
00000070: be5f 063c 4d69 b3bb 7cf1 fa3c 2809 dbba
00000080: 1adf 853c 99e5 7b3d 4fff 5abc ba1e 49bc
00000090: 67ff d4bc 2c84 aa3c 7d09 03bc 4d6d 943b
000000a0: cd2b 0c3d f91f df3c 643c 3e3c d7e6 963c
000000b0: 7743 e3ba 1361 87bc 51bf d4bc d547 a53c
000000c0: 0e5b 033d 0a3b b83c 2ee5 a93c 6963 8ebc
000000d0: e72f cdbb 882f 0fbd fdba 96bb 746e 723d
000000e0: 14e0 6b3c 577d 1a3d cdda f3bb ccce 99bc
000000f0: 2f67 dc3c c994 c2bb 1e22 82bc 59e3 42bc
00000100: f523 14bd 5742 1a3d 58ed 043d 8895 9ebd
00000110: b332 313d 6ac5 783d 3a71 cd3d 30c3 a13d
00000120: fb95 1bbd b087 bc3d 6d9d ffbc 8053 8d3c
00000130: 7d07 e83b d01e 69bd dc4d 50bd a198 a0bd
00000140: 580b cc3c f109 bb3b e6cf f43d 7786 d33d
00000150: 1704 1b3e b6d1 11be 2c13 22bd e28e d43c
00000160: d32a adbc c910 39bb 6bc8 0c3b a830 863d
00000170: 78c1 15bc 7451 713c e879 3a3d c371 963c
00000180: 8502 f13c 936b 5a3d 9776 1a3d e907 64bc
00000190: 4b7a 133d 6eb4 303d 66b7 a73c 8f39 763d
000001a0: 8968 3f3d b243 e93c 35f0 0dbd d994 43bc
000001b0: 27cd 53bb e225 dcbc a5fb 0abb cd27 063d
000001c0: 8967 633d b5c8 213c 34e6 4a3d e56b 6bbc
000001d0: 466a 123c d456 db3c abb4 313c d0ca e83c
000001e0: 479e adbd abce aebc 9ad1 ac3a a06d 40bd
000001f0: 0ecd 29bd 7b55 cabd 2037 a13d f07d e53c
00000200: b531 e4bd e73e 5c3c 2c7c 133d ba24 65bc
00000210: c62d 31bd 4e00 0e3d 3df8 c53d bba3 1a3d
00000220: 5860 30bb 0841 bc3c 42f5 e6bb 62b8 433d
00000230: 107f ea3c 44ae a53c d62f 863b 766e 2f3d
00000240: b1e5 213b 735d e13c af57 773c c4e5 26bd
00000250: 5f90 513d 9022 2cbd e8ae 313d b78b 733c
00000260: 140e 6a3c 0f11 ec3c 6148 77bd b8eb d7bc
00000270: 6ace 1dbd d0a2 03bd 9a70 623d dbd1 1d3d
00000280: 93eb 33bc 3c7d 173d 5b2f b1bc b254 f5bc
00000290: 221a 283c d8bc 0cbd 29c4 06bc f2e1 26bd
000002a0: c700 9e3d 70cb 3f3d be13 aeba 4056 05bc
000002b0: d6f6 c13c 1cbb 12bd 0d01 093d 21d5 ae3d
000002c0: b268 9c3d 747b f03c 8942 1c3d a2e7 863c
000002d0: d7cb 323d 63c4 02bb 5ef7 93bc dfcf 383d
000002e0: 514a d4bc 33c5 94bc 0a66 d83c f2de 6b3d
000002f0: a42a 9b3c c00e 5e3c d5f3 43bd f332 b93c
00000300: 2b17 733b 9435 db3c d4fb ce3b 7f6b a2bc
00000310: 2613 f6bc 53d5 66bd 2084 3cbc 94d9 21bd
00000320: 914f 8e3c fa9c 2abd 5167 24bd 1577 58bd
00000330: 2ba8 083d 1bb6 5cbd 4804 1dbd 2cae 8fbd
00000340: 2b0b 15bc f660 27bd b55c 4bbd 4996 8cbd
00000350: 90c0 19bd 266f d5bd e43d 6e3d 06a1 0f3c
00000360: a366 91bd 4c50 70bd 71de 2a3d a74d 983c
00000370: f1ac 4bbc fb19 283c 3e44 a23d 1e65 573c
00000380: ea95 9bba 4d72 9ebc b643 883c 231a 91bc
00000390: ff56 da3c f857 99ba dd65 d73c 4166 613d
000003a0: d9c4 113d 3bcb d53c 73c8 033d e781 0a3d
000003b0: 5acf 973c 74d2 1bbc 02a0 7dbc ed4a 123d
000003c0: c2b3 1fbd 0d12 273d 5528 073c 289a 15bc
000003d0: 83da 82b9 1c13 d4bc 5859 013d af0c 7c3c
000003e0: 7b27 01bd c609 033d c175 79ba 3c9d 7b3c
000003f0: aada 033c 1abe 003d 7383 cf3b 4811 90bc
-0.009961584 0.0149565 0.040491175 0.05492824 0.03196604 0.06729544 0.05711788 -0.03288484
-0.033851895 0.080289125 0.089493 -0.026465042 0.019341625 -0.002608644 -0.0019186387 0.019107379
0.044389095 -0.012135038 -0.078965545 -0.02547337 -0.08782732 -0.0060992525 0.0003101901 0.03339539
-0.008842317 -0.002083735 -0.013704489 0.005599198 0.008201538 -0.0054751993 0.030632727 -0.0016711103
0.016341735 0.06149826 -0.013366534 -0.012275392 -0.026000692 0.020814978 -0.007997868 0.004529631
0.03422146 0.027236925 0.011611078 0.01842062 -0.0017338832 -0.01652578 -0.025970133 0.020175854
0.03206926 0.02248909 0.020739164 -0.017381387 -0.006261814 -0.03495744 -0.0045999275 0.059187368
0.014396686 0.03771719 -0.0074418546 -0.018775366 0.02690467 -0.0059381467 -0.015885409 -0.011895024
-0.036167104 0.037660923 0.03245291 -0.077433646 0.04326124 0.060735144 0.10031362 0.07898557
-0.03798483 0.09205568 -0.031202996 0.01725173 0.007080971 -0.05691415 -0.050855502 -0.07841612
0.024907753 0.005707972 0.11953716 0.103283815 0.15138279 -0.14240155 -0.039569065 0.025947038
-0.021138584 -0.0028238764 0.0021481763 0.06552249 -0.009140365 0.014728893 0.045526415 0.018364793
0.029420147 0.053325247 0.037710752 -0.013917902 0.0360053 0.04314082 0.020473193 0.060113486
0.046730552 0.028474662 -0.034652907 -0.0119373435 -0.0032318325 -0.026873533 -0.002120712 0.0327528
0.05551866 0.009874512 0.049535945 -0.014368986 0.00893647 0.026774801 0.010846297 0.028417021
-0.08477455 -0.021338781 0.0013185025 -0.046979547 -0.04145532 -0.09879585 0.078718424 0.028014153
-0.11142293 0.013442731 0.03600709 -0.013985807 -0.043256544 0.03466826 0.09666488 0.0377538
-0.0026912894 0.022980228 -0.00704828 0.047783263 0.028625041 0.020224698 0.004095058 0.042829953
0.0024703557 0.02751038 0.015096589 -0.040746465 0.051163074 -0.04202515 0.043379694 0.014864854
0.014285583 0.028816728 -0.06037176 -0.026357517 -0.03852693 -0.032137692 0.055283166 0.038530212
-0.010981458 0.036984667 -0.021629026 -0.029947612 0.010260137 -0.034359783 -0.008225479 -0.040742822
0.07714992 0.046824872 -0.001328103 -0.008138239 0.02367727 -0.035822973 0.033448268 0.08536745
0.076371565 0.029355742 0.03814939 0.016467873 0.043651428 -0.0019953481 -0.01806229 0.045120116
-0.025914343 -0.018160438 0.026415844 0.057585664 0.018941231 0.013553321 -0.04783996 0.022607302
0.0037092667 0.026758946 0.0063166413 -0.019826649 -0.030038428 -0.056355786 -0.01150611 -0.03951414
0.017371925 -0.04165361 -0.040137593 -0.05284794 0.033363502 -0.053884607 -0.03833416 -0.070156425
-0.009096901 -0.040863954 -0.04964896 -0.06864602 -0.037537158 -0.104215905 0.058164492 0.008766418
-0.070996545 -0.058670327 0.041716043 0.018591715 -0.012431369 0.0102601005 0.079231724 0.013146667
-0.0011870239 -0.019341612 0.01663385 -0.017712658 0.026652811 -0.001169919 0.02629369 0.055029158
0.03558812 0.026097884 0.032173585 0.03381529 0.01853149 -0.009510625 -0.015480043 0.035715986
-0.03898979 0.0407887 0.008249362 -0.009130992 -0.00024958336 -0.025888018 0.031579345 0.015383883
-0.031531792 0.031991743 -0.0009516143 0.015357312 0.008047739 0.031431295 0.0063328086 -0.017586365

MLP1.bias f4 [50]
00000000: 982c bf3c d767 a13c 00bc d7bb da9e 9f3c
00000010: 7455 813c 1091 073b 5608 59bb 68e4 74bb
00000020: 1739 543a 03e0 2e3d 1bff c1bc 912b 1abc
00000030: ecde 7abb cafd f2bc 5cbb b4bc 414c 7d3a
00000040: ee1a 043d f976 db3c 305c 83bc 894c 9d3c
00000050: a3b6 af3c af71 86bc 8493 65bc 55b3 bdbb
00000060: a2bc 1abd 6e8d e13c 4f77 c0bb aa02 9ebc
00000070: 1e62 0cbd 626b cd39 2a72 ddbc 4dcc 3cbd
00000080: 0aa4 a73c b737 103d 20c4 523d b44a b13c
00000090: fedc 8fbc 4b27 87bd c50e e1bc d03f c4bc
000000a0: 98ed 943c 0555 a83c f473 2ebc 4fc5 f83c
000000b0: bf7f 2bbd 6d4d b3bc a8c0 d1bb 87e3 96bb
000000c0: c2e6 80bc 3d44 f23c
0.023336694 0.019702835 -0.0065836906 0.019484926 0.015787818 0.002068583 -0.003311654 -0.0037367586
0.0008095665 0.042694103 -0.023681214 -0.009409801 -0.0038279844 -0.029662032 -0.022061996 0.0009662547
0.032252245 0.026790129 -0.01603517 0.019201534 0.021449393 -0.01641163 -0.014012221 -0.0057892003
-0.03777755 0.02753326 -0.0058735977 -0.01928838 -0.03427326 0.00039180653 -0.027031977 -0.046093274
0.020463962 0.035209384 0.05145657 0.021642067 -0.017561432 -0.065992914 -0.027472863 -0.02395621
0.0181797 0.020548353 -0.010647763 0.030367522 -0.041869875 -0.021887505 -0.0064011402 -0.00460476
-0.015735034 0.029573554

MLP3.weight f4 [50, 50]
00000000: f5e5 753d 466b d73d 1698 7a3d 7d5d 203b
00000010: dfad debd 2891 e6bd de97 3ebc 3732 2e3e
00000020: 6b2d cf3c d4cd 10be 2666 f9bd 56ee 1a3d
00000030: 55d0 933d 19ba d63d ce36 89bd 4e99 18be
00000040: 89e1 ab3c 5e2c 933d 8455 663d 9287 06be
00000050: 3ef8 91bc e251 b73d bc17 583d 01d6 9a3d
00000060: d4a6 12be 5f34 123a 30d1 ce3d bf97 97bd
00000070: 52ae 553d e94d 14be b4e2 ab3c aed1 77be
00000080: 3085 0d3e fe26 873c ef6f 46be 3437 d6bd
00000090: 67d8 583e 26ea 233b 7800 073d 9e57 12be
000000a0: 05be 05be c0b2 93bc 222d 88bd d478 003e
000000b0: 762c 373d 0b93 cabd a080 2abd f4d9 893d
000000c0: 9633 983d e834 bd3d 8dbd e5bc 3b61 f13d
000000d0: f66c cbba fd05 bcbd d130 173d 9ca9 ab3c
000000e0: 96ea 103c 446d fcba 3e24 4c3d fe04 de3d
000000f0: 2077 46bd ca5a 853d 60fc 253e 1edf b3bd
00000100: fb3c b0bd 24da c1bb ba61 4cbd 1655 a13c
00000110: 10be 643d 1f1c 023e 58b5 18be 66a4 943d
00000120: 85c2 aebd 5c4f a9bd 48f5 b2bc b0ee 9d3d
00000130: 5b52 2e3e 9286 dcbd ea33 1cba a102 833b
00000140: ffa7 593d a0a9 8fbe 1e80 3fbe 71e9 1cbd
00000150: bed2 953d b01b 0d3e ad0b 15be 5333 cc3d
00000160: 9458 91bc 89af 9f3d 7641 cebd 5db5 c53d
00000170: 8c21 483d d3b2 803b 829d 1bbd a72a d0bd
00000180: 44ad 72be 09db e73d d82b fb3d 2e0f 0b3d
00000190: d9a8 833d 45d4 223e 84d2 92bd 7271 c23d
000001a0: c981 b5bd 2009 4b3e e9ee 133e 7bcf e8bd
000001b0: 71bd db3d bc0a ce3d fa48 b93d 7c27 0c3e
000001c0: 29bb 433e ccb3 87bc fb00 b13d 6d85 ac3d
000001d0: c7e7 d6bd afa8 a03d 1c25 cb3b f924 673d
000001e0: f36b d8bc 1f0b ee3d 9fb1 9cbe fc65 34bd
000001f0: a5a3 a03d 760b 9dbd 85c4 f7bd dd14 2ebe
00000200: 7cb4 63be b774 2f3d b3dd c73d 716e 30be
00000210: 06ce bd3d 4eec 24bd 004b d03d 3237 f0bd
00000220: 896f 09bd 048a b6bd d680 103e e39c 223d
00000230: 4ee2 c43d 751f 0f3e 327e 8d3d 3248 103e
00000240: f43e aebd 0d0b f23d 3ed7 2b3d 3bd2 b4bc
00000250: d136 1e3e 2e08 8f3a 6eac c33d 7041 aebd
00000260: 7ca6 263e 642d 9e3d 6549 07bd cc6c 37bd
00000270: 8232 293d 7ab7 98bd 72e9 3abe 7c21 d93b
00000280: bc80 30be 544a 2d3e e7e0 ab3d 1094 a73c
00000290: 3f7b 4a3d b73f 54bd b4f6 debd 4825 4cbe
000002a0: 21ea 953c b5a3 b3bd 7dd2 8ebd edae c93c
000002b0: c54c a2bd 715f e63d eccf bdbd 5df2 3b3e
000002c0: 1bd6 313c 7560 9b3d 059e d63d 0c97 32be
000002d0: 8d81 aeb9 7609 0fbe f43f 66be 2fda 013e
000002e0: 3e8d 53be f459 d23d 1b7f 31be 2dd9 18bd
000002f0: acbb a7bc 7aa0 65be bd12 e6bd 9976 c33d
00000300: ef0a 773d bad6 d93c 0f8e 61bd 2770 f1bd
00000310: 63ff 34bc a051 813d 53e0 d5bd 8ec9 323e
00000320: 21fa acbd d107 d8bd 2d79 6dbd 7fc0 d6bd
00000330: 290c a13d 0111 63be b810 093e b281 9b3e
00000340: 785a 3c3e a3cb 78bd 021b 163d fe53 063d
00000350: ec0b 68bd 9f04 16bd 22b2 933e 001a e4bd
00000360: 8b3b 033d 635e 933e 8c7b 333d 23b6 17be
00000370: 0552 f33c 9d69 adbd 872f 4f3e f7eb 923d
00000380: e1f1 ecbd 0237 8cbc aa93 61be 2700 6d3e
00000390: ac41 8d3d eccc 3abd 719c 70be aa9d 82be
000003a0: 0920 db3d 6086 b9bd 8675 1d3e cda5 5abd
000003b0: 3f02 543e fffe 4bbe 3ac8 533e 2970 5abd
000003c0: 9d12 643e ca04 ca3d ce45 84be 65cb e93d
000003d0: 5c47 823d 7e29 5d3e e622 663e 1187 40be
000003e0: 5d9a 80bd 148c fc3d 1060 293c ccbd abbd
000003f0: aee0 46be e719 95bc 1448 483c 2584 96bd
0.060033757 0.10518508 0.061180197 0.0024469786 -0.10873007 -0.11258155 -0.011632888 0.17011343
0.025290212 -0.14141017 -0.121776864 0.03782495 0.072174706 0.10484714 -0.06699906 -0.14902231
0.020981567 0.07186197 0.056233898 -0.13137653 -0.017818566 0.08951165 0.05275701 0.07560349
-0.14321452 0.0005577262 0.10098493 -0.0740199 0.052168198 -0.14482845 0.020982124 -0.2420108
0.13820338 0.016498085 -0.19378637 -0.10459748 0.21176301 0.002501139 0.03295943 -0.14291236
-0.13060768 -0.01802957 -0.066492334 0.12546092 0.044720136 -0.098913275 -0.041626573 0.067310244
0.07431714 0.09238607 -0.028044486 0.11786123 -0.0015520144 -0.0918083 0.03691179 0.0209549
0.008844992 -0.0019258638 0.04983925 0.10840796 -0.04845345 0.06511457 0.16209555 -0.087827906
-0.08605381 -0.005915897 -0.049897887 0.019693892 0.05584532 0.1270604 -0.14912927 0.07257919
-0.085331954 -0.0826709 -0.021845475 0.07711542 0.17023604 -0.10767855 -0.00059586635 0.003998116
0.05313873 -0.280591 -0.18701217 -0.038308565 0.073155865 0.13780093 -0.14555235 0.09970727
-0.017742433 0.077971525 -0.100710794 0.09653733 0.048860118 0.0039275675 -0.037992008 -0.10164385
-0.23698908 0.113210745 0.12264222 0.033950023 0.064286895 0.15901287 -0.07169059 0.09494294
-0.08862645 0.198277 0.14446606 -0.11367699 0.107294925 0.10060641 0.09047122 0.13686937
0.19114365 -0.016565226 0.08642765 0.084238864 -0.10493427 0.07844674 0.006199492 0.056431744
-0.026418662 0.11623215 -0.30604264 -0.044042572 0.07843713 -0.076682016 -0.1209803 -0.17000146
-0.22236818 0.042835917 0.09759083 -0.1722963 0.092678115 -0.04026442 0.10170555 -0.11729278
-0.033553634 -0.08913043 0.14111647 0.0397004 0.09613477 0.13976844 0.069088355 0.1409004
-0.08508101 0.11818514 0.041953318 -0.022072902 0.15450598 0.0010912472 0.09554373 -0.08508575
0.16274446 0.07723501 -0.03302898 -0.04478149 0.041307934 -0.074568704 -0.18253115 0.006626306
-0.17236608 0.16922885 0.08392506 0.020456344 0.049433943 -0.051818576 -0.10886899 -0.19936097
0.018300118 -0.08771459 -0.06973741 0.024619544 -0.07924799 0.11248673 -0.092681736 0.18354173
0.010854269 0.07586757 0.104793586 -0.17440432 -0.0003328439 -0.13968453 -0.22485334 0.12680887
-0.20659348 0.102710634 -0.17333643 -0.03731649 -0.020475231 -0.22424498 -0.11234043 0.09544105
0.06031316 0.026591647 -0.05506712 -0.117889695 -0.011047217 0.06314397 -0.10443177 0.174597
-0.08446146 -0.10548366 -0.05797689 -0.104859345 0.078636475 -0.22174455 0.13385284 0.30372387
0.18393886 -0.060741078 0.03664685 0.032794945 -0.056651995 -0.0366255 0.28846842 -0.111377716
0.032039206 0.2878295 0.043818995 -0.14815573 0.029702196 -0.0846741 0.20232974 0.07173913
-0.11569572 -0.017116074 -0.22028986 0.2314459 0.068972915 -0.045605585 -0.23497178 -0.25510913
0.106994696 -0.09058833 0.15376863 -0.053380776 0.20703982 -0.19921492 0.20681849 -0.05332962
0.22272725 0.09864195 -0.25834507 0.114157476 0.06361267 0.2159786 0.2247425 -0.18801524
-0.062794425 0.12331405 0.0103378445 -0.0838581 -0.19421646 -0.018200828 0.012224216 -0.07349423

MLP3.bias f4 [50]
00000000: 447c 29bb 794e 263d 26b6 8d3d 95da 0a3e
00000010: f1c9 323c cbb3 113d dbf1 993d a8c5 04be
00000020: bc99 0dbd f39d 953d 343c c03c 8020 393e
00000030: 8efd e6bd 6581 b7bd a8c3 dbbb 3b58 053d
00000040: 8659 1a3d b891 81bb 955d 053e e5d4 e93d
00000050: d271 11be f23b 08bd ab61 afbd 5d9a e63d
00000060: f4b0 3a3d 031a ddbc a563 0fbd 52b2 50bd
00000070: 98ca 7a3d e759 353c 8977 9039 89f8 babd
00000080: a346 53bc 8f7e b53d 4ef6 81bd a716 df3d
00000090: 16c6 0c3d ff23 1e3e 1171 d53d 6e72 c53d
000000a0: e597 76bd 67f2 b53c 7b48 db3d 0734 d63d
000000b0: a795 19bd e8a8 0fbe 00be dbbd aa76 e6bd
000000c0: da31 f63d d107 a9bc
-0.0025861422 0.04060218 0.06919508 0.13559945 0.010912404 0.035571855 0.075168334 -0.12966025
-0.03457044 0.07305517 0.023466207 0.18078804 -0.112788305 -0.08960227 -0.0067066737 0.032554846
0.037683032 -0.0039541386 0.1302398 0.114175595 -0.14203575 -0.033260293 -0.085635506 0.11259911
0.045578912 -0.026989942 -0.035007138 -0.05095131 0.061228365 0.011068798 0.0002755488 -0.091294356
-0.012895259 0.0886203 -0.06345807 0.108929925 0.034368597 0.15443419 0.10421956 0.09640966
-0.06020345 0.022210313 0.10707184 0.10459142 -0.037496235 -0.14029276 -0.10729599 -0.11253102
0.12021227 -0.02063361

MLP4.weight f4 [7, 50]
00000000: 1a03 0fbd 5602 babd 37e2 0bbe 3c60 b83c
00000010: 00ed 44be 1533 d3bd cd95 78bd 107e 8cbd
00000020: 039d 683e 6a74 39be 93b2 ed3d 31a2 0f3e
00000030: 46c7 e53c 6944 f73d edfb 223e bbe3 1bbe
00000040: fe85 0abe 23c2 87be 5097 87bd cb92 443e
00000050: 4fa7 3d3d 3735 25be 7ad2 603e 4da6 1f3d
00000060: 0970 c2bb ce14 623e 3d57 1d3e ebf3 efbc
00000070: 18a7 863d 64cb a0bd 16cb a2bd d3b4 963e
00000080: 7ded ef3d 8d56 ecbe b016 f3bd 3efb 44be
00000090: a31e 9abe debe 473d eaa6 4cbd 8c25 a93d
000000a0: 34d5 3fbd c21b 85bd 6996 5b3e b659 7a3d
000000b0: 7d01 713d 51a9 f5bd 9fa7 25be 3252 6fbe
000000c0: ae17 dabd 1a84 cb3d b59b 7bbd 0c90 7f3c
000000d0: 4d21 11be 00eb 573e 1ab9 e6bc 1eba 72be
000000e0: c150 bc3e 977f 07be 26d7 b83d f490 8fbd
000000f0: 47cb 9abc 6f89 013d d90b 153d 683a 01be
00000100: f3db 61be 8350 ef3c db32 4bbc 6896 94be
00000110: b14a 94bc 6ecd c5bd e70e 783d de2c 023e
00000120: aa4a ee3d 4d0e 993c 0687 9e3e 0c2f a3bd
00000130: 70af 7a3d d62f 49be a9c0 5e3e 47dc 2c3d
00000140: be50 b03d c29e 83bd ac7b 303e dcca 88bd
00000150: 3efb 533e 6dc8 aa3d 558d 92be a4d0 833a
00000160: 88e0 c8bc a83d bcbd 8faa 07be 7196 503e
00000170: 4e77 153e 0b0b 223e 1cae 1ebc eb2e 7fbd
00000180: be4d 86bd f56c 87be 35bf 0b3d 46a3 33be
00000190: 72c6 4b3e 1b28 b83d e3c8 e83c 2fe7 bd3d
000001a0: 9ee5 4fbd 928a 9dbe 0511 01be 2fea 61bd
000001b0: a25d 833e a68e c43d dd60 1b3e 3695 bb3d
000001c0: a0b9 0abe 57ea 073e 22b6 a4be e3e4 083e
000001d0: ba7e 393e d36b 9abc 2a44 163e 577b bd3c
000001e0: bb50 ee3d 76cd 603e a903 6d3e 9d4f 2fbe
000001f0: 54a0 9abd cff0 a6bd f1be 4abc f91a c0bd
00000200: 00b2 cebc 4136 323e ca08 d83c b656 223e
00000210: 1dc3 3e3e 9252 843d 4d92 693e c6f1 89be
00000220: efa6 b5be fb19 06bd 4d4d e3bd e7cd bdbc
00000230: 156f 90be de3e 0b3e 6cfd f53d 4980 d23c
00000240: 9826 fabd 95b4 973d 4b13 80be 35c7 3e3c
00000250: 03c1 833e 1c8b 003e cfcb 1f3e 70fe 023e
00000260: 1766 ccbd d59d 313e 074b aabe 2c27 32be
00000270: 4371 0a3e fab4 c3bb 267a 00be 8d85 6a3e
00000280: 6bc4 533e ad42 da3c caaa 7dbe 9864 543d
00000290: e3b6 53be a1f9 963c d535 113d b480 5ebd
000002a0: 15dd f4bd 0194 203e bb7b 13bb e229 3cbe
000002b0: 4fcf 933e 135b 96be b405 f43d 5751 193e
000002c0: 5d9c 9d3d 52ea 31be eac5 923d d59b f5bd
000002d0: 364c 68be 1a94 1fbe 8f8b 98bc bffa 6e3d
000002e0: 36b8 f9bc ca38 d5bd 50a5 643e a73f 0c3e
000002f0: 3447 05be 7f9a ec3d b390 83be 5571 f13d
00000300: e0a1 d73c 6d5d d2ba de1a d0b9 f380 6fbd
00000310: 30f4 463e e088 5f3e 2462 903d aba6 153d
00000320: be12 5e3d f6cf 253e 0fa0 073e 6398 e43d
00000330: 77a3 9bbe f650 fdbd da0a 9d3e 493c 2ebe
00000340: bbf0 1ebe db5f fabd 282b 68bd 32c9 e13d
00000350: d6ab 3cbe eecb 813d 9183 b0bd 44d6 b03c
00000360: e48d a4bd 3ad3 62be 94ee c63d 5aaa 43be
00000370: 262e 043d e59b 05bd f9ea 963d c445 04be
00000380: 08fb 1b3e 279b 22be a469 cc3d 40bf 47be
00000390: 375d 363e 7e4e adbe ff66 0fbe 2a53 57bd
000003a0: 3671 33bc 14bf 76be db9d 3b3e 7703 1ebe
000003b0: a309 7bbe d856 e53d 88df b13d 6549 083e
000003c0: 9ef1 a53d 1383 d1bd 7d3a 323e 9ebd 1b3c
000003d0: 6c14 353e 6150 61be 23e1 163e 30ff 533e
000003e0: 58f1 ad3d b624 403d acac c9bd a01e 1c3e
000003f0: 21aa 2f3e a51b 06be 2996 58be a711 54be
-0.034915067 -0.09082477 -0.13660513 0.022506826 -0.19231033 -0.103124775 -0.060689736 -0.06859982
0.22716145 -0.18110815 0.11606326 0.14026715 0.028049123 0.12073595 0.15916415 -0.15223591
-0.13527676 -0.26515302 -0.066206574 0.19196622 0.046302136 -0.16133581 0.2195529 0.038976956
-0.005933766 0.22078249 0.1536531 -0.029291114 0.06574839 -0.07851294 -0.07948892 0.29434833
0.11715219 -0.46159783 -0.11869562 -0.19236466 -0.301015 0.04876601 -0.04996387 0.082591146
-0.046834186 -0.06499435 0.21444096 0.06112071 0.05883931 -0.11995185 -0.16177224 -0.23371199
-0.10649048 0.09937306 -0.06142779 0.015598308 -0.1417286 0.21085739 -0.028164435 -0.2370381
0.3678036 -0.13232265 0.09025411 -0.070100695 -0.018895758 0.031625208 0.036388252 -0.12619936
-0.2205656 0.029213196 -0.012402262 -0.29021 -0.018102022 -0.09658323 0.060561087 0.12712428
0.11635335 0.018683577 0.3096239 -0.07967958 0.061202466 -0.19647154 0.21753182 0.04220226
0.0860915 -0.06426765 0.17234677 -0.06679317 0.2070131 0.083390094 -0.28623453 0.0010056687
-0.024521127 -0.091914475 -0.13248657 0.20369889 0.14596292 0.15824525 -0.009685066 -0.062300604
-0.06557797 -0.26450315 0.034117896 -0.17542753 0.1989992 0.089920245 0.028416103 0.092726104
-0.05075609 -0.30769783 -0.12604149 -0.055154976 0.25657374 0.095975205 0.15173669 0.09159319
-0.13547373 0.13272987 -0.32170206 0.13368563 0.18114749 -0.018850243 0.1467444 0.023130102
0.11636492 0.21953377 0.23145927 -0.17120214 -0.075501114 -0.08151399 -0.012374626 -0.093801446
-0.025231361 0.17403509 0.026371378 0.1585339 0.18629117 0.064610615 0.22809716 -0.2694227
-0.35478923 -0.03273962 -0.11098728 -0.023169471 -0.2820975 0.135982 0.12011227 0.025695937
-0.122143924 0.0740749 -0.2501472 0.011644174 0.25733194 0.12553066 0.1560509 0.12792373
-0.099804096 0.17345364 -0.33260366 -0.17397755 0.13519768 -0.005972502 -0.12546596 0.22902508
0.20680396 0.026643122 -0.24772182 0.051853746 -0.20675234 0.01842958 0.03545173 -0.05432196
-0.119562306 0.15681459 -0.002250417 -0.18375352 0.288691 -0.2936636 0.1191515 0.14972435
0.076958396 -0.17374542 0.07166655 -0.11992613 -0.22685322 -0.1558384 -0.018621234 0.0583446
-0.030483346 -0.10411222 0.22328687 0.13696156 -0.13015443 0.11552905 -0.25696334 0.117891945
0.026322305 -0.0016049572 -0.0003969287 -0.058472585 0.19429088 0.21829557 0.07049969 0.0365359
0.054217093 0.16192612 0.13244651 0.11161878 -0.3039815 -0.12368958 0.30672342 -0.17015184
-0.15521519 -0.12225314 -0.056681782 0.11024703 -0.18424925 0.063377246 -0.08618844 0.021586545
-0.08034876 -0.22150889 0.09713474 -0.19107953 0.032270573 -0.032619376 0.07369036 -0.12917238
0.1523248 -0.15879498 0.09981087 -0.1950655 0.17808996 -0.33848947 -0.14004134 -0.052569546
-0.010952285 -0.24096328 0.18321936 -0.15431009 -0.24515395 0.11198205 0.08685213 0.13309248
0.081027254 -0.102300785 0.17405124 0.0095056575 0.17683572 -0.22003318 0.1473432 0.20702815
0.08493298 0.04691001 -0.09847388 0.15246058 0.17154743 -0.13096483 -0.21151032 -0.20709859

MLP4.bias f4 [7]
00000000: 46f8 86bd b1ee 3abd 7d0c 763b edf7 cabd
00000010: fcac 103e 13f3 6b3d 82ed d0bd
-0.06590323 -0.04563779 0.0037544065 -0.09910569 0.14128488 0.05760486 -0.10201551
