DQN/final_dqn_against_negaMaxMix/DQN_AgainstNegaMax_Epochs10000_player2.pth (torch, 493491 bytes, 12 tensors)

conv1.weight f4 [32, 1, 5, 5]
-0.0041820663 0.06692388 -0.08529921 -0.036119275 0.1663266 0.016485581 0.014519215 -0.23866998
0.36386865 0.3253882 -0.11281955 0.2133442 -0.14749622 0.20136788 0.016108954 -0.34745055
0.0031032974 -0.1636796 0.1793109 0.15793909 -0.028168872 0.28813875 0.18651606 -0.12967022
-0.2800067 -0.069836125 0.17837255 -0.005314221 -0.36511812 -0.18014862 0.0027402714 0.3408588
0.03959952 -0.21363722 -0.29367247 0.0075835125 -0.3268267 0.04087658 0.15988582 -0.22121659
-0.098707765 -0.103320405 -0.121820316 0.10390367 -0.03756417 0.00048072715 0.33713937 -0.15137824
0.08460623 -0.13355133 -0.013905367 0.3880626 -0.13308167 -0.032462902 -0.22510147 -0.13304976
0.35339102 -0.28790212 -0.28426427 0.20137003 0.20204142 0.12869379 0.25969982 0.24380384
0.036809575 0.12314087 0.040902633 -0.29929405 -0.122931905 -0.21932937 0.22958751 -0.18230222
0.098468706 -0.3198031 -0.18946303 -0.14331928 -0.40446216 -0.1786579 -0.21881172 0.20072308
0.018174497 -0.07156095 0.4063608 -0.35736483 -0.19806871 0.076767266 -0.11621851 0.026457211
-0.22483076 0.11804884 -0.15579322 -0.29986998 0.050531078 0.32059333 -0.119229406 0.1337709
-0.265391 0.11102119 -0.24843436 0.11391322 0.029259417 -0.17866589 0.393082 -0.23307335
-0.14399678 0.13221651 -0.031942878 0.31363896 0.15271679 0.08105197 -0.1872509 0.010078093
-0.018875878 0.003982723 0.18413594 0.08061334 0.14602041 0.17203651 -0.16817431 -0.36683866
0.23459418 0.069227695 0.10006892 0.026919646 0.34139493 0.15741071 0.21538264 0.28890538
0.11763174 -0.2456064 0.17152905 0.26363632 0.16825856 -0.21337502 0.1179968 -0.030400375
0.04964539 -0.23179998 0.17704226 -0.29691774 0.25905806 0.3143129 0.17772655 0.16972007
-0.12536097 -0.3629293 0.09291912 -0.06328131 0.19373272 0.23792313 -0.1100454 0.076060995
0.19340146 -0.10780144 0.13936205 0.15449575 0.31292847 0.10072473 0.268947 0.0031757478
0.11065802 -0.57318455 0.0087203365 -0.08994682 0.19232157 -0.2687316 -0.3152895 0.0865958
-0.24026176 0.14202814 -0.15975095 0.001190269 0.21003266 -0.27325168 0.21588401 -0.13499574
0.24360356 -0.020095969 0.30928883 0.07809023 0.14811906 0.36164513 -0.2033806 0.31618083
-0.18139568 0.044604164 0.1083371 -0.22199789 0.17804885 -0.4127353 0.19138569 0.3632505
0.38723397 -0.016537236 0.0238511 0.24831474 0.042873826 -0.13170953 -0.13087372 0.19301374
-0.22998163 0.3031352 0.30708563 -0.19723725 -0.13716362 0.30040118 0.2341577 -0.056303855
0.23317765 -0.039106615 -0.20903443 -0.012204467 0.45136172 0.14312747 -0.3427568 -0.019814977
-0.0006869024 0.23380356 0.21736898 0.4370447 -0.07147006 -0.15908891 0.18394123 -0.17560305
-0.28988618 0.033185262 0.20084278 -0.2759398 -0.13992922 -0.17209736 0.3517235 -0.026529735
0.18748967 0.11632656 0.014805536 0.12932108 -0.13150235 0.15778266 -0.20878303 -0.13826203
0.20597519 0.11068476 0.1824209 -0.14772017 -0.009847304 0.39932793 -0.2782223 -0.09288716
-0.060428333 0.08613246 -0.077431455 -0.25940382 -0.19140555 0.074417286 -0.01840761 0.21022615
00000000: b709 89bb 630f 893d 5ab1 aebd cef1 13bd
00000010: 8551 2a3e c50c 873c 00e2 6d3c e765 74be
00000020: fe4c ba3e 4899 a63e f00d e7bd e776 5a3e
00000030: 4009 17be 6233 4e3e edf6 833c 0ae5 b1be
00000040: b160 4b3b a09b 27be 479d 373e c9ba 213e
00000050: 68c2 e6bc ec86 933e 11fe 3e3e 45c8 04be
00000060: 0a5d 8fbe 3e06 8fbd 4ba7 363e eb22 aebb
00000070: c3f0 babe e178 38be 2096 333b 0b85 ae3e
00000080: 1b33 223d b7c3 5abe 3d5c 96be 1d7f f83b
00000090: d455 a7be 336e 273d 1cb9 233e 9a86 62be
000000a0: 4c27 cabd a699 d3bd ee7c f9bd 73cb d43d
000000b0: e3dc 19bd 1b0a fc39 889d ac3e e602 1bbe
000000c0: 0846 ad3d aec1 08be 56d3 63bc 24b0 c63e
000000d0: 9046 08be d2f7 04bd 0081 66be 323e 08be
000000e0: abef b43e e867 93be 168b 91be f233 4e3e
000000f0: f2e3 4e3e 4ec8 033e 60f7 843e b7a7 793e
00000100: a3c5 163d 4831 fc3d 8589 273d 123d 99be
00000110: b9c3 fbbd e197 60be fd18 6b3e 6fad 3abe
00000120: f6a9 c93d 3bbd a3be 9902 42be 4ac2 12be
00000130: aa15 cfbe 19f2 36be 2e10 60be 5a8a 4d3e
00000140: afe2 943c 8c8e 92bd 860e d03e 86f8 b6be
00000150: 86d2 4abe 2838 9d3d f803 eebd cbbc d83c
00000160: 093a 66be 97c3 f13d 4288 1fbe 8f88 99be
00000170: adf9 4e3d cf24 a43e 8c2e f4bd 3dfb 083e
00000180: 54e1 87be 145f e33d 9465 7ebe 564b e93d
00000190: 72b1 ef3c 31f4 36be 0b42 c93e c8aa 6ebe
000001a0: e473 13be c463 073e 89d6 02bd 4995 a03e
000001b0: ca61 1c3e 93fe a53d b3be 3fbe 961e 253c
000001c0: 96a1 9abc 8181 823b 228e 3c3e 9b18 a53d
000001d0: 6086 153e 572a 303e e335 2cbe 47d2 bbbe
000001e0: 7539 703e 40c7 8d3d eff0 cc3d 9786 dc3c
000001f0: 51cb ae3e 4630 213e 448d 5c3e 68eb 933e
00000200: e9e8 f03d 3e80 7bbe 50a5 2f3e 57fb 863e
00000210: f94b 2c3e fb7e 5abe 4ea8 f13d 350a f9bc
00000220: f758 4b3d f95c 6dbe 914a 353e 9a05 98be
00000230: 42a3 843e 9fed a03e f3fd 353e 19cb 2d3e
00000240: a05e 00be dfd1 b9be 614c be3d a299 81bd
00000250: df61 463e 1fa2 733e 7c5f e1bd dec5 9b3d
00000260: 080b 463e 00c7 dcbd edb4 0e3e 2234 1e3e
00000270: 2938 a03e c448 ce3d 6cb3 893e 3520 503b
00000280: aca0 e23d 39bc 12bf bedf 0e3c 0a36 b8bd
00000290: f2ef 443e 3097 89be a06d a1be 2459 b13d
000002a0: 2e07 76be d36f 113e c195 23be cd02 9c3a
000002b0: cd12 573e a5e7 8bbe b310 5d3e 533c 0abe
000002c0: 3673 793e 4da0 a4bc 1b5b 9e3e c5ed 9f3d
000002d0: 86ac 173e 8d29 b93e 0143 50be 74e2 a13e
000002e0: cabf 39be dbb2 363d d7df dd3d 6a53 63be
000002f0: 7052 363e 0b52 d3be 9cfa 433e f8fb b93e
00000300: 8843 c63e 1979 87bc 6263 c33c 3846 7e3e
00000310: 779c 2f3d ddde 06be c303 06be 65a5 453e
00000320: 4e80 6bbe 8934 9b3e 543a 9d3e 90f8 49be
00000330: 9f74 0cbe 2fce 993e 09c7 6f3e df9e 66bd
00000340: 1fc6 6e3e 422e 20bd 1f0d 56be 3ff5 47bc
00000350: e218 e73e 0290 123e d27d afbe 0553 a2bc
00000360: 3d11 34ba 336a 6f3e f995 5e3e 53c4 df3e
00000370: e55e 92bd 34e8 22be 175b 3c3e 49d1 33be
00000380: f66b 94be 45ed 073d bba9 4d3e fb47 8dbe
00000390: 9b49 0fbe 4a3a 30be 1a15 b43e e354 d9bc
000003a0: 4bfd 3f3e 9f3c ee3d eb92 723c bf6c 043e
000003b0: 8da8 06be c791 213e 38cb 55be 9094 0dbe
000003c0: 29eb 523e b1ae e23d 8bcc 3a3e f543 17be
000003d0: 9656 21bc b674 cc3e 2773 8ebe a03b bebd
000003e0: b383 77bd 3766 b03d 6294 9ebd 94d0 84be
000003f0: d1ff 43be 1768 983d 8ecb 96bc 8645 573e

conv1.bias f4 [32]
0.06586487 0.23977964 -0.030650433 0.28249344 0.1757176 0.05874131 0.06384369 0.18920194
0.08710213 -0.09583269 0.018872103 0.072951116 0.23222148 0.15337057 -0.031215865 -0.12996785
0.06733784 0.269375 0.06227195 0.20477736 -0.038923923 -0.07276103 0.30618125 -0.07612019
-0.08000849 0.204908 -0.056949575 0.19609335 0.16179088 0.0820236 0.123638034 0.23281474
00000000: 29e4 863d cb88 753e 9e16 fbbc fba2 903e
00000010: 51ef 333e ba9a 703d 7bc0 823d 27be 413e
00000020: 9a62 b23d ee43 c4bd ab99 9a3c 6567 953d
00000030: 78cb 6d3e 2d0d 1d3e 6ab8 ffbc 4b16 05be
00000040: 6ce8 893d 85eb 893e df10 7f3d 28b1 513e
00000050: b16e 1fbd bc03 95bd cac3 9c3e e7e4 9bbd
00000060: 7edb a3bd 67d3 513e f543 69bd b2cc 483e
00000070: 82ac 253e fdfb a73d f035 fd3d fd66 6e3e

conv2.weight f4 [32, 32, 5, 5]
-0.0014870742 -0.036957517 0.051810775 0.043474596 0.037036218 0.0037561713 0.088933975 0.11768277
-0.022337114 -0.071132824 -9.963352e-07 -0.033241156 -0.05699778 0.073157564 -0.017384477 0.058837023
0.075394265 -0.016823139 -0.0705363 -0.020602288 0.07685688 -0.007480414 -0.04273236 0.034828734
-0.10350255 0.07382267 0.026632298 0.007103497 0.001427073 0.023555513 -0.012529457 0.0628772
0.00845445 0.018325236 0.071443416 0.058564167 0.07860657 0.051366825 0.009606126 0.1466368
0.01704434 -0.035171118 -0.039087508 0.01733735 0.15288779 0.0036101486 -0.009939871 0.07507065
-0.031654757 0.06205808 0.009787448 -0.0033394478 -0.008482166 -0.08774324 0.021195566 -0.061391957
-0.009474727 0.049352884 -0.073295906 -0.017156746 -0.1198648 -0.061773162 -0.06389719 0.022929389
-0.04944378 0.0069603575 -0.1102746 -0.19432208 -0.048438385 -0.0016040207 -0.08261264 -0.0987946
0.016657654 0.15723039 0.020736678 0.11409697 0.061182085 -0.08889022 -0.090996884 0.0870407
0.04016311 0.08606406 0.10041554 -0.12355208 -0.0143510485 0.09278375 0.032503072 -0.015921228
-0.080106296 0.06499424 -0.09087401 -0.007296273 0.056081723 -0.066922955 -0.03130608 0.043914523
0.03684981 0.057484575 -0.022618549 0.013460325 -0.004754582 0.07563344 -0.13474034 -0.027871026
0.052563094 -0.055814404 -0.048044953 0.055304483 0.08117758 0.12624596 -0.08419559 0.11422829
0.038146034 0.052902754 -0.0024539444 -0.05734473 0.046690807 0.11643304 0.025839986 0.08292384
0.0020005722 -0.008024738 0.032305315 -0.08115302 0.059568357 0.0038659356 0.07182465 -0.06488388
0.010417652 -0.08653657 -0.053153742 0.046446074 -0.1081642 -0.030664679 0.07438255 -0.031248057
0.1374725 -0.08527343 -0.025425358 -0.024583768 0.0074538244 -0.032961797 -0.044274636 0.004114472
0.058402967 -0.060479097 -0.060664527 0.020722266 0.040553156 0.055455737 -0.07185403 -0.11135077
0.06786435 0.009007296 0.02067328 0.009184972 0.015890347 0.0825617 0.001616338 -0.016148373
0.028381398 0.006076955 0.07052097 -0.08373292 -0.042560756 -0.03089137 -0.10852861 -0.011383694
0.04636159 -0.10652309 0.046702355 -0.014598035 0.027858421 -0.02106511 -0.03858855 0.10464425
-0.052985065 -0.043469097 -0.08099927 -0.043311365 0.021873733 -0.101318754 -0.016029129 0.12021092
-0.02372836 0.036807798 0.102870636 -0.050611764 0.10833233 0.030254899 -0.036119472 0.0057940288
-0.053958 0.10956822 -0.02775054 0.008958549 -0.06752259 0.072073214 0.09430954 -0.009303596
-0.08519498 -0.066175975 -0.004771623 -0.10060681 0.030790525 0.0046513644 0.07574881 -0.09232039
-0.23772612 0.06447887 -0.12794504 0.0031308157 -0.025831759 -0.12955602 -0.03055944 -0.083508834
0.1915233 -0.03839388 -0.07337384 0.057131883 -0.060964074 0.010467841 0.09221605 -0.068581216
-0.036907356 0.021964477 0.034730002 0.06841126 -0.1403401 -0.022735171 0.041980803 -0.09892371
-0.003370721 0.096522674 -0.039176553 0.08441965 0.027177658 0.022820449 -0.16209516 0.047134798
-0.036906548 -0.029331936 -0.00058631867 0.07460934 0.03667717 0.012100012 0.051871035 -0.10440896
0.035796147 -0.016361378 0.019464802 0.081332825 -0.08728714 -0.025253775 -0.011754809 0.055044945
00000000: eee9 c2ba c460 17bd 8937 543d 6b12 323d
00000010: 4ab3 173d 192a 763b 0423 b63d aa03 f13d
00000020: 53fc b6bc 16ae 91bd d1b9 85b5 e127 08bd
00000030: 8176 69bd a2d3 953d e469 8ebc 17ff 703d
00000040: 4f68 9a3d aed0 89bc 5675 90bd 21c6 a8bc
00000050: 2467 9d3d 431e f5bb 2108 2fbd 93a8 0e3d
00000060: 25f9 d3bd 5730 973d fa2b da3c 74c4 e83b
00000070: a00c bb3a 7ef7 c03c 5a48 4dbc c3c5 803d
00000080: 8984 0a3c ce1e 963c ed50 923d fbe0 6f3d
00000090: 7bfc a03d 0566 523d 0363 1d3c f527 163e
000000a0: 92a0 8b3c 970f 10bd 391a 20bd 0f07 8e3c
000000b0: 9e8e 1c3e 3e98 6c3b d7da 22bc a4be 993d
000000c0: 6ba8 01bd 9d30 7e3d 885b 203c a3da 5abb
000000d0: c8f8 0abc bab2 b3bd 53a2 ad3c 2276 7bbd
000000e0: e33b 1bbc 4026 4a3d 2a1c 96bd 4e8c 8cbc
000000f0: ad7b f5bd db05 7dbd 88dc 82bd 6ad6 bb3c
00000100: 9085 4abd b613 e43b a6d7 e1bd 5efc 46be
00000110: 5467 46bd 013e d2ba d130 a9bd d354 cabd
00000120: a275 883c 0101 213e f7df a93c acab e93d
00000130: 119a 7a3d 130c b6bd 935c babd 6542 b23d
00000140: 1382 243d 5b42 b03d aaa6 cd3d df08 fdbd
00000150: a920 6bbc 6805 be3d f121 053d 3c6d 82bc
00000160: c50e a4bd b31b 853d 271c babd 9315 efbb
00000170: f3b5 653d e70e 89bd ce3a 00bd b7df 333d
00000180: d4ef 163d f274 6b3d 894a b9bc b288 5c3c
00000190: 53cc 9bbb b4e5 9a3d 5ff9 09be c751 e4bc
000001a0: 664c 573d a59d 64bd c9ca 44bd f486 623d
000001b0: 6e40 a63d 9f46 013e bd6e acbd 86f0 e93d
000001c0: 043f 1c3d 8fb0 583d 5bd2 20bb 4fe2 6abd
000001d0: dc3e 3f3d 7274 ee3d 61ae d33c f9d3 a93d
000001e0: 081c 033b 317a 03bc 9452 043d 8e33 a6bd
000001f0: f3fd 733d a35b 7d3b cd18 933d d7e1 84bd
00000200: cdae 2a3c 163a b1bd bdb7 59bd 3d3e 3e3d
00000210: 3185 ddbd 7e34 fbbc e155 983d edfb ffbc
00000220: 97c5 0c3e d6a3 aebd d748 d0bc e663 c9bc
00000230: 363f f43b f302 07bd 5259 35bd b1d2 863b
00000240: f337 6f3d eeb8 77bd 5e7b 78bd bec1 a93c
00000250: 111b 263d 8e25 633d 3528 93bd df0b e4bd
00000260: 77fc 8a3d 5693 133c 035b a93c 917c 163c
00000270: 792c 823c 1c16 a93d 4edb d33a 9849 84bc
00000280: 1b80 e83c 3121 c73b 4c6d 903d 2a7c abbd
00000290: 3054 2ebd e60f fdbc 3f44 debd ac82 3abc
000002a0: a7e5 3d3d c728 dabd f84a 3f3d 992c 6fbc
000002b0: 5837 e43c bd90 acbc 070f 1ebd b94f d63d
000002c0: de06 59bd a70c 32bd f2e2 a5bd 4267 31bd
000002d0: 8b30 b33c 3580 cfbd 854f 83bc 2531 f63d
000002e0: fa61 c2bc c6c3 163d d7ad d23d 484e 4fbd
000002f0: 57dd dd3d 1fd9 f73c 03f2 13bd d6db bd3b
00000300: 1003 5dbd 4e65 e03d 1a55 e3bc e1c6 123c
00000310: 4949 8abd 1f9b 933d 5c25 c13d 1c6e 18bc
00000320: b57a aebd 4587 87bd 465b 9cbb f10a cebd
00000330: 693c fc3c 796a 983b 3122 9b3d 7912 bdbd
00000340: 7a6e 73be 7f0d 843d 0604 03be 5f2e 4d3b
00000350: 209d d3bc 55aa 04be ca57 fabc ae06 abbd
00000360: af1e 443e e742 1dbd 0645 96bd 1f03 6a3d
00000370: 77b5 79bd 4f81 2b3c c5db bc3d 4f74 8cbd
00000380: 2b2c 17bd d9ee b33c 0c41 0e3d 341b 8c3d
00000390: 51b5 0fbe 1c3f babc 10f4 2b3d 8498 cabd
000003a0: 50e7 5cbb aead c53d 9877 20bd 36e4 ac3d
000003b0: aea3 de3c f3f1 ba3c 46fc 25be 6b10 413d
000003c0: 522b 17bd 8749 f0bc 2eb3 19ba c8cc 983d
000003d0: cd3a 163d 213f 463c b976 543d 5dd4 d5bd
000003e0: fb9e 123d 4c08 86bc a674 9f3c d391 a63d
000003f0: 9ac3 b2bd 01e1 cebc 3e97 40bc cf76 613d

conv2.bias f4 [32]
0.044969723 0.06379021 0.038139842 0.05029384 0.049259093 0.076933354 -0.0023267716 0.08371915
0.059575215 -0.03508176 0.026360065 -0.041715406 0.0056885267 0.10211899 0.09069265 0.06665553
0.060631286 0.04259799 0.024334744 -0.04027456 0.0033265452 0.039867207 0.06027876 0.042431105
-0.007822952 0.052262053 0.034741785 -0.027977476 -0.05469313 -0.04208287 0.050750993 0.025489712
00000000: 2c32 383d 71a4 823d 8638 1c3d ea00 4e3d
00000010: e7c3 493d 3c8f 9d3d c07c 18bb f274 ab3d
00000020: 2405 743d e4b1 0fbd 10f1 d73c c6dd 2abd
00000030: d266 ba3b c323 d13d 11bd b93d b282 883d
00000040: 8358 783d 3b7b 2e3d a859 c73c f0f6 24bd
00000050: 2b02 5a3b cc4b 233d dce6 763d 3dcc 2d3d
00000060: d72b 00bc bc10 563d 674d 0e3d 0531 e5bc
00000070: e705 60bd 165f 2cbd 46e0 4f3d cdcf d03c

conv3.weight f4 [32, 32, 5, 5]
-0.056555457 0.027355354 0.042020187 -0.011645496 -0.09441872 -0.10746273 0.01003769 -0.06485129
0.029077964 -0.06178148 0.096055724 0.051913317 0.06531051 0.029077066 -0.054867152 0.029619724
0.099187136 -0.018198734 -0.018998906 -0.052580364 0.042519208 0.053239934 0.027795482 -0.013098919
-0.014537305 -0.005095411 -0.09260452 -0.032404322 -0.0450414 -0.046312433 0.00031398237 0.015136089
-0.046339598 -0.06994332 0.113443755 0.057207644 0.0075584203 -0.074920416 -0.07692827 0.12065723
-0.04522928 -0.0017672209 -0.056636184 0.1344192 0.16585246 -0.088034056 0.13131222 0.08644766
-0.007882422 0.07701621 -0.13972084 0.009634589 -0.06634184 0.038453955 0.09288764 -0.041006688
0.037197236 0.009609259 0.03892762 0.03397551 0.012518098 0.034977846 0.05038309 0.09484004
0.06643911 0.06895238 0.10268643 0.093560025 0.035081197 -0.027751705 0.08237954 0.08618671
0.05256236 -0.05424278 -0.0021221328 0.11601878 0.0123847015 0.14512952 -0.014766515 0.08670931
-0.016990166 0.14554006 0.036457438 -0.0032554225 -0.0012009521 -0.047850575 0.036122743 0.030636126
-0.03935755 -0.05713525 0.08037822 0.0040031592 -0.032109205 -0.045871086 -0.0860316 -0.0953681
-0.08801843 -0.21182637 -0.120171085 0.013849997 -0.06801604 0.050874878 0.043164384 0.097982496
0.11161164 -0.0527975 0.11923184 0.0801898 0.06717728 0.039837334 0.061279055 0.064605385
0.09644009 0.059661087 0.011790284 -0.03310644 -0.0025241317 0.028338375 0.0020082395 -0.10851578
0.06068759 -0.12702438 -0.08552244 -0.0970086 -0.105788656 0.064805 -0.021701384 0.105645455
0.017230544 0.028773932 0.06345173 0.10202183 -0.10874213 -0.07035577 0.07764279 -0.0010094534
-0.06886159 -0.029317092 -0.060877316 0.004675795 -0.007556027 -0.0071644085 -0.07585182 -0.07858933
-0.04109628 -0.07294688 -0.00497146 -0.050115697 -0.11008302 0.09096776 0.030875439 -0.00782327
-0.033214662 -0.014941524 0.062120534 -0.032456342 -0.0067707803 -0.11018203 -0.065892294 0.0030038399
0.07650465 -0.21029268 0.038431484 0.020509452 -0.045260552 -0.122798316 0.08810473 -0.0649351
-0.15700401 -0.026887944 -0.0021652025 -0.009974982 -0.035693333 -0.02114478 0.058655903 0.009351195
0.020074278 0.07418467 0.12832823 0.007865257 0.054036587 0.090194985 0.06004494 0.05079219
0.07126443 -0.010691902 -0.0053631277 0.06823967 0.09030413 0.051308185 -0.02359573 0.051946368
0.041694522 0.02126735 -0.127942 0.05527218 -0.07165511 -0.061496448 -0.084858984 -0.15786661
0.08303613 -0.006671252 -0.05739029 0.03054876 -0.038200542 0.020176712 -0.03251344 0.021017691
-0.0007782828 0.012280192 -0.14180252 -0.044637296 -0.031858575 0.0050806934 0.082790025 0.026854217
-0.0048407284 0.0057781115 0.13922323 0.112663336 0.08554243 0.0838322 0.0851114 0.02614813
0.06752186 -0.021273844 0.006517417 -0.019080583 0.0013376172 0.021928899 -0.050003164 -0.07970741
-0.03968486 -0.008017415 0.048388846 -0.06064533 -0.03544361 -0.040725503 0.054895677 0.14340036
0.021572553 0.015803812 0.0069340565 0.03295299 -0.064830445 -0.02058695 0.1110038 0.054185238
0.100378275 0.007852096 0.15239663 -0.014903966 0.05966277 0.04817636 0.048961785 -0.005064357
00000000: b2a6 67bd 5618 e03c 5c1d 2c3d c0cc 3ebc
00000010: 9a5e c1bd 6b15 dcbd 2075 243c c1d0 84bd
00000020: e934 ee3c 940e 7dbd ddb8 c43d 0fa3 543d
00000030: 84c1 853d 0733 ee3c 61bc 60bd 10a5 f23c
00000040: a022 cb3d 8315 95bc 98a3 9bbc 825e 57bd
00000050: 9f28 2e3d 1e12 5a3d 5ab3 e33c d99c 56bc
00000060: e02d 6ebc 68f7 a6bb 70a7 bdbd 65ba 04bd
00000070: 557d 38bd 1bb2 3dbd 009e a439 5cfd 773c
00000080: 97ce 3dbd 713e 8fbd 3355 e83d 9052 6a3d
00000090: a0ac f73b e06f 99bd 928c 9dbd 231b f73d
000000a0: 5642 39bd 18a2 e7ba 58fb 67bd 30a5 093e
000000b0: 3ad5 293e 334b b4bd b676 063e 790b b13d
000000c0: 4625 01bc adba 9d3d fb12 0fbe 65da 1d3c
000000d0: 3bde 87bd e581 1d3d e03b be3d a1f6 27bd
000000e0: 215c 183d 2770 1d3c 9172 1f3d e829 0b3d
000000f0: b518 4d3c ee44 0f3d 805e 4e3d 7f3b c23d
00000100: 3a11 883d e836 8d3d 434d d23d 669c bf3d
00000110: 4db1 0f3d 8b57 e3bc 9bb6 a83d a882 b03d
00000120: a14b 573d ad2d 5ebd 7b13 0bbb 419b ed3d
00000130: 34e9 4a3c d59c 143e 41ef 71bc a794 b13d
00000140: f62e 8bbc 7408 153e 6554 153d ed58 55bb
00000150: 4469 9dba f7fe 43bd 71f5 133d 9df8 fa3c
00000160: 6235 21bd a706 6abd 569d a43d ef2c 833b
00000170: f184 03bd 52e3 3bbd 5631 b0bd 5a50 c3bd
00000180: 0243 b4bd 03e9 58be 421c f6bd 19eb 623c
00000190: fe4b 8bbd 2d62 503d 23cd 303d 0cab c83d
000001a0: a594 e43d 3142 58bd d32f f43d 8d3a a43d
000001b0: 3e94 893d 792c 233d bfff 7a3d d44f 843d
000001c0: 6282 c53d 2f5f 743d 092c 413c 9e9a 07bd
000001d0: e76b 25bb e125 e83c ab9c 033b 853d debd
000001e0: 8d93 783d ae12 02be 6426 afbd 72ac c6bd
000001f0: b9a7 d8bd 7cb8 843d 1ac7 b1bc a55c d83d
00000200: 1227 8d3c 4fb7 eb3c fbf2 813d d2f0 d03d
00000210: 32b4 debd b016 90bd 2f03 9f3d a34f 84ba
00000220: 4e07 8dbd 662a f0bc 7e5a 79bd 6937 993b
00000230: 8c98 f7bb 6ac3 eabb 3358 9bbd 71f3 a0bd
00000240: 9354 28bd 2c65 95bd a1e7 a2bb 1e46 4dbd
00000250: 3573 e1bd 4e4d ba3d 7dee fc3c 2c2d 00bc
00000260: 190c 08bd 4bcd 74bc 1a72 7e3d f1f0 04bd
00000270: 6cdd ddbb 1ea7 e1bd 8af2 86bd 12dc 443b
00000280: 78ae 9c3d f756 57be 556a 1d3d 7003 a83c
00000290: 2163 39bd af7d fbbd 4170 b43d b2fc 84bd
000002a0: a9c5 20be 1b44 dcbc 12e6 0dbb 1b6e 23bc
000002b0: 2c33 12bd d137 adbc 2c41 703d c135 193c
000002c0: d072 a43c 22ee 973d 7a68 033e 47dd 003c
000002d0: 7855 5d3d 26b8 b83d aff1 753d 790b 503d
000002e0: 16f3 913d 162d 2fbc 2dbd afbb 3dc1 8b3d
000002f0: 5ff1 b83d 8828 523d d54b c1bc b7c5 543d
00000300: e0c7 2a3d de38 ae3c 3a03 03be 1565 623d
00000310: eabf 92bd b3e3 7bbd 8cca adbd c9a7 21be
00000320: d90e aa3d 859a dabb 1512 6bbd 6541 fa3c
00000330: 2c78 1cbd a249 a53c d02c 05bd 4b2d ac3c
00000340: ad05 4cba dc32 493c ae34 11be 99d5 36bd
00000350: 237e 02bd f27b a63b d18d a93d 60fd db3c
00000360: f99e 9ebb 5056 bd3b 8990 0e3e 09bc e63d
00000370: df30 af3d 37b0 ab3d e34e ae3d 9a34 d63c
00000380: e748 8a3d 7c46 aebc 0e90 d53b e24e 9cbc
00000390: fc52 af3a 3ca4 b33c 1ed0 4cbd a33d a3bd
000003a0: 978c 22bd 7a5b 03bc 6233 463d 3d67 78bd
000003b0: 522d 11bd c9cf 26bd 4ada 603d 8bd7 123e
000003c0: ecb8 b03c ff76 813c 1537 e33b b7f9 063d
000003d0: d3c5 84bd f7a5 a8bc f655 e33d 57f1 5d3d
000003e0: 2093 cd3d 14a6 003c dd0d 1c3e c42f 74bc
000003f0: f360 743d 9354 453d 278c 483d e8f2 a5bb

conv3.bias f4 [32]
0.018232454 0.050753884 -0.07987049 0.0070116897 -0.021761118 0.11758791 0.00010816644 -0.06757461
-0.007669693 0.026248995 -0.015769286 -0.025684899 0.016752228 0.051460523 0.074278615 0.04950004
0.03092819 0.031104319 -0.025132105 0.020375298 0.036132947 -0.044338956 0.08512184 0.06087427
0.035953082 0.016278176 0.04241675 -0.06061303 -0.0026133691 0.015740603 0.021002332 -0.033217207
00000000: 3a5c 953c 4ee3 4f3d 2493 a3bd 51c2 e53b
00000010: 5f44 b2bc eed1 f03d 6ad7 e238 8f64 8abd
00000020: 0c52 fbbb 2208 d73c 972e 81bc 2369 d2bc
00000030: f83b 893c 45c8 523d 631f 983d 8ec0 4a3d
00000040: 1e5d fd3c 7cce fe3c d8e1 cdbc 19ea a63c
00000050: 2400 143d c49c 35bd 5c54 ae3d 4c57 793d
00000060: 8a43 133d cf59 853c 30bd 2d3d 5e45 78bd
00000070: 0f45 2bbb 70f2 803c 150d ac3c c40e 08bd

MLP1.weight f4 [50, 1344]
0.018741667 0.017803812 0.039537355 0.10891338 0.016396115 0.033046998 0.048497222 -0.062274314
-0.08589236 0.11515365 0.004814602 -0.05911236 0.008395977 -0.066136025 0.0028620122 -0.023915602
0.09536224 -0.013582853 -0.13998798 -0.072926365 -0.023982512 -0.009563599 -0.056705892 0.115457736
-0.092398785 -0.050658412 0.048527583 -0.05443487 -0.021238118 0.00522815 0.01842001 -0.081554115
0.022194523 0.05446902 -0.021818249 -0.06536192 -0.03618682 0.025366345 -0.007474655 0.021515159
0.080055766 0.005019891 0.05491132 0.08267145 -0.0014684759 0.019886997 0.028882394 -0.018390585
-0.00042830914 -0.04781811 0.010745358 -0.12897564 -0.025299875 0.0227087 -0.015598779 0.06378209
0.056164447 0.059345376 -0.04306154 -0.027732825 0.001221053 -0.08178353 -0.054903988 -0.025538173
0.01822369 0.027406387 0.0779084 -0.024145368 0.057739932 0.04934162 0.11737785 0.01883499
-0.05196469 0.119384326 -0.09896083 0.016084377 -0.011253196 -0.03749971 -0.055789597 -0.087941065
0.046116594 -0.068071306 0.10551212 0.096156925 0.13483295 -0.10423278 -0.11032643 -0.015283424
-0.0010213002 0.038009197 -0.0094727585 0.06686339 0.014537241 0.038555495 0.09951052 0.009481039
-0.022305807 0.029507196 0.041325614 -0.05658576 0.062581904 0.026654206 0.05408989 0.09937607
-0.053704035 0.047203016 -0.071092926 0.0425856 -0.02425317 -0.054475114 -0.06808726 0.022815244
0.09386549 0.0050677434 0.038484957 -0.039782997 0.038186833 0.021570878 -0.027043823 0.035856817
-0.08368393 -0.02173809 -0.045579374 -0.07558858 -0.03580476 -0.13259305 0.10337978 0.004751374
-0.13122445 0.013625869 0.023373801 -0.016038314 -0.078269534 -0.0006448395 0.029786756 0.07393767
-0.014212258 0.0035854606 0.042010605 0.016703138 0.044535074 0.0158552 -0.015033914 0.022163501
0.035226 0.0062300386 -0.010911562 -0.0458428 0.0729089 -0.029427694 0.07719875 -0.06661258
-0.019081937 -0.09346368 -0.010572045 0.0014580591 -0.052421954 -0.02591094 0.06862796 0.09549703
-0.0793183 -0.0011294227 0.012464705 -0.03677616 -0.042428587 -0.0816951 0.025595529 -0.19343494
0.10624983 -0.009013488 -0.06200793 -0.08845028 0.012813508 -0.059744146 -0.00217701 0.09830589
0.05397522 0.012997898 0.13494492 -0.047839448 0.018772462 -0.009481038 -0.04050585 0.045342453
-0.06619044 -0.0078081577 -0.047430277 -0.00018017385 -0.036405165 0.00058496033 -0.031725943 0.020755734
0.061734114 0.0721779 0.068507716 -0.040649693 -0.056944318 -0.04271571 0.008642367 0.013245046
-0.10236002 -0.0028517589 -0.09228026 -0.034181044 0.03507708 -0.05264803 -0.12582126 -0.07254507
0.018676396 -0.08002425 0.017199455 -0.06972025 -0.08798662 -0.17210975 0.048346147 0.057227485
-0.0745548 -0.016786937 0.02757418 0.054646306 0.027132176 0.0051955166 -0.004124848 -0.032454442
0.04164285 -0.033436995 0.043104492 -0.021991884 0.064340025 0.01207255 0.051711738 0.060763016
0.09431944 0.049485296 0.051884953 0.034181833 -0.03648988 -0.056176018 -0.008100614 0.05951394
-0.02892694 0.032549486 -0.0016937739 -0.18311684 0.0409082 0.002020629 0.060460754 0.04188935
-0.047877252 0.020223387 -0.07544006 0.01896157 -0.044170156 0.026499238 -0.05563519 -0.019601848
00000000: 2088 993c 4dd9 913c ecf1 213d fa0d df3d
00000010: 2551 863c 4a5c 073d 06a5 463d 5a13 7fbd
00000020: 55e8 afbd add5 eb3d cfc3 9d3b cd1f 72bd
00000030: 488f 093c 5372 87bd 9990 3b3b a7ea c3bc
00000040: 474d c33d 9d8a 5ebc 0259 0fbe 6b5a 95bd
00000050: f976 c4bc a4b0 1cbc 7044 68bd 1b75 ec3d
00000060: 933b bdbd 327f 4fbd dcc4 463d 19f7 5ebd
00000070: 90fb adbc e750 ab3b 90e5 963c d805 a7bd
00000080: 4ad1 b53c e81a 5f3d 2fbc b2bc 78dc 85bd
00000090: a238 14bd 15cd cf3c f3ed f4bb 8f40 b03c
000000a0: 47f4 a33d e67d a43b b1ea 603d a64f a93d
000000b0: e079 c0ba 0eea a23c c59a ec3c daa7 96bc
000000c0: ae8e e0b9 ecdc 43bd 4c0d 303c 3112 04be
000000d0: af41 cfbc 9807 ba3c 0592 7fbc 2fa0 823d
000000e0: b10c 663d 2314 733d 4c61 30bd f32f e3bc
000000f0: bd0b a03a 207e a7bd 01e3 60bd 6e35 d1bc
00000100: d949 953c 5c83 e03c 708e 9f3d 82cc c5bc
00000110: b580 6c3d 701a 4a3d cc63 f03d d64b 9a3c
00000120: edd8 54bd c57f f43d faab cabd 62c3 833c
00000130: 535f 38bc 4c99 19bd a283 64bd 721a b4bd
00000140: c1e4 3c3d f868 8bbd bd16 d83d eced c43d
00000150: a611 0a3e ff77 d5bd d3f2 e1bd 5467 7abc
00000160: 26dd 85ba 88af 1b3d a133 1bbc acef 883d
00000170: 9c2d 6e3c 5eec 1d3d 2ccc cb3d 5c56 1b3c
00000180: abba b6bc 13b9 f13c 0c45 293d 78c6 67bd
00000190: f12a 803d ec59 da3c 5c8d 5d3d ae85 cb3d
000001a0: c3f8 5bbd f357 413d 2b99 91bd 3d6e 2e3d
000001b0: 95ae c6bc 4c21 5fbd 5571 8bbd 09e7 ba3c
000001c0: 8d3c c03d 500f a63b 67a2 1d3d 7ff3 22bd
000001d0: cc69 1c3d 69b5 b03c 028b ddbc 99de 123d
000001e0: 7b62 abbd 1414 b2bc 70b1 3abd 2fce 9abd
000001f0: 03a8 12bd 79c6 07be c7b8 d33d 6ab1 9b3b
00000200: b45f 06be 093f 5f3c 6a7a bf3c c862 83bc
00000210: c74b a0bd 720a 29ba 5b03 f43c a26c 973d
00000220: 88da 68bc 0cfa 6a3b 5013 2c3d 05d5 883c
00000230: 696a 363d c4e2 813c ce50 76bc 3b90 b53c
00000240: 2349 103d 5a25 cc3b 68c6 32bc a9c5 3bbd
00000250: 4351 953d 5912 f1bc 611a 9e3d 2d6c 88bd
00000260: b951 9cbc e369 bfbd 5f36 2dbc 581c bf3a
00000270: 67b8 56bd 2e43 d4bc d18c 8c3d f293 c33d
00000280: a271 a2bd 2309 94ba c338 4c3c 99a2 16bd
00000290: 99c9 2dbd c34f a7bd b7ad d13c cf13 46be
000002a0: 8399 d93d 4fad 13bc 07fc 7dbd 6c25 b5bd
000002b0: bfef 513c 47b6 74bd 2bac 0ebb 9954 c93d
000002c0: 1f15 5d3d 23f5 543c 002f 0a3e 4cf3 43bd
000002d0: b5c8 993c 5b56 1bbc 76e9 25bd 02b9 393d
000002e0: da8e 87bd 93db ffbb 4046 42bd 0ded 3cb9
000002f0: 951d 15bd 0658 193a 10f3 01bd ee07 aa3c
00000300: e9dc 7c3d 02d2 933d c64d 8c3d 4b80 26bd
00000310: 723e 69bd abf6 2ebd b798 0d3c c001 593c
00000320: 21a2 d1bd 93e4 3abb 6ffd bcbd 6c01 0cbd
00000330: fcac 0f3d 76a5 57bd 4ad7 00be 8292 94bd
00000340: 3eff 983c c1e3 a3bd dfe5 8c3c 7ec9 8ebd
00000350: 5432 b4bd 8a3d 30be 9c06 463d 5e67 6a3d
00000360: 30b0 98bd c284 89bc 3fe3 e13c ced4 5f3d
00000370: 4c44 de3c 273f aa3b bc29 87bb f3ee 04bd
00000380: b191 2a3d 3bf5 08bd 568e 303d 5328 b4bc
00000390: b4c4 833d f2cb 453c b0cf 533d a4e2 783d
000003a0: 8d2a c13d 18b1 4a3d 5185 543d 4002 0c3d
000003b0: 6a76 15bd d318 66bd 70b8 04bc e4c4 733d
000003c0: 31f8 ecbc 9c52 053d 9f01 deba fb82 3bbe
000003d0: 5b8f 273d 876c 043b b2a5 773d 2b94 2b3d
000003e0: f01a 44bd 84ab a53c 5180 9abd 4b55 9b3c
000003f0: c4eb 34bd ee14 d93c bae1 63bd 0e94 a0bc

MLP1.bias f4 [50]
0.018080184 0.03477481 0.0018503078 0.027212951 0.020370925 2.0558693e-05 0.020068916 -0.019610472
-0.00879924 0.056831155 -0.02714625 0.00031036328 -0.014502495 -0.020985562 -0.029879827 0.007549536
0.03888387 0.023515873 -0.0044615157 0.028425178 0.020943793 -0.0054723434 -0.02231005 -0.018304802
-0.06494608 0.050314285 0.0011441152 -0.034376238 -0.021460718 -0.008093578 -0.012495353 -0.058206297
0.0078972755 0.031826273 0.05412883 0.02726994 -0.021960663 -0.055436328 -0.034196068 -0.018304745
0.011208253 0.02640557 -0.0029144632 0.038644347 -0.05113513 -0.027548295 -0.0065310705 0.0034385845
-0.007514742 0.04055807
00000000: e51c 943c 0870 0e3d 0786 f23a b2ed de3c
00000010: ede0 a63c 7575 ac37 9167 a43c 24a6 a0bc
00000020: b02a 10bc c9c7 683d d061 debc 41b8 a239
00000030: df9b 6dbc eae9 abbc 8ac6 f4bc 1962 f73b
00000040: b144 1f3d 5ca4 c03c e831 92bb ebdb e83c
00000050: 5192 ab3c 5851 b3bb 91c3 b6bc f4f3 95bc
00000060: 7302 85bd 5a16 4e3d 23f6 953a 19ce 0cbd
00000070: 63ce afbc ed9a 04bc 4fb9 4cbc ba69 6ebd
00000080: 9363 013c 445c 023d 31b6 5d3d 3665 df3c
00000090: d9e6 b3bc 3411 63bd 2d11 0cbd d5f3 95bc
000000a0: d2a2 373c 7e50 d83c 9400 3fbb 8949 1e3d
000000b0: 1273 51bd f6ac e1bc 9702 d6bb e059 613b
000000c0: 3a3e f6bb 3820 263d

MLP3.weight f4 [50, 50]
0.09696987 0.15641847 0.015817666 0.025542252 -0.18947567 -0.07092065 -0.00878264 0.20407817
-0.039960124 -0.17591988 -0.14049305 0.091187954 0.09757248 0.08654962 -0.07588263 -0.19586109
0.040801957 0.13902244 0.06485629 -0.17059663 -0.116682984 0.03991878 0.16875912 0.10109895
-0.15161192 -0.019763887 0.16268145 0.045206968 -0.0076091285 -0.31352314 0.004530605 -0.17188609
0.15370515 0.13112205 -0.21058862 -0.122693494 0.2588853 0.009221115 0.053898774 -0.3031223
-0.08260447 0.023781443 -0.068138674 0.17265968 0.14962646 0.00093341153 -0.04956464 0.100393526
0.093547285 0.10273587 0.041483056 0.14755008 0.018770216 -0.035421837 0.015514088 0.07284292
0.04685888 -0.03604714 0.07025266 0.1401477 -0.057200655 0.14492671 0.22338527 -0.08166735
-0.1554392 0.06363811 -0.015582075 0.14535274 0.004527995 0.21408014 -0.24514274 0.06765234
-0.14849964 -0.09888989 -0.030374238 0.061981026 0.32604495 -0.10698682 0.11473559 0.028939238
0.20477016 -0.48806807 -0.27223325 -0.052038625 0.088037804 0.15217616 -0.19032475 0.11899915
-0.049952205 0.21618116 -0.15732712 0.12477396 0.003761421 -0.009001694 -0.22100659 -0.0779349
-0.2786404 0.2544447 0.101170406 0.026183737 0.08913171 0.20945561 -0.06993491 0.117698856
-0.10485931 0.2138836 0.20138936 -0.1055593 0.20594437 0.14688823 0.11980332 0.16248727
0.25125515 -0.040391147 0.055095647 0.13754265 -0.08756359 0.15463273 -0.0490529 0.13317204
-0.0081833275 0.13092302 -0.36534518 -0.08592034 0.072065696 -0.07392425 -0.063184604 -0.21913502
-0.22858907 0.15807262 0.19870096 -0.15536757 0.025948787 -0.116311416 0.123572886 -0.13924052
-0.034095436 -0.06999141 0.12795325 0.23461017 0.05249794 0.14239949 -0.0065369694 0.13340622
-0.20405313 0.06966743 0.019274088 0.051282853 0.117688864 0.0059504164 0.11578739 -0.10258938
0.15291482 0.18195924 -0.012461896 0.014940234 0.029190995 -0.097337484 -0.4705764 0.0050911196
-0.30155337 0.19470999 0.06294834 0.053164862 0.026219858 -0.039753646 -0.12031692 -0.43110806
0.066369 -0.023375718 -0.15576032 0.06131525 -0.13641733 0.14576805 -0.097668864 0.20801103
0.123610124 0.04554688 0.16855757 -0.17389229 0.02419486 -0.07578981 -0.23475699 0.30274788
-0.2261072 0.1314864 -0.22994813 -0.041432757 -0.08642544 -0.46892488 -0.13574146 0.135612
0.14215733 0.0678486 0.07039673 -0.13013369 0.01768589 0.19371878 -0.071228705 0.18520686
-0.11776199 -0.12921144 -0.09907951 -0.19565673 0.12017479 -0.31819022 0.12477838 0.36315805
0.3475526 -0.05379214 0.08884935 0.01235306 -0.05412404 -0.015053876 0.4443921 -0.15535262
0.034759834 0.4380549 0.033831894 -0.25802138 0.07196365 -0.10584629 0.24613692 0.061918348
-0.11234881 -0.031285804 -0.3162541 0.3010841 0.051691655 -0.07311633 -0.33617604 -0.23429124
0.13256013 -0.12435589 0.13626714 -0.103162825 0.25650492 -0.20303507 0.29843858 -0.050291248
0.24160132 0.11994243 -0.2594811 0.118927345 0.17110446 0.35772535 0.34012723 -0.29010725
-0.1173939 0.1338791 0.0030241911 -0.052066457 -0.25151694 -0.0059280577 0.008464399 -0.18634711
00000000: 2498 c63d 2a2c 203e 0d94 813c fc3d d13c
00000010: e905 42be d93e 91bd 10e5 0fbc def9 503e
00000020: 3aad 23bd 5724 34be 69dd 0fbe c0c0 ba3d
00000030: 15d4 c73d ed40 b13d 5a68 9bbd cf8f 48be
00000040: f41f 273d e65b 0e3e 60d3 843d e2b0 2ebe
00000050: 7df7 eebd e081 233d 31cf 2c3e f70c cf3d
00000060: 2840 1bbe e0e7 a1bc f795 263e f12a 393d
00000070: ff55 f9bb 1b86 a0be 7875 943b e802 30be
00000080: e264 1d3e dc44 063e 8ba4 57be ba46 fbbd
00000090: 9d8c 843e 2914 173c f6c4 5c3d d932 9bbe
000000a0: 882c a9bd 4dd1 c23c 4a8c 8bbd b3cd 303e
000000b0: ae37 193e 30b0 743a 4b04 4bbd 1f9b cd3d
000000c0: b895 bf3d 2f67 d23d 23ea 293d 5e17 173e
000000d0: ffc3 993c 7d16 11bd cd2e 7e3c ab2e 953d
000000e0: 19ef 3f3d 2aa6 13bd a0e0 8f3d e182 0f3e
000000f0: 3c4b 6abd ab67 143e 1cbf 643e 3641 a7bd
00000100: 742b 1fbe b354 823d f64b 7fbc 59d7 143e
00000110: 935f 943b d337 5b3e b306 7bbe 4f8d 8a3d
00000120: 4a10 18be c886 cabd 65d3 f8bc d1df 7d3d
00000130: 5def a63e e81b dbbd 7efa ea3d fb11 ed3c
00000140: 45af 513e 0fe4 f9be 2862 8bbe 7426 55bd
00000150: 2a4d b43d 11d4 1b3e 7ee4 42be d4b5 f33d
00000160: af9a 4cbd 985e 5d3e 5c1a 21be 7d89 ff3d
00000170: 2c82 763b d77b 13bc 8d4f 62be 559c 9fbd
00000180: f4a9 8ebe 9346 823e 6e32 cf3d 477f d63c
00000190: b08a b63d 887b 563e 093a 8fbd 190c f13d
000001a0: 7ac0 d6bd 4d04 5b3e 0339 4e3e 792f d8bd
000001b0: 15e3 523e de69 163e 715b f53d 1063 263e
000001c0: 84a4 803e 3071 25bd f9ab 613d fbd7 0c3e
000001d0: 8a54 b3bd 0b58 1e3e b2eb 48bd 405e 083e
000001e0: 5d13 06bc af10 063e 860e bbbe 01f7 afbd
000001f0: 2e97 933d 9965 97bd ee66 81bd ee64 60be
00000200: 4113 6abe cadd 213e 4478 4b3e ad18 1fbe
00000210: 8d92 d43c ae34 eebd c813 fd3d 1195 0ebe
00000220: a8a7 0bbd a857 8fbd 2d06 033e a63d 703e
00000230: 1408 573d 2cd1 113e 1334 d6bb a49b 083e
00000240: 4ef3 50be ccad 8e3d b1e4 9d3c f80d 523d
00000250: dc06 f13d b6fb c23b f021 ed3d 621a d2bd
00000260: b495 1c3e 8653 3a3e fb2c 4cbc e2c7 743c
00000270: f421 ef3c e058 c7bd 64ef f0be 68d3 a63b
00000280: 3465 9abe 0e62 473e 0feb 803d 66c3 593d
00000290: 07cb d63c b8d4 22bd b868 f6bd 32ba dcbe
000002a0: 78ec 873d 6f7e bfbc a27f 1fbe b325 7b3d
000002b0: fcb0 0bbe 3844 153e 9d06 c8bd d800 553e
000002c0: 4e27 fd3d 5e8f 3a3d 5b9a 2c3e d210 32be
000002d0: 4d34 c63c b037 9bbd 2364 70be c501 9b3e
000002e0: a588 67be 5fa4 063e 8677 6bbe 65b5 29bd
000002f0: d2ff b0bd ec16 f0be cfff 0abe dfdd 0a3e
00000300: b191 113e 35f4 8a3d 292c 903d c441 05be
00000310: 00e2 903c 375e 463e 5be0 91bd dea6 3d3e
00000320: 332d f1bd 0150 04be 33ea cabd 3d5a 48be
00000330: 331e f63d d4e9 a2be cf8b ff3d daef b93e
00000340: 6af2 b13e 2655 5cbd a6f6 b53d 7d64 4a3c
00000350: 2bb1 5dbd 88a4 76bc 5d87 e33e c214 1fbe
00000360: 5460 0e3d bb48 e03e 5093 0a3d 611b 84be
00000370: ae61 933d f1c5 d8bd 510b 7c3e 189e 7d3d
00000380: 2217 e6bd 8b25 00bd 0fec a1be b227 9a3e
00000390: a1ba 533d 04be 95bd 441f acbe 0bea 6fbe
000003a0: d8bd 073e 4dae febd 9d89 0b3e 0847 d3bd
000003b0: 9d54 833e 6de8 4fbe f1cc 983e 32fe 4dbd
000003c0: 5666 773e 60a4 f53d b5da 84be 2e90 f33d
000003d0: 0236 2f3e c727 b73e 2825 ae3e f088 94be
000003e0: 376c f0bd 9a17 093e 8231 463b a343 55bd
000003f0: d4c6 80be 2740 c2bb 43ae 0a3c c7d1 3ebe

MLP3.bias f4 [50]
0.003430073 0.047410704 0.09205737 0.14681041 -0.006937197 0.04899651 0.078387074 -0.09904871
-0.041281536 0.046022773 0.0005923836 0.22994265 -0.14490214 -0.046614915 -0.0068835937 0.10568417
0.041784644 0.0054875547 0.14707097 0.117484935 -0.13430645 -0.056456454 -0.078198254 0.07410326
0.048715275 -0.032733407 -0.021638496 -0.09183073 0.09048524 0.0138019165 -0.011357837 -0.10031624
0.012348687 0.07262915 -0.066365466 0.088590756 0.029666502 0.122925244 0.10246416 0.15223835
-0.063256726 0.009718909 0.1266903 0.07949516 0.03392212 -0.13594992 -0.11441005 -0.14555381
0.14759381 -0.004183344
00000000: 13cb 603b ba31 423d 9388 bc3d 7855 163e
00000010: 6d51 e3bb 91b0 483d 6789 a03d 0dda cabd
00000020: d416 29bd 6082 3c3d 314a 1b3a 1676 6b3e
00000030: 3a61 14be 48ef 3ebd c58f e1bb f170 d83d
00000040: 6026 2b3d f2d0 b33b c699 163e f19b f03d
00000050: a187 09be e23e 67bd 6826 a0bd 73c3 973d
00000060: ab89 473d 7713 06bd 3743 b1bc c011 bcbd
00000070: 5350 b93d 6f21 623c 3916 3abc 9a72 cdbd
00000080: 2652 4a3c 97be 943d 9eea 87bd 126f b53d
00000090: 2a07 f33c 3bc0 fb3d bbd8 d13d 5fe4 1b3e
000000a0: be8c 81bd 0f3c 1f3c 1abb 013e 5cce a23d
000000b0: ecf1 0a3d 7536 0bbe d14f eabd 0f0c 15be
000000c0: d522 173e 6f14 89bb

MLP4.weight f4 [7, 50]
-0.042141855 -0.03547989 -0.078797385 0.0975103 -0.3576419 -0.19611812 -0.057632398 0.018687634
0.19673485 -0.2681215 0.18886065 0.24155757 -0.10290318 0.18831985 0.099495485 -0.18826212
-0.08141481 -0.39161327 -0.015399158 0.25447908 0.15492634 -0.14727098 0.25892064 -0.043865066
0.03738906 0.31244472 0.2719154 -0.18461758 0.14285702 -0.103736505 -0.10449895 0.31464154
0.18003874 -0.7349657 0.008457547 -0.40016693 -0.38186112 0.14541395 -0.09846797 0.1861617
-0.08475837 0.035409056 0.3065427 0.1361447 0.13949601 -0.25502357 -0.19774136 -0.27982637
-0.015946941 0.15220468 -0.057572532 0.053623386 -0.13498457 0.34807026 0.03486136 -0.3399921
0.5065416 -0.31156865 0.12300023 -0.015958909 0.009760166 0.1169391 0.13667376 -0.098748505
-0.3086721 -0.35235608 0.13592668 -0.3348579 0.07306834 -0.09206827 0.16858685 0.23575734
0.19902146 0.15558267 0.4098095 -0.13098703 0.13605672 -0.28387392 0.30698168 0.085696176
0.10190197 -0.010110983 0.25358796 -0.25659606 0.26910624 0.08198276 -0.42030156 0.07747956
-0.064988256 -0.07816597 -0.16560745 0.3540945 0.2526751 0.24188511 0.029282544 -0.06662239
-0.24646923 -0.40949753 0.15754294 -0.2362458 0.33541086 0.124392115 0.07637195 0.13946892
-0.10861645 -0.41792908 -0.27325758 0.2956627 0.20978206 0.02386092 0.21978459 0.17823866
-0.22524539 0.19796753 -0.40206635 0.5229692 0.13937038 -0.08195833 0.23832357 0.026187142
0.21329503 0.28981525 0.28732434 -0.22491285 -0.15119301 -0.113398544 0.0033029774 -0.2051448
-0.014666247 0.15083577 0.009605304 0.13514116 0.23265298 -0.013316896 0.40104252 -0.40632668
-0.5191438 -0.06881894 -0.117900185 0.02503463 -0.40166435 0.26277673 0.17406628 0.04624298
-0.09241673 0.09945864 -0.35501957 -0.11080458 0.40704215 0.16259901 0.2933893 0.19037569
-0.13161218 0.2727911 -0.39058152 -0.20410816 0.25887352 0.010531419 -0.14117882 0.34738636
0.36715713 0.062438704 -0.3298816 0.06318974 -0.27957538 -0.41815048 0.1869418 -0.024629224
-0.18927842 0.24031565 -0.012154324 -0.29728684 0.4377631 -0.4824953 0.09309 0.36227107
0.10204952 -0.19604999 0.13667311 -0.102246515 -0.2920591 -0.25468448 -0.018140024 0.091559455
-0.03315474 -0.11322928 0.29595977 0.35866302 -0.18496488 0.16561677 -0.35481378 0.24837683
0.054772045 0.018096063 0.025706561 0.003954549 0.42789784 0.31325805 0.15226884 0.17189968
-0.04818241 0.25358343 0.23371434 0.16951853 -0.49477556 -0.18193384 0.38819802 -0.3731257
-0.30160072 -0.24162564 -0.008984966 0.2386273 -0.29814285 0.16065435 -0.124407485 0.082213156
0.018204745 -0.35765618 0.1751897 -0.19802605 0.096881375 0.013888163 0.1166373 -0.21225016
0.23621339 -0.18483117 0.18994598 -0.27335227 0.26797238 -0.3346998 -0.2661916 -0.11483272
0.03258313 -0.28323674 0.29474673 -0.2161874 -0.2953367 0.23586567 0.043264553 0.2409256
0.11121265 -0.15086485 0.2521255 0.08510041 0.2684905 -0.5255403 0.16685703 0.3000417
0.14125268 0.12297225 -0.30133975 0.2849977 0.2632937 -0.16594237 -0.27458146 -0.3628498
00000000: f09c 2cbd 5c53 11bd 8660 a1bd 7bb3 c73d
00000010: d71c b7be 30d3 48be f30f 6cbd cf16 993c
00000020: dc74 493e 3947 89be b064 413e de5a 773e
00000030: e7be d2bd ebd6 403e 4ac4 cb3d c9c7 40be
00000040: cfbc a6bd 8981 c8be c04c 7cbc 154b 823e
00000050: 03a5 1e3e 34ce 16be 3f91 843e dbab 33bd
00000060: 4525 193d c1f8 9f3e 7f38 8b3e 640c 3dbe
00000070: 1c49 123e ce73 d4bd 8c03 d6bd b218 a13e
00000080: 135c 383e b626 3cbf 8691 0a3c aee2 ccbe
00000090: 4d83 c3be 65e7 143e 93a9 c9bd 2ca1 3e3e
000000a0: cc95 adbd 1609 113d 2af3 9c3e 8469 0b3e
000000b0: 0bd8 0e3e 7392 82be b67c 4abe 6745 8fbe
000000c0: 29a3 82bc 8bdb 1b3e 2dd1 6bbd 32a4 5b3d
000000d0: 6539 0abe 4436 b23e c9ca 0e3d 7213 aebe
000000e0: b6ac 013f ed85 9fbe 8be7 fb3d 42bc 82bc
000000f0: 1ae9 1f3c c47d ef3d 35f4 0b3e a83c cabd
00000100: 450a 9ebe 0468 b4be 5d30 0b3e 7f72 abbe
00000110: dba4 953d 4a8e bcbd 08a2 2c3e 5f6a 713e
00000120: 48cc 4b3e 1051 1f3e 8dd2 d13e 7721 06be
00000130: 7452 0b3e ec57 91be b42c 9d3e 7a81 af3d
00000140: fbb1 d03d 89a8 25bc 48d6 813e 8f60 83be
00000150: 4bc8 893e 94e6 a73d c431 d7be 9bad 9e3d
00000160: 9018 85bd 7b15 a0bd 0095 29be e04b b53e
00000170: a15e 813e bbb0 773e f2e1 ef3c 5271 88bd
00000180: 6e62 7cbe a9a9 d1be f052 213e 6bea 71be
00000190: f9ba ab3e 4bc1 fe3d e668 9c3d f1d0 0e3e
000001a0: 4d72 debd cdfa d5be 6be8 8bbe 1a61 973e
000001b0: 1cd1 563e fa77 c33c 360f 613e 3284 363e
000001c0: baa6 66be 00b8 4a3e a4db cdbe 4fe1 053f
000001d0: 1cb7 0e3e c5d9 a7bd 180b 743e 6b86 d63c
000001e0: 036a 5a3e aa62 943e 2d1c 933e 8e4f 66be
000001f0: 57d2 1abe 7f3d e8bd c476 583b 7a11 52be
00000200: b34a 70bc b174 1a3e 915f 1d3c 7262 0a3e
00000210: 953c 6e3e 1c2f 5abc 7255 cd3e 0d0a d0be
00000220: 9ce6 04bf f2f0 8cbd a775 f1bd 6d15 cd3c
00000230: f3a6 cdbe ac8a 863e 6e3e 323e 4769 3d3d
00000240: fc44 bdbd f9b0 cb3d 20c5 b5be 83ed e2bd
00000250: d467 d03e 5b80 263e 1f37 963e d8f1 423e
00000260: 58c5 06be 46ab 8b3e 4dfa c7be bb01 51be
00000270: 128b 843e f98b 2c3c 2e91 10be a0dc b13e
00000280: 05fc bb3e babf 7f3d 3ee6 a8be 9f69 813d
00000290: 8124 8fbe d217 d6be ac6d 3f3e 3ac3 c9bc
000002a0: 34d2 41be 4e15 763e ee22 47bc fb35 98be
000002b0: 7c22 e03e a009 f7be f8a5 be3d 987b b93e
000002c0: 57ff d03d 54c1 48be 09f4 0b3e 9f66 d1bd
000002d0: c588 95be 0166 82be 639a 94bc 8683 bb3d
000002e0: 44cd 07bd c1e4 e7bd 0a88 973e aea2 b73e
000002f0: 6f67 3dbe 7197 293e 27aa b5be 7f56 7e3e
00000300: a758 603d 323e 943c 9196 d23c 2995 813b
00000310: 6d15 db3e 5c63 a03e 5dec 1b3e 7806 303e
00000320: eb5a 45bd b0d5 813e d052 6f3e 4496 2d3e
00000330: 3953 fdbe dd4c 3abe e4c1 c63e 550a bfbe
00000340: 696b 9abe b66c 77be ae35 13bc b75a 743e
00000350: 2ea6 98be 9382 243e 5ac9 febd 5f5f a83d
00000360: 1e22 953c b61e b7be ee64 333e 57c7 4abe
00000370: be69 c63d 2d8b 633c 89df ee3d 1b58 59be
00000380: ece1 713e 6244 3dbe 3381 423e d4f4 8bbe
00000390: ad33 893e c65d abbe 444a 88be 6b2d ebbd
000003a0: e375 053d 6804 91be 0be9 963e 3b60 5dbe
000003b0: 5f36 97be c586 713e 2c36 313d 33b5 763e
000003c0: 75c3 e33d 517c 1abe 9816 813e 2049 ae3d
000003d0: 9677 893e cf89 06bf 92dc 2a3e 119f 993e
000003e0: 8ba4 103e e0d8 fb3d 3449 9abe 38eb 913e
000003f0: 6fce 863e ccec 29be f195 8cbe 73c7 b9be

MLP4.bias f4 [7]
-0.018223912 -0.025217012 0.010951813 -0.08966462 0.18831225 0.06301442 -0.049988415
00000000: 504a 95bc e893 cebc 3c6f 333c 16a2 b7bd
00000010: edd4 403e b40d 813d a7c0 4cbd
