DQN/final_dqn_against_negaMaxMix/DQN_AgainstNegaMax_Epochs20000_player1.pth (torch, 493315 bytes, 12 tensors)

conv1.weight f4 [32, 1, 5, 5]
00000000: dbd1 023e 3f2f 743e e4bf abbd a05c 783e
00000010: 5528 1cbe 8921 1d3d f814 43bd 95e8 933d
00000020: c245 533e 91ba abbe 7c71 533e 4ab7 563d
00000030: 91e3 6e3e c8e9 1a3e a077 9a3e a38f 72bd
00000040: d85b a33e 3ce8 853c d912 a83c ed6a 033e
00000050: 22db cdbd e66e 8fbd 4638 55be 3c37 763e
00000060: 4b5e 8abe ef9e 4fbd 73ed 40bd ccec 94bd
00000070: a091 883d 3494 6bbe e8d4 2b3e 6024 a0be
00000080: e935 283e fe07 dbbb a090 56be a9c1 173e
00000090: b6a9 f63d b203 ad3e df20 cebb d6ba b1bd
000000a0: 3291 173e 31af 10be 04c2 b23d c105 863e
000000b0: e99d 983e df29 dcbd 557a 203d f574 d13d
000000c0: 6d73 753e 2da6 60be 5199 94be a597 11be
000000d0: 09de bcbd 4da5 bd3e 8daf dcbd e379 2f3e
000000e0: aac9 003d 3bea 313d 8f32 a53e acb6 65be
000000f0: e91d 593c 3e8b 18be 8c20 2b3e e278 21bb
00000100: eb5c 6d3e 5e3b 2bbe e72c 873e dacd 9fbe
00000110: e268 48be 9e8d f4bd 5bec a63e a39d de3d
00000120: f59b 823e b109 5dbe 6c53 9bbe ad26 c0bd
00000130: d232 e8bd 2950 263d aa9a 44bc f284 303e
00000140: 554e b3bd 4754 ffbd c59e 073e 1bd4 ef3b
00000150: def2 3a3e 725a 0cbe 2cca 963d ecf6 8fbe
00000160: ed14 78be 5ec8 553e 9bbe de3d 66a7 023d
00000170: 30bb 993d 1e2b ae3e cb56 70be 3cf6 30be
00000180: 632d b03e c406 a9bd 2466 60be 8d91 d6be
00000190: bb53 62be 5e52 4e3c 91d3 00bd 6934 1ebe
000001a0: 2a56 46bd 21d9 31be 9992 d5bd eaab a1bd
000001b0: 679b 76be d067 87be 12f3 923e 1d23 593e
000001c0: 02a7 473e 5a61 8fbe 9910 43be fb4e e0bd
000001d0: bfb4 ffbc 698d abbe 4dc3 c9bd 618e 20be
000001e0: c759 0f3e fc38 acbd a986 c5bc b296 24be
000001f0: 5faa a3be e2c2 e4bd 7aee ff3c c83a cd3b
00000200: 90b7 393e 82c6 78be c7ce cb3d 0726 133c
00000210: 9aad 90be 2a87 813e 9f44 9fbc faf6 9dbc
00000220: e2e2 99be 7212 66be 5f56 553c 4787 5abd
00000230: a8ea f73d 3a27 d5be 4669 2b3e 363b 8abe
00000240: f020 2bbe efde 6e3d acbf 8b3e f031 143e
00000250: 2011 753e 6bd7 22be 99bb 8a3d 32a0 ebba
00000260: b3e2 b53d b1de 49bd 97e0 a63e f4f9 91be
00000270: ba1e 1e3e 493b 993e add9 1a3e 6eb5 86be
00000280: cf1c a83e 6a8c a63d fdad 523e b2d5 94be
00000290: 0503 d03d c7f2 6dbd fbf3 0fbe cd96 d13e
000002a0: 9418 5cbd bd42 68bd 7b23 11be 6b4d 35be
000002b0: 747b 7e3e 667f 18be eec6 6ebe 8720 9cbd
000002c0: 38fe 7fbe 1870 c63d afab 5e3e e821 f2bd
000002d0: 5441 303d f2bb 6a3e f78b dd3d 14e8 0bbc
000002e0: b54e 133e e6e8 033e 811e 0e3e dda1 3cbd
000002f0: 9379 8bbd e759 163d 732b 3ebe b6af a4bd
00000300: c116 613e 754e 4b3e 41b3 a7bd c353 393c
00000310: 1aa1 babc b754 e73d 32fc a53d 1d0a 5f3d
00000320: b7b9 21be 8613 e73d 9fa6 e43d 0097 1bbd
00000330: e391 83bd 3cd4 13be 2786 a2be bcaf a3be
00000340: d756 f4bd dc90 c43d 9a97 933e 749e ecbb
00000350: 68e1 5dbe 4e15 dabd ff75 febd 73c3 b23e
00000360: 99c2 f7bc 9569 c7bd 23b1 5b3e 8708 a3bd
00000370: 60ba 91be 4efc 003e 37ab 25be 7d75 c6bd
00000380: 7ece 6ebe 7af0 063e 6817 633e a76c ed3d
00000390: 68d4 7dbe fc0a e2bd 9a0e aabe d98e 4c3e
000003a0: 6a48 bc3d 5d26 4a3e 0717 c23d 8a14 083e
000003b0: 7e60 0bbe 6799 bfbe e3c8 06be 09ac a1be
000003c0: 01ef 753e 68ee 073d 8cf2 10be 3f74 f3bd
000003d0: df1b b53c 1157 20bd 8e10 42bd bf22 ec3d
000003e0: 233c e7bd ce49 343e 8654 8bbc 58d8 93be
000003f0: 865b a4bb 2a26 81be 69ba 83bd 17c4 51be
0.12775366 0.23846148 -0.083862096 0.24254084 -0.1524976 0.03836206 -0.04762742 0.07222096
0.20632079 -0.33540776 0.2064876 0.05242089 0.23328997 0.15128243 0.30169392 -0.059219014
0.3190601 0.01634609 0.0205168 0.12833758 -0.10051562 -0.07003574 -0.20822248 0.24044508
-0.27025065 -0.05068868 -0.04710145 -0.07271728 0.06668401 -0.23005754 0.16780436 -0.31277752
0.16426815 -0.0066843024 -0.20953608 0.14819969 0.120440885 0.33791882 -0.0062905396 -0.08678214
0.14801481 -0.1412933 0.08728412 0.26176265 0.29807976 -0.10750174 0.039179165 0.10227386
0.23969813 -0.21938391 -0.2902322 -0.14218004 -0.09222037 0.37040177 -0.10775671 0.1713634
0.03144232 0.04343627 0.32265136 -0.22432965 0.01325176 -0.14896867 0.16711634 -0.0024638702
0.23179977 -0.16721866 0.26401445 -0.3121174 -0.1957126 -0.11941074 0.326022 0.108699106
0.2550961 -0.21585728 -0.30337083 -0.09382377 -0.11337818 0.04060379 -0.011999765 0.17238215
-0.08755175 -0.124672465 0.1324416 0.007318986 0.18256709 -0.13706377 0.0736278 -0.28118074
-0.24226733 0.20877215 0.10876199 0.031897925 0.07506406 0.3401727 -0.23470609 -0.17281431
0.34409627 -0.082532436 -0.21913964 -0.4190792 -0.22102253 0.01259288 -0.031451765 -0.1544968
-0.048422016 -0.17367984 -0.10428352 -0.07894118 -0.24082719 -0.2644639 0.28701073 0.21204801
0.19497302 -0.2800396 -0.190493 -0.10952564 -0.031214116 -0.33506325 -0.09851704 -0.15679313
0.13999091 -0.084093064 -0.024112063 -0.1607311 -0.3196592 -0.111699834 0.031241644 0.006263111
0.1813643 -0.24294475 0.09951549 0.008981234 -0.28257447 0.25298434 -0.0194419 -0.019282807
-0.3005591 -0.22467974 0.013021081 -0.053351667 0.12105304 -0.4163149 0.16739377 -0.269983
-0.16711783 0.058318075 0.27294672 0.14472175 0.23932314 -0.15902488 0.06774063 -0.0017976819
0.0888113 -0.04928464 0.32593223 -0.28511012 0.15441409 0.29928043 0.15122099 -0.26310295
0.3283448 0.081322506 0.20574184 -0.29069287 0.10156826 -0.05809286 -0.14057915 0.40935364
-0.053734377 -0.05670427 -0.14173691 -0.17705314 0.24851781 -0.14892349 -0.23318073 -0.076233916
-0.2499932 0.09689349 0.2174518 -0.11822873 0.04303105 0.22923258 0.10817712 -0.008539218
0.14385493 0.12881812 0.13878824 -0.046052802 -0.06810298 0.03670683 -0.18571262 -0.08041327
0.21981336 0.19854148 -0.08188487 0.011311474 -0.022781897 0.11295455 0.08104743 0.054453004
-0.15793501 0.11283021 0.11164593 -0.0379858 -0.0642431 -0.1443643 -0.31742975 -0.31970012
-0.11930626 0.09597942 0.288266 -0.0072210375 -0.21668017 -0.10648595 -0.1242485 0.3491474
-0.030244159 -0.09736935 0.21454291 -0.07960611 -0.28462505 0.12596247 -0.16178595 -0.09690378
-0.23320958 0.13177672 0.22176898 0.115929894 -0.24788058 -0.11037251 -0.33214265 0.19976367
0.091934994 0.19741197 0.09477048 0.13289085 -0.13611028 -0.37421724 -0.1316257 -0.31576565
0.24016954 0.033186346 -0.14155024 -0.118874066 0.022108017 -0.039145533 -0.04737907 0.11530065
-0.11290767 0.17606279 -0.017008077 -0.28875995 -0.0050157933 -0.2522443 -0.06432039 -0.20484959

conv1.bias f4 [32]
00000000: f792 383b 227c 113e b2e0 39bd 6a7a 2f3e
00000010: cf9c 06bd be05 01be 2ed9 9b3d a2c4 083e
00000020: 5e75 6b3e 80e1 efbd 3e87 81bd 3b77 183d
00000030: b5fb 1a3e 68bb f53d ba94 483e 215d 4fbd
00000040: 8fda 323e a333 4a3e d4e2 f4bb 50ea 4a3e
00000050: 1ec7 053e 8b19 3c3e 63c8 d5bd 816e e3bc
00000060: 7ef5 3ebd 5fb5 5d3c 276e 513e fc38 bfbd
00000070: 93c9 3f3e 1498 75bd a16e 703e cab0 aa3c
0.002816377 0.14207509 -0.0453803 0.17136541 -0.032864388 -0.12599847 0.07609783 0.1335626
0.22993991 -0.117129326 -0.063246235 0.037223082 0.15135081 0.119986355 0.19587985 -0.050625924
0.17466186 0.1974626 -0.007473329 0.19815946 0.13064238 0.18369119 -0.10438611 -0.027762653
-0.04662084 0.013532012 0.20452176 -0.09337041 0.18729238 -0.059959486 0.23479702 0.020836253

conv2.weight f4 [32, 32, 5, 5]
00000000: 4acf 61bd 6526 bb3a 7347 82bd 146f a93d
00000010: 2a33 aabd 5e2b 583d 7189 ebbc 5dbb 9b39
00000020: e8cd e9bb 4ff9 99bd 9344 42bc 8ad7 6bbd
00000030: f148 063d 83f4 cabd 9fce 093e eb5b 0cbd
00000040: 03fd 863c 8c15 74bd 86c1 6b3c b59b 833c
00000050: 471d 6abd 6c25 443c b4a5 e8bd 7a6d 563c
00000060: 8065 17bd f633 48bb 9eea ab3c b0d5 0e3d
00000070: 4bd1 91bc 5e79 c8bc 7f2e 233c 212f 79bd
00000080: 0daf f33c 5a36 ec39 b849 b13d 01d4 da3c
00000090: f32a 26bd b02a 3dbd e7d9 72bd 2e7a ac3d
000000a0: 9335 5fbd d090 49bd 1993 1dbd 93ef 27bd
000000b0: 6c3b 27bd 112d 103d 4ab9 2c3d ab51 90bd
000000c0: dc65 eeba 397e 9dbd 3930 323c 192f 8f3d
000000d0: a78a be3d 20de cf3c 0980 593d a932 62bd
000000e0: c5c7 ecbd 2d7b 5fbd 3f63 60bd 9a63 15be
000000f0: 505d 5a3d a259 033d f10f 0e3d 429f 4f3c
00000100: a8da 593d 20d8 ce3c e146 84bd 9588 8ebd
00000110: 31fb 433d ce1e 873d 9589 a53d be2c b9bc
00000120: 5866 dabd 789b 4dbc d0fa 3cb9 d146 7b3d
00000130: 2cb9 33bc ab09 d3bc 82e4 213c 3d23 f6bd
00000140: 8283 ef3d 4f59 4d3d ad33 523d f1f5 88bb
00000150: 8b30 7ebb 494b 123d 29c4 ecbc e595 d73a
00000160: ca8e 02bd e4ea 97bd f817 adbc 3b9c 97bb
00000170: da08 583d 6ef3 29bd 844c 8d3d 4916 793d
00000180: 6290 cd3c 64e6 c73c 19a7 f23d d238 1cbd
00000190: b941 93bd 2fe7 9abd 597e 63bd ff61 aebd
000001a0: be6b 583c 74e6 823e 749c be3c a969 343d
000001b0: 70f7 c8bc 9910 bfbd cae2 6d3c a437 e53d
000001c0: 4131 fe3d 6f49 1a3c 67b7 7f3d cec5 00be
000001d0: 411a 833c 8627 6b3d cc75 71bc ea80 3ebd
000001e0: 3399 263e 4362 8f3d 3008 523e f937 923d
000001f0: 1a17 e73b e318 833c 57a0 ff3d 6a05 1dbd
00000200: b403 09bd e62f ae3c a1ea 11bd 886a ea3c
00000210: c7f1 e13b 8fea 9dbd c35e 413c 073c 553d
00000220: d044 363d e48a b43b a3df 023e 532b 79bd
00000230: 574f 0bbd 688c f93d da82 923d c0c3 623c
00000240: 63b0 8fbd 9d80 16bd f546 9e3c 655d 053e
00000250: a563 83bc ea44 283c 6b92 a23d 8b94 903c
00000260: 56a3 d63c 406e 95bd d578 15bd 3569 e13d
00000270: 28d1 cbbc fc99 923d 6c5b 19bd 65c1 bf3c
00000280: af8f 223d aaaa 2cb8 2681 7a3d b967 473d
00000290: 1fd5 253b 2b3f 99bc e775 84bc ed7e f7bd
000002a0: b405 593d 6acc 4abd caa8 613d 0ab8 53bd
000002b0: c53e 533c 39e5 8cbd 2a33 df3d 2760 c1bc
000002c0: 4b5d 7ebd 3bd7 3abc e858 5d3d b3fa 88bd
000002d0: d170 09bd 9259 713d 9231 283d e702 763d
000002e0: 4a6c 12bd 0bce 913c 14df a23c 5783 a8bc
000002f0: 6208 9abd a2ff 813a 2de0 f13c dc33 b0bd
00000300: e1d9 a03d 8325 c0bd 8c89 713d d439 c9bc
00000310: dd79 273d d5f9 bcbd 56ab a0bd 78da febd
00000320: f230 2fbc 336a 38bd 5db1 efbc ac0e 243d
00000330: 6b52 79bd e655 c53c 3a17 f43b 2a05 a63c
00000340: e731 b23c e779 243d caac 64bd ca84 09bd
00000350: 79fb 253d e33f 873b 4890 b73c 0ed4 523d
00000360: 51cc af3c d86b 3b3d 390f 613d 1726 7c3c
00000370: 9f31 103c 6fb6 c93d ea24 7a3d 1d81 be3d
00000380: f05a 3f3d 549f 473d 02a3 90ba 2b51 46bd
00000390: a90a 76bd ad4c 2c3d f0ff a33c 8d80 b53d
000003a0: ff59 49bd 45b3 be3d aafa cfbb b5cc aabd
000003b0: 9750 f2bc b75d 103d ca0b 22bd 702e 35bc
000003c0: 8169 f03d 8456 13bd c732 773c 96c5 403d
000003d0: fa0a 5f3c ce1f 16bd ca03 1d3c f51b 00bb
000003e0: 4290 a93c 62b3 283d 93e1 3b3b 20e3 fcbd
000003f0: 3afa 1cbd b7d9 9dbd b98a 503d 15f5 77bc
-0.055129327 0.001427841 -0.06361284 0.082731396 -0.0831054 0.052775733 -0.02875206 0.000297035
-0.0071351416 -0.07518255 -0.01185717 -0.0575786 0.032784406 -0.09909918 0.13457726 -0.034267347
0.016478067 -0.05959086 0.014389401 0.016065458 -0.057156827 0.011971813 -0.1135973 0.013087625
-0.036962032 -0.003054855 0.020985898 0.034871757 -0.017799994 -0.024471935 0.009959816 -0.06083596
0.029746557 0.00045053923 0.08656639 0.02671242 -0.040568303 -0.046183288 -0.05928984 0.084217414
-0.05449445 -0.04921037 -0.03847036 -0.04099996 -0.040828153 0.03519923 0.042168893 -0.07046827
-0.0018188315 -0.07690091 0.010875755 0.06991405 0.093037896 0.025374472 0.05310062 -0.055224095
-0.115615405 -0.05456083 -0.05478215 -0.14588776 0.053311646 0.032067902 0.03468317 0.012672247
0.053187042 0.02524954 -0.064588316 -0.06959645 0.047846977 0.065976724 0.08082882 -0.022604343
-0.10664052 -0.012549274 -0.00018022512 0.061346833 -0.010969441 -0.025761446 0.009881141 -0.1201844
0.11695005 0.050134 0.051318813 -0.004179709 -0.0038786258 0.03571633 -0.02890213 0.001644787
-0.031874456 -0.07417849 -0.021129593 -0.0046267784 0.052742817 -0.04149192 0.0689936 0.06081227
0.025093261 0.024401851 0.118482776 -0.038140126 -0.0719027 -0.07563626 -0.055540416 -0.08514785
0.0132092815 0.25566447 0.023267962 0.044046078 -0.02453205 -0.093293376 0.014519403 0.11192253
0.12411738 0.009416922 0.062430765 -0.12575457 0.01600373 0.05741074 -0.014737558 -0.04650966
0.16269378 0.07001164 0.20510936 0.07139582 0.0070523145 0.016003078 0.12481754 -0.03833524
-0.033450797 0.021263074 -0.03562415 0.028615251 0.006895277 -0.07710754 0.011802378 0.0520592
0.04449922 0.005509721 0.12780623 -0.060832333 -0.03401121 0.121849835 0.07153864 0.013840616
-0.07016065 -0.03674375 0.019320944 0.13023908 -0.016038725 0.010270337 0.07938083 0.017648956
0.026200932 -0.07296419 -0.036492188 0.11006395 -0.024880007 0.071582764 -0.037440702 0.023407647
0.03968781 -4.116694e-05 0.06115832 0.048682902 0.0025304032 -0.018706879 -0.016169501 -0.12084756
0.052983955 -0.04951135 0.05509261 -0.051689185 0.012893383 -0.06879658 0.10898431 -0.02360542
-0.06210069 -0.011403854 0.054039866 -0.06688442 -0.033554856 0.05892331 0.0410629 0.06006136
-0.035747804 0.017798444 0.019881763 -0.02057044 -0.0752113 0.0009918103 0.02952584 -0.086036414
0.07854057 -0.09382155 0.058969066 -0.024563707 0.040887702 -0.09227339 -0.0784518 -0.12444013
-0.010692822 -0.045023154 -0.029259378 0.040053055 -0.060869616 0.024088811 0.007449058 0.020266134
0.02175231 0.040155318 -0.055828847 -0.033573903 0.040523026 0.004127489 0.022407666 0.051471762
0.02145973 0.045757145 0.054946158 0.015389941 0.008800893 0.098492496 0.06107036 0.0930197
0.046717584 0.04873593 -0.0011034908 -0.04841725 -0.06006876 0.04206531 0.020019501 0.0886241
-0.049158093 0.09311537 -0.00634702 -0.08339826 -0.029579444 0.035245623 -0.039562024 -0.011058435
0.11738873 -0.03597118 0.01508779 0.047063433 0.013613457 -0.036651425 0.009583423 -0.0019547914
0.02069867 0.041186698 0.0028668388 -0.12348008 -0.038324572 -0.077075414 0.050913546 -0.015134116

conv2.bias f4 [32]
00000000: cdbd 133c e625 eabb 1d49 0fbd 43fa e33c
00000010: 8e71 4c3d 4fb2 443d 9a5c 113d 9d84 6dbc
00000020: fd7f a23c 4309 98bd ebec b53b 9601 33bd
00000030: fd44 f63c 7f70 083d 2332 dd3c 7654 0b3d
00000040: 341b 64bc cfbc 903c ca88 263d c445 e1bb
00000050: 2d71 febc 4a85 bb3c 5d29 02bd dcc6 81bd
00000060: dc2d bbbb 74f0 083d 8ded a83c 3f1d b23c
00000070: 5c1b 2b3d 251b 5d3c 08e3 f4bb 696c 5abd
0.00901742 -0.007145631 -0.034981836 0.027829295 0.04991298 0.04802161 0.035488702 -0.0144969495
0.01983642 -0.074236415 0.0055519245 -0.043702684 0.030062193 0.03331041 0.027001446 0.034016095
-0.013922501 0.017668156 0.040657796 -0.006874772 -0.031059826 0.022890706 -0.03177773 -0.063367575
-0.005712254 0.03343244 0.020621086 0.021742461 0.04177414 0.013495241 -0.0074733533 -0.053326044

conv3.weight f4 [32, 32, 5, 5]
00000000: 609a 6cba 8fea 183d d30c 95bc 9902 bfbc
00000010: f3b7 4f3c aa91 003d 575f 023c bf37 fbbb
00000020: ef85 09bd c791 58bc bf66 773b 5f85 3c3c
00000030: e01d 0d3d da89 cb3d f288 c8bc 94b8 283c
00000040: 43b2 1d3d d614 9abd 5e4f 223e 3b52 bc3d
00000050: 991e d13d 1d67 25bd 0d3f 0c3e dd7a e8bd
00000060: b557 e83d 7c26 313d 8faa d63c dfa6 d53c
00000070: 484d 253c 6251 883d 3db3 ee3c 4c30 ddba
00000080: f869 b43d 7a2c 323c 280f a53d 685c b6bc
00000090: 9457 e3bc c75f 693d ffab ed3c d28a af3d
000000a0: 5967 39bd a76f 90bd 77d9 b63d 6afc 0cbd
000000b0: 0378 55be 39a5 863b 9f04 3d3d a153 c2bd
000000c0: 6ff1 9e3c 9890 0dbe 9767 8a3d 1dfc 6d3c
000000d0: d259 8bbc af82 5c3c e238 d43b 3b8f d93b
000000e0: 3b7b 36bd dbb0 bc3c 1919 ad3c 061f bd3c
000000f0: 4465 cbbd e0c0 a0bd a78b 42bc a4d4 f23d
00000100: 6a59 853d 756d 98ba 0cf8 2c3d a97b 65bc
00000110: cd0e d6bc 6be1 dabd a6f7 a6bc 14c9 aa3b
00000120: 93da 2fbd 9975 bdbc b586 55bd 02c5 72bd
00000130: d507 423d d795 82bc fa0c 11bd 05b1 e8bd
00000140: 6327 c5bc cefb eabd 8413 793c 3af7 47bc
00000150: 057a 25bc 6c20 7b3d 0fdc 30bc 34ad 6d3d
00000160: 0564 8cbd 48ba 9e3c 5f43 db3d ddf6 37bc
00000170: a3a1 d53c b0ad 293e dc92 2cbd f354 173d
00000180: 70f1 84bc d469 a6bd e51b df3d c35e 8ebc
00000190: c5b7 62bd 0750 23bc e433 88bc 1456 e5bc
000001a0: 595e 29bc 7375 3bbc 603b e43c 7547 08bd
000001b0: 292c 9ebc 4707 1fbc 401f 9cbc 0b6c d1bc
000001c0: da44 5c3d 67ca 063c 6b85 103d 3643 393d
000001d0: 74c5 38ba 05ce 703d 9e7e 1dbb 0361 cc3c
000001e0: c240 76bb cd14 e43c 7748 32bc 7c6f f33d
000001f0: 933d 673c db2a 8ebc e38c 55bd 0d39 1c3d
00000200: 623f 82bc 8033 d5bb f8c7 a6bc 650d c43c
00000210: d7b0 973c 2774 33bb b8f1 edbc 98e2 ee3d
00000220: 4c81 83bd 8f7e 5c3c dedf 093d 3984 003e
00000230: 2fea 79bd ba6a c33d 4786 133e 32a4 10bd
00000240: a8fd 9f3d 3852 a6bd 7048 08bd 635a 9fbd
00000250: d8c6 443d 13f7 a4bd 3278 00bd bd88 513d
00000260: 660a be3b e3c5 a93c 0e22 65bd 50dc 89bd
00000270: cc6b 06bd 82b8 3e3d 18be a83c bb4b 92bc
00000280: 266e 193d 0da5 13bd f63e be3c ad71 3ebc
00000290: d846 a3bd adef e6bc 0608 92ba 5a69 243e
000002a0: 608e e3bc 084b a6bd 4a46 a13d 8c1b bbbd
000002b0: a3ec 033d eb97 4f3d 6f46 28bc dd25 9c3d
000002c0: d17a 913c 5467 273d 7611 1f3d 61b5 9abc
000002d0: 741e 1fbd 752e 31b9 ec3a 783c 244c 853d
000002e0: 70a1 013d d05d 57bd f18e 8f3d a0ec ebbd
000002f0: 6747 b8bc b6dc 4d3d f79f a2bc 9107 b53d
00000300: 6c25 b83d 0bc1 88bd c9c0 003c 4ed4 98bd
00000310: e385 86bd 6275 883d 8641 923c 7e33 c03d
00000320: b47f 3f3c c70a 8a3d eaad 003b 74de dd3d
00000330: 35be 403d 1ce3 94bc 7c9e 9e3a 5e66 23bd
00000340: 93c0 1ebd 30a6 773d eb00 dc3d 6633 373d
00000350: 1229 5f3c 6779 59be 4a0b 323d 3c47 373d
00000360: 547f 73bd 403d 0dbd fd5c 133e f27a 2fbd
00000370: 2c10 b13d 53fd 173c 5c9e 393c 870c cfbc
00000380: 8ccf 443d ccdd 6cbc 31fe 9ebb 7cba d7bc
00000390: 4251 adbc 93df 863d 728f ae3c 5998 bc3c
000003a0: 6cde adbc 09de c5bd 0592 613b 49b9 533c
000003b0: 1066 6bbb f0d8 223c b04f 243e 92ac 24be
000003c0: cdd1 1cbd 5d2c cbbc e29e 223d a8d4 34bd
000003d0: 64d3 3a3c 9745 c5bc b11d 2abe c474 3abd
000003e0: fb58 80be 6206 4e3b 33ee 7bbc 18f2 8e3d
000003f0: 4d26 a5bc cad1 803b 5254 183d 45b2 693d
-0.0009025689 0.037333068 -0.018194592 -0.023316668 0.012678134 0.031388916 0.007957301 -0.0076665576
-0.033574995 -0.01321835 0.003775045 0.0115064075 0.03445232 0.099384025 -0.024479363 0.010297913
0.03850008 -0.075235054 0.15850589 0.09195372 0.10210914 -0.04038154 0.13695927 -0.11351559
0.11344854 0.043249592 0.026204376 0.026080547 0.010089226 0.066561475 0.029138202 -0.0016875356
0.088092744 0.010874862 0.080595315 -0.02226086 -0.027751721 0.056976106 0.029012678 0.085714
-0.045264576 -0.07052546 0.08928197 -0.03442041 -0.20846562 0.0041090515 0.046146985 -0.09488607
0.019402234 -0.1382469 0.067580394 0.0145254405 -0.017010603 0.013458892 0.0064765075 0.006639389
-0.044551115 0.02303355 0.021130132 0.023086082 -0.09931424 -0.07849288 -0.011874116 0.11856964
0.06511195 -0.00116293 0.042228743 -0.014006534 -0.026130104 -0.10687526 -0.02038176 0.0052119587
-0.042933058 -0.023127364 -0.05213042 -0.059269913 0.04737075 -0.01594059 -0.035412766 -0.11361889
-0.024066633 -0.11473809 0.015202407 -0.0122049395 -0.0100998925 0.061310217 -0.010794654 0.058026507
-0.06855015 0.019375935 0.107062094 -0.01122829 0.026078051 0.16570163 -0.042132244 0.03694625
-0.016228408 -0.08125654 0.10893992 -0.01737917 -0.055351038 -0.0099678105 -0.016626306 -0.027995147
-0.010337436 -0.011441576 0.027860343 -0.03327127 -0.019308167 -0.009706325 -0.01905787 -0.025564214
0.0537766 0.008226967 0.035283487 0.045230113 -0.0007048466 0.058790226 -0.0024031769 0.024948603
-0.003757522 0.02784195 -0.010881535 0.11886498 0.0141138015 -0.01735442 -0.052136313 0.038140345
-0.015899364 -0.0065063834 -0.020359024 0.023932168 0.018516941 -0.0027382465 -0.029045925 0.11664313
-0.06421146 0.013457908 0.033660762 0.12550439 -0.06101435 0.09541841 0.14406691 -0.03531284
0.07812053 -0.08121151 -0.033272207 -0.07780912 0.048041195 -0.08054938 -0.031364627 0.051155794
0.0057995794 0.020724243 -0.05594068 -0.067314744 -0.032817647 0.04656268 0.020598456 -0.017858377
0.03745856 -0.036046077 0.023223381 -0.011623782 -0.07972497 -0.028190458 -0.0011141307 0.16055813
-0.02777785 -0.0811978 0.07874735 -0.091361135 0.032208096 0.05068199 -0.010270699 0.07624409
0.017758759 0.040870026 0.03883501 -0.018885316 -0.0388474 -0.00016897342 0.015150767 0.06508663
0.0316481 -0.0525797 0.07009686 -0.11519742 -0.022494985 0.050259314 -0.019851668 0.08839334
0.08991513 -0.06677445 0.007858464 -0.07462369 -0.065685056 0.06663014 0.01785351 0.09384821
0.011688162 0.06740337 0.001963491 0.10833445 0.047056396 -0.0181747 0.0012101675 -0.039892547
-0.03875787 0.060461223 0.107423626 0.04472675 0.013620632 -0.21237718 0.043467797 0.04474567
-0.0594476 -0.03448224 0.14390941 -0.04284186 0.08645663 0.009276706 0.01132926 -0.025274528
0.048049495 -0.014457177 -0.0048520793 -0.02633404 -0.02115691 0.06585612 0.021308634 0.023021864
-0.021224223 -0.096614905 0.003441931 0.012922593 -0.0035918988 0.009939417 0.16046023 -0.16081455
-0.03828602 -0.024801427 0.039702304 -0.044148117 0.0114029385 -0.024081035 -0.16612889 -0.045521513
-0.25067887 0.003143691 -0.015376615 0.069797695 -0.020159865 0.003931259 0.03718979 0.057054777

conv3.bias f4 [32]
00000000: 6321 023d de9c 153d 40bb 49bd d36a 973d
00000010: 1426 89bc dd7d 3ebd 4605 213c 6892 8abc
00000020: 6722 f63b 707b 23bd 393f 66bc 5256 d63c
00000030: 569f 4b3c aee5 f6bb 6d5a bc3a 015a b23c
00000040: 4ddf cc3c 2638 f1ba efad b13c 3941 e93c
00000050: 80e2 79bb 1ef0 32bb 2a38 2cbc aedb 353c
00000060: ddb1 9e3c 468c dabb 0e41 193d 5794 4a3d
00000070: 307f e83c f7fc 783c 2783 debc 5802 193d
0.03177012 0.036526553 -0.04925084 0.07393422 -0.01674179 -0.04650675 0.009827917 -0.016915515
0.0075114253 -0.03991264 -0.014053159 0.026164208 0.012428125 -0.007534704 0.0014370211 0.021771433
0.025008822 -0.0018403574 0.021689383 0.028473483 -0.003812939 -0.0027303766 -0.010511437 0.011099739
0.019371921 -0.006669554 0.037415557 0.049457874 0.02838096 0.01519703 -0.027162148 0.03735575

MLP1.weight f4 [50, 1344]
00000000: 8bd0 c4bd 8055 dc3d 7cba 123d 68c8 d4bc
00000010: c4d8 d2bd 39db acbc fc7d 9cbc fc6c 923b
00000020: 4162 8bbc 1bf6 453d 446c fa3b c55e 0c3e
00000030: f075 46bc d759 07bd 1a9d 163d 3bd4 203d
00000040: 6da6 d3bd 1817 b8bc 264c 17bc d8a4 4b3d
00000050: 7be6 eb3b 3853 bb3d 688d 82bd 12e2 c53c
00000060: 0e56 923d 90a7 723c 8fd8 abbb de46 7a3c
00000070: 3422 0c3d 1497 103d 70a2 42bc 82d6 a9bb
00000080: 70f7 bf3c 3622 b33b 6061 abb9 c02e 5bbd
00000090: 2cbb aa3d e9d7 603c b928 393c 6d06 863c
000000a0: 04a2 29bc d75a 8e3c 93be 043d f423 51bd
000000b0: cec1 e3bc 0295 1d3d 4981 a6bb 6d16 213c
000000c0: f137 8a3c a6a0 9abc 24c6 d43c fd6a 9abc
000000d0: e1da e8bc d3f9 92bd ba42 4e3b b793 fe3c
000000e0: fcfa 7bbc 3cfd 0e3d 730b e23b a574 88bb
000000f0: bc47 5b3d f238 39bd 973c c73c a9aa 00bd
00000100: e73e 733d fbb1 fc3c 34bd 42bd baf7 6d3c
00000110: 1ba5 88bb 2237 f73c 872e a73c 2c74 023d
00000120: 472f 8e3d b018 013d ee85 d4bc 5bee 673d
00000130: 7684 323d 07e2 cdbc 8297 0bbd e5e3 853d
00000140: 0141 5bbd d66a 013d 61cd f4bb 7df5 db3c
00000150: 53d6 9abd d6e5 b3bd b54d 193d 9ab6 d1bc
00000160: f927 1bbd 288c 97bd 4034 153d b379 d4bd
00000170: 16c1 c43c 253f 29bd b8c7 94bd 64b0 cbbc
00000180: 8715 503d c8fc c1bd 5f26 7dbd 19ab d23c
00000190: 70a5 d3bc b216 ec3b 2085 9d3d 21d6 c3bc
000001a0: 404e 7fbd 61eb 753d 8825 223d 0221 5a3c
000001b0: 4620 c6bd 741f ae3c ce18 673d 10c2 a0bc
000001c0: 6476 85bd efac 313d eb39 9abb 5e50 4a3d
000001d0: d76c a1bc ee00 0e3d a435 b0bd 0d40 44be
000001e0: badd c1bd 367e 833d cc1f 5abd 218e cfbd
000001f0: 5611 90bc 4c90 82bd dad6 16bd 88be 53bd
00000200: 4a7f 1cbd f208 e03c d661 33bc 3ed4 573d
00000210: 340d 9abd b92a 9d3d f604 edbb d3b0 4fbd
00000220: 8875 15bc 4a15 9f3c 9e8c b53c d589 683c
00000230: 5cdb d4bc 4396 80bd 1082 cebc aa9c 38bd
00000240: f426 21bd 7fb5 f939 d487 47bd b9bd 4c3c
00000250: c137 343d 0762 9739 72d3 1cbd 41dc 953c
00000260: 8721 3cbd 0787 72bc 6a96 2a3d 852e d8bc
00000270: 99cf 3bbc 4974 93bd e033 5fbd 43e6 54bd
00000280: d5a6 4c3d ecc8 93bd d19b ec3c 0687 05bc
00000290: 026d 503d c943 8abd d7b5 503d 0d22 e1bc
000002a0: 281c 0e3d 7a2f 343d 1f4c 953c 0795 27bc
000002b0: bcc1 81bd 0ab4 3bbc 8fe9 06be 6531 193d
000002c0: 4ce0 713c 579b d4bc a640 c73c 09a0 8b3d
000002d0: 881c febb c100 09bd a96c d7bc 690d 9b3c
000002e0: a8b6 5c3d 8260 06be 64fc a9bd 9890 11bc
000002f0: 22fe c13c d9cf 163d cfb4 de39 8e8c 51bd
00000300: 389f 1c3d 5699 da3c 6095 4abc 69e1 3a3d
00000310: 5239 7b3c cf26 cf3c b45c 8cbd 82a3 d83c
00000320: 37dd 8d3d 92f8 e73c e013 bb3d cda8 c4bc
00000330: cf89 773b 0236 163d ead7 853c 44cd b73d
00000340: dbbc 16bc f016 69bd b254 34bd 2036 ecbc
00000350: b74f 193d 6cdc a3bc a6da a2bc bfcf fe3c
00000360: cdbf d4bd 9ea6 db3c 52bb 91bc 0662 87bc
00000370: a48d 28bc 9ebd 633b 425b 483d 087e 28ba
00000380: 66db b9bd 6ab7 45bd c31f d3bb 9fd1 373d
00000390: 9ac5 8939 74b9 51bb e4cf 5abc 6b2f 52be
000003a0: c2db 763c 8a4d 95bc 51b7 393d 726c 803d
000003b0: 6fdd 173d 3cc3 aebc 3412 09bd ff13 0fbe
000003c0: ef48 21bb e250 463d 3c0d 2d3b df1d 3639
000003d0: 0959 4e3b 47bc 9a3d ce67 213c bec5 1ebe
000003e0: 3929 413d cbb0 603d 954c 833c 45a5 d6bb
000003f0: 09aa 643d 126e 3cbc 32fc 64bd 98d0 163d
-0.09610089 0.10758495 0.035822377 -0.025974467 -0.10295251 -0.021100627 -0.019103043 0.0044685584
-0.017014625 0.048330408 0.007642301 0.13708027 -0.012113079 -0.033044662 0.036770917 0.0392649
-0.103344776 -0.02247195 -0.009234464 0.049717754 0.0071991063 0.09146732 -0.06374627 0.02415565
0.0714532 0.014810458 -0.0052443217 0.015275685 0.034212306 0.03530033 -0.011879548 -0.005183042
0.023433417 0.0054667247 -0.00032688212 -0.05351138 0.083364815 0.013723352 0.011301213 0.016360486
-0.010353569 0.0173773 0.03240831 -0.05105968 -0.027802374 0.038472183 -0.00508133 0.009832007
0.016872378 -0.018875431 0.025973387 -0.018849844 -0.028424682 -0.071765564 0.0031472878 0.031076295
-0.015379664 0.034909472 0.0068983375 -0.0041642957 0.053535208 -0.045220323 0.024320884 -0.031412754
0.05938616 0.030846586 -0.04754372 0.014524395 -0.0041700727 0.030177657 0.020407928 0.03184907
0.06942611 0.031517684 -0.025942769 0.056623798 0.043583356 -0.025132192 -0.034080036 0.06537608
-0.05352879 0.031596027 -0.007470772 0.026850456 -0.0756041 -0.08784072 0.037427623 -0.025599767
-0.037879918 -0.073997796 0.036426783 -0.10374775 0.024017852 -0.041319985 -0.07264656 -0.024864383
0.05080178 -0.09472042 -0.06180417 0.025716351 -0.025835723 0.007204854 0.07691407 -0.023905816
-0.062330484 0.060038928 0.039586574 0.013313534 -0.096741244 0.021255232 0.05642014 -0.019623786
-0.06516722 0.043377813 -0.0047066114 0.04939305 -0.01970522 0.034668855 -0.08603981 -0.19165058
-0.09466119 0.06420557 -0.05325298 -0.10134531 -0.017586391 -0.06375179 -0.036825992 -0.051695377
-0.03820733 0.027348015 -0.010948619 0.052692644 -0.075220495 0.07674164 -0.0072332574 -0.050705742
-0.00912226 0.019419331 0.022161778 0.014193018 -0.025983505 -0.0627866 -0.025208503 -0.04507128
-0.03934379 0.00047628206 -0.04871352 0.012496405 0.043998484 0.00028874 -0.038287587 0.018293502
-0.04593041 -0.014802701 0.041647352 -0.02638937 -0.011463069 -0.07199914 -0.05449283 -0.051977407
0.04996379 -0.07216057 0.028882893 -0.008149868 0.050885208 -0.0675121 0.050954666 -0.027482057
0.03469482 0.04399059 0.018224774 -0.010228402 -0.0633578 -0.011456499 -0.13175033 0.037400622
0.014762949 -0.025952978 0.024322819 0.06817634 -0.007754866 -0.033447985 -0.02629693 0.018927293
0.053885132 -0.13122752 -0.08300093 -0.0088845715 0.02368075 0.036819313 0.00042477853 -0.051159434
0.03823778 0.026684444 -0.012364715 0.045625124 0.01533349 0.02528706 -0.06853619 0.026445154
0.06926959 0.02831677 0.0913465 -0.024006272 0.003777135 0.0366726 0.016338307 0.08974698
-0.0092003 -0.05690664 -0.044026084 -0.028834403 0.037429538 -0.020002566 -0.01987965 0.03110492
-0.103881456 0.026812848 -0.017789517 -0.016526233 -0.010287676 0.0034750472 0.048915155 -0.00064274715
-0.0907505 -0.04827062 -0.0064429953 0.044877645 0.000262779 -0.0032001408 -0.013355229 -0.20525901
0.015067043 -0.01822545 0.04534084 0.06270684 0.03707641 -0.02133333 -0.033464625 -0.13972472
-0.0024610122 0.04841698 0.0026405593 0.00017368 0.0031486175 0.07555442 0.009851409 -0.1550512
0.047158454 0.054856103 0.016027728 -0.0065504634 0.05582622 -0.011500852 -0.055904575 0.036820024

MLP1.bias f4 [50]
00000000: a35e 75bb 6d0d f8bb 2879 9dbc 5731 4f3c
00000010: 9459 413a d3cd 213d a1ba c3bb bf70 dbbc
00000020: 13dd bfbc cbd5 0ebc f925 91bc d813 353c
00000030: 080c c43b 3323 023d 207c 3c3a a603 e4bb
00000040: 4dda 96bb c2e1 f73c c6ce 88bc 8126 47bc
00000050: a51c e93c e07b cebc 676f 373c 5fbd 8abc
00000060: 438c fc3b 9ade 1ebd 3f6d eb3c 59dc e73c
00000070: c0a1 043d e751 053d d4fb 24bd c218 8fbb
00000080: f7f4 fabc 9497 dabb 7ad9 443d 0f9e 43bc
00000090: d751 2ebd 3349 613c f934 a7bc 9759 293d
000000a0: b23f cdbb 7ac8 0bbd b947 b93c 3bb0 2e3d
000000b0: 8ed9 36bd dba0 2f3d d5a8 fbbc acdd 0b3d
000000c0: 31ea 423d 2483 9fbb
-0.003744044 -0.00756996 -0.01922281 0.012646041 0.0007375714 0.03950293 -0.0059731756 -0.02678716
-0.023420846 -0.008717964 -0.017718302 0.011052094 0.0059828795 0.03177185 0.0007190127 -0.0069584427
-0.00460366 0.030259017 -0.01670016 -0.012155176 0.028456042 -0.025205553 0.011195994 -0.016936002
0.00770715 -0.03878651 0.028738616 0.028303312 0.03238082 0.03254881 -0.040279225 -0.004366965
-0.030634386 -0.0066709016 0.048058964 -0.01193954 -0.042558517 0.013750362 -0.020411002 0.041345205
-0.0062636966 -0.034126736 0.022617208 0.042648535 -0.04464107 0.042878013 -0.030720154 0.03414695
0.047586624 -0.004867928

MLP3.weight f4 [50, 50]
00000000: eb91 bfbd c351 483e f1ff cabb 230b 333e
00000010: cf17 753d 3157 083d 7836 2b3e eaf3 a63d
00000020: 601f 693e da50 2f3d 165e edbd cc1a 08be
00000030: dfb6 5d3d e565 27be 95c1 b1bd b399 e0bb
00000040: 4390 a03d b4cc 2bbc 3d31 27be efa8 4cbe
00000050: b7b4 963d c138 14be 5195 193c 0539 27bd
00000060: a763 dd3d 82b0 3bbc ee8f 303d da8c 263c
00000070: 5cc1 fbbc e7f5 c43c a43d 293e 5fbe 18be
00000080: f2cb 723e 3972 bbbd 94bc 8c3d f119 a33d
00000090: 363b a1bd cb1f 97bd fe83 23bd 025f 4dbe
000000a0: 6e35 6e3e 1dd2 6a3d d305 59be 80cd 0f3e
000000b0: 0a44 58be 144e d43d 35a3 8dbd 3247 8fbd
000000c0: 2c70 423e b5b5 e13d dbcb 213d b6f4 653e
000000d0: 3d8c 50bd f97a 00be 0ff8 7d3e 878e 173e
000000e0: 4e34 c3bd 9bde b73c f19a 25be 4d98 ff3d
000000f0: 6de2 41bd 0275 abbd 6d2d 933d 1841 563d
00000100: 5b66 a93b 0866 39be 68cb 283e c210 48be
00000110: 1e85 a4be 9329 20be d96a 4f3d b38a 5c3d
00000120: d8d0 833a cffa 003d f799 b23d d970 f6bd
00000130: 4276 f03c 55e7 803d 55b3 1b3e 4a4a f53d
00000140: dbab b8bd 6833 02be 4e61 903d 4345 e0bd
00000150: db0b babd 4902 573d 023b 11be af24 773e
00000160: 1aeb 4cbd 0a64 0e3e 9da8 8bbe 5e71 263e
00000170: 80ef 073e dda5 883d da43 d73d 502b 77bd
00000180: b7ed 793d 89e9 c13d 8ac7 92bd dc77 093e
00000190: c520 0e3d 98ad 1e3e 9879 87bd ad86 87ba
000001a0: b6c0 f3bd 4cec e93d 33f7 2b3e fc4b 2dbd
000001b0: 3d2f 3bbe c285 0ebe a8b8 bfbd 679c 263e
000001c0: ee37 1e3e aac8 313e 4424 a7bd 7dac 303c
000001d0: 6275 ecbd 6ef9 0a3d 73e6 4c3e 1bdb 103d
000001e0: e6dd 183e 5f19 01be ac17 de3c e906 4ebd
000001f0: b834 813e 0196 413d 0bf1 3fbd 7949 35bc
00000200: 6e0e 7fbd bce0 6a3d 6555 ca3e b8db 9f3d
00000210: df27 df3c bf11 203e 978f 4fbd 5899 20bd
00000220: 9db8 213e 3868 0dbe 8f70 a3bd 3577 8c3d
00000230: a475 d13e d389 adbd de5b 2bbc 5c05 653e
00000240: 0304 c1bd 3fb3 fb3d d0ec ec3d 8018 9dbd
00000250: 225f 3a3e bbd9 e6bc e3a0 75bd 3c63 afbc
00000260: c0fd 0e3d db10 d93d c49a bcbd 9aac 44bd
00000270: cdaf 993c e813 bfbd f21a ca3d 5eb0 0d3e
00000280: 59d3 093e 26ac 8bbe 42f1 143e a775 6dbd
00000290: dcad be3e 1013 48bb 97f9 8cbe 36a5 80bd
000002a0: 9468 983d 95b4 38be 8d3e 80be 6712 49bd
000002b0: 668d 26be 2207 a83e 8a7f 9a3b 9507 8c3e
000002c0: 543d 7a3e 70b8 dfbb aed1 3bbe d598 863d
000002d0: 8f08 683d 69d2 a33d 5b86 85be 1808 99bd
000002e0: 4f30 88bd 8d27 013e 33fc 38be 0a94 a83d
000002f0: c0ca 093d b08f d0bd edb8 3a3e 96c6 113e
00000300: 7fb8 943e d113 13bd ae5e b03e 388a 9fbd
00000310: 109d ad3e c8a1 913c caf3 c5bd 3941 8e3d
00000320: 0b10 5c3e 6798 acbd f103 033c c977 583e
00000330: 6ecd d3bc 579e 9e3d cfd3 05bc 5799 473b
00000340: 10f7 113e c3ef d5bd 64b1 76be cf29 44bd
00000350: 2a70 e93d 0a03 253d df16 2bbe 49c0 1cbe
00000360: c466 c4bd 3fb5 2d3e 4d25 183e c04c 743d
00000370: 58a8 0a3d 5e89 983e 3c6d 62bb 3990 ecbd
00000380: f97d 4d3e ace6 cdbd 02c4 103e f87b 5b3e
00000390: 5889 e43d 51d3 2ebd 1e2d 2e3d 860d 113e
000003a0: bbdc 73be ee60 6bbd 12d9 acbd 4b6a cdba
000003b0: 3fac 673e e750 6e3d 2b33 96bb 52eb 283c
000003c0: 63d1 dbbc 89c7 d03d 5c22 c9bd 591a b9bd
000003d0: cab4 783e 6e9c bd3d 9257 25be a546 2c3d
000003e0: f930 3d3d af63 88bc faa1 e63c 81f8 373e
000003f0: 89b5 2fbc 7817 803d bf44 75bd a042 213e
-0.093540035 0.1956244 -0.0061950614 0.17484717 0.05983716 0.033286277 0.16719997 0.08151992
0.22765875 0.042801715 -0.11590211 -0.13291472 0.054129478 -0.16347463 -0.08679501 -0.00685426
0.07840016 -0.010485817 -0.16327377 -0.19986318 0.07358687 -0.14474775 0.009373979 -0.040825862
0.10810023 -0.011455657 0.043106012 0.010165418 -0.03073185 0.024043037 0.1652742 -0.14916371
0.23710611 -0.091526456 0.06871906 0.07963932 -0.07872622 -0.07379111 -0.0399208 -0.20055774
0.2326257 0.057329286 -0.21193628 0.14043236 -0.21119705 0.10366455 -0.06915895 -0.06996001
0.18988103 0.11020986 0.039501052 0.22456631 -0.05091499 -0.1254691 0.24801658 0.14800464
-0.09531461 0.022445014 -0.16172387 0.12480221 -0.047335077 -0.08371927 0.07186399 0.052308172
0.0051696724 -0.18105328 0.16483843 -0.19537643 -0.3213281 -0.1564086 0.050639007 0.05384321
0.0010056747 0.03148919 0.08720773 -0.12033243 0.029353265 0.06294123 0.15205128 0.1197706
-0.09017154 -0.12714922 0.070498094 -0.109507106 -0.090842925 0.052492414 -0.14182666 0.24135087
-0.050028898 0.1390535 -0.2727708 0.16254184 0.13274956 0.06672261 0.105109885 -0.06034404
0.06101772 0.094683714 -0.07166965 0.13424629 0.03469922 0.15495908 -0.06614989 -0.0010339819
-0.11901991 0.11422023 0.16793518 -0.042308792 -0.18279739 -0.13918212 -0.09361392 0.162706
0.15451023 0.17361704 -0.08161214 0.010783312 -0.115458265 0.03392928 0.20009784 0.035365205
0.14928398 -0.12607335 0.027110897 -0.05029956 0.25235534 0.047262195 -0.046860736 -0.0110648805
-0.06226962 0.05734323 0.39518276 0.0780558 0.027240692 0.1563177 -0.050674047 -0.03920874
0.1579308 -0.13809288 -0.07980453 0.068586744 0.40910065 -0.084735535 -0.010458915 0.22365326
-0.09424593 0.12290048 0.11568606 -0.07670689 0.18200353 -0.028179994 -0.059967887 -0.021409623
0.034909964 0.10598918 -0.09209207 -0.04801617 0.018760586 -0.09329969 0.09868421 0.1383681
0.13459529 -0.27279776 0.14545158 -0.05797353 0.3724202 -0.003052894 -0.27534172 -0.062815115
0.07441822 -0.18037637 -0.25047722 -0.049089815 -0.16264877 0.32817942 0.004714911 0.27349535
0.24437457 -0.0068274066 -0.18341705 0.06572119 0.056648787 0.07999117 -0.26079068 -0.07472247
-0.06649839 0.12612744 -0.18064956 0.08231361 0.033640623 -0.10183656 0.18234606 0.14235911
0.2904701 -0.03590757 0.34447235 -0.07790035 0.33908892 0.017777339 -0.0966564 0.06946034
0.21490495 -0.08427506 0.007996545 0.21139444 -0.025854792 0.07745045 -0.008168175 0.0030456388
0.14254403 -0.104461215 -0.24091107 -0.047891434 0.11398347 0.0402861 -0.16707943 -0.15307726
-0.095899135 0.16963671 0.14857979 0.059643507 0.03385195 0.29792303 -0.0034549972 -0.11550946
0.20067586 -0.10053763 0.14137271 0.21434009 0.11159009 -0.042681996 0.042523496 0.14165315
-0.2381467 -0.057465486 -0.084398404 -0.0015671937 0.226243 0.058182623 -0.0045837364 0.010310011
-0.026833242 0.10194308 -0.09821007 -0.090382285 0.24287716 0.09258352 -0.16146687 0.04205956
0.046189282 -0.016649095 0.028153408 0.1796589 -0.010724434 0.06254476 -0.059880015 0.15748072

MLP3.bias f4 [50]
00000000: 937c 96bd 6522 2f3d b16d 873d fe2a e73d
00000010: a03f eb3d d6a5 e83d 5e23 b93c 1b26 a23d
00000020: fef2 353e 3de3 693d 7f24 2c3d c359 83bc
00000030: c820 ac3d 3257 9b3b 78fb 693d 4c5a 183d
00000040: 81eb 543d ba78 643d cd5b f33d 13fb e7bc
00000050: ee89 32bc a4d3 85bc 138f 883c 4236 723c
00000060: 6ecb 093d a83b 063e 13e6 053e 8c7c 95bd
00000070: 3670 8c3d 9644 1b3e a5c7 1a3c 6548 aeba
00000080: 9dfb a639 553f 17be c736 313d 82bc f2bd
00000090: ea2b d53d 2405 02be 237c afbc 549e 79bd
000000a0: 18e1 7bbd 34a1 013e 3ece 293e c2f2 8c3d
000000b0: f9b8 b63c d2b2 8e3d 3f74 343d c068 ea3d
000000c0: 89eb 9bbd 0fd0 c63a
-0.073479794 0.04275741 0.06612719 0.11287497 0.11486745 0.11359756 0.022599872 0.07917424
0.17768475 0.057101477 0.042026993 -0.016034013 0.0840469 0.004740619 0.057124585 0.03719549
0.051982407 0.055779196 0.11882744 -0.028317964 -0.010897143 -0.01633627 0.016669786 0.014783444
0.03364127 0.13108695 0.13076048 -0.07299146 0.0685734 0.15162882 0.009447013 -0.0013296722
0.00031849454 -0.14770253 0.04326513 -0.11852361 0.104087666 -0.12697273 -0.021421498 -0.06094201
-0.061493963 0.1265915 0.16582581 0.0688224 0.022304999 0.06967701 0.044056173 0.11445761
-0.07613284 0.0015168207

MLP4.weight f4 [7, 50]
00000000: d6c4 f23d cfd8 9d3e 6089 b33b 21cd 1abe
00000010: faa7 71be dadc 55bd 0f06 a3bd 9f97 553e
00000020: ff3f 01be 1cc4 d5bd e379 06bd df0c 12be
00000030: 0ec7 8abe c388 a83e 580e 3abe 1476 acbd
00000040: 897a 833e 6fbd 3e3e 71d3 4abe b5e6 773e
00000050: 22b7 d8bd 3b38 013e 32c1 1ebe d49f 6ebd
00000060: fc30 3e3d 239c ce3e 0ee3 5f3e e38d 10be
00000070: 369f eb3d ac91 153e 4abf 793d 496d 8bbd
00000080: 2840 44bc 5360 17be 43d1 ac3d 34e5 b8be
00000090: 09ff a9be 93a8 7cbe 79c1 dbbe bcdb cc3d
000000a0: 7396 583e 24f8 093e a370 8d3d 17e2 ec3d
000000b0: 1e70 cc3d 6dc6 c6bc 9278 913d 1185 1d3d
000000c0: 2d28 97bc 5692 c0be f209 c13c a8ae 97bb
000000d0: f3ff 963d eb34 13bf 41ab 173e 650f 513e
000000e0: d99b b53d 1683 8bbd 270a 223e e57b 2b3e
000000f0: 0465 e93d fa69 45be 5112 bbbe 5d3c a13c
00000100: f736 c4be 3572 ac3e 88e7 8c3e 1376 403e
00000110: f5ea 9cbd 4c41 013b 4057 903d 0620 0e3e
00000120: 05e8 b5be 1d9b 9fbd 9c3d 42bd 37a9 9a3e
00000130: aff4 dcbd 3bf7 1ebe 16e4 283e 3347 7d3d
00000140: 2dea 37bd ce40 81be 02d9 ba3e 5fa2 9c3d
00000150: 36dc 063e 2920 dcbe 0d6f dd3d 249c 583e
00000160: 7182 2a3e f55a 2a3e 8069 95bc e79a 343d
00000170: d583 7bbe 247d 7e3e 971c b4bd f114 7a3d
00000180: a8aa 7c3e f9e8 38be 0a6d f2be 3a71 bebe
00000190: 489d 523e 6cf5 993d ad87 743d 0174 443e
000001a0: 1c0f 5a3e bad1 01bd c2d4 72be b1f0 28be
000001b0: eee4 533e c2cc 59be e0d6 6e3e 290d fabe
000001c0: fa5c c2bd 1019 b13d 11fb babe 0088 b63c
000001d0: 6a5a 2f3e 8836 21bd 7e4c fd3e 0bd8 093e
000001e0: fcca 1dbe 22ea 8fbe 475f 09be c03f 03be
000001f0: 4b97 593e 0a10 9d3e ba91 b73d d9b6 253e
00000200: f1ea 06be 2cab 213e c82d 1abe 0f33 13bf
00000210: 0ea9 b0bd d00d 8dbe 3beb 573d 3064 79be
00000220: 3806 f93d 2491 583e 3134 2cbe c7f0 433e
00000230: d9d6 a73d b3c4 eabc 4983 193e 9d92 543e
00000240: 280c 453b 4580 88be 7079 4b3d f4cf 853e
00000250: d26e 403e 2c18 cdbe 37a0 7c3e 78dd 0dbe
00000260: 9999 e63d d64a 77be 2f63 c6bb 28cd 303e
00000270: 5ab6 3cbf c0c9 5b3c 6b3d 8c3d 1c36 bc3d
00000280: 20e6 2abf 63d1 8e3e 736a 2d3e 37cc 923c
00000290: 2465 7ebe 4657 f0bd 7c58 0c3e 5ca0 623e
000002a0: f437 bdbc 9b81 493e 9a95 823e 00cf fbbe
000002b0: 25fc b5be afdd 873e bfe1 be3d 474c 61be
000002c0: c4e9 103e 5cf7 8bbd c0c6 933b cf01 843d
000002d0: d67e 16be 8e93 b0be 432a 803e 0ae9 843d
000002e0: 13a9 3e3e f5b1 6c3e 9530 5ebe 642d 6d3d
000002f0: 2588 d8be 94b6 a93d 6cdf 10bf 5a6c 233e
00000300: 58c0 51be c8c2 043e 6365 93bd 2a41 c43c
00000310: ec8e a1bd 9af6 16be ef1d f2bd 6c33 adbd
00000320: 9d1a d7bd e207 98be 1ab0 c23d 26eb 383e
00000330: eb59 433d a9d1 363e ff02 1dbe 3e07 413e
00000340: a623 243e b400 5ebe 4296 b83e 12ba 1c3e
00000350: 7bd4 debe 18fe a5bc 2d90 95be c5cd 253e
00000360: b4cc e73d e533 bdbd fccf a9be 78df d73d
00000370: cb48 bb3d 2a0d 87be 16ea ac3e 0fe1 483e
00000380: 7d3e 3b3d be17 553e 0ceb 3a3e 3416 6a3e
00000390: 5140 ff3d 7489 4b3e 9f37 2a3e 9207 ba3d
000003a0: 0764 91be d3d0 efbe 604c 383e b117 0dbf
000003b0: faf2 c3be 3dd5 f5be 1395 d83c d01a 0a3e
000003c0: 61d8 463e ad8c 4e3c cdcf 58be 7840 c9bd
000003d0: a8eb e9bc 55f8 33be 0d23 483e d0da 753d
000003e0: e491 47be 4685 3e3d 08b0 6abe d007 43bc
000003f0: 9919 6ebe efb0 a3bd a054 143e 2b61 85bd
0.1185395 0.30829474 0.005479023 -0.15117313 -0.23599234 -0.052212574 -0.0796014 0.2085862
-0.12622069 -0.104377955 -0.032831084 -0.14262722 -0.27104992 0.3291684 -0.18169534 -0.08420959
0.25679424 0.1862695 -0.19807221 0.24209101 -0.10581805 0.12619106 -0.15503386 -0.058257893
0.046433434 0.40353498 0.21863958 -0.14116625 0.115049765 0.1460635 0.060973443 -0.06807954
-0.011978187 -0.14782839 0.08438351 -0.36112368 -0.3320239 -0.24673681 -0.42921045 0.100028485
0.21151142 0.13473564 0.069062494 0.11566561 0.09982322 -0.024264539 0.07103075 0.03845698
-0.018451774 -0.37611645 0.023564313 -0.004628975 0.07373037 -0.5750262 0.14811422 0.20416029
0.08867616 -0.06812112 0.15824185 0.16746481 0.1139622 -0.19278708 -0.36537412 0.019682104
-0.38323185 0.33680883 0.27520394 0.18795042 -0.07662002 0.0019722758 0.070478916 0.13879403
-0.3552858 -0.077932574 -0.047422037 0.30207226 -0.10788857 -0.15523998 0.16493258 0.06183548
-0.04490106 -0.25244755 0.3649369 0.07648157 0.13169941 -0.42993286 0.10812197 0.21153313
0.16651322 0.1663626 -0.018238783 0.04409304 -0.24562009 0.24852425 -0.087945156 0.061055128
0.24674475 -0.18057622 -0.47348815 -0.3719576 0.2056781 0.07517514 0.059699703 0.19184877
0.21294826 -0.03169415 -0.23713973 -0.16498066 0.20692798 -0.21269515 0.23324156 -0.48838165
-0.0949039 0.086473584 -0.36519673 0.022281647 0.17124334 -0.039358646 0.4947242 0.1346132
-0.15409464 -0.28108317 -0.13415252 -0.12817287 0.2124912 0.306763 0.08963342 0.16183032
-0.1317556 0.15787953 -0.15056527 -0.57499784 -0.086259946 -0.275496 0.052714568 -0.24354625
0.12159389 0.21149117 -0.16816784 0.19134818 0.08195276 -0.028658247 0.14991488 0.20759054
0.003006706 -0.26660362 0.04967636 0.26135218 0.18792275 -0.40057504 0.24670492 -0.13854015
0.11259765 -0.24149641 -0.006054304 0.17265761 -0.73715746 0.0134148 0.06847652 0.09190008
-0.6675739 0.27894124 0.16935138 0.017919643 -0.2484327 -0.11735396 0.13705629 0.22131485
-0.02309797 0.19678347 0.25504762 -0.49181366 -0.35543934 0.2653632 0.093204014 -0.22001754
0.14151675 -0.068342894 0.004509777 0.064456575 -0.14696822 -0.34487575 0.25032243 0.06489761
0.18619184 0.2311476 -0.2169822 0.057904616 -0.4229137 0.08286777 -0.56590915 0.15959302
-0.2048353 0.12964928 -0.07197072 0.023956854 -0.07888588 -0.14742509 -0.11822116 -0.084570736
-0.10503123 -0.29693514 0.09506245 0.18058452 0.047693174 0.17853417 -0.15333174 0.18850419
0.16029224 -0.21679956 0.36052138 0.15305355 -0.43521485 -0.020262763 -0.2921156 0.16191776
0.11318341 -0.09238414 -0.33166492 0.1054067 0.091447435 -0.2637723 0.33772343 0.19617103
0.04571389 0.20809838 0.18253726 0.22860032 0.12463439 0.19876653 0.1662278 0.09083475
-0.28396627 -0.46839008 0.17997885 -0.55114275 -0.38271314 -0.4801425 0.026438272 0.1348679
0.1941848 0.012606782 -0.2117302 -0.098267496 -0.028554752 -0.175752 0.19544621 0.06002313
-0.19489247 0.04651382 -0.22918713 -0.011903718 -0.23251952 -0.07992732 0.14485407 -0.06512674

MLP4.bias f4 [7]
00000000: a49b afbd 7bff e63d 87c6 533d ad96 ad3b
00000010: 186e 0a3d c35a 833d 5fd4 023e
-0.08574608 0.11279198 0.051703002 0.005297503 0.0337964 0.06413796 0.12776326
