DQN/final_dqn_against_negaMaxMix/DQN_AgainstNegaMax_Epochs0_player2.pth (torch, 493435 bytes, 12 tensors)

conv1.weight f4 [32, 1, 5, 5]
00000000: 146f 0e3b 6b1b 893d b686 46bd c79f 04bd
00000010: 3be7 263e ac3f 9f3c e8e8 843c 2a3e 72be
00000020: b3b0 b43e 838d a93e 62f6 f5bd 53d0 4e3e
00000030: c101 0fbe 1581 443e ad96 8e3c b15e abbe
00000040: fe0a be3b 754b 28be cd85 2d3e 3862 193e
00000050: 4f71 05bd 27b0 903e 647f 303e b95b edbd
00000060: 3973 81be 58b5 71bd b8cf 263e 3085 65ba
00000070: adde b3be e2c5 33be e4c1 d73b 8603 af3e
00000080: 2fb8 0f3d 7b44 57be aa7a 91be f563 e93b
00000090: 4b90 a2be fe9e 153d 94b1 203e 8d38 63be
000000a0: 0862 c2bd e04a d4bd d495 f6bd 7546 ab3d
000000b0: b2f9 1ebd cf7b 773c cafc a63e d7e3 13be
000000c0: 7a63 993d 8534 f7bd b2ce 93bc faaf c23e
000000d0: 0b76 08be e8f2 4fbd 57b8 63be 1856 d5bd
000000e0: 9c0d b83e 3628 8abe 0463 85be 2978 553e
000000f0: 8d90 4b3e a49c f13d 6e29 713e 8dd1 683e
00000100: e50f 5a3c 6deb 023e 3501 083d 767c 93be
00000110: 4d66 ecbd a55d 5dbe 98ee 633e dcfa 3dbe
00000120: 0cf6 c43d 4585 9dbe 0791 38be 4ae0 16be
00000130: 4ec2 b9be ffa4 33be 939d 59be 2bf4 503e
00000140: ea20 f23b dbe0 8fbd b96c c63e e062 9ebe
00000150: 1079 4bbe 14e7 813d af61 0cbe 83ec a93c
00000160: 2ac0 55be 519c ee3d c6d6 1ebe 4430 93be
00000170: 05d9 f43c 774c a03e 8ba2 dfbd e4eb 113e
00000180: 33c0 77be f9bd e43d 71ac 72be 64fb df3d
00000190: 8fb1 da3c 7911 2dbe eeed c43e c8e5 60be
000001a0: c079 10be 0970 003e acdd f9bc b04d 963e
000001b0: 296e 1f3e 0d9c 8f3d c27a 40be 1a84 9bba
000001c0: 15ee 363a fe31 baba a7c7 473e d372 913d
000001d0: 5ccf 033e 77c5 293e 1aff 28be 1e4b b4be
000001e0: a7bb 683e 3306 783d b74a bb3d eb0e 193c
000001f0: 9460 b03e 01f1 1e3e a38b 513e ebcf 8b3e
00000200: f4aa da3d d0cd 74be a33c 413e 8789 8a3e
00000210: cbd1 483e 7154 4ebe c662 ab3d fc81 28bd
00000220: 3780 3f3d 7267 5fbe e998 2c3e e90d 99be
00000230: 64de 7d3e 12d0 9b3e d187 313e 6382 2c3e
00000240: c9cc 10be e873 b5be cffd c03d 9ec8 68bd
00000250: 473b 403e 6bec 7c3e 99a3 d3bd 4ba1 c63d
00000260: 7409 443e c0e5 a3bd 2d9f 0e3e 997c 1f3e
00000270: 11eb 9c3e f5bf c73d 9dc4 883e e573 9cbc
00000280: 6357 d83d 2235 08bf c9c7 103b e989 88bd
00000290: f3df 433e 6d9f 85be d54d 98be db01 b53d
000002a0: 15e8 74be 0ed0 193e b815 1abe 683d a1ba
000002b0: f097 543e c126 8bbe fc02 533e 5b1c 05be
000002c0: 92ff 4c3e d4b9 1dbc 79a2 973e 9f49 953d
000002d0: d8ab 223e 607d b23e 900c 3cbe bd05 a13e
000002e0: 6ce7 2fbe aa25 2e3d 4027 ee3d 525c 5fbe
000002f0: 99af 323e 9cc7 ccbe 03a6 423e ed10 b63e
00000300: 5bb7 c13e f0fd 34ba a6d2 0b3d 8358 7b3e
00000310: 7963 413d 45bf dcbd 01de 09be ecb7 473e
00000320: c0d1 70be f75f 953e 4d58 963e 043d 48be
00000330: 465b 0fbe 34bb 933e 1033 693e d36e 42bd
00000340: 9b30 733e 4469 08bd 01cf 50be 67d5 9fbb
00000350: 82cd d53e 8af2 0f3e e380 a2be 41ce 9b39
00000360: d6fb a8ba 4f4d 6f3e 0629 5c3e 83ff c73e
00000370: bcf2 a1bd 12f9 18be 9a82 293e ffcc 24be
00000380: daa3 92be 845b c83c 0864 403e 26f3 7bbe
00000390: c587 11be 8b12 25be 99ab b23e 20b9 b6bc
000003a0: aa11 3e3e ad9b ec3d 061e b83c fa96 083e
000003b0: 6ffe fdbd 168e 0f3e 624b 3abe 8ed5 04be
000003c0: 4065 563e 970a eb3d b9fe 2b3e 47b4 0bbe
000003d0: 0a53 35bd 164c bf3e ff08 84be 6564 a8bd
000003e0: 53ae 6fbd 4f6d cc3d 7dc4 91bd 4ad9 75be
000003f0: 7fcd 4abe 782f 803d edd5 75bc 40a5 453e
0.0021733688 0.06694683 -0.048468314 -0.032378938 0.16299145 0.01943954 0.01622434 -0.23656526
0.3529106 0.33115777 -0.120098844 0.20196657 -0.13965513 0.19189866 0.017405832 -0.3347068
0.00579965 -0.16435035 0.16945572 0.14978874 -0.032578763 0.28259394 0.17236096 -0.1158976
-0.2528322 -0.059010834 0.16290176 -0.0008755503 -0.35130826 -0.17555955 0.006584393 0.34182376
0.03508776 -0.21022217 -0.28413898 0.0071225115 -0.31750712 0.03652858 0.1569274 -0.22189541
-0.09491354 -0.10365844 -0.12040296 0.08363048 -0.038812347 0.015105202 0.32614738 -0.14442383
0.07489677 -0.12070564 -0.018042896 0.38024884 -0.1332628 -0.050768763 -0.22238289 -0.10416812
0.35947883 -0.26983804 -0.26052105 0.20846619 0.1987936 0.11797455 0.2355096 0.22736187
0.013309454 0.1278512 0.033204276 -0.28805894 -0.1154295 -0.21617754 0.22258985 -0.18552727
0.09617242 -0.3076574 -0.18024074 -0.14733997 -0.36281055 -0.1754341 -0.21251516 0.20405643
0.0073891776 -0.0702531 0.38754824 -0.3093481 -0.198704 0.06342903 -0.13709138 0.02074266
-0.20874086 0.11650909 -0.15511617 -0.2874776 0.02988864 0.31308338 -0.109196745 0.14250141
-0.24194412 0.11169047 -0.23698594 0.10936621 0.026695995 -0.16901197 0.38462776 -0.21962655
-0.14108944 0.12542738 -0.03050121 0.29356146 0.15569367 0.07012186 -0.18796828 -0.0011864931
0.0006978226 -0.0014205573 0.19509755 0.07101979 0.1287207 0.16579233 -0.16503564 -0.3521356
0.22727834 0.060552787 0.0914511 0.009341936 0.34448683 0.15521623 0.20463423 0.27307066
0.10677138 -0.23906636 0.18870787 0.2705805 0.1961128 -0.201494 0.08368449 -0.041139588
0.046753135 -0.21816805 0.16855206 -0.29893425 0.24791867 0.30432183 0.17336966 0.16846614
-0.1414062 -0.35439992 0.0942341 -0.05683195 0.18772613 0.24699561 -0.10333938 0.09698733
0.19144231 -0.08002806 0.13927908 0.15574874 0.3064809 0.0975341 0.26712504 -0.019098232
0.10563543 -0.53206074 0.0022091737 -0.06666929 0.19128399 -0.26098195 -0.2974688 0.088382445
-0.23916657 0.15020773 -0.15047348 -0.0012301626 0.20761085 -0.27178004 0.20606607 -0.12999098
0.20019367 -0.009626824 0.29616144 0.07289433 0.15885866 0.3486128 -0.18364167 0.3144969
-0.17178124 0.042516388 0.1162858 -0.21812561 0.17449798 -0.3999604 0.19008641 0.35559788
0.37835202 -0.0006904295 0.034136437 0.24545483 0.047214005 -0.10778669 -0.13463594 0.19503754
-0.23517513 0.29174778 0.29364243 -0.19554526 -0.13999662 0.28853762 0.22773385 -0.04746897
0.2374901 -0.033303514 -0.20391466 -0.0048777345 0.41758353 0.14057365 -0.31738958 0.00029717575
-0.0012892436 0.23369335 0.21500024 0.39062127 -0.07907626 -0.14938763 0.16553727 -0.16093825
-0.28640634 0.0244577 0.18788159 -0.24604473 -0.14211948 -0.16120355 0.34896544 -0.022305071
0.18561426 0.1155313 0.022475254 0.13338843 -0.12402045 0.14019045 -0.18192819 -0.1297209
0.20937061 0.11476629 0.16796388 -0.13642989 -0.044268645 0.37362736 -0.25788113 -0.08222274
-0.058515858 0.099817865 -0.07117555 -0.2400867 -0.19804953 0.06259054 -0.015004617 0.19301319

conv1.bias f4 [32]
00000000: 9f03 833d 0369 6c3e 41b9 5ebd d62e 8a3e
00000010: f464 333e bde0 7f3d bb4b 6c3d d4c0 313e
00000020: 4d97 aa3d 50d4 f0bd e226 b73b 36eb 783d
00000030: ec5a 5d3e 7136 113e 8e9b 29bd 2e71 0dbe
00000040: 5b4c 813d 9fd9 863e 7a50 723d 5ed7 473e
00000050: 860f 34bd fd52 bbbd b082 993e 0ca7 adbd
00000060: 9919 afbd 34a7 3b3e bf5b 93bd 1874 323e
00000070: 8e7b 283e ed91 be3d 064a f13d affb 643e
0.06397175 0.23086934 -0.05437589 0.26988858 0.1751898 0.062470187 0.05768941 0.17358714
0.083296396 -0.117592454 0.005589352 0.06077119 0.21616715 0.14180924 -0.041408114 -0.13812706
0.06313392 0.26337907 0.05915878 0.1951575 -0.043960117 -0.09146688 0.2998252 -0.08479127
-0.08549804 0.18325502 -0.071952336 0.17427099 0.16453382 0.09305177 0.11781697 0.22361635

conv2.weight f4 [32, 32, 5, 5]
00000000: f4f2 d9bb a4c1 bebc 8b4a 3b3d 920e 2a3d
00000010: 5a0b 9f3c 9206 8e3a b884 b43d ea10 e63d
00000020: 69c0 3fbc 48a4 9ebd cb31 6abb 7c57 15bd
00000030: 31f4 68bd 4d20 8c3d ec06 6abc 015d 523d
00000040: d2b6 a13d c4e7 4ebc 22af 8fbd 1e61 b5bc
00000050: 3da6 9c3d 9f8f 49b8 5fc8 33bd fd81 0c3d
00000060: 5091 e7bd 0e49 8e3d dc3d a63c f351 9c3b
00000070: c3cd 46bb 432a 953c b374 c7bc e60f 5e3d
00000080: 876b 3b3c ed50 9a3c 000e 883d 223f 833d
00000090: f718 8f3d 83ca 403d f618 1a3c f371 013e
000000a0: 47d3 943c 9775 03bd c041 36bd dcc8 a13c
000000b0: 0fe5 193e 5ded 193c b00f 1fbc c5aa 8d3d
000000c0: 2dad 97bc 8506 7e3d e4a3 823c ede9 223c
000000d0: 4a32 7cbc 505a aabd 1063 233c 2190 87bd
000000e0: eff9 2dbc b9f4 313d dd8d 8cbd e481 aebc
000000f0: 4df0 c3bd 9703 2dbd dcaf 75bd 9626 0c3d
00000100: f945 32bd a2cf 883c 08f0 a8bd 87b3 2dbe
00000110: e02f 12bd e434 243c 218d 9abd a82c c7bd
00000120: 7cb4 b53c 8a4a 1b3e 45b9 0f3d 8dfd db3d
00000130: 609e 593d d3e4 a4bd 831a a2bd 8c49 9b3d
00000140: 7d4d 3d3d 5e72 a13d cc62 c33d 1ea0 fabd
00000150: 1f81 caba 4b3b b93d 8f8c e13c 9731 3dbc
00000160: 7488 94bd 9b4c 473d 9b07 a7bd ec1c 3bbc
00000170: 5f73 603d 2eca 72bd d76b 18bd 7e10 2d3d
00000180: 111b 203d 70d6 563d ef4d 94bc 7d29 653c
00000190: 8aef 82bb 89ad 923d 749f 0ebe e996 13bd
000001a0: 83a6 763d 9dc2 1bbd 5f8f 19bd abf4 5e3d
000001b0: 50ee 9a3d a58c 033e 4e48 a3bd e701 e13d
000001c0: b025 ee3c e870 123d 5054 d0ba 9260 3fbd
000001d0: 141c 353d 9d83 d73d 78cc 033d e852 b73d
000001e0: 4b64 ddbb a72b fa3a bc45 6a3c b152 a5bd
000001f0: e1d6 863d ce85 273c 3ff7 903d a40b 93bd
00000200: 4c28 1f3c 9a6f d8bd 7a59 5fbd b36b 343d
00000210: 555a c7bd a2b3 02bd f7d3 943d ef00 15bd
00000220: 0572 073e 0524 9ebd c10e d9bc 40f1 cebc
00000230: 063c 793c 412c 1cbc 8aea 42bd e1c3 b33b
00000240: df71 4b3d ab8b 73bd b750 75bd be41 373c
00000250: 36af 043d 348b 603d f25b 89bd 632d d1bd
00000260: b0cc 8a3d 2a65 6b3c a1d7 013d 3f82 f03b
00000270: 06ba cc3c fad4 a33d 69a5 503c 312c 83bc
00000280: abfd cc3c 55c5 593b d9c6 633d bf59 a5bd
00000290: 8167 12bd eb63 29bd a628 e2bd 6e41 eabb
000002a0: 6714 2d3d a7d7 93bd 459a 4c3d bda5 99bc
000002b0: 8b29 c33c b0bb 7abc 329d 45bd 7558 cc3d
000002c0: 955f 41bd d661 2cbd c384 96bd d1d8 19bd
000002d0: 153f cf3c cec0 bcbd 70fb d6bc 3847 f53d
000002e0: 480d f8bc 2784 073d 6ad7 da3d 028a 2fbd
000002f0: 0bc1 d13d 0a81 0f3d a06d ebbc fbf9 81ba
00000300: 38b6 5bbd 572e d73d ddb1 96bc 3d8c 043c
00000310: 2768 7cbd 3d2c 873d f3b1 ac3d 5464 38bb
00000320: 8c50 aebd 431f 61bd 750e e3bc f32e b3bd
00000330: a377 0c3d d787 4eb9 05c3 9d3d e657 afbd
00000340: 4366 4bbe 5199 823d 607e f9bd 1e78 4e3c
00000350: e96d 25bd e625 fbbd a560 04bd a833 b4bd
00000360: 6136 403e 5646 27bd 2266 a1bd a0c0 593d
00000370: 7964 6dbd 1367 c33b 5b1e b33d 9753 6cbd
00000380: 8283 1ebd b2c1 193d 4df2 f83c 3d77 a03d
00000390: f6d1 05be 42ea a3bc c0c4 253d 420e c5bd
000003a0: 65f8 80bb 6fc0 cc3d 451d 11bd aee1 903d
000003b0: b8ff f23c 8ec7 d43c bb13 0dbe a848 1b3d
000003c0: c967 15bd 876d dbbc a2bf b839 2e08 8f3d
000003d0: 0561 e43c 4f0b 153c 26a0 7a3d deba cebd
000003e0: 0f5b 083d a33e 51bc 77b4 9e3c 2f63 9e3d
000003f0: 66b0 7fbd 5e29 79bc d316 0abc 7cf0 563d
-0.0066512767 -0.023285694 0.045725387 0.0415178 0.019414593 0.0010835698 0.088143766 0.11233695
-0.011703589 -0.07746178 -0.0035735245 -0.036460385 -0.056873504 0.068420984 -0.014283877 0.051358227
0.07896198 -0.012628499 -0.07015826 -0.022141036 0.07648895 -4.8055892e-05 -0.04389226 0.034303654
-0.11307013 0.06947528 0.020293169 0.0047705113 -0.0030335046 0.018208629 -0.024347639 0.05421438
0.011439211 0.018837417 0.06643295 0.06408526 0.069871835 0.04706813 0.009405365 0.12641124
0.018167151 -0.032094564 -0.044496298 0.019749098 0.15028785 0.009394971 -0.00970833 0.06917337
-0.018515194 0.062017936 0.01594729 0.009943468 -0.015392849 -0.08318007 0.009972349 -0.06619287
-0.010618671 0.043446276 -0.06862996 -0.021302171 -0.09567318 -0.04223975 -0.059982166 0.034216486
-0.043523762 0.01670057 -0.08248907 -0.16963015 -0.03569019 0.010022376 -0.075464495 -0.097253144
0.022180788 0.15165153 0.035088796 0.1074172 0.053129554 -0.08051457 -0.07915213 0.07582387
0.046216477 0.07883142 0.095403284 -0.12237571 -0.0015449858 0.09044512 0.027532844 -0.011547468
-0.07252589 0.04865704 -0.081557475 -0.01142047 0.054797526 -0.059274845 -0.03721222 0.042252056
0.039088313 0.052450597 -0.018103568 0.013986942 -0.0039958404 0.071620055 -0.13928014 -0.03603259
0.06021739 -0.038027395 -0.037490245 0.054432552 0.07564986 0.1284662 -0.079727754 0.10986691
0.029070705 0.035752207 -0.0015894268 -0.046722956 0.04421623 0.1052315 0.03217742 0.0895136
-0.0067563406 0.0019086496 0.0142988525 -0.08072413 0.06583954 0.010224773 0.070784084 -0.07179955
0.009714197 -0.10568161 -0.05452869 0.044048022 -0.09734026 -0.031909592 0.072669916 -0.036377843
0.13227089 -0.07721714 -0.026496293 -0.025261521 0.015212065 -0.009532035 -0.047586955 0.005485997
0.049669143 -0.05945937 -0.05989143 0.011185108 0.032393657 0.054820254 -0.0670699 -0.10213735
0.06777322 0.014367381 0.03169978 0.0073397453 0.024991047 0.079996064 0.012734749 -0.016012283
0.025023302 0.0033229191 0.055609558 -0.08073758 -0.03574324 -0.041355055 -0.11042909 -0.007148913
0.042255785 -0.07218867 0.04995181 -0.018755788 0.02382352 -0.015303537 -0.048245616 0.09977809
-0.047210295 -0.04208549 -0.07349541 -0.037560288 0.025298635 -0.09216462 -0.026242942 0.119764745
-0.03027977 0.033085015 0.10685618 -0.042856224 0.10241898 0.03503517 -0.028738797 -0.0009916419
-0.053640574 0.105068855 -0.018395359 0.008090076 -0.061622765 0.06600235 0.084323786 -0.0028135972
-0.08511457 -0.054961454 -0.027716855 -0.08749189 0.034293782 -0.00019696295 0.07703213 -0.08561687
-0.19863228 0.06376899 -0.12182307 0.01260188 -0.04038802 -0.12263088 -0.03231873 -0.08798915
0.18770744 -0.040838562 -0.078808084 0.053162217 -0.057957146 0.005963215 0.08746024 -0.057696905
-0.038699634 0.037538238 0.030388976 0.07835243 -0.13068375 -0.020009164 0.04047084 -0.0962186
-0.003935861 0.09997641 -0.035428304 0.07074295 0.029662952 0.025974061 -0.13777058 0.037911087
-0.03647593 -0.026785625 0.00035237992 0.06983982 0.027878294 0.009096934 0.061187886 -0.10094236
0.033289965 -0.012771281 0.019373162 0.077337615 -0.062424086 -0.015207617 -0.008428293 0.052475438

conv2.bias f4 [32]
00000000: dcc9 163d aa3b 633d 90c8 003d 674c 323d
00000010: da79 413d 5ea1 8a3d e544 aabb e57a a63d
00000020: beeb 5d3d dd69 09bd 50a7 033d 64a3 17bd
00000030: 5576 da3b 819e c73d 9051 ad3d b703 833d
00000040: c548 483d c7fe 1f3d 1d8b dd3c c61e 09bd
00000050: a78d a93b fa02 253d 222a 7d3d 11a7 1e3d
00000060: d262 e6bb 63a4 363d 3d04 fa3c 6cf0 d5bc
00000070: e0de 64bd ae50 2cbd 4ebc 343d f023 a73c
0.0368136 0.055476822 0.03144127 0.043529894 0.047235347 0.067690596 -0.005196201 0.08128909
0.0541799 -0.033548225 0.032141984 -0.037021056 0.0066669383 0.09747029 0.084628224 0.06397193
0.048897523 0.039061334 0.027043873 -0.033476613 0.005174357 0.04028604 0.06180776 0.038733546
-0.0070308233 0.044590365 0.0305196 -0.026115619 -0.055876613 -0.04206913 0.044124894 0.020402879

conv3.weight f4 [32, 32, 5, 5]
00000000: 09a6 3dbd 4e92 2c3d 1e12 343d 1522 18bc
00000010: eac9 c1bd 6bce cdbd 78bc 793c 26a9 45bd
00000020: 5faa cc3c 04d7 6bbd 933b cc3d 5b92 4f3d
00000030: 1e2c 883d 1d95 d73c 4153 53bd 946d f33c
00000040: c0f7 bd3d ca72 14bc 0358 04bc dfb9 40bd
00000050: 308c de3c 1891 433d ff09 343d d919 41bc
00000060: 7cb8 82bc 633c 5f3c e8d6 bfbd b662 c5bc
00000070: bae0 36bd ee0a 4fbd c492 02bc d8e7 3b3c
00000080: 2fa4 00bd 82e5 9bbd 01f3 cf3d 40c8 2e3d
00000090: c8a0 373c 426e 7cbd 7000 71bd c156 fb3d
000000a0: 1f38 17bd 3baf a2bc 70d7 27bd 804b e53d
000000b0: 0920 1f3e 478d a5bd b9d5 013e c4bb b53d
000000c0: fccc 293c a61f 983d 23de 08be e4f6 413c
000000d0: 6574 79bd 54a9 633d d87b a93d 5a04 77bd
000000e0: 6a31 4f3d 13a0 423c 7058 ab3c 6383 1f3d
000000f0: a18d 0e3c fddd 923c bbba 323d 50a3 a63d
00000100: a194 773d 3895 743d 5a25 ca3d fd81 c33d
00000110: 1316 083d e92c 0ebd 5b6f aa3d 3adf a83d
00000120: 13a5 7c3d 5ef0 33bd b733 78bb 65f9 ea3d
00000130: 2486 273c ab6f 083e 784a f6bb 7f38 9a3d
00000140: e687 eebb 532c 153e b9a9 233d 2c89 16bb
00000150: b7f2 b5bb 43db 45bd bb52 483d 0788 ec3c
00000160: 6aa0 1ebd 1fa1 15bd 37fd a63d 7e36 0ebb
00000170: 509b 82bc a433 28bd d9e3 a1bd 6457 c6bd
00000180: f048 b1bd e35e 49be b8c3 eabd 9eac 893c
00000190: b005 8ebd 6bb8 7e3d bf74 363d 991d bc3d
000001a0: 6393 d43d c018 47bd 7517 e73d 7826 a73d
000001b0: 6397 863d 00fc 0b3d 9ce0 833d f907 583d
000001c0: 8856 bb3d 891c 5c3d 8b59 623c 753b 04bd
000001d0: 77dc 5fbc 7b87 3d3c 55eb 7cbc c864 e0bd
000001e0: 21ee 573d 3301 e6bd eadc aabd bf03 bbbd
000001f0: 0a01 bbbd b297 863d d265 c5bc af9f ca3d
00000200: f5af a83c e68b 8e3c c8eb 593d 3b49 c83d
00000210: ba4a c5bd 41b4 b4bd 4174 9a3d f188 173b
00000220: af85 46bd 9d0c c9bc c3e6 86bd c467 873b
00000230: 57c9 303a c8a5 d2bb 0902 9abd 0bc2 90bd
00000240: d2f6 22bd c22b adbd 383e 66bb 3037 4ebd
00000250: 6f52 debd 3f75 b63d 7f45 d43c 6398 95bb
00000260: b1ab 0ebd 7a25 4fbc 8a5d 603d d827 32bd
00000270: c5fc 65bc 6f3f cbbd ecaf afbd 6d01 05bc
00000280: 0039 a23d 3e50 4abe fd35 cf3c ba39 893c
00000290: 398a 31bd b5ed e2bd bb3e a43d 6aa8 71bd
000002a0: 4fa1 0fbe 942b 09bd 9a5b d0bc 52da 1bbc
000002b0: b933 04bd 55a5 92bc 977d 813d 8dce 293b
000002c0: 7a6a 053d 70ee 8f3d 781c ff3d ecda c13b
000002d0: 8381 1a3d 3196 af3d 3da6 693d e143 083d
000002e0: bf5c 5d3d e243 fdbb 8232 0439 ceef 7f3d
000002f0: 6650 b23d 33cd 5e3d 7156 c0bc f188 553d
00000300: e62d 383d 5deb a83c 17ce 04be 1c0b 273d
00000310: 27a6 97bd 5ccc 46bd afd8 bebd 28c9 17be
00000320: 4023 c93d 4c9f 20bc 5425 5fbd 3e4c dd3c
00000330: a4f5 c1bc ca12 8c3c 27e1 cbbc 05e0 873c
00000340: 3a0d 443b a6d2 003c 6b75 0abe 6e50 31bd
00000350: 610e c3bc 4f3d d237 4c9b 9f3d fdea ab3c
00000360: b5f9 abbc 8703 a83b 3561 043e f210 eb3d
00000370: 7fef bf3d 4136 b73d ed9a bb3d 4c2d d63c
00000380: 3ab1 803d 28e1 abbc 24b9 773c 1271 d9bc
00000390: 959c 5fb8 2a3a 943c 5d61 67bd 711c 8fbd
000003a0: 3910 17bd af8a 6abc 04bb 3c3d f798 83bd
000003b0: bd9d 21bd 1a9e 42bd 7df3 543d 2542 063e
000003c0: c4da d13c 4238 343c ea33 d83b bf6a 173d
000003d0: 03f8 9cbd 3a91 66bc f32c e93d 6d93 433d
000003e0: 5b9f cf3d 7490 193c c246 0e3e 7612 34bc
000003f0: 7e56 2a3d 0ba6 043d 6465 413d d00f 06bc
-0.04630092 0.042131715 0.04396259 -0.00928547 -0.0946234 -0.10049137 0.015242688 -0.048257016
0.024983583 -0.0575781 0.099723004 0.050676685 0.0664904 0.02631622 -0.05159307 0.029715337
0.0927577 -0.009060571 -0.008077624 -0.04705226 0.027166456 0.047745794 0.043954846 -0.011785948
-0.01595711 0.013625237 -0.09367162 -0.02409492 -0.04464791 -0.050547533 -0.007969562 0.01146885
-0.031406578 -0.076121345 0.10153771 0.042671442 0.011207767 -0.061628588 -0.058838308 0.12272406
-0.036918756 -0.019858947 -0.04097694 0.11196041 0.15539564 -0.08083587 0.12679185 0.08873704
0.0103638135 0.074279115 -0.13365988 0.0118386485 -0.060902018 0.055581406 0.082755744 -0.060306884
0.050584234 0.011878985 0.020916194 0.03894366 0.008700759 0.017928118 0.04363511 0.08136618
0.060444478 0.05971262 0.098704055 0.09546278 0.033224177 -0.0347108 0.083220206 0.08245702
0.061680865 -0.043930404 -0.0037872621 0.114733495 0.010224853 0.13323848 -0.0075162016 0.07530307
-0.007279384 0.1456769 0.039956782 -0.0022969944 -0.0055526155 -0.048304807 0.048907023 0.028873457
-0.0387272 -0.03653061 0.08153766 -0.002169996 -0.0159432 -0.041064873 -0.079047866 -0.09684637
-0.0865649 -0.19665103 -0.11463112 0.016805943 -0.069346786 0.062187593 0.04454493 0.09185333
0.10379674 -0.048607588 0.11283771 0.08161634 0.065718435 0.034175873 0.06439325 0.05274198
0.09147364 0.05373815 0.013815294 -0.032283265 -0.013663403 0.011567946 -0.015436967 -0.109567225
0.05271733 -0.112306975 -0.08342917 -0.09131574 -0.091310576 0.06571902 -0.024096403 0.098937385
0.020591715 0.017400693 0.053203374 0.097795926 -0.096333936 -0.08823443 0.07541705 0.0023122395
-0.048467334 -0.024542147 -0.06586983 0.004132243 0.0006743869 -0.006428454 -0.075199194 -0.07068261
-0.039786167 -0.08455612 -0.00351323 -0.0503456 -0.10855567 0.08909082 0.025912045 -0.004565285
-0.034831706 -0.012643212 0.054776706 -0.04349503 -0.014037316 -0.099242084 -0.08578476 -0.008118016
0.07921028 -0.19757172 0.025294298 0.016751159 -0.04334471 -0.11080495 0.080197774 -0.058998503
-0.14026378 -0.033488825 -0.025434304 -0.009512501 -0.03227589 -0.017901102 0.063227825 0.0025910467
0.032572247 0.070279 0.12456602 0.00591599 0.03772117 0.085735686 0.057043303 0.03326786
0.054043528 -0.0077290395 0.00012607317 0.062484555 0.08706741 0.054394912 -0.023478718 0.05213255
0.044965647 0.020620042 -0.12969242 0.04078208 -0.07404738 -0.048534736 -0.09318673 -0.14822829
0.098211765 -0.009803604 -0.05447896 0.027013894 -0.0236767 0.017098803 -0.024887634 0.016586313
0.002991511 0.0078627225 -0.13521354 -0.043289594 -0.023810567 2.50625e-05 0.077932924 0.020986075
-0.020993093 0.0051273736 0.12927707 0.114778414 0.09371852 0.08945895 0.09160409 0.026144646
0.06283803 -0.020981386 0.015119825 -0.026543174 -5.331317e-05 0.018094141 -0.056489337 -0.06987847
-0.036880706 -0.014315291 0.04607679 -0.0642566 -0.03945707 -0.04751406 0.05199002 0.1311117
0.02561701 0.010999741 0.0065979855 0.036967035 -0.07664492 -0.014072711 0.113855265 0.047748018
0.101378165 0.009372819 0.1389418 -0.01099073 0.04158639 0.032384913 0.047215834 -0.008182481

conv3.bias f4 [32]
00000000: 91c2 d43c b62f 423d 6a38 94bd cfcc be3b
00000010: 87c9 92bc 38e0 e63d cb50 4f3a fa3c 8ebd
00000020: ad1a 53bc 13d6 9d3c 4835 44bc e70a 9cbc
00000030: 8e7c 963c 634c 403d 2ff4 923d d207 303d
00000040: 9d99 1a3d ba72 083d dc05 b0bc 3901 9a3c
00000050: 4ee2 103d 97d0 ffbc 1f6f a73d 779e 673d
00000060: 2140 163d d6ff 4c3c e100 293d 4976 75bd
00000070: 30d6 06bb 019c a63c e97a 8e3c 0080 c9bc
0.025971683 0.047408782 -0.07237323 0.005822755 -0.017918361 0.11273235 0.00079084624 -0.06945224
-0.012884778 0.019267118 -0.011975594 -0.019048167 0.01836994 0.046947848 0.071754806 0.042976208
0.037744153 0.033312537 -0.021487169 0.018799411 0.03537207 -0.031227393 0.081754915 0.05654761
0.03668225 0.012512168 0.041260604 -0.05992726 -0.0020574443 0.02033806 0.017392593 -0.024597168

MLP1.weight f4 [50, 1344]
00000000: aa6b af3b 31e9 ce3c 330c 2f3d 895c e03d
00000010: 0892 473d e682 203d a773 563d ca95 5fbd
00000020: 7949 60bd 003b 103e c48f 1f3d d8b3 5ebd
00000030: f4a1 ef3b 7845 4abd c6be 343c 3bd0 15bb
00000040: 1db7 a63d b143 15bd 5007 19be 4cb4 18bd
00000050: 7668 4fbd 203d a8bc 8a2d 51bd b6ae 973d
00000060: 6a88 84bd 6743 ecbc 0d3f 903c f97c 13bd
00000070: 5953 02bc 2e58 4eb9 99d5 4e3c 4082 48bd
00000080: 22ad 8d3c c3c7 753d eaba d7bc 9b5f 50bd
00000090: 9c83 14bd 26f7 293d 75b6 33bc a31a 013d
000000a0: 37f4 a03d bddd c33c 0c4c dd3c c73f 783d
000000b0: 8b0d 9cbc f2e6 5d3c be20 fa3b 298d f4bc
000000c0: 95f6 fbbc b125 16bd a75c ac3c 3846 ccbd
000000d0: 0c75 40bd cbd3 a2bc 99a9 15bd b891 673d
000000e0: 660c 393d b5e8 5b3d d8af 44bd b62e 24bd
000000f0: d8b6 b83c cef8 b6bd 2843 20bd 00b3 04bd
00000100: 9ea2 7ebc 47c9 8a3c 5637 a73d e45a 0cbd
00000110: 753f 493d de50 6f3d 031f e23d 5484 d73c
00000120: 209d 12bd 34c7 eb3d be1f 90bd c25a 053d
00000130: 9bfc 59bc a3c0 14bd 287d 56bd ccb7 76bd
00000140: e928 013d 29de dabc 652f eb3d 1e81 da3d
00000150: 6a68 123e 6c59 e5bd 828a bdbd f7fa 1b3c
00000160: 1256 1f3c 5936 2c3d 6fb9 623b 524e 9b3d
00000170: 9e05 363c 86de fb3c 6fbe e23d 9d42 f83c
00000180: 4ef9 013d 4dbd 613d 6c71 2d3d 3553 d0bc
00000190: 98b7 943d b559 8c3d edd5 3a3d 24dd cb3d
000001a0: 82f7 60bc 6033 243d d7a1 82bd bf85 fe3c
000001b0: 3d17 a7bb 5522 5bbd e308 11bd 4967 bb3c
000001c0: 9815 b23d 9575 553c 9c92 5f3d 1e90 f7bc
000001d0: df12 e53c 101d 3c3d b029 3fbc 8f1b 7f3d
000001e0: ff52 9bbd 3b68 0abd d6ce 23bd a61a 79bd
000001f0: 9fcc 0abd e188 06be c489 d93d 5fdc 01ba
00000200: 441b 15be fc60 9b3c 8f6c 2d3d e018 37bc
00000210: 96a1 7dbd c733 86b9 451a 203d 847a a63d
00000220: 7a7e ebbc bf12 01bb 6a2b 353d b567 363d
00000230: 6932 393d 778a a83c 58c1 233c 2de7 313d
00000240: e9b6 193d 75cf 733c edf5 733c 9fcc 8bbc
00000250: 3f97 a93d 18f2 d6bc 7844 a33d 0a3b 26bd
00000260: 637e eebb 3c16 2cbd 5f96 c0bc 2c66 d43b
00000270: b6a0 32bd bc0f 573b d1c4 653d 6faa bb3d
00000280: 972a 77bd bd01 413c 5ff7 edbb 2976 eebc
00000290: 8bd3 05bd 995e 3dbd 9cbb c93b fecd febd
000002a0: 9301 d83d ed9e 553c 1004 20bd 6ffe a5bd
000002b0: 59e1 a13c a66a 29bd 8d11 c83a d84c e03d
000002c0: f981 593d 1d57 e73c fd5b 003e fdc3 6cbc
000002d0: b3c2 243d 04f1 b03a 99cb edbc 4dfe 6e3d
000002e0: 3d1b 73bd f550 18bc cded a7bb 40a7 193d
000002f0: 853f 57bc c98d 573c ef00 8ebc 1073 d93c
00000300: e47c 6d3d 4b67 833d afdf 833d 381a 36bd
00000310: 4cad 39bd 0e8f 78bd 8911 073b 6fb2 1c3b
00000320: 2b95 bfbd 34b5 50bc 79c9 86bd 4607 2dbd
00000330: 96c3 0f3d 6c28 90bd 07dc f0bd 94ef 5fbd
00000340: 7580 ae3c 4b35 4fbd 1954 31bb dd12 abbd
00000350: aa7d 9ebd 0b1d 0dbe 74f3 363d f9e2 743d
00000360: e860 7cbd 9247 2cbc 97bb 3d3d 3927 f83c
00000370: 5071 b03c ceef 68bb c9ab e03c 1fc7 36bd
00000380: ea10 f63c f21f 2cbd 86f2 873d 8db3 d7bc
00000390: 7d01 6a3d 30b1 80bb b050 5b3d 3f34 793d
000003a0: 9ab0 be3d 8a75 173d ab4f 453d e254 0b3d
000003b0: 03f4 fdbb 8c7c 3bbd a81f b3bb a18e e93d
000003c0: 6af5 b9bc ced8 833d c943 f2bb b4d5 f2bd
000003d0: 12e6 e13c 345e 70bc 2fd7 253d 88a7 4e3c
000003e0: 4b30 4bbd defe fd3c 301c 61bd c296 793c
000003f0: 1e77 253a e7a0 4e3d 06de 17bd 0c28 a3bc
0.0053534107 0.025257679 0.042736243 0.1095515 0.04872325 0.039187334 0.05235639 -0.05458621
-0.05475757 0.14085007 0.038955465 -0.05437073 0.0073130075 -0.049382657 0.011031812 -0.002285971
0.08140395 -0.03644151 -0.14944196 -0.03728132 -0.05063673 -0.02053696 -0.05106882 0.0740637
-0.064713314 -0.028840734 0.01760819 -0.036007855 -0.007954442 -0.0001967854 0.012624168 -0.04895234
0.01729447 0.06000496 -0.026334245 -0.050872426 -0.036258325 0.041495465 -0.010968794 0.031519543
0.0785908 0.023909444 0.027013801 0.060607698 -0.019049427 0.013543831 0.0076332977 -0.029852467
-0.030757228 -0.03665704 0.021040274 -0.09974331 -0.046986625 -0.019876381 -0.036538694 0.056535453
0.04517784 0.053688724 -0.04801926 -0.04008361 0.022548124 -0.089341745 -0.039126545 -0.03239727
-0.015541701 0.01694168 0.08164851 -0.034266368 0.049132783 0.05842673 0.11041071 0.026308216
-0.035794377 0.11512604 -0.07037304 0.032557257 -0.013304855 -0.036316525 -0.052365452 -0.060233876
0.031533156 -0.026717262 0.11483649 0.106691584 0.14297643 -0.111986965 -0.09254934 0.009520284
0.009725111 0.042044017 0.003459539 0.07583298 0.011109738 0.030745756 0.110714786 0.030305201
0.031731896 0.055112172 0.042344496 -0.025430301 0.0726158 0.06853048 0.04561417 0.099542886
-0.013730885 0.040088058 -0.06378525 0.031069634 -0.0050992058 -0.05349954 -0.035408866 0.022876399
0.08695525 0.013028522 0.054583177 -0.030220088 0.0279631 0.045926154 -0.011667654 0.06228214
-0.075841896 -0.03379081 -0.039992176 -0.06081643 -0.033886548 -0.13138153 0.1062198 -0.00049537973
-0.14561182 0.018967144 0.042339858 -0.011175364 -0.06192168 -0.0002559705 0.039087553 0.08128837
-0.028746832 -0.0019695011 0.044230856 0.044532496 0.04521409 0.020573838 0.009994827 0.043433357
0.037527952 0.014881005 0.014890176 -0.017065344 0.08280801 -0.026238486 0.07972044 -0.040583648
-0.00727825 -0.04201339 -0.023509203 0.0064819064 -0.043610297 0.0032815775 0.056095902 0.09163367
-0.06034335 0.0117802 -0.007262155 -0.029109078 -0.032672446 -0.046232793 0.006156398 -0.12441634
0.10547175 0.013038379 -0.039066374 -0.0810517 0.019760774 -0.041361474 0.001526402 0.10952157
0.053102467 0.028239781 0.1253509 -0.014451024 0.040224742 0.0013499563 -0.029027747 0.05834799
-0.05935215 -0.009296645 -0.0051247836 0.037513018 -0.013137703 0.013156363 -0.01733443 0.026544124
0.057980433 0.06416186 0.06439149 -0.044458598 -0.045331284 -0.060683303 0.0020609817 0.0023910066
-0.093546234 -0.012738515 -0.065813966 -0.042243265 0.035098635 -0.0703896 -0.11760717 -0.05467184
0.021301487 -0.050587934 -0.0027058183 -0.08353207 -0.07738812 -0.1378061 0.04466577 0.05978677
-0.061615855 -0.010515111 0.046321478 0.03029214 0.021538407 -0.0035543325 0.027425664 -0.04462349
0.030037362 -0.042022653 0.066380545 -0.026330734 0.057130326 -0.0039273724 0.053543746 0.06084084
0.09311028 0.03697733 0.04817168 0.034016497 -0.0077500357 -0.045773074 -0.00546642 0.114041574
-0.02270003 0.064378366 -0.0073933345 -0.11857167 0.027575526 -0.014670897 0.04048842 0.012613185
-0.049606603 0.03100532 -0.054958522 0.015233697 0.00063120003 0.050446417 -0.037076972 -0.019916557

MLP1.bias f4 [50]
00000000: 119f 8d3c 2423 053d 0494 95bb 3f82 c73c
00000010: 9cb0 953c f989 4e3b 35e9 783c 803c 4abc
00000020: 9de4 0abc b879 653d 261b 96bc fbb0 14bb
00000030: 3914 52bc d4fb c9bc 6f68 d9bc c96b 193c
00000040: fc24 1b3d 67ac c93c 6693 70bb 0340 d43c
00000050: dbfc af3c eeec 80bb 5b89 b9bc 4047 53bc
00000060: 8f55 7bbd 7d46 2e3d 6016 f139 9eac fbbc
00000070: 0380 d0bc 445a 06bc e68a 7ebc 4504 62bd
00000080: 694a 363c 4e62 053d a974 4b3d 3b88 bb3c
00000090: f253 aebc 9772 6fbd ccb5 02bd f647 8ebc
000000a0: 2943 6a3c 0c28 ac3c 478f d7bb d758 133d
000000b0: c90a 48bd cbc8 b4bc d2f9 4dbb 985c 933b
000000c0: 13cf 5abc fac3 493d
0.017287763 0.032504216 -0.004564764 0.024354098 0.01827269 0.0031515344 0.01519232 -0.012343526
-0.008477357 0.056024283 -0.018323492 -0.0022688496 -0.012822204 -0.024656214 -0.026539056 0.009364077
0.037877068 0.02461834 -0.003670895 0.02590943 0.021482876 -0.003934494 -0.022648504 -0.012895405
-0.061360892 0.04254769 0.00045983773 -0.030721959 -0.025451666 -0.008200232 -0.015536046 -0.055179853
0.011126139 0.032564454 0.049671803 0.022892108 -0.021280263 -0.05845889 -0.031911656 -0.017368298
0.014298239 0.02101519 -0.0065783593 0.035973396 -0.04883841 -0.022068402 -0.0031429422 0.004497122
-0.013355034 0.049259163

MLP3.weight f4 [50, 50]
00000000: 94c0 c23d 6501 153e 296a 603d 1f67 573c
00000010: 4c40 31be eadd a9bd 2106 16bc 0a0b 603e
00000020: 845c 25bb 6004 33be eb96 11be b83c ae3d
00000030: 8f62 d43d 8192 a73d bedc a4bd d85d 48be
00000040: 3ad0 1d3d 4e53 0c3e 2356 f33d 0ed5 38be
00000050: 85a0 a2bd 3cae 7b3d 3d38 2c3e 4c54 ca3d
00000060: 1a5e 23be d54d e1bb 5647 fc3d 3adf f13c
00000070: 97f9 59bc 9efb 97be 2e7e 58ba 39df 4fbe
00000080: d6f0 403e d9b8 9d3d b5c0 3abe 58a8 aebd
00000090: 4270 843e 5e4c 2abc 09f9 8d3d 05f9 90be
000000a0: 0910 8abd fcd6 6d3c 3ab8 68bd 446d 253e
000000b0: 0016 0f3e ae18 4cbd 3379 6bbd 8355 893d
000000c0: a364 c73d 349b ce3d a429 e33c 346f 083e
000000d0: 0e37 663d fe16 8fbd 1b66 003d d3a6 1d3d
000000e0: 1c22 403d 0045 16bd c404 3c3d 19aa 0b3e
000000f0: a7f2 5cbd 152c 0a3e 0bca 5a3e b97f acbd
00000100: a020 0abe 6b79 173d 18a4 adbc 4316 f13d
00000110: e6e5 313d 2040 2e3e e25c 5cbe ee0a 9e3d
00000120: b9e0 e7bd 8b37 88bd 9f3e 27bd 8843 a33d
00000130: 6b92 903e f63e d7bd 8cd8 db3d 4c0a 463c
00000140: 1954 353e d564 dcbe a376 62be 3acd 8bbd
00000150: 50f6 dc3d 4b54 2b3e 8d54 27be 463c ca3d
00000160: 5036 3bbd c196 473e f0af 27be 46e8 e83d
00000170: 7b1e d43c badc e7bc 9213 37be 72dd cdbd
00000180: 5dfa 86be db8d 4c3e 8d8b 103e 3d15 f53c
00000190: 4738 b63d 88ab 483e f6d8 69bd e7ab cc3d
000001a0: f183 b3bd f621 5f3e a380 513e e343 e7bd
000001b0: 852a 2f3e 71be 193e 3be1 e13d 2a11 253e
000001c0: 9018 723e c1d8 0cbd 42b6 963d a6b4 fd3d
000001d0: 2dd4 abbd aa19 133e d654 f9bc 841b c73d
000001e0: cbf8 5b3a 46d6 0a3e a606 a7be d017 7fbd
000001f0: 517e 853d a136 84bd d8b1 8bbd a6c9 50be
00000200: eb6f 5abe dea2 0e3e 23cd 453e 67a0 0dbe
00000210: 05ca 563d 9453 d6bd 09a3 fe3d 5ec6 0cbe
00000220: dab3 b7bc 96f5 9bbd 47ac 073e 6179 503e
00000230: 19a0 2c3d 7d2b 103e c4d9 a23c dfe7 f53d
00000240: e04e 40be 33da cb3d d949 713d 1d51 d83c
00000250: 65ea 153e b2c4 5e3c 7d1f e03d d36b e1bd
00000260: e476 193e 097b 103e a765 fbbc ca36 9abc
00000270: d879 c63c d46c c0bd 6231 cfbe f048 2fbb
00000280: f1f9 85be d992 3e3e 9cdc 923d 5300 3f3d
00000290: 2450 4f3c 3820 52bd be18 03be 7eb7 c5be
000002a0: 5e74 5a3d d9c3 61bd bb1d 1ebe b790 333d
000002b0: 16ed 12be 2422 0e3e 8c77 bbbd 0a14 503e
000002c0: 7af9 ab3d 1384 673d d0c3 1b3e 637f 35be
000002d0: 387f 013c ab68 b4bd 7dd4 6dbe 89ef 813e
000002e0: 3828 69be 36d6 f93d 9dfe 60be a971 36bd
000002f0: 1336 93bd 9ba7 e0be d303 03be a365 003e
00000300: d308 053e de79 663d 5287 6e3d 1eff 05be
00000310: b97a 8abc 050b 163e f364 bbbd 0ba6 373e
00000320: a19f e2bd c59e f1bd bd42 ffbd fa70 2cbe
00000330: d7ac eb3d 0099 96be c822 fc3d e087 b33e
00000340: c40a a73e 0bdb 61bd eea8 9b3d b264 213c
00000350: 39ae 41bd 88ab a2bc 4c5e ce3e e5ea 0dbe
00000360: afc3 053d 2d23 cf3e 78bd e13c 91bb 69be
00000370: fbcb 943d db6e efbd 5007 6f3e 6272 583d
00000380: 45e9 e0bd 340a 1abd 1f44 99be 59ba 8d3e
00000390: 6248 573d ba4f 6cbd c9ea a1be 2c9b 57be
000003a0: 21df ec3d 4be2 d0bd 85cd 083e 85e9 e3bd
000003b0: c1da 833e fae8 45be aa90 913e d488 37bd
000003c0: 8341 833e 1b95 e83d 04bf 8bbe 46db 003e
000003d0: c9cb 283e 41b3 943e dcea a63e 22b3 84be
000003e0: f187 f7bd 3aad 093e 53b4 563a d344 9bbd
000003f0: a32a 6fbe 27d9 36bc ba79 df3b 60d0 fdbd
0.095093876 0.14551313 0.054788742 0.013147145 -0.17309684 -0.0829428 -0.009156735 0.21879211
-0.0025232146 -0.17482138 -0.14217727 0.08507675 0.10370361 0.0818224 -0.08049916 -0.19567049
0.03852866 0.13703653 0.11881664 -0.18050024 -0.07940773 0.06144546 0.16818328 0.098793596
-0.15953866 -0.0068757334 0.12318294 0.029525388 -0.013304136 -0.29684156 -0.00082585483 -0.20299996
0.18841872 0.077012725 -0.18237574 -0.08528203 0.25866896 -0.010394184 0.06932265 -0.28314987
-0.0674134 0.014516588 -0.056816317 0.16154963 0.13973236 -0.049828224 -0.05748863 0.06705763
0.09735992 0.100881964 0.027729817 0.1332367 0.056204848 -0.06986807 0.031347375 0.038489174
0.04690753 -0.036686897 0.045902982 0.13639106 -0.05394235 0.13493378 0.21366136 -0.08422799
-0.13489008 0.036981028 -0.02119641 0.11771824 0.04343214 0.17016649 -0.21519807 0.077169284
-0.11322159 -0.06651219 -0.040831205 0.07971865 0.28236708 -0.10510056 0.107346624 0.012087416
0.17707862 -0.4304568 -0.22115569 -0.06826253 0.10789168 0.16731374 -0.16340847 0.098747775
-0.045706093 0.19491102 -0.16375709 0.11372428 0.02589344 -0.028303493 -0.17878559 -0.10052003
-0.26362887 0.19975989 0.14115734 0.029917354 0.08897453 0.19596684 -0.057091676 0.09993725
-0.087654 0.21790299 0.20459227 -0.11292245 0.17106064 0.15014054 0.110292874 0.16119829
0.23642182 -0.0343864 0.07358982 0.123879716 -0.08390079 0.14365259 -0.03043596 0.09722045
0.000839126 0.13558301 -0.3262226 -0.06227857 0.065182336 -0.06455732 -0.068210304 -0.20389423
-0.21331756 0.13929316 0.19316535 -0.1383072 0.052438755 -0.1046516 0.1243344 -0.13747546
-0.022424627 -0.07615201 0.13249312 0.20358802 0.04214487 0.1407909 0.01987923 0.120071165
-0.18780088 0.099537276 0.058908317 0.026405865 0.14640196 0.0135967005 0.10943506 -0.11006894
0.1498676 0.14109434 -0.03068812 -0.018824954 0.024228022 -0.09395757 -0.40467364 -0.0026746355
-0.26167253 0.18610705 0.07170984 0.04663117 0.012653384 -0.051300257 -0.12802407 -0.38616556
0.053333633 -0.055118416 -0.15441029 0.043839183 -0.14348254 0.13880211 -0.09153661 0.20320144
0.08397193 0.05652244 0.15211415 -0.17724375 0.0079038665 -0.08809026 -0.23225589 0.25378063
-0.22769248 0.121990606 -0.21972127 -0.04454199 -0.07188048 -0.43877873 -0.12794428 0.12538771
0.12991647 0.056268565 0.05823452 -0.130856 -0.016904222 0.14652641 -0.09150114 0.17934434
-0.11065603 -0.11797861 -0.12463901 -0.16839972 0.11507576 -0.29413605 0.123113215 0.35064602
0.326254 -0.055140536 0.0760058 0.009850668 -0.047285292 -0.019857183 0.40306318 -0.13859136
0.03265732 0.40456524 0.027556166 -0.22825457 0.07265469 -0.11691066 0.23342633 0.05284346
-0.10981993 -0.037607387 -0.29934785 0.27681234 0.052559264 -0.05769322 -0.3162444 -0.21055287
0.11565996 -0.10199412 0.1335965 -0.11128525 0.25752833 -0.19327155 0.28430682 -0.044808224
0.2563592 0.113565646 -0.2729417 0.12583646 0.16483988 0.2904301 0.32601058 -0.25917917
-0.12086476 0.13444987 0.00081903226 -0.075814866 -0.23356108 -0.011160172 0.006819931 -0.1239326

MLP3.bias f4 [50]
00000000: 56e1 673c 33ac 5a3d 91c6 b83d 2c0d 103e
00000010: 6d75 10bc 2ba5 553d 4ff2 a43d c80d fabd
00000020: c5b8 e1bc d393 623d c1fc cc3b e6d6 693e
00000030: 9704 0ebe 71fc 5abd 1922 603b 951d bc3d
00000040: de83 393d 21b1 bd3b 1137 103e 10f4 053e
00000050: 1d20 12be 98b2 75bd bb32 8fbd 859d c23d
00000060: 294d 563d e7ce 05bd 6753 90bc c4b5 9cbd
00000070: ed04 ab3d 929c 9e3c bf91 0a39 c086 bbbd
00000080: 3e04 973b c92d b43d af50 6cbd 7f48 c63d
00000090: 4ebb 183d 319e 0c3e 6d36 d23d 45ff 163e
000000a0: 983a 6ebd 085e 2c3c 80c4 fb3d 8212 c93d
000000b0: 1b4b 3e3c fe08 08be 0def dabd 17b4 0ebe
000000c0: 49e7 173e 9488 d1bb
0.014152845 0.05338688 0.090222485 0.14067525 -0.008817059 0.05215947 0.08054029 -0.1220966
-0.027553925 0.055316757 0.0062557166 0.22835883 -0.13868938 -0.053463403 0.0034200011 0.0918533
0.045291774 0.0057889377 0.14083506 0.13081384 -0.14270063 -0.059984773 -0.06992098 0.09502701
0.05231968 -0.03266802 -0.017617894 -0.076518565 0.08350549 0.019361768 0.00013215 -0.09156561
0.00460866 0.08797795 -0.057694133 0.09681796 0.037288003 0.1373222 0.10264287 0.14745815
-0.058161348 0.010520466 0.12293339 0.09817983 0.011614586 -0.1328468 -0.106901266 -0.13935886
0.14834322 -0.006394455

MLP4.weight f4 [7, 50]
00000000: 9d19 10bd 1388 15bd 78ae a8bd f0ca a73d
00000010: 0775 a4be 5bf4 46be dc77 66bd 9a3f 97bb
00000020: f8fc 4f3e 553c 7ebe cac0 333e 1458 6c3e
00000030: 05e3 9cbd 4835 363e 5182 d63d 3412 02be
00000040: 7a80 b7bd ab08 c4be e78b a8bc 35cb 793e
00000050: fd59 f83d 210b 07be 49bd 803e 7985 a3bc
00000060: e457 213d 9292 933e 64c2 793e dcdf 1ebe
00000070: 192f 0d3e 08c9 cabd f1c1 99bd 2ddd 963e
00000080: c7ae 2f3e 55d5 2abf 7367 e5bb 9ea6 abbe
00000090: bdbe bdbe bbf8 033e 33d8 b7bd 3745 2b3e
000000a0: de4c b1bd f300 953b 4306 943e d5fa f23d
000000b0: 2ce3 f93d 274c 5dbe e40f 3cbe ecda 87be
000000c0: cadf f7bc 5574 153e d23d 97bd 93d7 313d
000000d0: ec81 0ebe 66db a63e 730b 363b b09b b0be
000000e0: 2bb9 f73e 802e 90be 8e21 ca3d 36d4 43bd
000000f0: 2792 633b f5e4 de3d 8faa ed3d 2e63 d8bd
00000100: 12d4 97be 8bc9 82be 0a70 eb3d e3c8 b4be
00000110: 0652 573d 7a33 d2bd ce8c 1e3e 22d3 573e
00000120: 9409 3e3e 3c72 ce3d 0218 ce3e 07a8 06be
00000130: 10ce 043e 2a3b 94be 0703 973e 55e0 ad3d
00000140: c43e c13d 982d a0bc a1a9 763e 5379 71be
00000150: 88d7 863e 9077 883d 39ef d9be 56cc 8e3d
00000160: d7d5 52bd 47e7 abbd 6d54 2fbe 8f8d a33e
00000170: 6dc2 763e a533 6a3e 3b71 a73c 7dbb c0bd
00000180: c0b4 75be b9ff cabe 9f8f 133e 7800 6ebe
00000190: f855 8f3e e299 e93d 3311 943d 5d85 d03d
000001a0: af22 a6bd 0c3f bfbe b0e1 5abe c430 da3d
000001b0: 89ed 663e 114a 5d3d 40b6 3c3e 1efe 2b3e
000001c0: 99e0 40be 6d78 3e3e 4248 b7be 74dd db3e
000001d0: 633a 103e 9cc3 61bd b252 513e 255a bc3c
000001e0: 9875 103e c401 833e 1094 883e 2348 63be
000001f0: 2c2d d4bd f57e bdbd 9bea 30bc 7c92 2bbe
00000200: b93c 97bc e72b 223e 6d22 c63c 8fbf f93d
00000210: 584d 633e 913f 7a3c 2ac4 b03e 3ac3 a7be
00000220: 0bce ebbe 2d96 17bd 17d1 f5bd 5fca 753c
00000230: 55ca b4be 3d3a 343e a8d8 173e 9085 233d
00000240: b723 c3bd c278 e33d 9beb 94be 7adf 39bd
00000250: a71d c63e 6614 143e ce25 8c3e 2afc 2f3e
00000260: 4ed4 05be 17af 793e 5463 bebe 5e4b 33be
00000270: f324 603e 7737 88bc 9be4 0fbe b8d6 b03e
00000280: 42b1 9d3e b0b7 303d 82fc 9abe 169b 623d
00000290: b3ba 87be 96cc 89be 08bc 203e e5d5 eb38
000002a0: d97b 32be d5d2 5a3e 8ddc 9fbc fb13 92be
000002b0: 6c09 d13e c871 d0be 47c5 383d 8bf8 8b3e
000002c0: ecd5 8d3d 3296 28be f710 d83d 8668 e1bd
000002d0: f611 a4be cf0b 68be 1e64 1dbd f10a cf3d
000002e0: 2afe 4cbd 0026 b6bd ca79 9e3e 5646 863e
000002f0: 5560 31be 905d 1d3e 56d0 a8be a1ed 463e
00000300: 8eb8 e03c fffd 02bc 35c6 8e3c 755a a6ba
00000310: a0f4 b83e 9e02 a53e ce90 0b3e 516d ce3d
00000320: 5d1e 94bc 4d02 633e bb4a 463e 53e7 2b3e
00000330: 2514 dfbe 92b8 29be b7e9 b83e 054d 7bbe
00000340: 3bc9 69be 9d76 38be 2a1e fbbb 2e83 563e
00000350: ed40 8dbe ec52 053e 516a e4bd 3627 823d
00000360: 4453 693c 66e0 a1be 6220 0e3e 3ec0 3bbe
00000370: 38f0 9c3d 358d 08ba 60db e93d 6502 45be
00000380: 7529 3e3e 9d79 29be 44f1 1f3e 4d5a 80be
00000390: d0e4 773e ba8b aabe 42b2 5ebe 5fd2 b4bd
000003a0: be8f 713c 1b9d 82be c12d 903e 1203 4dbe
000003b0: e7dc 8cbe 911a 4b3e 9e10 643d cb4c 5c3e
000003c0: 4191 b63d 1ad3 f2bd ba23 623e 670e 543d
000003d0: 2b10 793e dbc6 e4be b3d6 273e 5812 8d3e
000003e0: d1d7 f53d 9714 d53d 030d 92be d812 8c3e
000003f0: 2889 823e 3c79 20be 9165 8cbe 61fc acbe
-0.035180677 -0.036506724 -0.08236402 0.08193004 -0.32120535 -0.19429152 -0.05626665 -0.004615736
0.20311344 -0.24827702 0.17554012 0.23080474 -0.07660488 0.17793763 0.10474075 -0.12702256
-0.08960052 -0.38287863 -0.020574523 0.24393924 0.12126539 -0.13187839 0.25144413 -0.019961106
0.03939046 0.28822762 0.2439056 -0.15515083 0.13787498 -0.09901625 -0.075076945 0.2946562
0.17156516 -0.6673177 -0.0070008575 -0.33525556 -0.37059584 0.12887852 -0.089767836 0.16725622
-0.086572394 0.0045472323 0.28911027 0.11864249 0.12201533 -0.21611081 -0.18365437 -0.26534212
-0.030258078 0.14595158 -0.07384838 0.04341848 -0.13916749 0.32589263 0.002777782 -0.3449378
0.4838346 -0.28160477 0.09869681 -0.047809802 0.0034724565 0.10883514 0.11604797 -0.10565792
-0.29653984 -0.2554439 0.11495979 -0.35309514 0.052568458 -0.102637246 0.154834 0.21076635
0.18558341 0.10080382 0.40252692 -0.13150035 0.12969232 -0.2895139 0.29494497 0.084900536
0.094358 -0.01955299 0.24088146 -0.23581438 0.26336312 0.0666343 -0.42565325 0.06972568
-0.051473465 -0.08393722 -0.1712205 0.31943938 0.24097605 0.22871263 0.020439735 -0.094107606
-0.23994732 -0.39648226 0.14410256 -0.23242366 0.27995276 0.11406304 0.07229843 0.10181687
-0.08112084 -0.37352788 -0.21375155 0.106538326 0.2255155 0.054025713 0.18428898 0.16796157
-0.18835677 0.18600626 -0.35797316 0.42942393 0.14084773 -0.05511819 0.20441702 0.022992203
0.14107358 0.25587285 0.26675463 -0.22195487 -0.10360178 -0.09252731 -0.010798122 -0.16755098
-0.018461572 0.1583706 0.024186337 0.1219474 0.22197473 0.0152739445 0.3452466 -0.32766134
-0.46055636 -0.037008453 -0.12002771 0.015001862 -0.35310617 0.17600341 0.14828742 0.039922297
-0.095282964 0.11107017 -0.29086003 -0.04537914 0.38694498 0.14460906 0.27372593 0.17186037
-0.13069269 0.24383198 -0.37185156 -0.17509219 0.21889095 -0.01662801 -0.1405205 0.34538817
0.307993 0.043143928 -0.30270773 0.055323683 -0.26509628 -0.269139 0.15696728 0.00011245514
-0.17430057 0.21369489 -0.019514346 -0.2853087 0.408275 -0.40711808 0.045110013 0.2733806
0.06925568 -0.16463545 0.10550111 -0.110062644 -0.32044953 -0.22660755 -0.038425557 0.10109509
-0.050047077 -0.08893967 0.30952293 0.26225537 -0.17321904 0.15367723 -0.32971448 0.19426586
0.027431753 -0.007995128 0.017428497 -0.0012691753 0.36124134 0.3222856 0.13629457 0.10079444
-0.018080885 0.22168846 0.19364445 0.16787462 -0.43570057 -0.16574314 0.3611581 -0.245411
-0.2283067 -0.18013997 -0.007663508 0.20948479 -0.27588597 0.13019913 -0.11153091 0.06355135
0.0142410435 -0.31616515 0.1387954 -0.18335053 0.076630056 -0.000520903 0.114187956 -0.19239195
0.18570502 -0.16550298 0.1561938 -0.25068894 0.24208379 -0.33309728 -0.21747687 -0.088291876
0.014743743 -0.25510487 0.28159907 -0.20020702 -0.27512285 0.19834353 0.05567991 0.21513669
0.08914424 -0.11856671 0.22083941 0.051771548 0.24322574 -0.44682965 0.16390495 0.27553058
0.12004054 0.10404318 -0.28525552 0.27358127 0.25495267 -0.15671247 -0.2742124 -0.337863

MLP4.bias f4 [7]
00000000: 6eb8 cdbc 1ce5 13bd eba8 803c dd49 aabd
00000010: 1b22 303e 6cec 963d 520b 5fbd
-0.025112357 -0.036107168 0.015705546 -0.083148696 0.1720051 0.07369313 -0.054454155
