DQN/final_dqn_against_negaMaxMix/DQN_AgainstNegaMax_Epochs0.pth (torch, 493259 bytes, 12 tensors)

conv1.weight f4 [32, 1, 5, 5]
0.14169042 0.23593736 -0.083740056 0.24957395 -0.12010021 0.058064118 -0.06797122 0.068182066
0.21160498 -0.34223458 0.19860949 0.05848939 0.2296507 0.12891454 0.30927438 -0.044529203
0.32711276 0.021178879 0.018135816 0.118324116 -0.085426085 -0.08557266 -0.18900159 0.230043
-0.28824008 -0.041241046 -0.030730022 -0.08632886 0.061063495 -0.1897184 0.17356814 -0.3123357
0.1443637 -0.019292546 -0.20373555 0.12437123 0.1309405 0.35162368 -0.014682267 -0.10436175
0.15481009 -0.14294739 0.06736114 0.26413283 0.26867878 -0.106581256 0.0701508 0.10289571
0.23742846 -0.21856155 -0.26988235 -0.13685077 -0.106767155 0.37455648 -0.099666685 0.18954225
0.031529997 0.052643206 0.30400273 -0.22534613 0.020095743 -0.14630386 0.15345463 0.009331011
0.23220924 -0.16131207 0.25727305 -0.2819046 -0.20393285 -0.10486402 0.31896445 0.116505794
0.2700235 -0.27597502 -0.29526263 -0.096887544 -0.13756512 0.04209796 -0.0023179573 0.1623114
-0.09303241 -0.12121886 0.14145687 0.015593245 0.19420545 -0.14226136 0.056842502 -0.27694592
-0.26066637 0.21181266 0.11370863 0.018509079 0.084199965 0.33647555 -0.21193266 -0.1737771
0.34555602 -0.08987662 -0.20173903 -0.4246561 -0.20047478 0.014436798 -0.06368694 -0.13593608
-0.050171353 -0.16785413 -0.098661155 -0.083796516 -0.26636574 -0.28059748 0.32008624 0.20852667
0.18865313 -0.27572706 -0.18938091 -0.12250416 -0.03314184 -0.33632514 -0.09680161 -0.14260344
0.14163402 -0.09325275 -0.026821826 -0.16207731 -0.28826997 -0.12566152 0.044977177 0.012314419
0.17510185 -0.25910717 0.10764056 -0.010128858 -0.26251924 0.25818658 -0.02253171 -0.014194833
-0.28298894 -0.22244199 0.022315076 -0.033581212 0.14052941 -0.42434156 0.16680218 -0.24937257
-0.1554208 0.040185943 0.26916066 0.14535953 0.24062766 -0.14757936 0.082567625 -0.008258338
0.07605002 -0.05565826 0.33739862 -0.2979572 0.15635666 0.28931898 0.1367034 -0.27918482
0.3101186 0.08521321 0.20358354 -0.3023567 0.11695658 -0.073224336 -0.15707102 0.39929056
-0.051017486 -0.08350186 -0.12530646 -0.17186023 0.24916045 -0.1469692 -0.24907699 -0.05981645
-0.2642165 0.083374746 0.23558342 -0.12419234 0.04560432 0.22828968 0.10581706 -0.012006112
0.13164014 0.11491077 0.15704349 -0.051586416 -0.07645827 0.049363688 -0.18866032 -0.08798726
0.22135039 0.21606769 -0.06934615 0.0083627645 -0.02678662 0.10003298 0.07184831 0.06506076
-0.14026675 0.11226281 0.1059225 -0.024433704 -0.0686298 -0.13458535 -0.28827506 -0.31545767
-0.12290808 0.11705902 0.30744547 -0.008172816 -0.22736794 -0.10922049 -0.12428904 0.34415033
-0.03298842 -0.099077456 0.20967244 -0.08687629 -0.26897883 0.135451 -0.12737474 -0.09967846
-0.22317316 0.13465326 0.22374642 0.113668375 -0.24445613 -0.1135793 -0.34748876 0.19947225
0.12193885 0.24206318 0.10400646 0.14262894 -0.124858536 -0.35341114 -0.13783377 -0.3154104
0.23901743 0.023400772 -0.14839971 -0.11674097 0.015697414 -0.05826305 -0.050839733 0.11281799
-0.10778414 0.17833486 0.0051169517 -0.29194218 -0.02605445 -0.24558611 -0.08745625 -0.20406252
00000000: 4b17 113e 9099 713e e87f abbd 5090 7f3e
00000010: 19f7 f5bd a4d4 6d3d 7f34 8bbd 0aa3 8b3d
00000020: faae 583e 5f39 afbe 4960 4b3e 9292 6f3d
00000030: 8e29 6b3e 2c02 043e 3659 9e3e 4164 36bd
00000040: 537b a73e 547f ad3c 9091 943c ea53 f23d
00000050: dff3 aebd b840 afbd a289 41be 6490 6b3e
00000060: 3494 93be 5fec 28bd 87bd fbbc 2fcd b0bd
00000070: b71d 7a3d 8a45 42be d9bb 313e 77ea 9fbe
00000080: 14d4 133e 670b 9ebc 0da0 50be 58b6 fe3d
00000090: 4415 063e 0508 b43e e48d 70bc 9dbb d5bd
000000a0: 8986 1e3e cd60 12be a3f4 893d 6b3c 873e
000000b0: 4490 893e 4647 dabd 39ab 8f3d fcba d23d
000000c0: 7220 733e 99ce 5fbe 052e 8abe 9c22 0cbe
000000d0: bda8 dabd dec5 bf3e 0c1e ccbd 5d17 423e
000000e0: 9925 013d 67a0 573d 3fa6 9b3e 23c1 66be
000000f0: d49f a43c aed0 15be 3623 1d3e 19e1 183c
00000100: 42c8 6d3e fe2e 25be 4bb9 833e cd55 90be
00000110: c6d3 50be f3c2 d6bd 4f4f a33e 979a ee3d
00000120: 8540 8a3e 994c 8dbe aa2c 97be fa6c c6bd
00000130: dfdd 0cbe e96e 2c3d dfe8 17bb f634 263e
00000140: c787 bebd 9841 f8bd 12da 103e cf7a 7f3c
00000150: cbdd 463e f6ac 11be afd3 683d dbcb 8dbe
00000160: 1076 85be 6be5 583e 12e0 e83d 5aa0 973c
00000170: 0871 ac3d 8646 ac3e e004 59be a0f2 31be
00000180: b8ec b03e 3c11 b8bd ad94 4ebe 866c d9be
00000190: 4349 4dbe 5288 6c3c 4c6e 82bd d432 0bbe
000001a0: 7a80 4dbd f4e1 2bbe dc0e cabd 829d abbd
000001b0: 1761 88be 79aa 8fbe 58e2 a33e 0488 553e
000001c0: 492e 413e 192c 8dbe 12ed 41be 76e3 fabd
000001d0: bdbf 07bd cf32 acbe ec3f c6bd a306 12be
000001e0: 8208 113e 4cfb bebd 72b9 dbbc 98f7 25be
000001f0: 1f98 93be 6aad 00be fd39 383d 6bc2 493c
00000200: e64d 333e b2a9 84be a772 dc3d 82f3 25bc
00000210: ec68 86be 0831 843e 6c94 b8bc 7291 68bc
00000220: ede3 90be d5c7 63be 1bce b63c 748c 09bd
00000230: f1e6 0f3e 4c43 d9be 31ce 2a3e 865b 7fbe
00000240: a126 1fbe 049a 243d 6dcf 893e 21d9 143e
00000250: 1967 763e 0b1f 17be 3719 a93d fb4d 07bc
00000260: 1dc0 9b3d eaf9 63bd 83bf ac3e d98d 98be
00000270: f61b 203e 9e21 943e fafb 0b3e 50f1 8ebe
00000280: ddc7 9e3e 4384 ae3d 3478 503e 7fce 9abe
00000290: ee86 ef3d a4f6 95bd 3ad7 20be d06f cc3e
000002a0: b6f7 50bd 0603 abbd 5650 00be 21fc 2fbe
000002b0: eb23 7f3e 187f 16be 0a0e 7fbe 1802 75bd
000002c0: 6347 87be 61c0 aa3d c83c 713e 8e58 febd
000002d0: 98cb 3a3d c5c4 693e 9db6 d83d 49b5 44bc
000002e0: accc 063e 5656 eb3d 02d0 203e 474c 53bd
000002f0: 2796 9cbd 9431 4a3d 2c30 41be aa32 b4bd
00000300: ada9 623e d940 5d3e 5b05 8ebd fa03 093c
00000310: 9d6f dbbc 17de cc3d 3525 933d 933e 853d
00000320: 16a2 0fbe 0bea e53d e5ed d83d 3129 c8bc
00000330: c88d 8cbd bed0 09be ca98 93be ab83 a1be
00000340: 3bb7 fbbd a4bc ef3d 7e69 9d3e 46e7 05bc
00000350: 24d3 68be feae dfbd 418b febd 7934 b03e
00000360: de1e 07bd 1fe9 cabd 5fb4 563e 32ec b1bd
00000370: 98b7 89be abb3 0a3e 866e 02be 3824 ccbd
00000380: 8187 64be 8be2 093e c81d 653e f7ca e83d
00000390: b552 7abe 449c e8bd 0cea b1be 7442 4c3e
000003a0: 13bb f93d 69df 773e 5701 d53d 520d 123e
000003b0: d5b5 ffbd 4ef2 b4be 4c24 0dbe 797d a1be
000003c0: fcc0 743e fab2 bf3c 18f6 17be e415 efbd
000003d0: dd97 803c 3ca5 6ebd 533d 50bd 1e0d e73d
000003e0: eebd dcbd 6a9d 363e 1aac a73b 7279 95be
000003f0: 2470 d5bc ed7a 7bbe 431c b3bd c4f5 50be

conv1.bias f4 [32]
-0.0028633946 0.15195985 -0.058601152 0.16815393 -0.03919272 -0.13116328 0.094059266 0.13575795
0.24147809 -0.115100436 -0.06608504 0.046738364 0.14968957 0.13418755 0.20083943 -0.033646606
0.18096331 0.20553131 0.0013594184 0.19945526 0.13540103 0.18860602 -0.11781699 -0.033445023
-0.054989625 0.040430747 0.22242688 -0.08425295 0.19066238 -0.04907101 0.24577971 0.01525402
00000000: caa7 3bbb 5d9b 1b3e c307 70bd 8b30 2c3e
00000010: 8c88 20bd ab4f 06be 25a2 c03d 2204 0b3e
00000020: 0846 773e c7b9 ebbd 9857 87bd ba70 3f3d
00000030: 3948 193e 7668 093e daa8 4d3e 06d1 09bd
00000040: 724e 393e cd76 523e 832e b23a 003e 4c3e
00000050: 91a6 0a3e f021 413e 094a f1bd a6fd 08bd
00000060: cd3c 61bd b69a 253d dfc3 633e d08c acbd
00000070: 003d 433e affe 48bd adad 7b3e ffeb 793c

conv2.weight f4 [32, 32, 5, 5]
-0.057914756 -0.012784716 -0.075953364 0.059496485 -0.07570413 0.06367848 -0.040165532 -0.0028438505
-0.007182517 -0.082521394 -0.00842022 -0.06521931 0.033930756 -0.0885061 0.14886323 -0.032448094
0.0033640473 -0.06876616 0.003219692 0.043860506 -0.07792054 0.02417116 -0.11663722 0.018914124
-0.026514048 0.0046830447 0.024403734 0.032591213 -0.020881454 -0.042202618 0.022761866 -0.058727507
0.030049376 0.00010281214 0.08015204 0.046058025 -0.026871474 -0.043237086 -0.047662675 0.10234331
-0.05156578 -0.040562265 -0.054399062 -0.041766893 -0.011795262 0.02936523 0.040135387 -0.090126224
0.008017349 -0.080806054 0.016388455 0.063677035 0.09655239 0.035077017 0.05432904 -0.056474775
-0.0966399 -0.06993547 -0.058187306 -0.12839878 0.046700336 0.033836953 0.0420038 0.011837047
0.05356407 0.030046418 -0.06774816 -0.059551347 0.0633004 0.06640298 0.091352984 -0.017569821
-0.12133015 0.011711421 0.013288742 0.049226254 -0.009683703 -0.027777202 0.023821188 -0.11837201
0.1291078 0.055620715 0.07874774 0.0024278068 0.009624473 0.056622803 -0.011195675 0.008034594
-0.023451878 -0.08267471 -0.02592574 -0.004629737 0.08330752 -0.06054524 0.07229817 0.05565446
0.015369563 0.01695662 0.1271834 -0.024178855 -0.061993282 -0.07033297 -0.04653493 -0.10480991
0.009253795 0.2492851 0.03120677 0.03212469 -0.028648622 -0.10863369 0.019363621 0.114908956
0.118906714 0.025871564 0.075645655 -0.11829894 0.0153105855 0.06434443 -0.031026738 -0.035458554
0.17502345 0.058196533 0.1917496 0.07902381 0.004822993 0.031658217 0.121210985 -0.048293706
-0.025525598 0.038025226 -0.010928824 0.027359417 0.014514775 -0.06789175 0.060176563 0.054107234
0.050358776 0.0011509263 0.10791519 -0.0603685 -0.04492313 0.1320567 0.061289992 0.014120734
-0.08261616 -0.018263342 0.028796995 0.11851762 0.02114547 0.014996399 0.09020389 0.025992274
0.030693477 -0.06263724 -0.038522426 0.111049056 -0.028118424 0.06488315 -0.034277316 0.027795983
0.02778908 -6.233795e-05 0.058736578 0.056431197 -0.00034384296 -0.02150906 -0.0174793 -0.12746009
0.038118128 -0.04935672 0.036634598 -0.04423118 0.002823599 -0.054457135 0.07078576 -0.03580962
-0.055005096 -0.002431763 0.044584848 -0.09532999 -0.028971888 0.050914235 0.019598348 0.052375436
-0.032120887 0.0030435228 0.012989083 -0.018757502 -0.0671171 0.019393537 0.024512302 -0.085797094
0.07882379 -0.08524715 0.05001488 -0.027188601 0.033344198 -0.09082084 -0.056526065 -0.10024033
0.014582876 -0.043123093 -0.041051507 0.043383747 -0.07187031 0.037761196 0.025154231 0.026637442
0.020098802 0.04699588 -0.02969545 -0.028936943 0.04971083 -0.009576647 0.031210633 0.04455678
0.0079996195 0.051615074 0.032100618 0.013733539 0.018511703 0.08700169 0.07186972 0.09550639
0.047513824 0.06253038 0.0044773016 -0.04417623 -0.07455087 0.031265393 0.01668355 0.07407066
-0.03974731 0.07092835 -0.022022855 -0.10045789 -0.021169156 0.03136115 -0.056156155 -0.00076339365
0.12058366 -0.028751813 0.0127076935 0.05734723 0.022838775 -0.018461587 0.0099240085 0.013204507
0.0018384425 0.05619245 0.00091053883 -0.1301637 -0.030961582 -0.080594905 0.053706884 -0.031116104
00000000: 0638 6dbd fc76 51bc 708d 9bbd 96b2 733d
00000010: c40a 9bbd dd69 823d 9d84 24bd e55f 3abb
00000020: 525b ebbb fa00 a9bd f6f4 09bc b491 85bd
00000030: fafa 0a3d b042 b5bd 9a6f 183e 4be8 04bd
00000040: 5977 5c3b 46d5 8cbd 7801 533b 13a7 333d
00000050: ce94 9fbd 9902 c63c 7fdf eebd cbf1 9a3c
00000060: fd33 d9bc 3a74 993b 57ea c73c 5d7e 053d
00000070: 950f abbc a7dc 2cbd 1877 ba3c 418c 70bd
00000080: 1c2a f63c d99c d738 c126 a43d 57a7 3c3d
00000090: 9121 dcbc 5f19 31bd f039 43bd 5f99 d13d
000000a0: a436 53bd 9e24 26bd 8dd1 5ebd c313 2bbd
000000b0: ea40 41bc 5a8f f03c 0165 243d 1994 b8bd
000000c0: 335b 033c a57d a5bd 1541 863c 1b69 823d
000000d0: 42bd c53d ebac 0f3d 2188 5e3d 1852 67bd
000000e0: 24eb c5bd 543a 8fbd d055 6ebd f87a 03be
000000f0: da48 3f3d 9e98 0a3d 2d0c 2c3d 2cf0 413c
00000100: 0066 5b3d e823 f63c 8cbf 8abd 1dec 73bd
00000110: a4a3 813d 49fe 873d 4617 bb3d 96ee 8fbc
00000120: f17b f8bd 43e1 3f3c 06b9 593c 78a1 493d
00000130: 65a8 1ebc 048d e3bc a724 c33c 066d f2bd
00000140: d634 043e 8cd2 633d 7f46 a13d d71b 1f3b
00000150: f7af 1d3c 50ed 673d 106e 37bc 88a3 033c
00000160: 271e c0bc 5c51 a9bd 3862 d4bc 0db5 97bb
00000170: 229d aa3d 49fe 77bd 1011 943d eef5 633d
00000180: 9fd0 7b3c 9ce8 8a3c 5d3c 023e bc12 c6bc
00000190: abec 7dbd bb0a 90bd 699b 3ebd 94a6 d6bd
000001a0: 3b9d 173c 9844 7f3e 57a5 ff3c 2e95 033d
000001b0: 84b0 eabc 577b debd 75a0 9e3c 6355 eb3d
000001c0: 5d85 f33d 9af0 d33c 1cec 9a3d b746 f2bd
000001d0: 40d9 7a3c 03c7 833d c92b febc fd3c 11bd
000001e0: 5939 333e 7d5f 6e3d 025a 443e 3cd7 a13d
000001f0: 330a 9e3b 0cac 013d 773d f83d 9fcf 45bd
00000200: 0f1b d1bc 57c0 1b3d cf0e 33bc db20 e03c
00000210: 61cf 6d3c d40a 8bbd b37b 763d 8c9f 5d3d
00000220: 0145 4e3d aeda 963a a402 dd3d f644 77bd
00000230: 5101 38bd df39 073e 370b 7b3d a75a 673c
00000240: a932 a9bd 019d 95bc ade7 eb3c 5eb9 f23d
00000250: 4439 ad3c 75b3 753c d1bc b83d c0ed d43c
00000260: e370 fb3c f447 80bd b1c9 1dbd b06d e33d
00000270: 9c58 e6bc 75e1 843d 5f66 0cbd 67b4 e33c
00000280: eda5 e33c 6fbb 82b8 c495 703d 6624 673d
00000290: d245 b4b9 c533 b0bc c030 8fbc e684 02be
000002a0: c121 1c3d 462a 4abd 290e 163d c12b 35bd
000002b0: 210c 393b 720e 5fbd 20f8 903d 1cad 12bd
000002c0: 064d 61bd 375e 1fbb 9a9e 363d 5f3c c3bd
000002d0: 7456 edbc 728b 503d b78c a03c a087 563d
000002e0: 3191 03bd d775 473b 2ad0 543c 55a9 99bc
000002f0: b174 89bd 32df 9e3c 06ce c83c 63b6 afbd
00000300: 5e6e a13d 0f96 aebd 67dc 4c3d a1ba debc
00000310: ed93 083d 4700 babd e087 67bd cd4a cdbd
00000320: 04ed 6e3c d7a1 30bd a025 28bd 28b3 313d
00000330: be30 93bd 7cab 1a3d 3f10 ce3c c436 da3c
00000340: 3ea6 a43c c07e 403d df43 f3bc 2b0d edbc
00000350: 959d 4b3d 5ee7 1cbc 71ad ff3c 2c81 363d
00000360: d610 033c 546a 533d f07b 033d a302 613c
00000370: dba5 973c f12d b23d 6f30 933d db98 c33d
00000380: db9d 423d ee0f 803d 54b6 923b 22f2 34bd
00000390: 20ae 98bd 2410 003d f1ab 883c 5cb2 973d
000003a0: 13ce 22bd e242 913d 4669 b4bc debc cdbd
000003b0: f06a adbc 8d74 003d ff03 66bd 7b1e 48ba
000003c0: 91f4 f63d ec88 ebbc ee33 503c eee4 6a3d
000003d0: 6218 bb3c c13c 97bc 4f98 223c b757 583c
000003e0: e5f7 f03a 0e2a 663d 3ab1 6e3a a249 05be
000003f0: 25a3 fdbc f10e a5bd c0fb 5b3d 33e7 febc

conv2.bias f4 [32]
0.01514927 0.0071083964 -0.04223638 0.034752365 0.053949635 0.057822723 0.029514069 -0.0088504
0.021773165 -0.05134809 0.015976451 -0.045952972 0.03854798 0.045978256 0.037650805 0.029056538
-0.026873365 0.02044399 0.051859077 -0.0060865832 -0.033514544 0.013990736 -0.027433578 -0.05271298
-0.003962413 0.040390592 0.01661565 0.022098638 0.04040278 0.013620554 0.0027634797 -0.05354909
00000000: a534 783c 8ded e83b 0e00 2dbd 7f58 0e3d
00000010: 4bfa 5c3d 85d7 6c3d 7dc7 f13c 4501 11bc
00000020: a35d b23c 6052 52bd 0ce1 823c 2f39 3cbd
00000030: 7de4 1d3d b253 3c3d bb37 1a3d fa07 ee3c
00000040: 8825 dcbc 287a a73c 2f6a 543d f671 c7bb
00000050: 8c46 09bd 6639 653c 62bc e0bc 91e9 57bd
00000060: 21d7 81bb 9b70 253d 8b1d 883c 3408 b53c
00000070: 637d 253d be28 5f3c 7f1b 353b 4a56 5bbd

conv3.weight f4 [32, 32, 5, 5]
0.0035419394 0.03680378 -0.019835 -0.017195929 0.02257314 0.0352618 0.0127428295 -0.011859988
-0.0114432825 -0.006278715 0.008047111 0.0031055417 0.034544513 0.10044911 -0.03405993 0.007008703
0.02878277 -0.07391071 0.15972832 0.08439868 0.11510902 -0.034804992 0.13468255 -0.10602448
0.09751187 0.052799094 0.022239184 0.023378963 0.0059476704 0.03942422 0.036989655 -0.008911771
0.07490689 0.01370247 0.087209605 0.0066785202 -0.023694225 0.083269335 0.022380099 0.09583423
-0.031349197 -0.042644225 0.08112608 -0.022613231 -0.19387548 -0.009301663 0.035597086 -0.13979869
0.008043546 -0.117003515 0.07141475 0.029681599 -0.010336322 0.00974891 0.0063905497 0.0099663595
-0.038629122 0.040177073 0.021953302 0.02071876 -0.07997042 -0.08210738 0.019219283 0.10301395
0.065134324 0.0034229353 0.032234546 -0.005834205 -0.030646479 -0.10867157 -0.029555438 -0.003282399
-0.03645647 -0.010096628 -0.056183357 -0.07596853 0.053849444 -0.016058546 -0.033423446 -0.11921377
-0.042566765 -0.11549268 -0.005671252 -0.01370436 -0.027635196 0.0689432 -0.02546974 0.0611773
-0.061450366 0.012212534 0.10302574 -0.0064847767 0.029433183 0.17613842 -0.052390955 0.016190263
-0.020479873 -0.084504604 0.116275385 -0.045119278 -0.05423251 -0.0063976925 -0.02371357 -0.004380515
-0.006982034 -0.018304178 0.017073719 -0.019289844 -0.045246877 -0.012906433 -0.022496417 -0.017059445
0.06035973 -0.003537943 0.030390425 0.055710744 0.008210209 0.04191191 -0.010935213 0.021853244
0.007500537 0.028285315 -0.014667956 0.15560761 0.021681916 -0.0076460135 -0.03641832 0.033501107
-0.00830416 -0.016011363 -0.017912088 0.029951138 0.017841823 -0.0067308196 -0.040006053 0.11071657
-0.085523225 0.018059392 0.048748393 0.121355094 -0.052733414 0.10414331 0.14879292 -0.030605726
0.082125485 -0.09254015 0.008360951 -0.073814824 0.052990653 -0.074514546 -0.029477457 0.05706568
-0.0041215657 0.017719878 -0.05288375 -0.056726772 -0.02427742 0.050646044 0.027049059 -0.017423172
0.047376655 -0.012783454 0.036128156 -0.0011216784 -0.0787927 -0.030414626 0.0005696491 0.16897915
-0.029112345 -0.082535945 0.083336405 -0.087586775 0.020648811 0.042641025 -0.0029602107 0.07756269
0.0010925285 0.035065275 0.019105917 -0.0008186134 -0.032027368 -0.0036268597 0.015198886 0.053701706
0.02201196 -0.03093796 0.07789063 -0.13769348 -0.030925814 0.041383013 -0.011266957 0.07207464
0.0873111 -0.05310931 0.028244128 -0.07009052 -0.08136197 0.067527145 0.020876639 0.09738945
0.017940445 0.075751565 -0.005526949 0.101913765 0.038419697 -0.0075137545 -0.00872789 -0.017837754
-0.03909569 0.051157642 0.11165924 0.062040325 0.015089964 -0.1933833 0.04090515 0.026283579
-0.05756978 -0.02590398 0.15417108 -0.036892604 0.073804535 -0.004782016 -0.0005485972 -0.00954111
0.03822963 0.006719506 0.003069501 -0.03594502 -0.01619924 0.070118055 0.029612811 0.022268564
-0.018121189 -0.10367904 -0.0159765 0.011398794 0.0035521106 0.0032064295 0.15756439 -0.17437544
-0.048249923 -0.020004457 0.044462077 -0.04015255 0.007895308 0.006490219 -0.159308 -0.04064975
-0.22467305 0.0021187083 -0.029036108 0.07996825 0.0058489973 0.019134663 0.06059626 0.05248944
00000000: e21f 683b 8fbf 163d 037d a2bc 7ade 8cbc
00000010: 4eeb b83c ad6e 103d 4dc7 503c 6550 42bc
00000020: 9b7c 3bbc aebd cdbb 08d8 033c 5886 4b3b
00000030: 8c7e 0d3d 43b8 cd3d 6d82 0bbd 43a9 e53b
00000040: d8c9 eb3c 805e 97bd d28f 233e 37d9 ac3d
00000050: 47be eb3d ae8f 0ebd 39ea 093e 5d23 d9bd
00000060: 4eb4 c73d dd43 583d f32e b63c 3d85 bf3c
00000070: ade4 c23b 4a7b 213d 7782 173d ad02 12bc
00000080: c968 993d 5380 603c f39a b23d 7dd7 da3b
00000090: 641a c2bc 1d89 aa3d 7856 b73c bd44 c43d
000000a0: 0468 00bd b6ab 2ebd 6e25 a63d 623f b9bc
000000b0: 4b87 46be 0166 18bc 40ce 113d 6327 0fbe
000000c0: 14c9 033c 8a9f efbd e541 923d d326 f33c
000000d0: ad59 29bc e4b9 1f3c d167 d13b f149 233c
000000e0: 9239 1ebd b790 243d 69d7 b33c 64ba a93c
000000f0: 88c7 a3bd ea27 a8bd c271 9d3c faf8 d23d
00000100: 2565 853d 5353 603b 5f08 043d dc2c bfbb
00000110: 530e fbbc 338f debd 3f1e f2bc 841d 57bb
00000120: 6153 15bd 546c 25bc 8520 66bd 6395 9bbd
00000130: 3c91 5c3d 368d 83bc 06e7 08bd 5926 f4bd
00000140: 7d5a 2ebd 6d87 ecbd e9d5 b9bb 4188 60bc
00000150: 3563 e2bc 1832 8d3d eba5 d0bc 0c95 7a3d
00000160: 61b3 7bbd 1517 483c 29ff d23d 407e d4bb
00000170: dc1d f13c a15d 343e e697 56bd 71a1 843c
00000180: 68c5 a7bc c010 adbd ca21 ee3d fece 38bd
00000190: e922 5ebd bca3 d1bb f642 c2bc 6c8a 8fbb
000001a0: 8cc9 e4bb a5f2 95bc 2fde 8b3c bc05 9ebc
000001b0: ca54 39bd 8175 53bc 684a b8bc 40c0 8bbc
000001c0: c43b 773d d5dc 67bb 57f5 f83c f330 643d
000001d0: 1d84 063c d3ab 2b3d 9c29 33bc 9305 b33c
000001e0: 11c7 f53b 9bb6 e73c de51 70bc 9a57 1f3e
000001f0: 469e b13c 698b fabb 602b 15bd 7538 093d
00000200: 2c0e 08bc 432a 83bc 5fbc 92bc 175c f53c
00000210: 0429 923c 358e dcbb 63dd 23bd 5ebf e23d
00000220: cd26 afbd 4af1 933c 65ac 473d 0589 f83d
00000230: fefe 57bd 1649 d53d 2c5d 183e dcb8 fabc
00000240: 6831 a83d b185 bdbd 5ffc 083c 3a2c 97bd
00000250: ba0c 593d 159b 98bd b57a f1bc b4bd 693d
00000260: 330e 87bb 4729 913c a29c 58bd 555a 68bd
00000270: 71e1 c6bc 3a72 4f3d fd95 dd3c 0abb 8ebc
00000280: 060e 423d b171 51bc 1efb 133d 4805 93ba
00000290: 115e a1bd 1828 f9bc 8154 153a df08 2d3e
000002a0: 037d eebc 9b08 a9bd 47ac aa3d b260 b3bd
000002b0: b227 a93c 5ba8 2e3d 1800 42bb 30d9 9e3d
000002c0: 2c33 8f3a 9ba0 0f3d 0384 9c3c 3798 56ba
000002d0: 212f 03bd 9cb0 6dbb c004 793c 52f6 5b3d
000002e0: 6d52 b43c 9b71 fdbc 1f85 9f3d 85ff 0cbe
000002f0: 2258 fdbc 3c81 293d 0b99 38bc de9b 933d
00000300: 29d0 b23d 2689 59bd 3b60 e73c 9e8b 8fbd
00000310: 1ba1 a6bd ac4b 8a3d 7c05 ab3c 1f74 c73d
00000320: d7f7 923c a323 9b3d 691b b5bb 2ab8 d03d
00000330: f95d 1d3d f135 f6bb 6dff 0ebc 7b20 92bc
00000340: cd22 20bd ad8a 513d 9aad e43d ff1d 7e3d
00000350: e53b 773c 4606 46be 298c 273d a950 d73c
00000360: 4ace 6bbd 9534 d4bc 06df 1d3e b31c 17bd
00000370: d526 973d 75b2 9cbb bccf 0fba 5152 1cbc
00000380: ac96 1c3d 4d2f dc3b ae29 493b 163b 13bd
00000390: 45b4 84bc 0e9a 8f3d 9196 f23c 906c b63c
000003a0: e372 94bc ad55 d4bd 26e1 82bc 02c2 3a3c
000003b0: 87ca 683b f622 523b 8f58 213e 7a8f 32be
000003c0: b6a1 45bd 63e0 a3bc de1d 363d 0077 24bd
000003d0: 525b 013c e7ab d43b a321 23be 5a80 26bd
000003e0: b110 66be 07da 0a3b 22dd edbc 65c6 a33d
000003f0: f2a8 bf3b 4cc0 9c3c c933 783d 2bff 563d

conv3.bias f4 [32]
0.04362295 0.03966257 -0.043469712 0.081581704 0.003840678 -0.042338613 0.013419543 -0.018022807
0.010872584 -0.029483782 -0.0014520945 0.013059823 0.02092698 0.0047126357 -0.003043703 0.021102665
0.022861477 0.0032239703 0.026347106 0.020555744 -0.007933592 0.0036683036 0.004573827 0.009881745
0.029355379 0.011260997 0.042354476 0.049604747 0.027354969 0.013575846 -0.028510205 0.053210404
00000000: faad 323d 3875 223d 4c0d 32bd 4f14 a73d
00000010: e2b3 7b3b 416b 2dbd a5dd 5b3c 91a4 93bc
00000020: ec22 323c f987 f1bc 3554 beba def8 553c
00000030: 0f6f ab3c 746c 9a3b dd78 47bb 7fdf ac3c
00000040: fe47 bb3c 3f49 533b e3d5 d73c 8564 a83c
00000050: e6fb 01bc ec67 703b 0be0 953b 0be7 213c
00000060: b17a f03c 0b80 383c e37b 2d3d 592e 4b3d
00000070: 8717 e03c 3a6d 5e3c 3c8e e9bc 27f3 593d

MLP1.weight f4 [50, 1344]
-0.094527 0.08541495 0.030675227 -0.004662097 -0.06262624 0.015549952 -0.007778143 -0.008226449
-0.009515391 0.014691604 0.018616254 0.090787016 -0.020933237 0.022658683 0.05931272 0.06506583
-0.08054038 -0.022314668 -0.04272544 0.013978148 0.026545461 0.061387125 -0.043046538 0.020252494
0.06766262 0.029225025 -0.0071876994 -0.0027254554 0.017219022 0.051883303 -0.0042885733 -0.016285526
0.018164163 -0.007907631 0.03128478 -0.06770153 0.0723181 -0.0013687694 0.0023784128 0.016089765
0.009370505 -0.005264222 0.043664422 -0.061895315 -0.037430484 0.026509566 0.0021025706 0.02878003
0.025957247 -0.009347129 0.027095255 -0.019541156 -0.035976715 -0.08430098 0.007393922 0.02625546
-0.016294202 0.04032526 0.00025988877 -0.010134714 0.05370186 -0.04268066 0.027267657 -0.026810085
0.05710899 0.022179242 -0.07018247 0.009920319 0.00547997 0.04795601 0.00863876 0.0298729
0.06761302 0.012643071 -0.025152598 0.06628616 0.029968522 -0.026298476 -0.036275372 0.047695085
-0.050295442 0.02535339 -0.013424272 0.027467467 -0.07170561 -0.123827 -0.0044886065 -0.024482723
-0.032844134 -0.07371761 0.023130452 -0.10455933 0.005467991 -0.023243722 -0.041482445 -0.04349807
0.0385719 -0.07209671 -0.07144968 0.030870996 -0.033426106 -0.022737488 0.08158778 -0.012085049
-0.06393827 0.054021288 0.06512235 0.052503485 -0.108853325 0.024146594 0.043644097 -0.044935662
-0.059658807 0.046767406 -0.013692847 -0.0022189429 -0.008376948 0.065780915 -0.08543572 -0.17463364
-0.059989255 0.054826207 -0.036664356 -0.07512251 -0.033698257 -0.057155386 -0.032360464 -0.041675065
0.015827933 0.019643342 0.01540139 0.07046838 -0.06288492 0.065533444 -0.036080904 -0.058482714
0.005045951 0.022334618 0.018300926 0.012763198 -0.041900795 -0.062964484 -0.0066987467 -0.022420175
-0.010641847 -0.0040863426 -0.037150953 0.005936057 0.039667137 0.0017722049 -0.042223856 -0.0012957542
-0.04588106 -0.022306569 0.0798934 -0.03542208 -0.017702337 -0.08328035 -0.05921042 -0.05038551
0.03102366 -0.09988006 0.019584017 -0.004927581 0.06255513 -0.094713055 0.08102676 -0.030378997
0.060344167 0.057414386 0.055045452 0.012260549 -0.034750145 0.012640098 -0.08709211 0.059063047
-0.026324555 -0.01601815 0.01689828 0.05521954 -0.013246659 -0.050018013 -0.009814839 -0.037711434
0.050399493 -0.09738565 -0.06258348 -0.030230628 0.012733535 0.052047208 0.0055742445 -0.037948225
-0.017834423 0.055509467 -0.0029684184 0.055053536 0.023701288 0.017209098 -0.039790303 0.0019884142
0.035772614 0.024030752 0.07307214 -0.031848595 -0.03497011 0.040508647 0.013549092 0.05970412
0.0065652416 -0.054002706 -0.036484785 -0.026756044 0.04597202 -0.0067023574 -0.00846543 0.051528815
-0.07444223 0.018162455 -0.01198644 -0.0010469324 -0.010827772 -0.021450242 0.027286306 0.008141284
-0.08802028 -0.01552418 0.007548873 0.055304706 -0.011906624 -0.014929969 -0.021899031 -0.1983763
-0.008968871 0.0058003673 0.029328268 0.06403874 0.025357498 -0.021605194 -0.023978578 -0.08272478
-0.0058243237 0.0523802 0.0016371727 -0.012237343 -0.013152296 0.019689592 0.037174374 -0.13798828
0.050061367 0.061508343 0.0069526983 -0.024695551 0.04953179 -0.017698402 -0.008652854 0.03029502
00000000: 5f97 c1bd 09ee ae3d 9d4a fb3c 81c4 98bb
00000010: 3042 80bd 3ac5 7e3c cbdf febb 3ac8 06bc
00000020: 71e6 1bbc 0eb5 703c 1d81 983c 8bee b93d
00000030: 2e7c abbc b49e b93c e5f1 723d 3c41 853d
00000040: 5bf2 a4bd 40cd b6bc df00 2fbd 9a04 653c
00000050: de75 d93c 1171 7b3d 9151 30bd 8fe8 a53c
00000060: b392 8a3d 5269 ef3c cb86 ebbb 8e9d 32bb
00000070: e80e 8d3c 9683 543d 2987 8cbb 3969 85bc
00000080: 03cd 943c 028f 01bc 7824 003d 1aa7 8abd
00000090: 831b 943d 4868 b3ba 25df 1b3b afce 833c
000000a0: bf86 193c 7f7f acbb 77d9 323d f185 7dbd
000000b0: b550 19bd 972a d93c 48cb 093b 19c4 eb3c
000000c0: 4ba4 d43c b324 19bc def6 dd3c c614 a0bc
000000d0: 525c 13bd fea5 acbd b748 f23b b115 d73c
000000e0: 6b7b 85bc 1a2c 253d ae41 8839 120c 26bc
000000f0: 7bf6 5b3d ead1 2ebd 6c60 df3c d3a0 dbbc
00000100: 1eeb 693d 3eb1 b53c d4bb 8fbd d588 223c
00000110: 5291 b33b 856d 443d 9689 0d3c 03b8 f43c
00000120: b278 8a3d e224 4f3c d20c cebc 0ac1 873d
00000130: 8c80 f53c e76f d7bc 7c95 14bd ec5b 433d
00000140: 9802 4ebd eab1 cf3c 7af1 5bbc 7403 e13c
00000150: 64da 92bd 0399 fdbd 2915 93bb fe8f c8bc
00000160: 9287 06bd 42f9 96bd 137c bd3c 3423 d6bd
00000170: d52c b33b 9e69 bebc 7fe9 29bd 082b 32bd
00000180: 92fd 1d3d 71a7 93bd 3654 92bd 2ce5 fc3c
00000190: d0e9 08bd f843 babc 7e17 a73d 5f00 46bc
000001a0: 11f2 82bd 6d45 5d3d de5e 853d e50d 573d
000001b0: 7eee debd 14cf c53c 27c4 323d 750e 38bd
000001c0: cb5c 74bd 2e8f 3f3d f757 60bc af6b 11bb
000001d0: 773f 09bc 25b8 863d ecf8 aebd 29d3 32be
000001e0: 4bb7 75bd 7291 603d 5d2d 16bd d5d9 99bd
000001f0: 2f07 0abd c41b 6abd 688c 04bd 79b3 2abd
00000200: 95a9 813c 13eb a03c 1d56 7c3c ba51 903d
00000210: cfc9 80bd 6636 863d 92c9 13bd 928b 6fbd
00000220: 8158 a53b 17f7 b63c d3eb 953c bc1c 513c
00000230: 2ba0 2bbd 86f3 80bd 2981 dbbb 84aa b7bc
00000240: 245b 2ebc bae6 85bb 992b 18bd 4183 c23b
00000250: 027a 223d 5449 e83a ecf2 2cbd 4cd6 a9ba
00000260: c7ed 3bbd 44bc b6bc 279f a33d be16 11bd
00000270: 7e04 91bc e38e aabd a086 72bd 0961 4ebd
00000280: 5525 fe3c eb8d ccbd a96e a03c 8c77 a1bb
00000290: e71c 803d ebf8 c1bd 5cf1 a53d 60dd f8bc
000002a0: 722b 773d 592b 6b3d 5777 613d 78e0 483c
000002b0: 2b56 0ebd 6a18 4f3c 595d b2bd 18ec 713d
000002c0: 98a6 d7bc 7f38 83bc 436e 8a3c e22d 623d
000002d0: 8408 59bc b0df 4cbd 6bce 20bc 4e77 1abd
000002e0: b36f 4e3d 2172 c7bd c42b 80bd 39a6 f7bc
000002f0: 51a0 503c 742f 553d 27a8 b63b 996f 1bbd
00000300: 7f19 92bc e55d 633d cc89 42bb d17f 613d
00000310: 3429 c23c 18fa 8c3c 28fb 22bd 0e50 023b
00000320: 4e86 123d 24dc c43c d9a6 953d ac73 02bd
00000330: d13c 0fbd 65ec 253d 03fd 5d3c 4f8c 743d
00000340: 3d21 d73b f131 5dbd 1271 15bd 7e2f dbbc
00000350: 284d 3c3d 739f dbbb 96b2 0abc e10f 533d
00000360: 2b75 98bd 6ec9 943c c662 44bc 3939 89ba
00000370: f866 31bc 6bb8 afbc 8887 df3c 0563 053c
00000380: fa43 b4bd 2159 7ebc 895c f73b 3087 623d
00000390: 0014 43bc d49c 74bc 9965 b3bc 2823 4bbe
000003a0: 2cf2 12bc 0211 be3b d641 f03c be26 833d
000003b0: 87ba cf3c 60fd b0bc b96e c4bc 9c6b a9bd
000003c0: f8d9 bebb 9f8c 563d 6696 d63a 237f 48bc
000003d0: ba7c 57bc 114c a13c 2844 183d cd4c 0dbe
000003e0: 260d 4d3d 2cf0 7b3d 76d3 e33b 534e cabc
000003f0: d9e1 4a3d 3dfc 90bc b3c4 0dbc 432d f83c

MLP1.bias f4 [50]
-0.0015796216 -0.0035276725 -0.016030662 0.015141469 0.0027357533 0.046642818 -0.0014459926 -0.02408169
-0.020862347 -0.012062314 -0.019431653 0.017903566 0.012547142 0.0381134 0.0045889397 -0.008462473
-0.0077319467 0.0373401 -0.009795267 -0.002695971 0.03517177 -0.023276305 0.016459433 -0.0121787945
0.015835099 -0.038115136 0.03379992 0.025587227 0.037441555 0.04037684 -0.03799834 -0.000121260004
-0.027819293 -0.0011081565 0.04774218 -0.0077312775 -0.030532388 0.0076681296 -0.019403277 0.036059443
-0.007704634 -0.029896662 0.021831464 0.048564143 -0.027767284 0.043265246 -0.026219113 0.03097652
0.058588948 -0.008199979
00000000: 4e0b cfba 8630 67bb bc52 83bc ed13 783c
00000010: 534a 333b 8a0c 3f3d 7687 bdba f746 c5bc
00000020: 83e7 aabc 03a1 45bc 212f 9fbc 80aa 923c
00000030: 8792 4d3c cc1c 1c3d d15e 963b 2fa6 0abc
00000040: 455c fdbb eff1 183d 547c 20bc e3ae 30bb
00000050: 4610 103d f3ad bebc efd5 863c 9189 47bc
00000060: 9cb8 813c 9e1e 1cbd c971 0a3d 4e9c d13c
00000070: 515c 193d 2f62 253d 26a4 1bbd f84c feb8
00000080: 49e5 e3bc 903f 91ba 4e8d 433d a856 fdbb
00000090: 0f1f fabc ef44 fb3b 9ff3 9ebc 11b3 133d
000000a0: 2877 fcbb d8e9 f4bc e6d7 b23c 32eb 463d
000000b0: 3778 e3bc e636 313d 77c9 d6bc 79c2 fd3c
000000c0: f7fa 6f3d 3459 06bc

MLP3.weight f4 [50, 50]
-0.07124817 0.18132156 -9.39196e-05 0.16990909 0.061408497 0.011010963 0.16572975 0.06255407
0.24271917 0.051675167 -0.10071612 -0.12761879 0.061947647 -0.1585591 -0.11285246 -0.0001573345
0.06461267 -0.008789558 -0.15924752 -0.1648549 0.068781115 -0.1394787 0.022571335 -0.026967602
0.11835943 -0.012799638 0.039318494 0.0062658736 -0.032667477 0.032176595 0.14515169 -0.14827499
0.24976595 -0.10669899 0.083805844 0.079505466 -0.08406501 -0.06477045 -0.032105833 -0.18564302
0.22164483 0.05139816 -0.23128715 0.14228101 -0.17241064 0.09424419 -0.0859265 -0.054241586
0.19537072 0.11987289 0.029432552 0.233656 -0.05215783 -0.13878 0.2656509 0.14564222
-0.10196848 0.02237635 -0.16758125 0.13128184 -0.04654341 -0.08605635 0.07054924 0.040503792
-0.02660737 -0.18044464 0.15741771 -0.20274247 -0.3333019 -0.1454211 0.053568237 0.035821147
0.003436903 0.047034405 0.08858473 -0.08943176 0.01635452 0.05347344 0.13804007 0.11573603
-0.10010088 -0.14342785 0.09958971 -0.11078993 -0.09535886 0.08017044 -0.14449352 0.25022185
-0.08448601 0.14875376 -0.29638857 0.14885917 0.11983213 0.06444543 0.07975222 -0.06914312
0.062077615 0.096102506 -0.07287779 0.094038464 0.03660407 0.137469 -0.06936876 0.0017094328
-0.11670709 0.112324215 0.1679453 -0.045576245 -0.16265535 -0.14657795 -0.11227659 0.15728295
0.1539806 0.18120599 -0.09078527 0.01408106 -0.122310035 0.03355965 0.18660417 0.029827382
0.14115362 -0.12615041 0.027117655 -0.0953355 0.25439483 0.032370884 -0.0397029 -0.010870095
-0.047812186 0.05930826 0.38993916 0.07695292 0.031380452 0.15854555 -0.048819214 -0.039132018
0.14491116 -0.1081949 -0.08593687 0.060455825 0.37471208 -0.07297481 -0.029324817 0.2260696
-0.05332229 0.12665384 0.08298512 -0.07751638 0.16867773 -0.014337327 -0.039601862 -0.038049135
0.02934386 0.11284543 -0.07855161 -0.0564309 0.0075462786 -0.06272947 0.10993223 0.12177939
0.11796148 -0.2592899 0.13992783 -0.061083015 0.39957318 0.009046913 -0.24128172 -0.04892074
0.04555285 -0.21031553 -0.24668582 -0.05872489 -0.13479748 0.33787328 0.0040933792 0.25737828
0.23453093 0.015816662 -0.17706639 0.06748176 0.058465023 0.07825635 -0.2558159 -0.09352656
-0.061280645 0.14126252 -0.17707813 0.065860815 0.07067312 -0.11712777 0.17974614 0.14416972
0.30996332 -0.045034852 0.32991695 -0.06025108 0.3502097 0.006231864 -0.11871076 0.05386436
0.20042834 -0.08577426 0.008382383 0.2206738 -0.021417232 0.06332529 -0.0049321586 -0.03543337
0.13066147 -0.107229255 -0.22949827 -0.050601557 0.1094521 0.027466403 -0.15082404 -0.15561119
-0.102188006 0.17385387 0.16143817 0.057197485 0.03822151 0.30340844 -0.025179636 -0.10231912
0.19702227 -0.0995971 0.1372481 0.21426243 0.09982761 -0.04440477 0.05743381 0.14317435
-0.22359656 -0.0585337 -0.084791824 -0.036280606 0.23068973 0.016829416 -0.012661883 -0.0048331902
-0.014839504 0.09015385 -0.082843944 -0.08791869 0.27414265 0.0859525 -0.169033 0.03974703
0.04598549 -0.0035962288 0.026140487 0.17530555 -0.014419534 0.06597825 -0.06356809 0.15974511
00000000: 90ea 91bd 5cac 393e b4f6 c4b8 a6fc 2d3e
00000010: 7a87 7b3d 5367 343c 0fb5 293e 591c 803d
00000020: 608b 783e 57a9 533d 4144 cebd 80ae 02be
00000030: d1bc 7d3d 515d 22be 311f e7bd 29fa 24b9
00000040: a653 843d 1402 10bc c811 23be b9cf 28be
00000050: 1ddd 8c3d 81d3 0ebe 85e7 b83c 29eb dcbc
00000060: 6e66 f23d 93b5 51bc 6e0c 213d f551 cd3b
00000070: 55ce 05bd 9bcb 033d a5a2 143e 66d5 17be
00000080: a5c2 7f3e 0085 dabd 66a2 ab3d c3d3 a23d
00000090: 472a acbd 5fa6 84bd 6881 03bd 3419 3ebe
000000a0: ddf6 623e e186 523d 8ad6 6cbe 1db2 113e
000000b0: 6a8c 30be 1903 c13d 3cfa afbd 6d2c 5ebd
000000c0: 430f 483e eb7f f53d 891c f13c 8543 6f3e
000000d0: 73a3 55bd 581c 0ebe 6503 883e 3c23 153e
000000e0: dad4 d0bd 9b4e b73c 6b9a 2bbe bf6e 063e
000000f0: 4da4 3ebd 503e b0bd 1f7c 903d 4ee7 253d
00000100: b3f7 d9bc 7bc6 38be 1c32 213e b99b 4fbe
00000110: 8ca6 aabe 45e9 14be 5e6a 5b3d 32b9 123d
00000120: aa3d 613b 26a7 403d e96b b53d 0028 b7bd
00000130: eaf9 853c f706 5b3d 605a 0d3e 0307 ed3d
00000140: b101 cdbd c0de 12be b1f5 cb3d d5e5 e2bd
00000150: 824b c3bd 6630 a43d 1cf6 13be 141d 803e
00000160: 0007 adbd e852 183e 3ec0 97be 8a6e 183e
00000170: 8c6a f53d f7fb 833d 2255 a33d e89a 8dbd
00000180: 1945 7e3d 64d1 c43d f340 95bd 3d97 c03d
00000190: 26ee 153d acc4 0c3e 3511 8ebd 0c0f e03a
000001a0: 2004 efbd 3d0a e63d daf9 2b3e 28ae 3abd
000001b0: 208f 26be 8818 16be 45f1 e5bd c80e 213e
000001c0: 17ad 1d3e 108e 393e a1ed b9bd 3fb4 663c
000001d0: af7d fabd d875 093d 2a15 3f3e 8e58 f43c
000001e0: 938a 103e 932d 01be d825 de3c 423f c3bd
000001f0: 0a40 823e 5597 043d 829f 22bd 7c18 32bc
00000200: b6d6 43bd 38ed 723d 1ba6 c73e 7e99 9d3d
00000210: ca88 003d c459 223e a8f6 47bd e548 20bd
00000220: 9763 143e 4a95 ddbd abff afbd 87a0 773d
00000230: 43da bf3e d173 95bd 993a f0bc ca7e 673e
00000240: 7968 5abd 8bb1 013e 1af4 a93d e8c0 9ebd
00000250: dbb9 2c3e 1ce7 6abc 9035 22bd 69d9 1bbd
00000260: 8962 f03c 811b e73d abdf a0bd 1624 67bd
00000270: c646 f73b 4f78 80bd 2624 e13d 7967 f93d
00000280: ca95 f13d a5c1 84be 3e49 0f3e 2f32 7abd
00000290: db94 cc3e 8139 143c 8e12 77be 1d61 48bd
000002a0: a095 3a3d f45c 57be 359b 7cbe 8389 70bd
000002b0: 5a08 0abe bafd ac3e c121 863b 16c7 833e
000002c0: e028 703e f291 813c e450 35be e133 8a3d
000002d0: 0579 6f3d dd44 a03d 4dfa 82be da8a bfbd
000002e0: 6a01 7bbd 1fa7 103e f853 35be 09e2 863d
000002f0: 12bd 903d afe0 efbd 5f0f 383e 3aa1 133e
00000300: 83b3 9e3e 7776 38bd e0ea a83e d6c9 76bd
00000310: b04e b33e aa34 cc3b a01e f3bd e0a0 5c3d
00000320: 163d 4d3e 6aaa afbd 4356 093c 50f8 613e
00000330: 3173 afbc b1b0 813d f29d a1bb 9522 11bd
00000340: 1fcc 053e 039b dbbd 9801 6bbe 9443 4fbd
00000350: 6c28 e03d 3901 e13c 9e71 1abe 8a58 1fbe
00000360: f247 d1bd c006 323e 0c50 253e e947 6a3d
00000370: 288e 1c3d 5a58 9b3e 8645 cebc b08c d1bd
00000380: 35c0 493e 90f9 cbbd c48a 0c3e 9c67 5b3e
00000390: 6b72 cc3d c7e1 35bd b73f 6b3d 4c9c 123e
000003a0: 7ff6 64be 08c1 6fbd 56a7 adbd f99a 14bd
000003b0: ee39 6c3e d8dd 893c c973 4fbc bd5f 9ebb
000003c0: 6421 73bc 95a2 b83d 16aa a9bd b70e b4bd
000003d0: 6d5c 8c3e dd07 b03d fd16 2dbe c8cd 223d
000003e0: 485b 3c3d b5ae 6bbb 9324 d63c 4c83 333e
000003f0: e93f 6cbc 9b1f 873d fd2f 82bd 3994 233e

MLP3.bias f4 [50]
-0.06274439 0.019079257 0.081093214 0.10690054 0.12585658 0.12929326 0.015596002 0.08879738
0.18917552 0.0723557 0.0508038 -0.009456782 0.08205788 0.011207691 0.0592562 0.04714374
0.05555138 0.05342166 0.12178019 -0.030907908 -0.011215776 -0.009652903 0.036511827 0.03247987
0.043238394 0.13540407 0.13229232 -0.06764813 0.06192491 0.17873727 -0.002051714 0.0047091385
-0.005008004 -0.13817546 0.04973278 -0.11327916 0.10582404 -0.1244114 -0.014873103 -0.0583597
-0.07443193 0.12977222 0.16022453 0.074493624 0.02079466 0.085402064 0.041911084 0.11092298
-0.07331512 -0.0011015468
00000000: 2180 80bd 1a4c 9c3c 3314 a63d acee da3d
00000010: 8ce0 003e 7465 043e 6086 7f3c 67db b53d
00000020: 3ab7 413e 3a2f 943d a517 503d 9ef0 1abc
00000030: f60d a83d 77a0 373c a1b6 723d cb19 413d
00000040: d889 633d acd0 5a3d e467 f93d 9532 fdbc
00000050: 60c2 37bc 3627 1ebc 6d8d 153d 9d09 053d
00000060: be1a 313d 5da7 0a3e a377 073e 1a8b 8abd
00000070: f9a4 7d3d e706 373e 0d76 06bb 1e4f 9a3b
00000080: 2f1a a4bb de7d 0dbe 99b4 4b3d e7fe e7bd
00000090: 46ba d83d 67cb febd 51ae 73bc 950a 6fbd
000000a0: c56f 98bd 02e3 043e e611 243e 1d90 983d
000000b0: 9059 aa3c 47e7 ae3d f5aa 2b3d 962b e33d
000000c0: 3d26 96bd c761 90ba

MLP4.weight f4 [7, 50]
0.11576513 0.3187377 0.0075622275 -0.16458414 -0.24359694 -0.051602665 -0.11945061 0.21528363
-0.12940712 -0.10844959 -0.046844337 -0.14394718 -0.27694958 0.3333123 -0.20211601 -0.08835452
0.26261717 0.19030303 -0.20385146 0.2502044 -0.10677072 0.10130248 -0.15599997 -0.057016954
0.049248166 0.4039329 0.22274652 -0.14109537 0.121648595 0.1469852 0.06959916 -0.085318334
-0.00048320362 -0.17665945 0.085520715 -0.37232572 -0.35202062 -0.2617261 -0.4635474 0.10115833
0.21452357 0.13860035 0.07001846 0.11339815 0.10390218 -0.02522464 0.06724159 0.027391525
-0.038761776 -0.39896673 0.022220617 -0.01641304 0.08010382 -0.5667914 0.14373758 0.20216198
0.08157847 -0.064938895 0.15840267 0.17437802 0.099653885 -0.1849408 -0.36762255 0.020096943
-0.38747975 0.31185934 0.26847053 0.17701274 -0.070580184 -0.0078114644 0.06391046 0.14594592
-0.31713557 -0.081074275 -0.0450347 0.30231756 -0.11339579 -0.14434952 0.15076086 0.05973469
-0.049149226 -0.23918448 0.35202274 0.040428206 0.13026066 -0.4377487 0.1056913 0.20458841
0.16686954 0.15767218 -0.01641998 0.043406073 -0.2335058 0.23229377 -0.08665285 0.07144701
0.2424521 -0.18939945 -0.4672101 -0.38304693 0.20438705 0.06892631 0.05821611 0.18541235
0.21050881 -0.030041255 -0.25546116 -0.16314563 0.207917 -0.21339019 0.21798858 -0.47797096
-0.10091238 0.09484602 -0.36246678 0.006667128 0.17543457 -0.031095129 0.4842996 0.13259433
-0.14612345 -0.28402326 -0.1526528 -0.12712692 0.20976192 0.3040161 0.088864334 0.1553533
-0.12403971 0.15792073 -0.14687137 -0.57605153 -0.066545665 -0.2586963 0.053035133 -0.24124634
0.12638992 0.22142981 -0.16920376 0.19379523 0.06430618 -0.0266471 0.14590216 0.21803318
0.0027961999 -0.23890007 0.048092898 0.23909612 0.17509848 -0.3971986 0.2390449 -0.12146664
0.10831324 -0.24385683 -0.00018187756 0.17491654 -0.7362492 0.018854804 0.060115047 0.07814684
-0.67585796 0.26134166 0.16821124 0.015858704 -0.25157535 -0.12775207 0.1404425 0.22652076
-0.037452478 0.20580748 0.25166133 -0.49054125 -0.3701753 0.2608555 0.09104237 -0.22311069
0.14094675 -0.06553988 0.013383736 0.05895676 -0.13987075 -0.35377613 0.22463009 0.060096856
0.19032906 0.23473266 -0.22802226 0.054574806 -0.4289772 0.08884439 -0.55239636 0.16283754
-0.20937923 0.12439974 -0.07132401 0.012153005 -0.08077936 -0.14610821 -0.11639247 -0.08864981
-0.11717913 -0.30511853 0.093069345 0.1871984 0.054641414 0.1848228 -0.15673973 0.19011596
0.169747 -0.22752517 0.36965534 0.15063998 -0.46978247 -0.020045398 -0.31052372 0.16327426
0.11872604 -0.0934015 -0.33788145 0.105474 0.08431395 -0.29566523 0.33146077 0.2032558
0.045455385 0.20757602 0.19024205 0.2397495 0.12541288 0.20414372 0.19013816 0.07559126
-0.2844006 -0.44312012 0.18939511 -0.5614636 -0.41189227 -0.501871 0.048821628 0.14610235
0.15838692 0.015409371 -0.22669934 -0.10080506 -0.030283326 -0.18264085 0.20391287 0.06280699
-0.19118823 0.05873696 -0.22172762 -0.02755154 -0.22945122 -0.07831593 0.13136739 -0.061148066
00000000: 4516 ed3d 9631 a33e 90cc f73b bf88 28be
00000010: 7a71 79be 515d 53bd 85a2 f4bd 5073 5c3e
00000020: 4d83 04be d21a debd d9df 3fbd e466 13be
00000030: 56cc 8dbe e9a7 aa3e 80f7 4ebe 37f3 b4bd
00000040: c275 863e ccde 423e 70be 50be cb1a 803e
00000050: 9baa dabd ad77 cf3d 75be 1fbe 9c8a 69bd
00000060: 72b8 493d 4bd0 ce3e aa17 643e 4e7b 10be
00000070: e622 f93d 4a83 163e 018a 8e3d 61bb aebd
00000080: 7e56 fdb9 37e6 34be 7c25 af3d 7aa1 bebe
00000090: 0c3c b4be f700 86be 1656 edbe 192c cf3d
000000a0: 11ac 5b3e 40ed 0d3e d765 8f3d 4a3d e83d
000000b0: abca d43d e7a3 cebc f5b5 893d 3164 e03c
000000c0: abc4 1ebd 5e45 ccbe 0308 b63c a474 86bc
000000d0: 790d a43d 3e19 11bf f22f 133e 8d03 4f3e
000000e0: 9d12 a73d affe 84bd 4f34 223e 2790 323e
000000f0: 5617 cc3d 1f61 3dbe 0639 bcbe 58a2 a43c
00000100: bf63 c6be 07ac 9f3e f874 893e d442 353e
00000110: 588c 90bd 50f7 ffbb 7de3 823d d972 153e
00000120: 985f a2be 450a a6bd 4e76 38bd 5ec9 9a3e
00000130: 0d3c e8bd 5cd0 13be 0e61 1a3e 5dac 743d
00000140: b350 49bd c7ec 74be 533c b43e 0c98 253d
00000150: 0d63 053e 9920 e0be ae74 d83d a07f 513e
00000160: d9df 2a3e d174 213e 3283 86bc 91ca 313d
00000170: 251c 6fbe 6bde 6d3e 0d77 b1bd cf52 923d
00000180: 5d45 783e eef1 41be 2a36 efbe ba1e c4be
00000190: d74a 513e 3d29 8d3d 0474 6e3d bcdc 3d3e
000001a0: 9f8f 573e 1419 f6bc cecb 82be a60f 27be
000001b0: 32e8 543e f582 5abe 6638 5f3e 9cb8 f4be
000001c0: 26ab cebd a13e c23d 3f95 b9be ec77 da3b
000001d0: 1fa5 333e 36bb febc 1ef6 f73e cfc6 073e
000001e0: 63a1 15be 7f6b 91be 0451 1cbe 8f2d 02be
000001f0: d4cb 563e 00a8 9b3e 81fe b53d ef14 1f3e
00000200: 8808 febd f9b5 213e 7365 16be 1d78 13bf
00000210: 1849 88bd d773 84be 5e3b 593d 4809 77be
00000220: 5c6c 013e 7fbe 623e c043 2dbe 4272 463e
00000230: f5b2 833d 054b dabc 6067 153e 1744 5f3e
00000240: 7340 373b 38a2 74be 0ffd 443d 9dd5 743e
00000250: 044d 333e 9d5d cbbe 30c8 743e 80c3 f8bd
00000260: 55d3 dd3d 9bb5 79be 63b6 3eb9 521d 333e
00000270: d47a 3cbf 6475 9a3c 323b 763d 730b a03d
00000280: 0705 2dbf 93ce 853e 913f 2c3e 1dea 813c
00000290: 7cce 80be 70d1 02be 29d0 0f3e 0ff5 673e
000002a0: c567 19bd 32bf 523e c1d9 803e 3928 fbbe
000002b0: 9e87 bdbe da8e 853e 6c74 ba3d 2177 64be
000002c0: 5854 103e c639 86bd 7547 5b3c a57c 713d
000002d0: 473a 0fbe 2522 b5be 6e05 663e 1f28 763d
000002e0: 9fe5 423e c25d 703e ab7e 69be d589 5f3d
000002f0: e6a2 dbbe 0cf4 b53d d969 0dbf e2be 263e
00000300: 8267 56be 4ac5 fe3d 5312 92bd 661d 473c
00000310: a66f a5bd 649d 15be 2d5f eebd 088e b5bd
00000320: 9dfb efbd 7f38 9cbe 249b be3d f0b0 3f3e
00000330: adcf 5f3d 3042 3d3e 6180 20be c2ad 423e
00000340: 28d2 2d3e 5cfc 68be 7743 bd3e 5e41 1a3e
00000350: 5487 f0be 3f36 a4bc f7fc 9ebe 5e31 273e
00000360: a326 f33d 4949 bfbd ccfe acbe c102 d83d
00000370: cbac ac3d 6f61 97be 3ab5 a93e 4a22 503e
00000380: 6d2f 3a3d cf8e 543e d0ce 423e e580 753e
00000390: 3c6c 003e 0d0b 513e 94b3 423e 97cf 9a3d
000003a0: f59c 91be a4e0 e2be cbf0 413e 14bc 0fbf
000003b0: 8be3 d2be 9e7a 00bf 30f9 473d db9b 153e
000003c0: 2e30 223e 9677 7c3c df23 68be e272 cebd
000003d0: bd14 f8bc 3406 3bbe 89ce 503e f4a0 803d
000003e0: d9c6 43be 2b96 703d 910c 63be c4b3 e1bc
000003f0: 43f5 6abe 1a64 a0bd 2c85 063e 6576 7abd

MLP4.bias f4 [7]
-0.10080285 0.11117111 0.052772216 0.01679801 0.04075883 0.05866336 0.13657835
00000000: ba71 cebd aead e33d ae27 583d fb9b 893c
00000010: bbf2 263d fe48 703d 32db 0b3e
