DQN/final_dqn_against_negaMaxMix/DQN_AgainstNegaMax_Epochs10000_player1.pth (torch, 493315 bytes, 12 tensors)

conv1.weight f4 [32, 1, 5, 5]
000000 8c 3e 0c 3e 67 f4 6f 3e 94 66 b5 bd a6 4e 81 3e
       0.13695735 0.23433076 -0.08857456 0.25255316
000010 6a 62 0b be ca 87 2f 3d 42 88 64 bd 99 71 83 3d
       -0.1361176 0.042854108 -0.055794008 0.064181514
000020 01 1b 53 3e e0 db ab be c2 26 49 3e 42 62 71 3d
       0.2061577 -0.3356619 0.19643691 0.058931597
000030 4c 8e 73 3e 56 bf 0c 3e fc d4 99 3e 17 bf 61 bd
       0.2378475 0.13744864 0.30045307 -0.055113878
000040 96 c4 a7 3e af c5 dc 3c 35 5b b7 3c f9 0e e3 3d
       0.3276717 0.026949732 0.022382358 0.1108684
000050 f0 60 b0 bd 2c fb a5 bd 3a 56 40 be b3 ba 6a 3e
       -0.08612239 -0.08104548 -0.18782893 0.22922783
000060 23 7b 8b be 73 5b 2b bd cd a1 18 bd f3 4c 94 bd
       -0.27242383 -0.04183526 -0.03726368 -0.072412394
000070 bb 57 5d 3d ea 0b 52 be 64 1f 27 3e de 41 a3 be
       0.054038744 -0.20512357 0.16320568 -0.3188619
000080 74 e1 15 3e a4 41 20 bc e8 ee 53 be 30 1b 10 3e
       0.14636785 -0.009781275 -0.20696604 0.14072871
000090 1c 64 02 3e 2d ba ab 3e cb 1b 4a bc 8b 56 bd bd
       0.12733501 0.33540478 -0.012335728 -0.092450224
0000a0 5c 61 0a 3e db 7b 0c be 5d bc 9b 3d f9 7d 88 3e
       0.13513702 -0.13719122 0.07604287 0.2665861
0000b0 95 5c 91 3e 37 63 e1 bd ef f3 84 3d 71 e3 d8 3d
       0.28390947 -0.11005252 0.06491839 0.10590256
0000c0 a9 56 66 3e 4e 6c 67 be d5 ef 82 be d4 7e 0f be
       0.22493996 -0.22599909 -0.25573602 -0.14013225
0000d0 6c 2f c8 bd 5f 08 b7 3e 04 c3 de bd c0 d7 3d 3e
       -0.0977467 0.35748574 -0.1087704 0.18539333
0000e0 fb 86 08 3d a9 2d 42 3d 17 f9 a1 3e 8d ce 62 be
       0.033331852 0.047406826 0.31635353 -0.22149105
0000f0 3f 51 f6 b9 ed 77 14 be c0 14 2a 3e b3 cb d6 3b
       -0.0004698131 -0.14498873 0.16609478 0.0065550446
000100 e8 3c 61 3e ae 07 24 be 59 c0 84 3e e6 d6 99 be
       0.2199589 -0.16018555 0.25928 -0.30046767
000110 34 5d 49 be 9f 2e db bd ca 71 a0 3e 57 ab d8 3d
       -0.1966446 -0.10702252 0.31336814 0.105795555
000120 46 e5 87 3e f3 27 75 be f2 05 98 be 8b bc d0 bd
       0.2654211 -0.2394102 -0.29692036 -0.10192212
000130 30 da fe bd 7d 38 17 3d 64 d0 42 bc 6e 80 2e 3e
       -0.1244396 0.036919106 -0.0118905045 0.1704118
000140 af 29 b7 bd aa 35 05 be c1 c2 05 3e 0a 9c 9c 3c
       -0.089434974 -0.13008752 0.13062574 0.019117374
000150 d9 d4 41 3e 04 1c 07 be 43 89 72 3d 80 da 8e be
       0.18928851 -0.13194281 0.059212934 -0.27901077
000160 29 e4 7a be 13 26 5d 3e dc fe e4 3d 9f e5 ed 3c
       -0.24501099 0.21596555 0.11181423 0.029040156
000170 31 12 9c 3d 0b 7b ab 3e 24 b3 67 be de 02 2c be
       0.07620657 0.33492312 -0.2262693 -0.16797969
000180 5a 19 aa 3e 0e 3b a4 bd 25 d0 5e be f7 52 d6 be
       0.33222467 -0.08019076 -0.21759088 -0.41860172
000190 e7 bc 57 be 5a f2 34 3c 6c 3a 6c bd 6b eb 0d be
       -0.21068154 0.011044109 -0.057672903 -0.13859336
0001a0 aa 32 58 bd f9 f0 2c be aa 33 c0 bd 02 55 a6 bd
       -0.052782692 -0.16888799 -0.09384854 -0.08121683
0001b0 93 33 82 be 49 2d 87 be 5c 07 97 3e 25 01 56 3e
       -0.25429973 -0.26401737 0.29497802 0.20898874
0001c0 d0 4d 40 3e b8 18 8d be 17 e4 39 be 87 9e d4 bd
       0.18779683 -0.2755792 -0.18153416 -0.10381799
0001d0 0b 7a ea bc 8e fc ae be 5c 5f cf bd 15 1e 20 be
       -0.028622648 -0.3417706 -0.1012561 -0.15636475
0001e0 a6 ae 11 3e 1d 46 c1 bd c0 a2 fc bc b4 7b 16 be
       0.1422678 -0.09437201 -0.030839324 -0.14695626
0001f0 6a aa 99 be 01 56 f2 bd 58 03 fa 3c 93 2e a3 3b
       -0.30012828 -0.1183281 0.030519173 0.0049799173
000200 5f a6 33 3e 9d 7c 7d be 04 b9 cb 3d 1b f6 71 bb
       0.17543934 -0.24754567 0.09947398 -0.0036920372
000210 46 eb 8a be 0a 35 80 3e d0 58 8a bc fd d2 14 bc
       -0.27132624 0.25040466 -0.016888052 -0.009083507
000220 bd 75 8e be 00 dc 6a be 4f 30 3d 3c d3 18 2f bd
       -0.27824202 -0.22935486 0.011547162 -0.042748284
000230 97 0a 0c 3e 02 2d d5 be 4c f6 2c 3e 6f e9 81 be
       0.13675915 -0.416359 0.1689083 -0.25373408
000240 2a 83 2e be 1f 8e 4b 3d 49 44 8b 3e 05 16 0d 3e
       -0.17042223 0.049696084 0.27200535 0.13777931
000250 21 1a 7c 3e ed bb 1d be 5e d9 a2 3d fc de 92 bb
       0.24619342 -0.15403719 0.07951616 -0.004482148
000260 67 f8 b9 3d 29 ee 1f bd 47 4c a1 3e 62 94 92 be
       0.09080582 -0.039045487 0.31503507 -0.28628832
000270 62 08 24 3e 4f 2f 97 3e a3 f5 0f 3e d7 a3 87 be
       0.16018823 0.2952828 0.14058547 -0.26492187
000280 b7 a8 a7 3e d5 88 9e 3d 5e d4 57 3e 7f 9b 99 be
       0.32745907 0.077409424 0.21077105 -0.30001447
000290 86 a4 d9 3d c3 39 77 bd c2 f8 12 be cd 6a cb 3e
       0.106270835 -0.06035782 -0.14352706 0.3972992
0002a0 e6 2d 72 bd 87 18 85 bd cc 09 05 be c1 fe 2c be
       -0.059125803 -0.06498819 -0.12992018 -0.16894056
0002b0 0d db 80 3e 4e 5b 16 be 3e 28 72 be 42 c5 8d bd
       0.25167122 -0.14683267 -0.23648164 -0.069223896
0002c0 22 ae 7c be cc ff c0 3d 49 50 69 3e e6 55 f0 bd
       -0.24675801 0.094237894 0.22784533 -0.11735134
0002d0 23 2b 37 3d 45 5b 70 3e 3c 7f c7 3d 5d 46 ee bb
       0.044718873 0.23472317 0.09741065 -0.0072715716
0002e0 ec 2e 0c 3e 11 6a f8 3d ae bd 0b 3e 45 95 51 bd
       0.13689774 0.121296056 0.13646576 -0.051167745
0002f0 a6 d7 93 bd 67 40 43 3d 39 2f 38 be c0 3a aa bd
       -0.07218866 0.04766884 -0.17986764 -0.08311987
000300 d4 8c 63 3e af 20 4f 3e 45 2a a6 bd 5b 02 45 3c
       0.2222169 0.20227312 -0.08113531 0.012024487
000310 8a 58 b5 bc 62 f6 d9 3d fd dc a2 3d 97 bf 66 3d
       -0.022136945 0.10642697 0.079523064 0.056335058
000320 e7 8e 17 be 62 29 d8 3d 6b d0 ec 3d 6b 6a 0c bd
       -0.14800607 0.10554768 0.1156319 -0.034281176
000330 e7 e0 50 bd 9a 16 0b be 7c c2 9a be 9f 3b a5 be
       -0.050995734 -0.1358284 -0.30226505 -0.3227205
000340 89 65 fe bd 8c 48 cf 3d 9a 41 95 3e d7 5a b3 bb
       -0.1242171 0.10121259 0.29151613 -0.0054734754
000350 f9 77 5f be d5 26 ce bd 39 84 01 be 2d 32 b3 3e
       -0.2182311 -0.10066 -0.12648095 0.3499922
000360 b0 30 0f bd 29 82 c4 bd bb 9f 59 3e 9f 1c b0 bd
       -0.03495854 -0.095951386 0.21252339 -0.08599209
000370 ad 0c 8c be 00 26 04 3e 14 59 1b be ad 55 bf bd
       -0.2735342 0.12905121 -0.151707 -0.09342513
000380 db ea 62 be de 97 0a 3e bf 2b 60 3e cc f1 02 3e
       -0.22159903 0.13534495 0.21891688 0.1278755
000390 3f 29 80 be 5d de dc bd e0 cb ab be 2d 36 50 3e
       -0.25031468 -0.107846 -0.33553982 0.20333166
0003a0 24 77 d5 3d 68 93 4f 3e df 3a d3 3d e3 de 0e 3e
       0.10423115 0.20271075 0.10313963 0.13952212
0003b0 27 b0 0a be 50 df b8 be eb 1c 07 be 10 cf a1 be
       -0.1354376 -0.36107874 -0.13194625 -0.3160329
0003c0 d0 c9 6f 3e 12 fe e3 3c d9 c9 16 be a6 75 ed bd
       0.23416829 0.027831111 -0.14725436 -0.11594705
0003d0 c9 c5 7c 3c 86 be 2a bd f3 5c 1b bd 50 93 db 3d
       0.015428015 -0.041685604 -0.03793044 0.10721457
0003e0 b2 98 e3 bd a8 41 2d 3e d6 bf 1c bc 0e f3 99 be
       -0.11113109 0.16919577 -0.009567222 -0.3006825
0003f0 61 65 02 bc 88 6e 83 be 3e 09 94 bd 19 34 52 be
       -0.007958741 -0.25670266 -0.07228325 -0.20527686

conv1.bias f4 [32]
000000 41 a4 0f bb 23 6c 0c 3e 3c f4 65 bd f9 f2 2d 3e
       -0.0021917971 0.13713126 -0.056141123 0.16987218
000010 cc 24 38 bd fd b1 10 be 0d e2 9a 3d b5 c0 0a 3e
       -0.044956967 -0.14130397 0.07562647 0.13550074
000020 1d d6 70 3e 21 c8 f3 bd 21 16 86 bd 2b 25 10 3d
       0.23519178 -0.11903406 -0.065471895 0.035191696
000030 66 20 18 3e d6 5d f1 3d 05 a3 45 3e fe c6 63 bd
       0.14856109 0.11785476 0.19300468 -0.055609696
000040 d7 a2 32 3e d6 8c 4e 3e 00 72 81 bc 38 db 4b 3e
       0.17444931 0.20170912 -0.01580143 0.19907844
000050 89 5b 03 3e ab 32 3c 3e 43 78 ed bd 31 d4 23 bd
       0.12827887 0.18378703 -0.11595204 -0.039997283
000060 36 f9 52 bd fc 89 9b 3c 5c 4c 53 3e 7e ca c6 bd
       -0.051507197 0.018986695 0.20634598 -0.09706591
000070 1e 58 3f 3e 79 fb 80 bd fe 56 6a 3e 87 32 53 3c
       0.18685958 -0.062979646 0.22884747 0.012890465

conv2.weight f4 [32, 32, 5, 5]
000000 b0 1e 61 bd da 63 99 bb e3 7b 87 bd 8d b1 9d 3d
       -0.054960907 -0.0046810927 -0.066154264 0.07699881
000010 8e 9b 98 bd ec eb 6a 3d 72 3e e7 bc a5 98 ce ba
       -0.07451545 0.0573539 -0.028228018 -0.0015762044
000020 12 fc 23 3a 84 16 a5 bd 31 89 21 bc ae 66 7d bd
       0.0006255518 -0.08060935 -0.009859369 -0.0618655
000030 57 be 03 3d bb d5 a8 bd e4 18 0d 3e 24 e9 ec bc
       0.032163944 -0.08243891 0.13779026 -0.028919764
000040 c7 54 1a 3c 26 da 4a bd 14 f8 2a 3c 4a 68 07 3d
       0.009419627 -0.04952445 0.010435123 0.033058442
000050 af ae 99 bd b2 81 77 3c e4 1f f7 bd 24 2f 54 3c
       -0.075040214 0.015106605 -0.120666295 0.012950692
000060 7e 4f 04 bd 76 2d ba 3b 65 7d b3 3c ab ae 0c 3d
       -0.032302372 0.005681689 0.021910379 0.034346264
000070 98 be ab bc 55 98 e7 bc 06 71 8d 3c e0 15 7b bd
       -0.020964906 -0.02827088 0.017265808 -0.06130016
000080 a7 f3 bf 3c 72 32 c6 3b 4c 96 a8 3d 5d 7a 32 3d
       0.023431612 0.006048494 0.08231792 0.043573726
000090 d8 d6 14 bd 12 c6 24 bd 4c c6 65 bd 89 25 c3 3d
       -0.036337703 -0.040227957 -0.056097314 0.09528644
0000a0 b7 ef 63 bd d7 51 3b bd a7 23 54 bd da a8 16 bd
       -0.05564853 -0.045732345 -0.051791813 -0.036782123
0000b0 dc 0a 0c bd cf 96 c5 3c ae 88 22 3d a3 62 b2 bd
       -0.034190044 0.024119763 0.03968113 -0.0871022
0000c0 74 e6 b0 3a 1c 43 a2 bd 43 cf 27 3c 31 2d 91 3d
       0.0013496415 -0.07922956 0.010242286 0.07088698
0000d0 4d 7a b4 3d 10 4b 12 3d ad 49 30 3d 79 6e 85 bd
       0.088123895 0.035716116 0.043039013 -0.065152116
0000e0 8c da e3 bd 3e ee 66 bd 5a 1e 5e bd 36 d2 00 be
       -0.11125669 -0.05637955 -0.054228164 -0.12580189
0000f0 28 b8 3e 3d e5 69 01 3d 71 3c 20 3d 26 dc a4 3c
       0.046562344 0.03159513 0.03912014 0.020124506
000100 28 d6 66 3d 54 8c f2 3c 64 b3 8d bd ba 1d 75 bd
       0.05635658 0.02960793 -0.06918982 -0.059842803
000110 7a cd 5a 3d e0 a9 88 3d 36 a3 c8 3d 99 ab b9 bc
       0.053418614 0.06673026 0.09796755 -0.022664832
000120 4f 94 e7 bd 94 3a 91 3b 7d cc 80 3c 72 47 3b 3d
       -0.113075845 0.004432032 0.015722508 0.045722432
000130 cf d6 29 bc 7b 7e c7 bc 88 91 60 3c be 04 f3 bd
       -0.010366156 -0.024352303 0.013706572 -0.11866139
000140 6a 93 fb 3d 39 49 51 3d 82 03 82 3d 63 d5 18 b8
       0.122839764 0.05109522 0.06348325 -3.6438356e-05
000150 33 ab 05 bc f2 87 26 3d 12 39 b8 bc 48 b9 c0 3b
       -0.008158493 0.04065699 -0.02248815 0.0058814622
000160 ff d6 df bc 2d da b7 bd 80 de 27 bc 11 ae fd bb
       -0.027324198 -0.089771606 -0.010245919 -0.0077416976
000170 1f 38 8d 3d 2a 7a 47 bd 68 e8 89 3d fb 08 80 3d
       0.0689547 -0.04870049 0.06733781 0.06251713
000180 0e a8 9a 3c 4e 43 b0 3c bf 6a f1 3d bc 2a f9 bc
       0.018878963 0.021516468 0.11787938 -0.030415885
000190 ac 39 95 bd f4 5c 90 bd e2 44 3e bd 50 40 b7 bd
       -0.07286391 -0.070489794 -0.04645241 -0.089478135
0001a0 d5 74 88 3c 5f aa 7e 3e 59 21 a0 3c 10 da 1f 3d
       0.016657272 0.24869679 0.019547151 0.03902632
0001b0 0e 24 16 bd bd a0 cd bd d5 3a 30 3b 80 71 e1 3d
       -0.03665548 -0.10040424 0.0026890535 0.110079765
0001c0 08 6f e7 3d 52 80 4f 3c 99 2c 83 3d 30 0a 05 be
       0.113004744 0.012664871 0.06404991 -0.12992167
0001d0 57 25 10 3c 8d 07 79 3d dd 94 b4 bc f6 ca fa bc
       0.008797965 0.060798217 -0.02204364 -0.030614357
0001e0 7f 73 27 3e d5 8c 82 3d 0b 5e 4e 3e b0 81 a4 3d
       0.16352652 0.06374518 0.20153062 0.080325484
0001f0 1e 60 20 3c bc 0c 21 3d de 2d ff 3d f9 0a 15 bd
       0.009788541 0.039318785 0.1245992 -0.036387417
000200 a4 8e 07 bd 76 41 23 3d 49 01 4b bc db d6 1e 3d
       -0.033095017 0.03985735 -0.012390443 0.03877912
000210 93 e7 29 3c e0 fb 8c bd 1b 5f 12 3d 94 56 5a 3d
       0.010370153 -0.06883979 0.03573523 0.053305224
000220 d6 5f 3d 3d 57 06 29 bb 66 45 e7 3d d8 b7 7d bd
       0.046233974 -0.0025791132 0.112925336 -0.061942905
000230 85 19 40 bd d3 77 f9 3d be f3 65 3d 49 a5 37 3c
       -0.046899337 0.12181058 0.056140654 0.011208841
000240 d0 ac a2 bd 16 cb 03 bd 15 4a a6 3c 71 b5 fa 3d
       -0.079431176 -0.0321761 0.020298997 0.122416385
000250 fd 98 00 ba 04 11 d5 3c 2e 10 a9 3d 71 c2 d0 3c
       -0.00049056095 0.02600909 0.08255039 0.025483342
000260 2d 3d f2 3c f1 c9 8a bd 95 71 0c bd 3c 3e e0 3d
       0.029570187 -0.067767985 -0.034288008 0.1094937
000270 dd 05 d9 bc d0 f1 8e 3d 6b 10 1d bd 2c 18 e9 3c
       -0.026492054 0.06979716 -0.038345736 0.028453909
000280 b0 ef d3 3c 6f 46 a7 3b 7b 4a 83 3d c1 69 6d 3d
       0.025871128 0.005104832 0.064106904 0.057962183
000290 e1 87 30 bb 8e 7e 6f bc 7b c1 a9 bc d0 74 f3 bd
       -0.002693646 -0.014617575 -0.020722141 -0.118875146
0002a0 bf 48 29 3d d8 e9 2b bd a7 5c 52 3d 05 c1 31 bd
       0.04132914 -0.041971058 0.05135789 -0.04339697
0002b0 7d 76 41 3c 9d 41 5c bd 0b 88 b9 3d 28 6c ea bc
       0.011808035 -0.05377351 0.09059151 -0.028616026
0002c0 85 13 7b bd e9 19 fc bb 2f a7 31 3d 96 40 ad bd
       -0.061297912 -0.0076935184 0.04337233 -0.084595844
0002d0 01 37 08 bd 46 63 6f 3d 62 0d e0 3c 61 2c 5e 3d
       -0.03325558 0.058444284 0.027350131 0.05424154
0002e0 f6 bc 16 bd 8a 40 3e 3c 53 ed e8 3c 55 ed a1 bc
       -0.0368013 0.011612067 0.028433478 -0.019766489
0002f0 7a 4d 86 bd 96 d0 00 3c 19 eb f3 3c 22 a1 bb bd
       -0.06557746 0.007862231 0.02977519 -0.09161593
000300 42 e4 9d 3d b4 64 bc bd 52 61 49 3d 7d 0f d2 bc
       0.07709552 -0.09198895 0.049165078 -0.025642151
000310 bb 04 06 3d d5 0e bb bd 12 ae 71 bd 11 0f ed bd
       0.032719355 -0.09133688 -0.059003897 -0.11575139
000320 87 03 1b bc c8 10 4e bd 18 37 09 bd ab d0 24 3d
       -0.00946129 -0.050308973 -0.033499807 0.040238064
000330 16 44 76 bd 65 a7 07 3d e6 9b 22 3c c8 f0 56 3c
       -0.060123526 0.033118624 0.009924864 0.01311893
000340 f0 f2 b9 3c 64 58 18 3d 1d 33 43 bd 24 68 15 bd
       0.02269885 0.03719367 -0.047656167 -0.03647627
000350 34 67 38 3d 4f 4e c4 bb 48 58 bd 3c 4d 83 56 3d
       0.045020297 -0.0059907804 0.023113385 0.052371312
000360 d7 ac 4d 3c 31 bc 38 3d 25 ae 4b 3d d6 fc 81 3c
       0.012553415 0.04510135 0.049726624 0.015867632
000370 dc a5 70 3c e8 27 bb 3d e2 88 7b 3d a4 ce ba 3d
       0.014687981 0.09138471 0.06140984 0.09121445
000380 ff 21 3d 3d 11 b8 6a 3d 6c 03 56 bb d1 6d 49 bd
       0.046175 0.057304446 -0.0032655848 -0.049176995
000390 a8 fc 84 bd d7 e0 1f 3d e0 98 bb 3c ef e8 a7 3d
       -0.06493503 0.039032783 0.022900045 0.081987254
0003a0 66 78 32 bd 09 6a a3 3d b7 d5 1d bc 91 9a d8 bd
       -0.043571852 0.07979209 -0.009633473 -0.10576356
0003b0 db e7 c4 bc e9 28 ed 3c 45 f4 3d bd e9 84 d2 bb
       -0.024036339 0.028950172 -0.04637553 -0.0064245355
0003c0 1d 84 ed 3d 08 51 05 bd 91 c1 06 3c 22 ca 55 3d
       0.11597464 -0.03254798 0.008224861 0.052194722
0003d0 fa bc ce 3c ed 81 e3 bc a1 12 1b 3c f3 69 06 3c
       0.025236595 -0.027771914 0.009464891 0.008203971
0003e0 93 da 3c 3c 7c 52 55 3d 04 dd 98 3b d6 46 04 be
       0.0115267215 0.052080616 0.004665019 -0.12917647
0003f0 c1 b9 0b bd 3f bf 93 bd 45 a5 5c 3d 1c 31 38 bc
       -0.034112696 -0.07214212 0.05386855 -0.011242177

conv2.bias f4 [32]
000000 f0 a9 1a 3c 2d e6 87 ba 0b ce 0e bd d8 9d ce 3c
       0.00943993 -0.001036828 -0.034864467 0.02522175
000010 30 54 51 3d aa a7 5a 3d bc de 04 3d 1c 53 51 bc
       0.051105678 0.053382553 0.03243898 -0.0127761625
000020 0b fb b8 3c 54 9f 81 bd be ec f7 3b 58 89 40 bd
       0.022580644 -0.063292176 0.0075660637 -0.04700598
000030 5e ff db 3c 9c 51 20 3d 6e 27 ff 3c 46 50 01 3d
       0.026855167 0.03914033 0.031146731 0.031570695
000040 1c 32 d2 bc e4 c8 8b 3c bc bd 36 3d 25 8b c2 bb
       -0.02565866 0.017063566 0.04461454 -0.0059369975
000050 d2 c8 0a bd 65 2c 77 3c 9d 06 fb bc 44 8a 6d bd
       -0.033882923 0.015086268 -0.030642802 -0.05799319
000060 4e 00 a1 bb cc c8 1d 3d ab 94 93 3c 42 b0 c4 3c
       -0.0049133664 0.038521573 0.018015226 0.024009828
000070 db 1c 16 3d 37 c2 8c 3c 1c 1d 99 bb 1d ec 50 bd
       0.036648612 0.017182453 -0.0046726596 -0.051006425

conv3.weight f4 [32, 32, 5, 5]
000000 ad 6b 85 3b 89 1f 15 3d d9 19 98 bc a4 71 aa bc
       0.004071674 0.036407027 -0.018567013 -0.020806141
000010 9b 41 66 3c cc ec 12 3d e0 ca 3b 3c 59 c7 54 bc
       0.0140537275 0.03587036 0.011461943 -0.012986981
000020 19 09 85 bc aa 91 15 bc 94 25 38 3c 8e 43 a4 3b
       -0.01623969 -0.009128967 0.011239428 0.005012936
000030 87 74 15 3d 5c 35 d4 3d 7a 44 eb bc 3f dc 4a 3c
       0.036488082 0.1036174 -0.028719176 0.012381612
000040 d4 97 e8 3c 35 37 a2 bd 5d 07 1f 3e 40 66 ac 3d
       0.02839271 -0.07920686 0.15530153 0.0841794
000050 43 aa df 3d 8d ee 22 bd 3d 02 09 3e f5 ba f6 bd
       0.10921147 -0.03977828 0.1337976 -0.12047378
000060 04 0a da 3d 22 b0 3e 3d 20 68 ea 3c 26 5f bd 3c
       0.106464416 0.046554692 0.028614104 0.02311666
000070 e1 2b 98 3b 99 33 72 3d 07 d8 11 3d aa 8a 73 bb
       0.0046439026 0.05913124 0.03560641 -0.0037161508
000080 6e 20 ab 3d b3 e9 f6 3b b2 6e aa 3d 7e 98 02 3b
       0.08355795 0.0075351833 0.08321895 0.0019927318
000090 7c 80 b8 bc 04 77 98 3d ca 04 cf 3c 09 27 b1 3d
       -0.022522204 0.074445754 0.025270838 0.086500235
0000a0 96 72 0b bd a1 9a 65 bd 35 73 bb 3d f0 7f b4 bc
       -0.034044825 -0.05605567 0.09152833 -0.022033662
0000b0 3f a9 51 be 25 fd c5 3b 13 e7 2c 3d 61 92 f1 bd
       -0.20474719 0.00604214 0.042212557 -0.11795498
0000c0 42 61 85 3c 5e 5f 00 be e6 f1 8f 3d 75 70 b4 3c
       0.016281728 -0.1253638 0.0702856 0.02202628
0000d0 52 52 98 bc 34 86 3b 3c 90 c3 11 3c 11 c8 28 3c
       -0.01859394 0.011445571 0.008896723 0.010301606
0000e0 7e 0c 33 bd e8 fd 10 3d 53 06 ab 3c 82 58 b4 3c
       -0.043713085 0.035398394 0.020877039 0.02201486
0000f0 7d c0 b0 bd 3e d6 98 bd 19 70 f0 3a 3e f1 dc 3d
       -0.08630464 -0.074627385 0.0018343955 0.10788201
000100 e5 bb 91 3d b8 ff 5b bb 42 dc 05 3d 7c c6 d7 bb
       0.07115916 -0.0033569168 0.032680757 -0.0065849405
000110 aa 01 aa bc 9c 71 e3 bd b6 d7 d1 bc f6 1e 9a ba
       -0.020752747 -0.11105654 -0.025615554 -0.0011758495
000120 ee b8 2e bd fd f7 88 bc 6b de 6c bd e8 d6 86 bd
       -0.04265683 -0.016719813 -0.0578293 -0.06583959
000130 53 e0 5c 3d 67 ef 6e bc 29 ec 0a bd 28 e5 e9 bd
       0.05392487 -0.014583445 -0.033916626 -0.11420661
000140 2b 18 e4 bc 21 ab ef bd aa 9d cc 3b aa 8a 16 bc
       -0.027843555 -0.11702562 0.006244381 -0.0091883335
000150 1a 54 a7 bc f0 66 7e 3d d1 ad 79 bc 19 fd 6b 3d
       -0.020425845 0.062109888 -0.015239195 0.05761442
000160 75 23 a7 bd d2 9b 86 3c 69 7a e8 3d 07 a7 14 bc
       -0.0816106 0.016431723 0.11351473 -0.009073026
000170 5c 0f ef 3c 11 77 2c 3e 66 c9 58 bd 6d 18 06 3d
       0.029182129 0.16842295 -0.052926444 0.032738138
000180 2d 22 95 bc f1 cf a4 bd 3c d9 ea 3d 0e 0a 42 bd
       -0.018204773 -0.08047474 0.114672154 -0.04737287
000190 3c 30 53 bd 96 2c ef bb a9 94 80 bc 2a 89 8c bc
       -0.05155967 -0.007299016 -0.015695887 -0.017155249
0001a0 f3 62 af bb ae f9 7f bc b8 89 c7 3c e4 f2 a5 bc
       -0.005352372 -0.015623493 0.024357662 -0.02025742
0001b0 f3 5f ec bc 32 eb b2 bc 59 19 8c bc d0 db d5 bc
       -0.028854346 -0.021840665 -0.01710193 -0.026105791
0001c0 98 71 55 3d 4c e0 42 3a 83 98 12 3d 9c a7 36 3d
       0.052110285 0.00074339355 0.035789978 0.04459344
0001d0 cf 06 f3 b6 69 d2 40 3d 63 da b4 bb 02 ec f6 3c
       -7.242757e-06 0.047075663 -0.005519198 0.030141834
0001e0 b0 7d af bb e5 30 d6 3c 64 75 23 bc e0 21 14 3e
       -0.0053555593 0.026146362 -0.009976719 0.14466047
0001f0 6f f6 c1 3c ec 37 2a bc bd 2f 36 bd 15 6a 16 3d
       0.023677079 -0.010389309 -0.04447912 0.03672226
000200 cc c6 15 bc 20 ad 2e bc 86 92 d1 bc c8 48 e8 3c
       -0.009141635 -0.010661393 -0.025582563 0.028355017
000210 e3 62 a0 3c 3e 80 8f bb 74 3d fd bc ee 6b df 3d
       0.019578403 -0.0043793013 -0.030913092 0.10909258
000220 de 3f 97 bd c8 96 47 3c c9 12 26 3d dd 8e f9 3d
       -0.073852286 0.012181945 0.04054526 0.12185452
000230 2e b6 5d bd 18 22 d1 3d 21 f6 15 3e ba 18 14 bd
       -0.05412882 0.10211581 0.14644672 -0.036156394
000240 53 3d a7 3d 76 7b b0 bd a1 5e d6 ba f6 e3 9c bd
       0.081659935 -0.08617298 -0.0016355106 -0.076606676
000250 83 f9 4b 3d 5d 27 9e bd a4 c5 f0 bc aa e7 4e 3d
       0.0497985 -0.07722352 -0.029391117 0.0505139
000260 02 4c e7 39 b8 5e 94 3c 95 07 4c bd 25 5f 80 bd
       0.00044116384 0.018111572 -0.04981192 -0.062681474
000270 22 5d ea bc 0b 65 54 3d 4b 01 a7 3c 63 11 8c bc
       -0.028608862 0.051854175 0.020386359 -0.017098134
000280 dd 88 37 3d ca c1 fc bc 2b 0b ef 3c 02 47 4c b9
       0.044808257 -0.030854125 0.02918013 -0.00019481409
000290 cd 26 a4 bd ee d1 16 bd 4b 14 3c bb 69 c6 2f 3e
       -0.08015213 -0.0368213 -0.002869862 0.17165531
0002a0 86 c5 f7 bc 73 8e a8 bd a0 45 af 3d b3 87 c3 bd
       -0.030245554 -0.08230295 0.08558202 -0.09547367
0002b0 3d 40 02 3d 01 84 34 3d e7 77 68 bc f4 ee a0 3d
       0.031799544 0.0440712 -0.014188743 0.07858077
0002c0 9b 76 5d 3c 62 77 19 3d a9 b3 d9 3c 54 42 86 bc
       0.013517047 0.037467368 0.026574926 -0.01638905
0002d0 8f 06 11 bd 5b 74 14 ba c9 24 99 3c 61 26 59 3d
       -0.035406645 -0.000566309 0.018694298 0.053015117
0002e0 71 84 ab 3c 84 a2 1b bd dd ab 92 3d 6a b3 01 be
       0.020937176 -0.037996784 0.071616866 -0.12666097
0002f0 d2 35 df bc 3e ba 39 3d 11 5c 82 bc 0b 7d a5 3d
       -0.027247343 0.04534363 -0.015913041 0.08080491
000300 a6 23 b5 3d d9 28 80 bd 3c d8 a6 3c 92 45 8e bd
       0.0884469 -0.06257791 0.02036678 -0.06946863
000310 cb 7f 97 bd c6 cd 8c 3d 70 e0 90 3c c4 b0 aa 3d
       -0.073974214 0.06875186 0.017685145 0.083344966
000320 8e 34 97 3c a6 dd 91 3d 9f 72 84 3a f5 18 cd 3d
       0.018457677 0.07122354 0.001010496 0.10014526
000330 1d 90 3c 3d 64 60 69 bc c9 2e 1a b9 62 ab 0b bd
       0.046035875 -0.014244173 -0.00014704013 -0.03409899
000340 e8 0d 19 bd 02 3f 40 3d ff 41 db 3d 22 88 4b 3d
       -0.037366778 0.04693509 0.10705947 0.049690373
000350 83 d4 3b 3c 29 a6 4e be 8d 6c 26 3d 28 f0 1a 3d
       0.011464241 -0.20180573 0.040630866 0.037826687
000360 72 ad 80 bd 15 ff eb bc b9 04 1c 3e 23 6e 02 bd
       -0.06283082 -0.028808156 0.15236177 -0.031843316
000370 b1 f7 b1 3d 0d de 5f 3a f1 65 5e 3b 19 70 0e bd
       0.086898215 0.0008539863 0.0033935274 -0.034774873
000380 68 34 2d 3d 51 c8 82 bb 62 83 17 bb fd 0d e6 bc
       0.042286307 -0.0039911647 -0.0023119082 -0.028082842
000390 f3 66 a3 bc c5 4d 87 3d cd ad ec 3c 9a 9f ab 3c
       -0.019946551 0.0660663 0.028891468 0.020950127
0003a0 c0 86 9f bc 06 3d c4 bd 71 de c1 bb 99 8d 6e 3c
       -0.019473433 -0.09581952 -0.0059164097 0.014560127
0003b0 e9 59 cf bb df 51 ef 3b 0f 5f 1c 3e 46 d7 2a be
       -0.006327857 0.007303461 0.15270637 -0.16683683
0003c0 06 f7 42 bd 17 e5 5d bc d4 5f 1e 3d 3d e9 36 bd
       -0.04759886 -0.013543389 0.038665608 -0.044656027
0003d0 60 88 e0 3b 45 34 d1 bb 1b 7d 24 be 27 22 31 bd
       0.0068521947 -0.006384405 -0.16063349 -0.04324546
0003e0 c5 ad 6d be 8b c6 e6 3b 5a 61 ad bc 5a 01 9c 3d
       -0.23210819 0.007042711 -0.021164585 0.07617445
0003f0 0a fb 90 bc 53 eb 57 3c 7c 09 2c 3d 7e 9b 59 3d
       -0.01769783 0.013178664 0.042001233 0.053126805

conv3.bias f4 [32]
000000 fc e1 07 3d 07 61 27 3d 15 c6 3b bd ce 1d 9b 3d
       0.0331745 0.040864017 -0.045843203 0.07574044
000010 3a e4 10 bc d7 98 31 bd cc d1 f9 3b ec eb 93 bc
       -0.008843476 -0.04335865 0.0076238867 -0.018056832
000020 4b 61 1d 3c e7 aa 26 bd 01 93 29 bc 9d ce 71 3c
       0.009605716 -0.04069033 -0.01034999 0.014758733
000030 65 6f 8a 3c d9 4a a1 bb 27 c2 bb bb 8e 72 23 3c
       0.01689882 -0.0049222526 -0.005729932 0.009976042
000040 fe af 90 3c 0e 26 18 39 15 a0 ce 3c db c8 da 3c
       0.017662045 0.00014510026 0.025222817 0.026707103
000050 44 bd 25 bc a4 74 83 ba 07 66 04 bc 4c 1f 23 3c
       -0.010115925 -0.0010029268 -0.008080966 0.009956192
000060 de d8 bc 3c ed 61 8d bb d4 7a 17 3d 35 ee 47 3d
       0.02305263 -0.004314652 0.036982372 0.048811156
000070 b3 d8 f1 3c d5 1e 6a 3c f9 7e ef bc 2e 37 37 3d
       0.029522276 0.0142895775 -0.02923535 0.044730358

MLP1.weight f4 [50, 1344]
000000 04 d1 ae bd d4 c9 d0 3d d4 30 dd 3c 0a d2 a0 bc
       -0.0853596 0.10194746 0.027000822 -0.019631404
000010 1a c8 97 bd b9 63 43 bc af 5a 3b bc 96 05 c4 b9
       -0.07411213 -0.011925631 -0.011435195 -0.00037388195
000020 c4 b9 8d bc 57 b9 eb 3c 39 39 05 3c f9 99 d6 3d
       -0.017300494 0.0287749 0.008131319 0.10478587
000030 82 c4 e1 ba 3c 3a 5c 3c 48 52 47 3d a6 85 5f 3d
       -0.0017224702 0.0134416185 0.048662454 0.054570816
000040 8a 73 c3 bd 36 96 93 bc da eb 2a bd b9 00 d8 3c
       -0.09543522 -0.018015962 -0.04172883 0.026367532
000050 10 97 f6 3b b3 5a a7 3d 6d 0e 54 bd 15 15 03 3d
       0.0075253323 0.081715964 -0.05177157 0.032002527
000060 67 ab 8b 3d 8d 3e 91 3c c2 fa 5a bb e8 99 21 3c
       0.06819802 0.017730022 -0.0033413623 0.009863354
000070 e1 1b 25 3d 65 e6 0a 3d 83 6e aa bc ae 9c a0 bb
       0.04030979 0.033911128 -0.02080465 -0.00490149
000080 07 22 8f 3c 3f 10 a6 3a 94 91 a5 3c 15 57 76 bd
       0.01747228 0.0012669637 0.020211019 -0.06014164
000090 7f 1c 99 3d 3f 99 89 3c 5c bd 1e 3c ee 87 50 3c
       0.07476138 0.016796706 0.0096887015 0.012727721
0000a0 3c 02 1f 3c 23 b7 ff 3b 7e 5d 14 3d 90 a6 81 bd
       0.009705123 0.007803814 0.036221974 -0.063305974
0000b0 53 be 17 bd f2 59 f9 3c 67 22 9b bb d8 95 b1 3c
       -0.03704674 0.030438397 -0.0047343257 0.021677896
0000c0 ac 5c c1 3c b6 2b bd bc 83 d1 db 3c b9 04 b1 bc
       0.02360376 -0.023092132 0.026833301 -0.021608697
0000d0 d7 69 0b bd 3d cd a0 bd 7b 60 5e 3b 6d 5e ed 3c
       -0.034036484 -0.07851646 0.0033932019 0.02897569
0000e0 89 bc 81 bc 82 48 e9 3c 0d fb 40 3b 17 04 fb bb
       -0.01583697 0.028476957 0.0029446513 -0.0076603997
0000f0 7c 9a 56 3d ed c0 13 bd 12 c8 f8 3c c6 ae e7 bc
       0.05239342 -0.03607266 0.030368838 -0.02828158
000100 b1 d2 60 3d ea a6 f2 3c 64 59 60 bd 14 7f 60 3c
       0.05488843 0.029620606 -0.05477275 0.013702173
000110 ea 63 79 3b e3 91 2e 3d ae 98 07 3c 48 e5 e9 3c
       0.0038053938 0.042619597 0.008276148 0.028551713
000120 14 a6 8c 3d 44 41 a6 3c 02 72 c9 bc 03 f0 6c 3d
       0.068676144 0.020294793 -0.024590496 0.05784608
000130 a5 c8 00 3d 11 5c c1 bc de 5f 12 bd 33 ad 52 3d
       0.03144135 -0.023603471 -0.035735957 0.051434707
000140 10 70 35 bd 9c 79 0e 3d 1b 78 a8 bc cc 02 03 3d
       -0.044296324 0.034783944 -0.020565083 0.03198509
000150 bc 6f b8 bd cd 87 e1 bd 85 a7 02 3c 62 f7 b0 bc
       -0.09005687 -0.1101223 0.00797451 -0.021602336
000160 73 4d 0d bd 51 d3 a4 bd 3f 50 02 3d 89 79 df bd
       -0.03449769 -0.08048118 0.03181481 -0.10911853
000170 84 05 aa 3c 71 99 04 bd 2e 88 67 bd d7 21 e3 bc
       0.020754583 -0.032372896 -0.056526355 -0.027726097
000180 15 cc 4f 3d 69 a4 ab bd 7e a4 88 bd 14 3f 02 3d
       0.050731737 -0.08380968 -0.066719994 0.031798437
000190 93 2b 0d bd ab de a9 3b f4 9b 9f 3d 22 5b bc bc
       -0.034465384 0.005184015 0.077934176 -0.022992674
0001a0 3a 70 66 bd 76 63 89 3d e8 4d 51 3d 56 17 85 3c
       -0.05625937 0.06708424 0.051099688 0.016246479
0001b0 97 d5 e9 bd 78 86 fc 3b 00 c9 51 3d 4a 0f e1 bc
       -0.11417692 0.0077064596 0.05121708 -0.02747311
0001c0 04 a1 6b bd fc f3 13 3d 88 4a cd bc a8 80 0c 3d
       -0.057526603 0.036121354 -0.025059953 0.034302384
0001d0 64 81 ab bc 20 3f 6d 3d 4a ec b6 bd c6 e7 3f be
       -0.020935722 0.05792153 -0.08931787 -0.18740758
0001e0 f1 90 a4 bd 3f 4e 79 3d 05 4c 58 bd 97 56 af bd
       -0.08035458 0.060865637 -0.052806873 -0.085614376
0001f0 fe 11 1b bd 96 75 6e bd 83 12 1e bd 4b 0c 40 bd
       -0.037858956 -0.058217607 -0.038591873 -0.046886723
000200 d2 b9 86 bc a5 b6 f0 3c 8e 7b a4 3a e8 ff 5a 3d
       -0.016446028 0.029383967 0.0012549029 0.053466707
000210 86 f4 9a bd b2 9a ab 3d 39 45 f3 bb 1c 52 57 bd
       -0.075661704 0.08379115 -0.0074240235 -0.05256854
000220 da 12 29 b9 54 b0 b4 3c fb a0 be 3c 93 5e 87 3c
       -0.00016124119 0.022056736 0.02327012 0.016524589
000230 f2 cb 0f bd c5 2d 83 bd 9d ba ac bc 41 bb 1a bd
       -0.035106607 -0.06405214 -0.021085078 -0.037776235
000240 ea 05 08 bd 5a f2 19 3c 63 f7 47 bd d2 e9 55 3c
       -0.033208765 0.00939616 -0.04881991 0.013056235
000250 ed 81 22 3d 6d fd a4 3a a4 cb c8 bc 64 20 20 3c
       0.039674688 0.0012587734 -0.024511166 0.0097733475
000260 32 d9 08 bd c0 8a 7b bc d4 1c 6c 3d 63 91 0e bd
       -0.03341026 -0.015352905 0.05764468 -0.03480662
000270 5d 30 b2 bc 81 d5 be bd da e2 6c bd 1e 3d 69 bd
       -0.021751577 -0.093180664 -0.05783353 -0.05694305
000280 7b d7 1b 3d 3d b7 b8 bd 81 c1 0d 3d 10 c5 23 bc
       0.038047295 -0.09019325 0.034608368 -0.009995714
000290 d2 2f 83 3d 27 89 aa bd a8 ef 6b 3d f6 35 da bc
       0.064056054 -0.08326941 0.0576016 -0.026637059
0002a0 15 8a 12 3d 63 f0 94 3d 70 cc 2c 3d 39 3f 53 bc
       0.035776217 0.07272413 0.042187154 -0.012893491
0002b0 dc 71 82 bd 30 7b 24 bc d7 35 e9 bd 6f 83 56 3d
       -0.06369373 -0.010039136 -0.11387222 0.05237144
0002c0 66 34 07 bc ad 39 d2 bc 02 ad aa 3c 0a 63 5d 3d
       -0.008252239 -0.025662268 0.02083445 0.05404953
0002d0 63 96 c2 bc 43 12 21 bd 4b 2e a8 bc ca 75 ae b9
       -0.02375335 -0.039324056 -0.020529887 -0.00033275626
0002e0 cc 68 48 3d 95 4f ed bd 19 3e 90 bd 0b ea 8a bc
       0.048928067 -0.11587445 -0.07043094 -0.016957304
0002f0 dc a5 63 3c 83 f2 2b 3d 7b a1 0e 3c fd 74 25 bd
       0.013894524 0.041979324 0.008705492 -0.04039477
000300 f5 92 bb 3c 43 bc 14 3d 49 bc b3 bb bc 98 58 3d
       0.022897223 0.036312353 -0.005485092 0.052880034
000310 29 04 e7 3c 6d 09 aa 3c 4d 7a 78 bd 40 a8 9a 3b
       0.028200226 0.020756448 -0.06066351 0.004719764
000320 ca e2 19 3d a1 83 e0 3c 90 4b a4 3d 47 18 99 bc
       0.0375698 0.027406516 0.08022225 -0.018688334
000330 38 c1 64 bc 23 ac 30 3d 14 94 93 3b 61 db 85 3d
       -0.013962083 0.043132912 0.0045037363 0.06535984
000340 3a 10 88 3b a3 eb 51 bd 60 a5 3a bd 03 49 11 bd
       0.004152325 -0.05125011 -0.04556787 -0.03547002
000350 47 5f 2c 3d 61 1b 8c bc c2 11 db bb 1a 17 14 3d
       0.04208305 -0.017102899 -0.0066854665 0.036154844
000360 74 a3 b8 bd 4d 09 ef 3c 12 df 8e bc 34 52 dc bb
       -0.09015551 0.02917924 -0.017440353 -0.0067236666
000370 f1 6b 1b bc 63 92 38 bc e0 38 38 3d a2 8b 09 3b
       -0.009486184 -0.01126537 0.044976115 0.0020987769
000380 f9 cd c4 bd ae 34 01 bd 05 c5 87 ba de 39 56 3d
       -0.09609599 -0.03154438 -0.0010358399 0.05230128
000390 67 fd 6b bb 76 75 5b bc 83 eb d8 bc 69 4c 59 be
       -0.0036009194 -0.013394704 -0.026479488 -0.21220554
0003a0 e6 d3 ed 3b ca 75 22 bc 7f 68 1c 3d 30 33 80 3d
       0.0072579263 -0.009915778 0.038185593 0.06259763
0003b0 31 d2 f8 3c 4d 01 ab bc b6 88 06 bd cb a9 e8 bd
       0.030373665 -0.020874644 -0.03284522 -0.113605104
0003c0 d6 b4 aa bb a4 fc 10 3d 29 08 de ba f7 9e 6f bb
       -0.0052095456 0.035397187 -0.0016939688 -0.0036563256
0003d0 53 08 cf bb 7d f3 60 3d 81 45 54 3c c8 4f 0f be
       -0.006318131 0.05491971 0.012956024 -0.13995278
0003e0 4e 8c 4e 3d 06 7d 5e 3d 5d a0 48 3c 2b ab 3c bc
       0.050426774 0.05431845 0.012245265 -0.011515419
0003f0 d3 61 62 3d 06 7f f0 bb 98 c4 d3 bc 38 3b 0e 3d
       0.055269074 -0.007339361 -0.02585058 0.034724444

MLP1.bias f4 [50]
000000 e6 c8 9e bb f0 39 bd bb 7e 7d 95 bc 5e 93 3c 3c
       -0.0048457263 -0.005774729 -0.018248316 0.011509744
000010 a9 aa ca 3a 1c 59 30 3d 50 6b a7 bb c1 75 ce bc
       0.0015462238 0.04305373 -0.005109228 -0.025202634
000020 96 63 c6 bc 0b 44 43 bc 89 39 a3 bc 5e 62 23 3c
       -0.024217408 -0.011918078 -0.019924896 0.009972183
000030 44 83 20 3b 77 8c 19 3d de 4e 88 3a 38 16 01 bc
       0.0024492303 0.037487473 0.0010399481 -0.0078788325
000040 05 a9 02 bc af 15 06 3d e0 91 84 bc 6c c2 e2 bb
       -0.007974868 0.032735523 -0.01618284 -0.0069201495
000050 8e 2e 00 3d 4c 3b cc bc c2 64 24 3c 2e 42 94 bc
       0.031294398 -0.024930619 0.010033788 -0.018097963
000060 8a c8 15 3c a1 c6 21 bd ab 93 06 3d 21 7c fc 3c
       0.0091420505 -0.039496068 0.03285567 0.030820908
000070 9c 55 1a 3d 8e 4a 03 3d a5 96 2c bd df ef 9b ba
       0.0376793 0.032053523 -0.042135853 -0.0011897049
000080 68 6a f2 bc 32 d1 fa bb bf 6c 4c 3d c0 c5 dd bb
       -0.029591754 -0.0076543326 0.049908396 -0.0067679584
000090 75 fe 27 bd f9 a7 2f 3c 85 70 a0 bc a2 c6 21 3d
       -0.041014154 0.0107212 -0.019584903 0.03949607
0000a0 06 24 09 bc d1 43 08 bd 94 82 9c 3c e2 01 3f 3d
       -0.008370405 -0.0332678 0.019105233 0.046632655
0000b0 75 68 12 bd f7 b4 1d 3d dd a1 02 bd d8 ff 1c 3d
       -0.03574415 0.03850266 -0.031892646 0.03832993
0000c0 83 94 42 3d 83 bb 34 bc
       0.047504913 -0.011031034

MLP3.weight f4 [50, 50]
000000 90 36 a3 bd 69 b9 49 3e 70 70 53 bb 67 b1 2f 3e
       -0.07969391 0.19699635 -0.0032263063 0.17157517
000010 b8 22 7b 3d 6b 64 d9 3c 8d c9 2e 3e 6a 87 96 3d
       0.061312407 0.02653714 0.17069073 0.07350047
000020 d9 c8 68 3e 29 01 43 3d 4b d0 cc bd b4 28 08 be
       0.22732867 0.04760853 -0.10000666 -0.13296777
000030 b5 84 6b 3d 4d dc 2a be 63 69 d7 bd dc f1 6b bb
       0.057499606 -0.166856 -0.10518148 -0.0036002314
000040 c8 f7 91 3d d4 88 1c bc ea 01 1f be 35 32 34 be
       0.07127339 -0.009554107 -0.15528074 -0.17597277
000050 f1 05 93 3d 02 68 13 be ed ac a0 3c 7f 45 de bc
       0.071788676 -0.14395145 0.019613707 -0.027132748
000060 32 56 e9 3d d4 33 cc bb e6 e2 2b 3d 1b f7 ba 3b
       0.113933936 -0.0062317643 0.041964434 0.005705727
000070 0c 2c fe bc b8 1b e5 3c c2 20 22 3e e6 98 17 be
       -0.031026863 0.027967319 0.15832809 -0.1480442
000080 7d b8 69 3e 75 f9 d3 bd 01 8c 99 3d 78 84 a5 3d
       0.22824283 -0.103503145 0.07497407 0.08081907
000090 6b 17 a8 bd c8 46 7f bd 0f 31 11 bd 3e e9 3a be
       -0.082075916 -0.06232336 -0.035447177 -0.18253037
0000a0 ba e1 5f 3e 6f 65 5a 3d 69 aa 67 be b1 25 12 3e
       0.21863452 0.05331939 -0.226236 0.1427219
0000b0 24 8f 45 be 5e a7 d0 3d dd fc 97 bd 77 d1 87 bd
       -0.19292885 0.10188173 -0.07421277 -0.06631749
0000c0 68 45 45 3e f6 f0 ea 3d a3 3d 04 3d 6a f2 69 3e
       0.19264758 0.11471741 0.032285344 0.2284638
0000d0 79 c3 60 bd 9b 1b 03 be 3a 8a 7c 3e c8 8d 18 3e
       -0.054873917 -0.128035 0.24662104 0.14897835
0000e0 3a 8f c1 bd 87 e1 10 3d e7 ba 1e be 96 7f f7 3d
       -0.094511464 0.03537133 -0.15500985 0.12084882
0000f0 ff a1 c2 bc bc 39 b5 bd 13 44 8e 3d 04 14 25 3d
       -0.023758886 -0.088489026 0.06946578 0.04030229
000100 fb 4e ca bb 44 f7 35 be 20 92 1e 3e 7f b9 44 be
       -0.006173966 -0.17770106 0.1548543 -0.19211386
000110 de f8 a1 be fd 58 0e be ca 96 3a 3d 4d 7f 3e 3d
       -0.31635183 -0.13901134 0.04555396 0.046508122
000120 7e 46 1c 3c 26 b1 0b 3d 2c ae bb 3d 4a 98 d7 bd
       0.009538291 0.03410449 0.0916408 -0.10527094
000130 3d c4 a9 3c b5 44 8b 3d d5 0f 12 3e 90 74 f1 3d
       0.020723457 0.06800214 0.14263852 0.11789811
000140 73 93 b5 bd 83 97 04 be 76 3f b6 3d b9 ab ed bd
       -0.08866014 -0.12948422 0.08898823 -0.11605019
000150 4e e1 b7 bd 47 5e 8c 3d ad cc 06 be fc b0 75 3e
       -0.0897852 0.068539195 -0.13164015 0.23993295
000160 b9 eb 8a bd a1 9c 0c 3e 2c fc 93 be da 37 23 3e
       -0.06783242 0.13731624 -0.2890333 0.15939274
000170 25 16 00 3e 95 a4 80 3d dd 66 b8 3d 8e 3e 70 bd
       0.12508447 0.062813915 0.090039946 -0.058653407
000180 0d 29 8a 3d f3 b8 bc 3d 22 fb 8b bd 47 b8 05 3e
       0.06746111 0.09214964 -0.06835009 0.13058577
000190 87 ac e5 3c d6 18 1a 3e 69 2d 87 bd 45 54 38 bb
       0.028036369 0.15048537 -0.06600458 -0.00281264
0001a0 45 dd ef bd 25 d8 dc 3d cc a4 2a 3e e6 b8 4c bd
       -0.11712126 0.10783414 0.16664428 -0.04998102
0001b0 ad 70 39 be fa 9c 0c be a7 0a db bd 6b 28 26 3e
       -0.18109389 -0.13731757 -0.10695391 0.16226356
0001c0 50 a6 1c 3e d9 ee 33 3e 0a 17 af bd 31 14 05 3c
       0.15297818 0.17571582 -0.08549316 0.00812249
0001d0 58 db e5 bd 9a 07 fe 3c 55 bc 48 3e c2 9f 9b 3c
       -0.11223477 0.031009484 0.19603093 0.018997077
0001e0 82 76 16 3e 69 6f 01 be 47 45 d3 3c 49 4f 70 bd
       0.14693645 -0.12640156 0.02578987 -0.058669362
0001f0 e5 7a 7e 3e ed 1c 60 3d 08 f3 1d bd 3d 78 a2 bc
       0.24851568 0.054715086 -0.03856185 -0.019832725
000200 f6 8a 62 bd d3 ad 6a 3d ae ef ca 3e c2 85 94 3d
       -0.055308305 0.057294678 0.39635986 0.07252075
000210 bd 10 81 3c fc fa 18 3e d5 bd 4f bd 0c d2 1f bd
       0.015755052 0.14939493 -0.050718147 -0.039018676
000220 74 a7 14 3e 33 4d f4 bd ac 2f ab bd 38 06 89 3d
       0.14517003 -0.11928787 -0.08358702 0.06690639
000230 5d 88 c6 3e cf 18 a1 bd 6c df bb bc c8 8e 65 3e
       0.38775912 -0.0786606 -0.022933684 0.22417748
000240 30 4d 98 bd 65 64 f7 3d 61 a3 dd 3d 61 ff a0 bd
       -0.07436597 0.120796956 0.10822178 -0.0786121
000250 eb 09 33 3e 40 6b c0 bc 06 4a 3e bd f2 8b b4 bc
       0.17484252 -0.02348864 -0.046457313 -0.022039387
000260 42 5b 0f 3d 78 ca e6 3d 12 20 b9 bd ca d6 46 bd
       0.03499914 0.112690866 -0.0903932 -0.048544683
000270 37 22 95 3c 3e a9 98 bd 3a 8b d6 3d 9a 52 03 3e
       0.018204791 -0.074541554 0.10475774 0.12824479
000280 85 dd 06 3e 36 88 87 be b8 98 12 3e 2f 49 68 bd
       0.1317044 -0.26471108 0.1431607 -0.05671042
000290 44 57 c0 3e 64 c3 87 3a f5 f9 82 be 8a dd 48 bd
       0.37566578 0.0010357914 -0.25581327 -0.0490394
0002a0 94 5f 79 3d 58 79 47 be 9e fa 76 be 1c 99 5f bd
       0.060882166 -0.19479883 -0.2411904 -0.054589376
0002b0 08 57 1b be 0e 5a a7 3e 8f f8 f7 3b 6c 18 8a 3e
       -0.15169919 0.32685894 0.0075674723 0.26971757
0002c0 f6 67 73 3e ca 36 c0 bb 84 8d 31 be 94 36 8b 3d
       0.23770127 -0.0058659064 -0.1733914 0.06797519
0002d0 9f 05 5c 3d 5f 17 aa 3d 38 6a 86 be e3 cd ae bd
       0.0537163 0.08305239 -0.26252913 -0.085353635
0002e0 e8 5d 83 bd f1 0a 0f 3e 5d 52 30 be 26 64 97 3d
       -0.064143956 0.13969018 -0.17218919 0.07392149
0002f0 66 b0 58 3d 1b c4 da bd 3a 59 39 3e 0c 11 0d 3e
       0.0529026 -0.106819354 0.18100443 0.13776034
000300 47 f3 95 3e f6 57 19 bd b4 2f aa 3e e6 61 88 bd
       0.29287168 -0.0374374 0.3323952 -0.06659298
000310 63 19 ae 3e d2 92 4f 3c 85 b0 de bd c9 4c 66 3d
       0.34003744 0.012669282 -0.10873512 0.05622557
000320 23 17 56 3e c7 09 b5 bd a4 7e 40 3c 2f 96 5a 3e
       0.20907263 -0.088397555 0.0117489435 0.21346353
000330 05 27 8d bc 5b 20 63 3d e5 da 12 bc 17 56 a7 bc
       -0.01723052 0.05545078 -0.008963321 -0.020426793
000340 99 7a 0e 3e f6 bf cd bd 95 70 6d be 19 bd 44 bd
       0.13913955 -0.10046379 -0.23187478 -0.0480319
000350 a4 47 e7 3d 71 8e 1c 3d 7e 5c 20 be 85 68 1d be
       0.11292961 0.03822178 -0.15660283 -0.15371902
000360 3a d0 c2 bd 21 72 2b 3e 92 a7 20 3e d3 ad 6f 3d
       -0.09512372 0.16742755 0.15688923 0.05851538
000370 0b f0 0c 3d 96 00 96 3e 79 aa b6 bc 3f 73 fd bd
       0.03440861 0.29297322 -0.022298085 -0.12375497
000380 1c ee 46 3e ee b5 bc bd a6 32 0d 3e 78 d1 55 3e
       0.19426769 -0.09214388 0.13788852 0.20880687
000390 3e ca de 3d 78 ed 2d bd b5 90 1b 3d b3 c6 0f 3e
       0.108784184 -0.042462796 0.0379798 0.14040641
0003a0 7a 95 66 be 38 59 70 bd 4e 80 a4 bd fa c5 b2 bc
       -0.22517958 -0.058678836 -0.08032285 -0.021822918
0003b0 67 16 60 3e d1 5a 13 3d 99 ed 60 bc be 8e 0d 3c
       0.21883546 0.03597528 -0.013728523 0.008639989
0003c0 8d 8a 90 bc 17 62 c1 3d d9 ea b9 bd 41 85 b4 bd
       -0.017644191 0.09442537 -0.09077997 -0.08814479
0003d0 32 7c 80 3e 0a a5 b2 3d 5a 67 2c be 64 92 29 3d
       0.25094754 0.08722885 -0.168363 0.041399375
0003e0 0b 8e 30 3d 3a c1 fb bb 03 64 e4 3c b3 aa 35 3e
       0.043104213 -0.0076829465 0.02787972 0.17740898
0003f0 1e 84 1d bc ea 28 7a 3d 38 e1 69 bd fd 8d 21 3e
       -0.009614019 0.061074175 -0.05709955 0.1577682

MLP3.bias f4 [50]
000000 35 39 87 bd 8c 10 c6 3c 95 b2 93 3d 8f ca e2 3d
       -0.06602708 0.024177812 0.07211796 0.11073791
000010 f8 f6 f7 3d 76 db 02 3e cc c2 a1 3c 24 09 92 3d
       0.121076524 0.1277903 0.019746207 0.0713065
000020 a9 0f 3b 3e e4 6a 6a 3d fc 93 1b 3d ba cb a0 bb
       0.18267693 0.057230845 0.037982926 -0.0049070986
000030 0d 3a a8 3d 98 6e a7 bb a1 d8 66 3d fa 2c 48 3d
       0.08214197 -0.0051096193 0.056358937 0.048871018
000040 b9 7b 68 3d 78 d6 64 3d 11 75 f4 3d fa cb ed bc
       0.056758616 0.055868596 0.11936391 -0.029027928
000050 c0 5a 20 bc 2f 93 9c bc 7a 6c c3 3c 26 15 df 3c
       -0.0097872615 -0.019113151 0.023855437 0.027231764
000060 2a 09 02 3d 09 ff 09 3e f3 1e 07 3e d2 19 91 bd
       0.03174702 0.13476194 0.131954 -0.07085003
000070 f2 58 94 3d 72 30 1a 3e 5e bb b2 3b ae 67 de b8
       0.072435275 0.15057543 0.005454465 -0.00010605097
000080 2e 86 50 bc bd 61 1b be e7 b9 4c 3d f0 dd f1 bd
       -0.012727303 -0.15174003 0.049981978 -0.11809909
000090 6f 43 d9 3d 0b d9 03 be d8 5f 7f bc d9 43 73 bd
       0.10608565 -0.12875764 -0.015586816 -0.059390876
0000a0 e1 2f 87 bd 3f 35 03 3e ef 77 21 3e 38 cc 78 3d
       -0.06600929 0.1281328 0.15768407 0.060741633
0000b0 00 ea a9 3c b4 2c 8f 3d 16 04 11 3d 4f de df 3d
       0.020741463 0.06990948 0.035404287 0.10931074
0000c0 f6 3a a1 bd 7a ac e4 b8
       -0.07872574 -0.000109040135

MLP4.weight f4 [7, 50]
000000 6b 67 f3 3d 93 86 9b 3e 95 8e dd 3b e3 15 1b be
       0.1188496 0.3037611 0.006761382 -0.15145068
000010 ec 14 71 be 4d 71 50 bd 31 29 b6 bd cc d1 55 3e
       -0.23543137 -0.050889302 -0.088945754 0.20880812
000020 29 8d 00 be f9 ef cf bd 06 a8 14 bd 04 5a 11 be
       -0.12553848 -0.10153193 -0.036293052 -0.14194494
000030 17 27 89 be 25 0c a7 3e 68 81 3d be 5d ce c2 bd
       -0.26787636 0.32626453 -0.18506396 -0.09512017
000040 86 c4 82 3e 0f 23 3b 3e 10 35 4b be 7f 09 77 3e
       0.2554056 0.18275093 -0.1984446 0.24124716
000050 d1 b7 cb bd 63 58 f8 3d af 7b 19 be 72 e3 6c bd
       -0.099471696 0.121262334 -0.14988588 -0.057834096
000060 32 23 4a 3d ed 0f cf 3e fa 9b 5e 3e ad a5 0d be
       0.04934997 0.40441838 0.21739188 -0.13832732
000070 67 2e e5 3d b9 e7 14 3e a3 3c 76 3d 8b 34 97 bd
       0.11190491 0.1454152 0.06011642 -0.07383069
000080 f5 6e 83 bb c5 9e 24 be e2 ce a7 3d 63 70 b9 be
       -0.00401103 -0.16076191 0.08193757 -0.36218557
000090 60 76 aa be 2a 4e 7e be 29 e0 de be e3 d5 c7 3d
       -0.33293438 -0.24834505 -0.43530396 0.097575925
0000a0 12 51 53 3e 95 c6 07 3e be e1 8f 3d 72 95 ea 3d
       0.20636395 0.13259347 0.07025479 0.11454286
0000b0 f3 a3 cb 3d d6 78 f4 bc 63 23 8e 3d 80 44 1d 3d
       0.0994338 -0.029842775 0.06940343 0.038395405
0000c0 b5 20 92 bc 50 1c c3 be 08 d4 b2 3c a2 45 5f bb
       -0.017837862 -0.38107538 0.02182962 -0.0034068604
0000d0 c0 03 9a 3d 1d 41 11 bf 29 9c 14 3e ef 05 4d 3e
       0.075202465 -0.5673998 0.14512695 0.20021795
0000e0 b3 d9 b5 3d 8c 53 85 bd a5 d8 1d 3e 39 65 2f 3e
       0.088794135 -0.06510076 0.15414675 0.17128457
0000f0 af a5 d1 3d bd ff 3f be 24 01 b7 be a0 ab a4 3c
       0.1023668 -0.187499 -0.35743058 0.020101368
000100 b8 59 c2 be 6e 1d a2 3e a5 eb 89 3e 47 29 3b 3e
       -0.37959075 0.31663078 0.26937595 0.18277465
000110 d6 d3 9b bd 75 f1 07 3a 3c 0e 82 3d 39 c1 12 3e
       -0.07608764 0.0005185821 0.06350371 0.14331521
000120 70 ee ab be de 53 a6 bd a4 fb 3c bd fb 65 99 3e
       -0.3358035 -0.08121465 -0.04613842 0.29960617
000130 6a 45 e1 bd 90 23 16 be 03 30 21 3e b5 69 72 3d
       -0.10999568 -0.14662004 0.15740971 0.05918284
000140 91 32 3e bd d0 d4 75 be 31 c0 b3 3e a6 a9 83 3d
       -0.046434943 -0.24006963 0.35107568 0.06428842
000150 05 c0 05 3e f1 a5 d8 be 86 31 d7 3d a6 22 52 3e
       0.13061531 -0.42314103 0.10507493 0.2052103
000160 5f 77 2a 3e 31 a8 25 3e 53 50 1e bc 6c 8c 34 3d
       0.16647099 0.16177441 -0.0096627055 0.04407923
000170 5e 23 70 be 04 40 72 3e ef 13 b0 bd 40 b9 85 3d
       -0.23450992 0.23657233 -0.08597552 0.06529474
000180 cf 23 76 3e 49 52 35 be 60 63 f1 be b7 37 c0 be
       0.24037097 -0.1770717 -0.4714613 -0.37542507
000190 23 09 4e 3e 60 3c 7c 3d 71 83 66 3d 9b ab 41 3e
       0.20120673 0.061581016 0.056277696 0.18913119
0001a0 49 dc 51 3e 97 e1 06 bd bf 04 74 be fd eb 22 be
       0.20494188 -0.032929983 -0.23829935 -0.15910335
0001b0 a5 51 51 3e 67 c7 52 be 5d 6d 66 3e 21 68 f1 be
       0.20441301 -0.20583878 0.22502656 -0.47149757
0001c0 26 8a c0 bd f9 29 af 3d 50 89 b7 be c5 3a 9f 3c
       -0.0940135 0.085529275 -0.3584695 0.019437203
0001d0 6b b1 2f 3e f5 57 0f bd 26 a0 f8 3e fc c4 05 3e
       0.17157523 -0.03499599 0.48559684 0.13063425
0001e0 50 c1 18 be 20 d1 8d be aa 1c 0f be 88 93 fa bd
       -0.14917493 -0.27698612 -0.13975778 -0.122351706
0001f0 63 36 53 3e 1c cf 9a 3e 4c 77 b5 3d 67 44 1d 3e
       0.20626216 0.30236137 0.08860645 0.15358125
000200 64 42 fe bd ee e9 1d 3e 09 3b 15 be 17 e9 0f bf
       -0.12415007 0.15421268 -0.14573301 -0.5621504
000210 3b af a4 bd 8c 17 87 be 7f e7 4e 3d 0d 2d 73 be
       -0.08041235 -0.26385152 0.05051374 -0.23747654
000220 a7 f4 fc 3d e1 4a 5d 3e e4 96 2c be 26 32 41 3e
       0.12351351 0.21610595 -0.16854435 0.18866786
000230 52 bc 94 3d be 6c dc bc 7b 85 13 3e 64 ed 51 3e
       0.07262482 -0.026907321 0.14406388 0.20500714
000240 cc 22 64 3b ab e7 77 be 8b f4 43 3d c3 a1 76 3e
       0.003481078 -0.24209468 0.047840636 0.24085145
000250 8b 1c 37 3e e2 c9 c5 be 27 4e 75 3e 4e b1 02 be
       0.17881982 -0.38630587 0.23955594 -0.12762949
000260 2a 3f dc 3d 3a df 69 be 93 0c 86 bb 40 5d 2e 3e
       0.10754235 -0.2283906 -0.0040908544 0.1702776
000270 50 ec 36 bf 67 f6 97 3c a8 03 79 3d d3 5b a9 3d
       -0.71454334 0.018550111 0.060794502 0.08269467
000280 90 01 29 bf 49 1d 8c 3e 9d 56 2c 3e 42 c0 2d 3c
       -0.6601801 0.27366093 0.16829915 0.01060492
000290 7e b3 79 be e5 33 04 be 78 18 09 3e 1e aa 5d 3e
       -0.24384877 -0.12910421 0.1338824 0.21646926
0002a0 be 2e 0b bd 0f 04 48 3e a2 29 80 3e 83 4d f3 be
       -0.033980124 0.19532798 0.25031763 -0.47520074
0002b0 f6 72 b2 be b3 b4 83 3e 94 82 b4 3d 51 1e 61 be
       -0.34853333 0.257238 0.08813968 -0.21984221
0002c0 62 55 0e 3e b9 f7 8b bd 25 dd 09 3c 21 3d 6d 3d
       0.13899758 -0.06834359 0.008414541 0.057919625
0002d0 32 2a 0f be 62 43 ac be ba 37 69 3e bd 7d 7c 3d
       -0.1398094 -0.3364516 0.22775164 0.06164335
0002e0 29 a3 3d 3e 00 dd 6d 3e ef d8 58 be 2b 89 6e 3d
       0.18519272 0.23228836 -0.21176504 0.058236282
0002f0 17 2c d6 be 21 8c a4 3d ae 2e 0c bf 3c f0 1e 3e
       -0.41830513 0.0803454 -0.5475873 0.1552133
000300 0a f5 4b be a9 7c fc 3d e8 bd 92 bd b9 5b 63 3c
       -0.19917694 0.123284645 -0.07165128 0.013876849
000310 fa 83 a1 bd 99 36 10 be 3f e9 e9 bd ee 13 9e bd
       -0.07886501 -0.14083327 -0.11421441 -0.07718645
000320 51 90 df bd e7 61 94 be 22 44 c1 3d 29 a7 40 3e
       -0.10916198 -0.28980944 0.094368234 0.18813767
000330 e0 62 42 3d 54 c0 35 3e fd e3 15 be 0d 92 42 3e
       0.047457576 0.17749149 -0.14637752 0.19001026
000340 44 87 28 3e fb 1b 5b be 5a c7 bb 3e 6e 96 1f 3e
       0.1645785 -0.21397392 0.3667553 0.15584728
000350 6e a2 e3 be c7 46 93 bc c2 7c 97 be 53 0e 24 3e
       -0.44459862 -0.017978085 -0.2958737 0.1602109
000360 87 89 eb 3d 67 d2 be bd af e9 aa be 24 0f d6 3d
       0.11500841 -0.09317475 -0.3338141 0.104521066
000370 3e bd ae 3d 71 a3 86 be 2b a5 ac 3e fa 6a 48 3e
       0.08532189 -0.2629657 0.33719763 0.19572058
000380 a3 15 41 3d 96 8f 55 3e 8c eb 3e 3e c7 9b 71 3e
       0.047139775 0.20855555 0.18644542 0.2359458
000390 94 90 fc 3d 04 9d 4c 3e bf 79 34 3e 27 f4 b9 3d
       0.123322636 0.19981772 0.17624567 0.090797715
0003a0 9b 78 8f be bf 55 ea be 9e 88 3c 3e fb 56 0d bf
       -0.28021702 -0.45768544 0.1841149 -0.55210847
0003b0 dd d1 c5 be 4f 36 f4 be 85 d3 17 3d 98 59 0e 3e
       -0.38636675 -0.47697684 0.037066955 0.13901365
0003c0 42 4b 3a 3e e2 8f 76 3c c6 b3 53 be 28 f3 cd bd
       0.18192771 0.015048953 -0.20674047 -0.10056144
0003d0 0b bb ea bc eb 6e 33 be 9a b6 4a 3e cc 12 81 3d
       -0.028653642 -0.1752278 0.1979622 0.06302413
0003e0 dd 57 46 be 62 9f 4a 3d 11 8a 6b be d1 bc c4 bc
       -0.19369455 0.049468406 -0.23001887 -0.024015816
0003f0 4e 59 6b be 68 c6 9b bd cb f7 0f 3e e9 0f 83 bd
       -0.22983286 -0.07606202 0.1405937 -0.06399519

MLP4.bias f4 [7]
000000 82 20 c4 bd 4d 9e ed 3d 89 95 44 3d 49 79 55 3c
       -0.09576513 0.11602459 0.04799417 0.013029405
000010 48 64 2e 3d 1d 1e 81 3d cf 80 02 3e
       0.042576104 0.06304572 0.12744449
