DQN/final_dqn_against_negaMaxMix/DQN_AgainstNegaMax_Epochs20000_player2.pth (torch, 493491 bytes, 12 tensors)

conv1.weight f4 [32, 1, 5, 5]
000000 31 28 5f bc a5 5f 92 3d 36 dc b3 bd 4d 2e 9d bc
       -0.013620422 0.07147149 -0.08782236 -0.019187117
000010 86 2a 30 3e 88 c2 68 3c b5 34 87 3c 21 52 80 be
       0.17203721 0.014206536 0.016504625 -0.2506266
000020 54 6d b9 3e 26 1b a9 3e 9b 36 e5 bd ca 34 5d 3e
       0.36216223 0.33028525 -0.11192056 0.21602169
000030 05 b7 27 be a1 c9 63 3e fc 7d fa 3b 5a 66 b2 be
       -0.1637841 0.22244884 0.007644413 -0.34843713
000040 44 d5 90 3a a4 d1 29 be e1 fb 3a 3e 9b 89 23 3e
       0.0011049886 -0.16583878 0.18260147 0.15970461
000050 95 b1 be bc ef 26 9a 3e 2d 53 53 3e 2f 7e 0b be
       -0.023278037 0.3010783 0.20637198 -0.13622354
000060 72 28 a0 be 27 13 b6 bd ac 9b 38 3e 05 cd c5 bb
       -0.31280857 -0.08890372 0.18028134 -0.006036403
000070 4c 34 be be 65 59 2e be b3 59 87 3c 16 db ad 3e
       -0.37149274 -0.17026289 0.016522264 0.33956212
000080 29 4a f9 3c 6a e5 5a be f6 d1 98 be 8b f9 c8 3b
       0.03043087 -0.21376577 -0.29847687 0.0061332635
000090 19 4e b8 be 51 ed f1 3c 99 cf 2a 3e ca 53 6f be
       -0.35997084 0.029532107 0.16680755 -0.23371807
0000a0 1b e3 db bd 97 84 a8 bd c8 64 01 be d6 6d db 3d
       -0.10736676 -0.082284145 -0.12636101 0.10714309
0000b0 48 19 eb bc 90 10 cf bb a2 6b b1 3e b3 2a 15 be
       -0.028698578 -0.006319113 0.3465243 -0.1456707
0000c0 46 ae b1 3d 22 5f 19 be 37 c6 61 bc 25 47 c6 3e
       0.08675818 -0.14977697 -0.013780168 0.38726154
0000d0 d6 ab 05 be f0 7b a5 bc 92 9f 79 be 81 1a 27 be
       -0.13053831 -0.0202007 -0.24377277 -0.16318704
0000e0 5e d0 ba 3e a8 c2 9d be a2 a9 90 be 49 43 47 3e
       0.36487097 -0.30812573 -0.2825442 0.19459261
0000f0 f3 9c 5e 3e db 5b 11 3e 65 c4 8b 3e f1 31 84 3e
       0.21739559 0.14195196 0.27298275 0.25819352
000100 b1 c5 22 3d 9d 61 f8 3d 51 c5 4c 3d a5 83 9b be
       0.039739314 0.12127993 0.049992863 -0.30373874
000110 8b c8 04 be e9 3f 6a be 80 20 79 3e a9 5e 42 be
       -0.12967126 -0.22875942 0.24328804 -0.18981422
000120 d4 5d db 3d 4d dc a1 be d2 cf 48 be 0b 7a fc bd
       0.10711256 -0.3161339 -0.19610527 -0.12327965
000130 30 53 e2 be 79 92 3d be f1 88 5b be 34 57 55 3e
       -0.44204092 -0.18512906 -0.21438958 0.20834047
000140 b4 1a da 3c 06 19 8e bd cd dc d3 3e 07 91 c6 be
       0.026624061 -0.069383666 0.41379395 -0.38782522
000150 53 fc 3d be 64 85 b2 3d 75 28 c8 bd 9f 08 25 3d
       -0.18553285 0.087168485 -0.097733416 0.040291425
000160 8d 83 7b be 2f 12 01 3e b3 54 2a be 73 55 a0 be
       -0.24561901 0.12604593 -0.16633873 -0.31315193
000170 f7 1b 7e 3d 51 57 ad 3e 9c c0 fa bd 7c 75 05 3e
       0.062038388 0.3385568 -0.122437686 0.13033098
000180 a0 3e 90 be 74 11 d7 3d 4a 24 89 be 90 a1 ee 3d
       -0.2817278 0.10501376 -0.267855 0.11651909
000190 5e e4 e2 3c 42 8d 42 be 77 5a d3 3e d3 d2 5f be
       0.027696785 -0.18999198 0.41279957 -0.21857767
0001a0 d0 70 1d be 96 cc 0a 3e 1c 6e 12 bd ff 23 aa 3e
       -0.15375066 0.13554606 -0.03574954 0.33230588
0001b0 f7 ee 15 3e db 98 b4 3d eb 88 44 be 27 ca 8d 3c
       0.14641939 0.08818217 -0.19192855 0.017308308
0001c0 11 53 3a 3a 4b ed c7 ba 49 51 3b 3e cc d4 a1 3d
       0.0007107715 -0.0015253214 0.18292727 0.07901916
0001d0 91 49 23 3e 30 61 4b 3e 57 d2 3e be d7 46 c2 be
       0.15946032 0.19861293 -0.18634926 -0.37944672
0001e0 97 3f 80 3e 78 cf 57 3d 24 e9 eb 3d b2 bb 03 3d
       0.25048515 0.052688092 0.115190774 0.032161422
0001f0 04 6b ad 3e 66 a8 39 3e 7f f9 45 3e bf d1 9a 3e
       0.3387071 0.18130645 0.19333456 0.3023815
000200 58 8c ee 3d 8d c0 80 be f9 6d 23 3e a6 5f 8c 3e
       0.11647862 -0.25146905 0.1595992 0.27416724
000210 46 a8 26 3e f3 1a 57 be 54 f8 f6 3d df 88 d1 bc
       0.16275129 -0.21006374 0.120590836 -0.02557796
000220 1d b1 42 3d a6 f7 76 be 78 3d 3f 3e 37 0a 9c be
       0.04753219 -0.24117908 0.18675792 -0.30476543
000230 51 2d 85 3e 8a b9 a7 3e 9f ee 3f 3e 08 c5 34 3e
       0.26011136 0.32758743 0.1874337 0.17653286
000240 cd f1 fa bd b6 e2 c0 be 74 e3 b2 3d 23 5d 84 bd
       -0.12253151 -0.37672967 0.087347895 -0.06463077
000250 d6 eb 4f 3e 5e 9d 6d 3e 98 7d e6 bd a4 0e 86 3d
       0.20304808 0.23204562 -0.11254424 0.06545761
000260 6a bd 45 3e 10 25 e9 bd bc 92 0d 3e 80 35 28 3e
       0.19310537 -0.11384022 0.13825506 0.16426659
000270 74 5d ab 3e d1 42 d7 3d 2a f8 86 3e 53 4f ab 3c
       0.33469737 0.10510791 0.2636121 0.020911848
000280 0f aa de 3d c4 04 1f bf de 35 8b 3c 98 3a d5 bd
       0.1087228 -0.62116647 0.01699346 -0.104115665
000290 e2 35 40 3e 83 2e 82 be 5c e8 a6 be ef 10 c5 3d
       0.18770555 -0.2542611 -0.3259915 0.096223705
0002a0 c1 e5 80 be cc 2a 14 3e 4d e0 32 be d4 a9 e4 3b
       -0.25175288 0.1446945 -0.17468376 0.006978253
0002b0 78 38 5b 3e b1 a2 8e be 98 f3 63 3e 51 ea 08 be
       0.2140826 -0.278585 0.22260892 -0.13370635
0002c0 8c b2 7e 3e 22 00 5a bc 25 d9 9b 3e ab 3f 9f 3d
       0.24872798 -0.013305696 0.30439106 0.077758156
0002d0 8f f7 0a 3e 25 cc be 3e bf 87 63 be 22 7f ac 3e
       0.13570999 0.37265125 -0.22219752 0.33690745
0002e0 c7 53 57 be 3c b0 6a 3d 15 cb dc 3d a9 86 6c be
       -0.21028052 0.057296976 0.10780922 -0.23098244
0002f0 5b 93 38 3e 5e 9f d8 be 04 24 45 3e e3 8a bf 3e
       0.18024962 -0.42309088 0.1925202 0.3741065
000300 e6 f0 cc 3e 2a 87 f7 bc 67 b1 49 3b 42 df 81 3e
       0.4002754 -0.030215818 0.0030775906 0.25365645
000310 39 52 15 3d 71 61 1c be 85 78 05 be 47 1a 42 3e
       0.036455367 -0.15271546 -0.13034256 0.18955337
000320 72 40 6c be 7e 44 a0 3e 68 b8 a2 3e 99 46 4a be
       -0.23071459 0.31302255 0.31781316 -0.19753493
000330 5b e2 0f be 40 7b a3 3e 43 b4 7e 3e de 0d 5a bd
       -0.14051192 0.3192997 0.24873452 -0.05323588
000340 5f 09 7d 3e 49 43 d8 bc 7d 40 75 be 84 9c b7 bc
       0.24710606 -0.026399272 -0.23950382 -0.0224135
000350 14 8b ed 3e 70 f5 17 3e 65 0a be be 3c 1d a9 bc
       0.4639517 0.1483972 -0.37117305 -0.020643823
000360 15 ff a0 3b 52 d5 6c 3e 6d 6a 5a 3e 1f 82 e7 3e
       0.0049132206 0.2312825 0.2132966 0.45216462
000370 32 b4 d0 bd 10 d6 22 be b6 ff 5b 3e e1 05 3e be
       -0.101906195 -0.15901971 0.21484265 -0.1855693
000380 9e b2 96 be 76 b9 14 3d db 1d 4e 3e 47 2e 91 be
       -0.2943315 0.03630968 0.20128576 -0.2835562
000390 9e cf 13 be b6 6d 46 be 97 fb bb 3e 46 66 dd bc
       -0.14434668 -0.19377789 0.36715385 -0.027026307
0003a0 c6 21 42 3e 94 a6 ee 3d a3 96 c3 3c eb e5 04 3e
       0.18958196 0.11652866 0.02387554 0.12978332
0003b0 8e 35 09 be 3b 6d 3f 3e f4 a3 6a be 39 2b 1c be
       -0.13399336 0.18694012 -0.22914106 -0.15250863
0003c0 40 a9 56 3e 4f 30 ff 3d 9b 1a 33 3e 5f 50 1e be
       0.20963001 0.12460386 0.17490618 -0.15460347
0003d0 62 a1 93 3b 47 56 cd 3e 84 71 9e be a2 fb ba bd
       0.0045053223 0.40104887 -0.3094598 -0.091300264
0003e0 65 e7 a4 bd 7d 5c a9 3d 1c 79 90 bd 45 ad 95 be
       -0.080519475 0.08269594 -0.0705435 -0.29233757
0003f0 5c 64 4c be 8c 6c ab 3d 10 a2 99 bc 93 fd 4b 3e
       -0.19960159 0.08370313 -0.018754035 0.1992095

conv1.bias f4 [32]
000000 94 ef 8b 3d 82 6a 7d 3e f6 1c 93 bb 94 15 96 3e
       0.06832805 0.24747661 -0.0044895364 0.29313338
000010 0f cf 40 3e b8 ae 6b 3d 7a ff 89 3d 4b 6e 4d 3e
       0.18828987 0.05753967 0.067381814 0.20061605
000020 dc 0c c8 3d b6 28 85 bd 49 a7 c1 3c 97 e3 ba 3d
       0.09768078 -0.065019056 0.023639338 0.091254406
000030 10 6e 7f 3e 04 4a 28 3e 64 aa 66 bc 0e 4a fc bd
       0.2494433 0.16434485 -0.01407871 -0.12318812
000040 60 84 8f 3d e9 e8 8f 3e 89 df 81 3d d4 db 5c 3e
       0.070076704 0.28107384 0.06341464 0.21568233
000050 c0 47 de bc 69 60 5a bd 00 1c a0 3e dd b6 9b bd
       -0.027133822 -0.0533146 0.31271362 -0.07603238
000060 ba ce 93 bd a3 8e 64 3e 98 ab 29 bd 14 13 58 3e
       -0.07217164 0.22320037 -0.04142341 0.21101028
000070 83 19 42 3e 1d c8 9e 3d e0 69 0b 3e 37 14 76 3e
       0.18955044 0.07753012 0.13614607 0.24031149

conv2.weight f4 [32, 32, 5, 5]
000000 49 61 2f 39 c8 6b 15 bd f7 7c 36 3d b8 92 01 3d
       0.00016725542 -0.03647974 0.04455277 0.031634063
000010 3f 68 27 3d 48 99 00 3b 18 ba c3 3d 7f d1 08 3e
       0.0408709 0.0019622613 0.09556979 0.13361166
000020 7a e8 00 bd e3 f7 4f bd 2d dd 0a bc 4a af 10 bd
       -0.031471707 -0.050773513 -0.008475584 -0.03532342
000030 11 3b 76 bd 23 36 94 3d ff 46 b1 bc 3a 47 82 3d
       -0.060114924 0.07236888 -0.021640299 0.06361242
000040 10 2b 8e 3d 2f 9a 53 bc 7e 0d 7b bd 97 17 91 bc
       0.06941807 -0.012915178 -0.061292164 -0.017711444
000050 c1 c4 b2 3d 78 21 6e 3a 1e 4d 25 bd 64 d2 18 3d
       0.08728934 0.0009083967 -0.040356748 0.03731002
000060 37 e3 d4 bd 73 1f 9e 3d 89 9b c4 3c ff de df 3b
       -0.103949 0.07720842 0.023999946 0.006832003
000070 7b 2c 6f 3b 08 af 09 3d a1 24 95 b9 79 7b 8d 3d
       0.0036495018 0.03361419 -0.00028446785 0.06908316
000080 f9 07 32 3c d9 b7 c8 3c 98 75 8b 3d 00 81 8a 3d
       0.010866159 0.024501728 0.068095386 0.06762886
000090 64 60 b0 3d 31 30 76 3d 5f 9d e2 3b c4 02 28 3e
       0.08612135 0.060104553 0.0069157328 0.16407305
0000a0 e8 c1 9b 3c 71 9b 05 bd 70 75 39 bd 51 4e 8b 3c
       0.01901336 -0.032618944 -0.045278013 0.017005118
0000b0 a3 9f 2d 3e 14 36 c0 3a 69 9a 4e bb 81 10 a1 3d
       0.16955428 0.0014664554 -0.003152514 0.07864476
0000c0 7b 6f 18 bd 9c ea 77 3d 0f 6a 4a 3c b7 d6 98 bc
       -0.03721569 0.060526475 0.012354388 -0.018657072
0000d0 a2 cd 85 bc a0 67 c7 bd 4e 40 1f 3d 0c f4 3f bd
       -0.016333405 -0.09736562 0.038879685 -0.0468636
0000e0 c8 71 d4 3a 56 42 51 3d 3f 25 8d bd a1 a4 e8 bc
       0.0016208226 0.051088654 -0.0689187 -0.028398814
0000f0 41 62 15 be 35 e0 93 bd 66 a9 a7 bd 09 78 2d 3c
       -0.14588262 -0.072204985 -0.08186607 0.010587701
000100 6d e7 77 bd d1 b8 d0 3c a9 4d 0d be bf 97 49 be
       -0.06052344 0.025478752 -0.13799156 -0.19686793
000110 f9 84 87 bd 42 69 a1 bc a7 fb b0 bd e4 cc e2 bd
       -0.066171594 -0.019703511 -0.08641749 -0.11074236
000120 d3 3e 34 3c ef ec 1a 3e fb 3f 83 3c 37 14 06 3e
       0.011001307 0.15129445 0.01602172 0.13093649
000130 81 a0 79 3d 30 84 a7 bd c0 fa c6 bd 15 31 ae 3d
       0.060944084 -0.0817951 -0.097157955 0.085054554
000140 33 c8 14 3d 76 b1 b8 3d 84 cc d6 3d 5d 26 f9 bd
       0.036323737 0.09018223 0.10488227 -0.1216552
000150 51 5a 92 bc 2b f4 e5 3d 5b 46 38 3d 9c b7 c8 bc
       -0.017865332 0.11228212 0.04498897 -0.024501614
000160 c2 7f 96 bd e1 aa 86 3d e7 6d b5 bd 65 82 67 bb
       -0.073485866 0.06575561 -0.08858853 -0.0035325524
000170 1b 46 62 3d e4 98 93 bd 0b 0c 78 bc ac 65 30 3d
       0.05524264 -0.07206896 -0.01513959 0.04306571
000180 6e 3e 17 3d 0f 7a 87 3d 71 de ab bc 6b 67 99 3c
       0.036924772 0.06615078 -0.020980092 0.018726071
000190 c2 22 ba ba fb 1b 93 3d 63 59 f5 bd c6 2f ca bc
       -0.0014201032 0.07183071 -0.1197994 -0.024680983
0001a0 09 fb 26 3d 6c d3 88 bd 80 0b 8e bd 86 33 6a 3d
       0.04076675 -0.066809505 -0.06935787 0.057178043
0001b0 06 b6 a7 3d 96 55 02 3e 44 66 c4 bd 6d 2a f0 3d
       0.08189015 0.12727961 -0.09589818 0.11726842
0001c0 69 e7 55 3d eb 3a 8b 3d 47 55 63 3b e8 8c 97 bd
       0.052222643 0.06798347 0.003468828 -0.073999226
0001d0 ad e1 30 3d 22 3a 00 3e a5 c4 0f 3d 27 9c 91 3d
       0.04318397 0.12522176 0.035099644 0.07109862
0001e0 da fd 5b 3c c0 ba fd bb c8 df 00 3d cb 61 9f bd
       0.013427222 -0.0077432096 0.031463414 -0.077823244
0001f0 91 dc 84 3d b5 35 0c 3b 40 da 9e 3d af f4 89 bd
       0.06487382 0.0021394317 0.07756472 -0.06736123
000200 05 b8 46 3c 57 4b 9c bd 78 2f 55 bd 3b 8f 0a 3d
       0.012128835 -0.076315574 -0.052047223 0.033828
000210 fc 5c f7 bd e9 92 1e bd 32 97 95 3d f2 ca e7 bc
       -0.12078282 -0.038714323 0.07304229 -0.028295014
000220 73 09 23 3e b2 ce af bd d7 43 56 bc 7f 0f a8 bc
       0.15921573 -0.08584346 -0.013077698 -0.020515202
000230 ae 26 0c 3c 35 a0 35 bd c8 bf 36 bd 68 58 38 3c
       0.008554144 -0.04434224 -0.04461649 0.011251546
000240 fe 6a 8d 3d 74 f0 81 bd 30 5f 81 bd f7 dc bb 3c
       0.06905173 -0.06344691 -0.06316984 0.022932513
000250 07 bb 3e 3d d0 f4 6d 3d 30 aa 85 bd d2 53 01 be
       0.046565082 0.0580948 -0.06526601 -0.12629631
000260 b4 b9 96 3d 7a 4d 4a 3b 70 4c 11 3b c0 33 ea 3b
       0.07359639 0.0030868934 0.0022170804 0.0071472824
000270 49 c8 3e 3c 42 bd aa 3d 7f ea ac 3b 41 19 ac bc
       0.011644431 0.08336879 0.0052769776 -0.021008136
000280 55 e6 11 3d 64 7c a7 3a 98 c0 c1 3d ab 49 bb bd
       0.035620052 0.001277816 0.094605625 -0.091449104
000290 9d 49 0b bd e2 e6 af bc 9a fb e4 bd 9b 43 84 bc
       -0.03400575 -0.021472398 -0.11180802 -0.016145518
0002a0 0a 98 35 3d 3b 26 d6 bd ca 38 50 3d 17 18 35 bc
       0.04433445 -0.10456511 0.05083541 -0.011053107
0002b0 f8 bb 04 3d af 02 e2 bc b6 f8 ee bc d9 fb e7 3d
       0.032405823 -0.02758917 -0.029171329 0.11327333
0002c0 8d 80 17 bd c6 56 18 bd a9 10 a7 bd 27 74 2b bd
       -0.03698783 -0.03719213 -0.081574745 -0.04185882
0002d0 13 66 9b 3c 70 fe e7 bd 54 ab 3b bc 81 74 e9 3d
       0.018969571 -0.11327827 -0.011454422 0.113991745
0002e0 91 49 c2 bc c0 d9 19 3d 2f 9e c3 3d 32 ab 40 bd
       -0.02371672 0.03756118 0.095516555 -0.047038265
0002f0 80 98 ce 3d 2a 4d 02 3d f3 21 2f bd a2 26 53 3b
       0.10087681 0.03181187 -0.042756986 0.0032219072
000300 26 5f 83 bd e9 92 dd 3d f3 8e 56 bd 9c 08 4b 3c
       -0.064146325 0.108190365 -0.05238242 0.012392189
000310 28 2d 8a bd 25 e2 9c 3d 54 4f f7 3d 15 74 e1 b8
       -0.06746894 0.07660321 0.120756775 -0.00010750458
000320 f2 02 9d bd 9f ca 91 bd b8 d6 6e bb 9b bb f4 bd
       -0.076665774 -0.07118725 -0.00364439 -0.119498454
000330 a6 11 f0 3c d3 43 5f 3b ce 27 93 3d ab 3d c3 bd
       0.02930529 0.0034067526 0.071853265 -0.095332466
000340 f2 53 7e be 9a 0a 72 3d bf 5a 01 be 21 e1 d2 bb
       -0.2483671 0.05909214 -0.12632273 -0.006435529
000350 fc 9b 9c bc 3a 01 20 be 9a 80 d2 bc bb e0 ab bd
       -0.019117348 -0.15625468 -0.025696088 -0.08392473
000360 45 eb 46 3e 11 15 41 bd 00 e5 a8 bd 47 93 66 3d
       0.19425686 -0.04713923 -0.08246803 0.0562928
000370 d6 b8 88 bd df ed f1 3b 31 5d d0 3d d2 e5 96 bd
       -0.0667588 0.007383093 0.10174025 -0.073680535
000380 98 10 43 bd be 71 e5 3c d7 70 09 3d 55 2f 90 3d
       -0.047623247 0.028008338 0.033554878 0.07040278
000390 e0 4e 1a be fc f4 2d bd 31 54 1f 3d 59 2b e2 bd
       -0.15069151 -0.042469963 0.03889865 -0.11043424
0003a0 b4 23 3a bc 50 b1 c2 3d 6d d0 fd bc 54 22 c1 3d
       -0.011361051 0.09506476 -0.030983174 0.09430376
0003b0 5f bf 1c 3d f7 e9 7d 3c a3 4c 2e be e8 f1 52 3d
       0.038268443 0.015497676 -0.17021422 0.05150023
0003c0 63 22 3a bd 3f 90 1d bd 48 a1 e9 bb 2c 44 88 3d
       -0.04544295 -0.038467642 -0.007129822 0.06653628
0003d0 95 a0 32 3d 93 89 9a 3c d8 39 49 3d d2 6c da bd
       0.043610174 0.018864429 0.04912743 -0.10665287
0003e0 f6 41 fe 3c 62 07 3f bc 67 f5 92 3c 1b ce ac 3d
       0.031037312 -0.011659475 0.017939283 0.08437749
0003f0 fb 20 d4 bd f6 61 e2 bc 7e 13 3d bc 51 4b 73 3d
       -0.10357853 -0.027634602 -0.011540292 0.059398

conv2.bias f4 [32]
000000 02 f7 56 3d ac 4a 8c 3d 8d 27 2e 3d 6a 30 72 3d
       0.05248166 0.0685018 0.042518187 0.059128202
000010 94 67 61 3d f1 e4 ab 3d cf 52 ea ba 4d c6 ae 3d
       0.05503042 0.083932765 -0.0017877462 0.085339166
000020 a6 7a 89 3d 3e 3a ee bc f3 33 99 3c bf c8 3a bd
       0.067128465 -0.029080506 0.01870153 -0.045601603
000030 32 b8 11 3c 9b bb de 3d 87 52 c8 3d c0 dc 91 3d
       0.008894013 0.10875627 0.09781366 0.07122183
000040 35 d6 83 3d 57 1f 3c 3d 12 98 cc 3c 91 99 2f bd
       0.06437341 0.045928326 0.024974857 -0.04287106
000050 5e 8d 4d 3b f4 c6 31 3d d1 0d 85 3d 10 14 49 3d
       0.003136478 0.043402627 0.06496776 0.0490914
000060 14 be fc bb 3a 3c 76 3d b1 dc 17 3d 82 88 ce bc
       -0.0077130888 0.06011603 0.037075702 -0.025211576
000070 2a ab 7a bd 29 d6 22 bd 45 6c 6c 3d ac 82 ea 3c
       -0.06119839 -0.03975502 0.05772044 0.028626762

conv3.weight f4 [32, 32, 5, 5]
000000 6d 19 85 bd 9f 34 c7 3c 4d 44 58 3d 73 da 83 bc
       -0.0649899 0.024317084 0.05279951 -0.016095376
000010 ec 17 e8 bd 9c e4 de bd 06 00 af 3c 91 f3 75 bd
       -0.11332688 -0.108834475 0.021362316 -0.060046736
000020 ac 7d b4 3c 49 2f a0 bd 80 77 b0 3d 08 0a 5d 3d
       0.022032581 -0.07821519 0.08616543 0.053964645
000030 86 8d 9b 3d e8 2f d7 3c 57 7b 83 bd db b8 c9 3c
       0.07595353 0.02626796 -0.064200096 0.024624279
000040 95 11 d7 3d 0f 7d b1 bc f7 79 10 bd f9 6b 90 bd
       0.105014004 -0.021666078 -0.035272565 -0.07051844
000050 1a 69 3c 3d cd 89 4f 3d 28 33 13 3d 19 40 8a bc
       0.04599867 0.050668526 0.03593746 -0.016876267
000060 c9 30 42 bc 16 3f 88 bc 1d 55 ce bd af 4c 07 bd
       -0.011852452 -0.016631644 -0.10074828 -0.033032116
000070 af 4e 4f bd d3 2a 36 bd 58 4d 0f 3c dd 39 d8 3c
       -0.050612148 -0.044474434 0.0087464675 0.026394779
000080 31 5f 4c bd e8 59 a3 bd b1 94 fb 3d 74 c1 78 3d
       -0.04989547 -0.07976133 0.1228422 0.060731366
000090 ba 25 d0 bb f3 7c aa bd bd 8a bd bd 82 eb 01 3e
       -0.0063521536 -0.083246134 -0.09254978 0.12687495
0000a0 8d 11 45 bd d3 77 e0 3b e2 77 96 bd c2 fb 18 3e
       -0.04811244 0.0068502217 -0.073470846 0.14939788
0000b0 32 37 36 3e 5c 94 af bd 76 cc 0e 3e ab e5 a4 3d
       0.17794493 -0.08573219 0.13945183 0.08051618
0000c0 ad 40 8b bc ac ec a5 3d c0 96 15 be 3d 22 12 3c
       -0.016998613 0.08101782 -0.14608288 0.008919296
0000d0 25 12 93 bd 7d 4b 16 3d c4 f7 b8 3d 40 8b 0d bd
       -0.07181195 0.036693085 0.090316325 -0.034556627
0000e0 5a 5e e5 3c b0 02 73 3c b8 3d 3c 3d 54 6b b7 3c
       0.027999092 0.014832184 0.045957297 0.022390045
0000f0 a7 7e 56 3c 48 89 73 3d 2b cd 74 3d b1 01 cf 3d
       0.01309172 0.059457093 0.059765976 0.101077445
000100 d1 7d 78 3d 0f e3 8c 3d 63 4c df 3d 89 93 c6 3d
       0.060666863 0.068792455 0.109032415 0.09696109
000110 55 49 04 3d b0 43 a3 bc bf 9e a4 3d 07 34 a1 3d
       0.032296497 -0.019929737 0.08038091 0.078712516
000120 db 14 7f 3d da 7a 89 bd fa af 36 ba 08 06 e9 3d
       0.06227575 -0.06712885 -0.00069689716 0.113781035
000130 95 1f 78 3c 8e 1d 1a 3e 73 89 ae bc 9e f0 8a 3d
       0.0151442485 0.15050337 -0.021305775 0.06784175
000140 ce 12 c0 bc b0 d3 17 3e 0d 93 26 3d a9 37 03 bc
       -0.023446467 0.14826846 0.040667582 -0.008008876
000150 27 d8 78 bc ed 20 42 bd e8 d9 46 3d bc db 1a 3d
       -0.0151882535 -0.04739468 0.048547655 0.03780721
000160 53 82 39 bd 8f 52 8d bd dc 05 b4 3d ae 52 3c 3c
       -0.045290302 -0.069005124 0.0879018 0.011494322
000170 69 8c 17 bd 49 15 86 bd 09 a2 c7 bd f0 3f cb bd
       -0.03699914 -0.065470286 -0.09747703 -0.099243045
000180 37 05 9e bd b0 44 5d be 8d 41 02 be c8 d0 52 3c
       -0.077158384 -0.21608233 -0.12720318 0.01286716
000190 33 10 a7 bd f2 18 1f 3d 92 87 0f 3d 0b 19 dd 3d
       -0.08157387 0.03884215 0.0350414 0.10795792
0001a0 88 f4 e1 3d 16 e1 54 bd 58 0b 00 3e 9c c3 a6 3d
       0.11032969 -0.05197247 0.12504327 0.08142778
0001b0 25 1b 78 3d 70 c5 d3 3c 5f 82 7a 3d 6f e2 62 3d
       0.060572762 0.025850981 0.061159488 0.055391725
0001c0 58 b5 cd 3d 46 42 7b 3d 18 ba cd 3b 86 6d 1f bd
       0.10044354 0.0613425 0.0062782876 -0.03892281
0001d0 8a c6 33 3c ae 28 28 3d d5 39 32 3b 4b 9e ef bd
       0.010972628 0.04105442 0.0027195115 -0.11700114
0001e0 66 c1 81 3d 33 d5 07 be b7 a1 a9 bd 26 7f d0 bd
       0.06335716 -0.13264923 -0.08282798 -0.10180502
0001f0 01 88 da bd d7 35 84 3d 7a f8 b3 bc 96 80 de 3d
       -0.10670472 0.06455582 -0.021969069 0.108643696
000200 d6 3d 7f 3c b6 1e 27 3d 90 15 86 3d 7b 58 e1 3d
       0.015578708 0.040800773 0.065470815 0.110032044
000210 0e 70 ed bd bf 0b a7 bd 59 b5 9a 3d 6a f9 2a bb
       -0.11593638 -0.08156537 0.075541206 -0.0026088604
000220 6d f8 b7 bd b7 66 12 bd e2 71 71 bd 3c e2 8b 3b
       -0.0898293 -0.035742488 -0.058946498 0.0042689126
000230 37 13 13 bb 4a f6 56 bb 0f a9 a4 bd 70 97 a1 bd
       -0.0022441873 -0.0032800608 -0.08040058 -0.078902125
000240 76 99 27 bd 11 f5 93 bd 96 e2 72 bb 08 45 4e bd
       -0.040917836 -0.07224477 -0.0037061325 -0.050358802
000250 02 66 de bd 3e 5b d0 3d a6 49 07 3d 06 22 30 bc
       -0.108593 0.10173653 0.03302922 -0.010750299
000260 f7 7e 00 bd 2d f9 22 bc 91 6c 88 3d e5 3b 08 bd
       -0.031371083 -0.009947103 0.066613324 -0.033260245
000270 93 01 22 bc 9e dd f2 bd ad 5f 89 bd ad f2 1e bb
       -0.009888071 -0.118586764 -0.06707702 -0.0024253533
000280 85 ec a0 3d 8e 28 64 be c0 cb 1a 3d 0f 34 dc 3c
       0.078576125 -0.22281095 0.037791967 0.026880292
000290 3e 9c 3c bd ab 7b 03 be 5a dd bf 3d fa 49 8b bd
       -0.04604744 -0.12840144 0.09368391 -0.06801219
0002a0 b4 cb 1f be 66 99 cb bc 02 2f c4 3b f6 11 4c bb
       -0.1560505 -0.02485342 0.005987049 -0.0031138635
0002b0 21 34 d2 bc ad 50 83 bc b1 5a 84 3d 39 2e 03 bb
       -0.025659623 -0.01602968 0.064626105 -0.0020016565
0002c0 7a 5b bf 3c 56 7e a1 3d ea 59 07 3e e2 64 c7 3b
       0.02335905 0.07885425 0.13217893 0.006085024
0002d0 07 82 2c 3d 40 5c b4 3d a0 c8 50 3d 25 24 0c 3d
       0.04211619 0.08806658 0.05097258 0.034214158
0002e0 c4 c1 64 3d 4d f2 18 bc de 3b 48 bc 4d ad 9f 3d
       0.05584885 -0.009335113 -0.012221305 0.077967264
0002f0 c2 db b5 3d 98 43 20 3d 88 7b 91 bc c2 78 75 3d
       0.08879806 0.039126962 -0.0177591 0.059929617
000300 3e 2b 21 3d 57 b3 d0 3c 43 30 14 be a0 e1 66 3d
       0.03934788 0.02547614 -0.14471535 0.056367517
000310 c0 68 56 bd a3 6c 61 bd 06 14 98 bd 2c df 1d be
       -0.05234599 -0.055035245 -0.07425694 -0.15417165
000320 39 fb 9a 3d 21 74 8e 3b f1 95 5a bd 1f f3 fc 3c
       0.07567448 0.0043473397 -0.05336565 0.030877648
000330 80 ea 57 bd f9 28 0e 3d ec 69 fc bc 09 e3 8a 3c
       -0.05271387 0.034707043 -0.030812226 0.016953962
000340 7c 26 8d bb cd de 86 3c 5c f0 19 be 90 51 3e bd
       -0.004307566 0.016463662 -0.15033096 -0.046464503
000350 51 c8 03 bd 01 11 a9 3b 96 98 b4 3d b1 98 d9 3c
       -0.03217346 0.0051594977 0.08818166 0.026562067
000360 a0 c9 2f bc 25 81 3a ba 8b 0e 0f 3e 07 88 e7 3d
       -0.0107292235 -0.0007114581 0.13970391 0.11305242
000370 ca a5 ae 3d ca c1 b5 3d f1 6f b1 3d 79 e7 f9 3c
       0.085277155 0.08874853 0.08663929 0.030505883
000380 38 45 99 3d ad ef 7f bc 5b 39 b8 3b 84 be ee bb
       0.074839056 -0.015621108 0.0056220717 -0.007285895
000390 61 76 43 3b ac ee b5 3c d1 a2 5b bd 3d 2f a9 bd
       0.0029825198 0.022208534 -0.05362207 -0.08260963
0003a0 de 79 63 bd ca 90 00 bc 26 24 41 3d ae 4d 80 bd
       -0.055536143 -0.00784702 0.047153614 -0.06264816
0003b0 8f 03 f9 bc 24 e6 16 bd fd 08 6b 3d 1a a3 0c 3e
       -0.030397205 -0.036840573 0.05738162 0.13734093
0003c0 9f a1 d7 3c ac e7 bb 3c 38 cc b1 bb 54 d3 1d 3d
       0.026322184 0.022937618 -0.005425956 0.038531616
0003d0 cd d2 83 bd 7b fa 93 bc e5 4d de 3d 57 8c 85 3d
       -0.064366914 -0.018063774 0.10854701 0.06520908
0003e0 83 8b d8 3d dd a1 ca 3b 3e 1c 28 3e b0 67 bd bc
       0.10573485 0.0061838464 0.16417024 -0.023120731
0003f0 00 8f 82 3d 7c ce 73 3d 8a bd 5f 3d 5c aa 2f bb
       0.06374931 0.05952309 0.054624118 -0.0026804423

conv3.bias f4 [32]
000000 a6 49 88 3c 05 20 6c 3d a2 17 9d bd f9 26 b5 3b
       0.01663668 0.057647724 -0.07670523 0.0055283275
000010 7f 57 c7 bc 93 8f fa 3d 20 3c 9e bb c8 5f 87 bd
       -0.024333714 0.12234416 -0.004828945 -0.06610066
000020 fc d8 c5 bb 41 13 e0 3c 10 46 c6 bc f3 3f e7 bc
       -0.0060378294 0.027352931 -0.02420333 -0.028228736
000030 d4 eb a8 3c 7f 90 7a 3d 1d d5 9f 3d f1 94 63 3d
       0.020620264 0.06117296 0.0780432 0.055561963
000040 65 26 b4 3c cf 5f f8 3c 27 ca db bc 68 eb 93 3c
       0.021990964 0.030319123 -0.026829792 0.018056586
000050 fc 29 28 3d 78 32 51 bd 20 1a ad 3d 83 83 80 3d
       0.041055664 -0.05107352 0.084522486 0.06275084
000060 4c 08 17 3d 07 5c 9c 3c 6d 00 41 3d ba 67 76 bd
       0.036873147 0.01908685 0.047119547 -0.060157515
000070 aa 47 f5 bb fb 09 3a 3c 91 27 e2 3c 8e 1d 1c bd
       -0.0074853497 0.011354919 0.027606757 -0.038114123

MLP1.weight f4 [50, 1344]
000000 af f9 c8 3c 5f 10 74 3b 93 34 81 3d 6f 77 04 3e
       0.02453312 0.0037241203 0.06308856 0.12936185
000010 d8 6d 38 3c 33 03 79 3c df 50 3f 3d e6 24 7c bd
       0.011256658 0.015198517 0.046707984 -0.061558627
000020 1f de de bd c1 90 05 3e 37 88 58 3c 01 74 8a bd
       -0.1088221 0.130435 0.01321607 -0.06760407
000030 92 95 83 3b ed c8 be bd dc cc 09 bb b7 99 15 bd
       0.004015633 -0.09315667 -0.0021026647 -0.036523547
000040 51 8a db 3d a1 66 c6 3c e0 9f 1a be 5f 48 a0 bd
       0.10719741 0.02421886 -0.1510005 -0.07826304
000050 eb 7d 60 bc b4 06 99 bc 45 5b 51 bd 88 1e ff 3d
       -0.013701896 -0.018679954 -0.051112432 0.12456995
000060 cb 0b d8 bd 41 0a 4c bd 29 fa 1e 3d 90 fe 9a bd
       -0.10549124 -0.049814466 0.03881279 -0.07568085
000070 83 66 c9 bc 74 c3 17 3c a4 cf b7 3c 0d e7 c6 bd
       -0.024585014 0.009262908 0.022437878 -0.09712038
000080 e0 c8 25 3c a1 65 5a 3d 11 ed 4b bc 42 32 91 bd
       0.010118693 0.053319577 -0.012446658 -0.07089664
000090 43 0f 2e bd 5c ef 85 3c ca 43 49 bb 34 2f 48 3c
       -0.042495023 0.016349487 -0.0030710571 0.012218285
0000a0 38 b5 a8 3d 0e d6 5f 3a 92 1d 73 3d e4 a6 a8 3d
       0.0823769 0.00085386715 0.059354372 0.08234957
0000b0 fe 5e 11 bb 44 c4 c4 3c 08 3a d8 3c 70 17 83 bc
       -0.0022181864 0.024019368 0.026394859 -0.016002387
0000c0 5b 8c f2 3b 76 6d 53 bd af 24 7c ba e1 d1 02 be
       0.0074019856 -0.051618062 -0.00096185034 -0.12775375
0000d0 9a d0 91 bc 47 08 05 3d d0 8c 45 bc f0 cd 40 3d
       -0.017799664 0.032478597 -0.012057498 0.047071397
0000e0 a4 35 86 3d 71 df 87 3d f3 91 3e bd 19 5e f9 bc
       0.065532 0.06634415 -0.046525907 -0.030440377
0000f0 28 9d 7e 3b 09 87 b0 bd 66 d4 8e bd 1a 96 a9 bc
       0.0038850997 -0.08619506 -0.069741055 -0.020701457
000100 f6 0d 00 3d 49 2c 41 3c 83 87 c2 3d 85 87 97 bc
       0.031263314 0.011790344 0.09498503 -0.018497238
000110 50 11 33 3d af aa 3f 3d b7 cb 03 3e 43 32 fb 3b
       0.043717682 0.046793636 0.1287068 0.007665904
000120 3c bb 6d bd 7c 91 ea 3d be c0 03 be 30 bc 1c 3c
       -0.05803989 0.1145353 -0.12866494 0.009566352
000130 f6 f2 03 bc e0 80 19 bd a5 14 8b bd 3d ad d3 bd
       -0.008053532 -0.03747642 -0.06791047 -0.10335777
000140 5f f2 58 3d 80 29 b9 bd 65 28 ec 3d 6e 1b bc 3d
       0.052965518 -0.090411186 0.11531142 0.09184919
000150 9b 7d fe 3d c2 82 d4 bd a3 41 e6 bd f2 16 03 bd
       0.12426301 -0.103765026 -0.11242988 -0.032004304
000160 43 08 70 3b 96 9a 02 3d d6 45 82 bc 6b fd 6e 3d
       0.0036626018 0.031885706 -0.015902441 0.058347147
000170 a6 fe 5f 3c 80 78 58 3d e5 11 bc 3d 09 8b f2 3b
       0.013671553 0.052849293 0.091831006 0.007401828
000180 fd b6 73 bd dc 23 bd 3c 8f 85 3b 3d 4f b7 81 bd
       -0.059500683 0.023088388 0.04578167 -0.063337915
000190 ef 2b 83 3d c8 d7 cd 3c 18 e8 99 3d 64 37 db 3d
       0.06404864 0.025127307 0.075149715 0.10703924
0001a0 f5 ed 57 bd 3b 6c 26 3d 65 ff 9c bd 4e 91 40 3d
       -0.052717168 0.04063056 -0.076659 0.047013573
0001b0 df 75 02 bd 91 68 68 bd a8 48 8d bd ac fd 26 3d
       -0.031850692 -0.056740347 -0.06898624 0.040769264
0001c0 b4 3c bd 3d 1c 97 94 3a 7e d7 ad 3c 2d dc 3e bd
       0.09240094 0.0011336538 0.021220919 -0.046596695
0001d0 26 9b 4a 3d 5b 39 76 bc 90 94 1f bd 33 c8 b1 3c
       0.049464367 -0.015028323 -0.03896004 0.021701908
0001e0 13 33 bd bd c4 fd e3 bb f1 87 33 bd 34 e8 f6 bd
       -0.09238257 -0.0069577415 -0.043830816 -0.12056008
0001f0 97 05 19 bd e4 f9 e7 bd 56 0c eb 3d af 78 c1 39
       -0.037358847 -0.1132696 0.11476962 0.00036901745
000200 bc 6a 0c be a0 89 4a 3c 6e 70 19 3b 51 c6 30 bc
       -0.13712591 0.012361914 0.002341296 -0.01078947
000210 5e f6 a3 bd 05 2a 1c bb d9 cb a1 3c 9f c6 91 3d
       -0.08005975 -0.0023828757 0.019750522 0.07117962
000220 39 b3 2a bb 95 8e 13 3b 6e 40 e1 3c 21 c9 76 3c
       -0.0026046766 0.0022515405 0.027496543 0.015062601
000230 7f 45 34 3d 0d 72 92 3c 11 52 0c bc dc 2f bd ba
       0.04401159 0.01787665 -0.008564488 -0.0014433819
000240 8a 2f 11 3d ad 5f 43 3b e9 6d e4 bc 3c f3 4a bd
       0.035445727 0.0029811666 -0.02788444 -0.049548373
000250 ce 93 c4 3d 60 39 86 bc f2 95 aa 3d 30 8f aa bd
       0.09598504 -0.01638478 0.08329381 -0.08328092
000260 c2 bc 6f bc 41 de e1 bd 51 ce ad bc b4 1b 02 3b
       -0.014632406 -0.1102872 -0.021216543 0.0019852938
000270 b7 e7 9d bd 4c 11 2c bd 41 2f 7a 3d 9d b9 eb 3d
       -0.07710212 -0.042008683 0.06108022 0.11510012
000280 4e d0 af bd 1e 0a e1 bc f9 c4 8d 3c a6 15 59 ba
       -0.08584653 -0.027470645 0.017305838 -0.0008281119
000290 93 81 36 bd e3 17 e2 bd 87 b0 cf 3c fd 69 6a be
       -0.044557165 -0.11039712 0.02535273 -0.22891994
0002a0 8b aa e9 3d 88 0f c1 bc 5f 02 95 bd 59 54 c3 bd
       0.114094816 -0.023566976 -0.07275843 -0.095375724
0002b0 20 ec 43 3c 07 03 aa bd e4 0d 4a 3b 13 7b d7 3d
       0.011958152 -0.08301359 0.0030831033 0.105215214
0002c0 ab 7b 6c 3d 15 ae c1 b9 8e d5 06 3e 87 ec 58 bd
       0.057735126 -0.0003694153 0.13167402 -0.052959945
0002d0 a4 97 26 3c f0 9a 5d bc 7f be 44 bd b0 5e 59 3d
       0.01016799 -0.0135257095 -0.048033234 0.053068817
0002e0 76 d0 99 bd 13 86 0b bc 49 c1 54 bd f5 a0 98 bc
       -0.07510464 -0.0085158525 -0.051942144 -0.018631438
0002f0 69 af 3d bd 6e 4c 19 3b 7d 95 13 bd 9a 95 12 3d
       -0.046309862 0.0023391503 -0.036031235 0.035787202
000300 0c e6 86 3d 40 17 93 3d 9d fb af 3d c7 a2 21 bd
       0.06586847 0.07182169 0.08592913 -0.039461877
000310 6f 46 84 bd d2 e7 8b bd 76 e7 c5 3c 8c b1 c1 3c
       -0.06458747 -0.068313256 0.02415822 0.023644231
000320 6e d2 fb bd 7c 16 ca ba 0f 19 00 be e8 6c f1 bc
       -0.12295996 -0.0015418078 -0.12509559 -0.029470876
000330 7d 8f 06 3d 33 81 56 bd 0e 0f e5 bd 8a 00 75 bd
       0.032851685 -0.052369308 -0.11184512 -0.059814967
000340 3d b0 0c 3c 1d 87 95 bd 1e b3 ed 3c ca cb 96 bd
       0.00858694 -0.073011614 0.029016074 -0.073630884
000350 db f3 d4 bd d2 42 48 be f5 3d 7c 3d 18 06 6c 3d
       -0.10398074 -0.1955674 0.061582524 0.057623
000360 71 4c 9f bd f3 41 96 bb 02 15 80 3c 55 0b 8f 3d
       -0.07778252 -0.0045854985 0.015635017 0.06984583
000370 7d 5c 4f 3c c8 5f 51 3c 72 d8 54 bc 92 6e 00 bd
       0.012656328 0.012779184 -0.012991058 -0.031355448
000380 40 8d 18 3d c3 2e 4c bd 0b 36 2e 3d 87 24 85 bc
       0.03724408 -0.049849283 0.04253201 -0.01625277
000390 23 b0 91 3d d1 04 81 3c 4b 3d 30 3d 6f bf 90 3d
       0.071136735 0.015749367 0.043027204 0.07067763
0003a0 f2 79 ce 3d e7 f6 71 3d fa 48 5a 3d 38 45 eb 3c
       0.10081853 0.059073355 0.053292252 0.02871953
0003b0 93 ad 41 bd 51 21 36 bd 29 cc c0 bb e4 8f f6 3c
       -0.047284674 -0.044465367 -0.005883713 0.03009791
0003c0 26 aa 04 bd ef 97 b1 3c 31 4f 3f 3c 34 e6 51 be
       -0.03238883 0.021678893 0.011676596 -0.20497972
0003d0 86 72 52 3d ef 49 27 3c c5 48 ab 3d 69 40 51 3d
       0.05137875 0.010210498 0.08363489 0.051086817
0003e0 d0 e9 59 bd fd c2 cd 3c 0b 85 c5 bd f5 65 b3 3c
       -0.053201497 0.025117392 -0.096445166 0.021899203
0003f0 b5 4d 79 bd 9d fd a0 3c 4b 55 4f bd 9d 1b 79 bc
       -0.060865123 0.019652182 -0.05061845 -0.015204337

MLP1.bias f4 [50]
000000 33 57 a4 3c 67 71 1f 3d 8d 16 48 3b b6 d8 00 3d
       0.020061111 0.03892651 0.003053102 0.03145667
000010 96 c8 ba 3c dc 9b 28 3b fe 90 cc 3c e4 83 a9 bc
       0.022800725 0.0025727665 0.024971481 -0.020692773
000020 cc ad a9 bb ad 17 82 3d 3e 58 ec bc fb 62 ea 3b
       -0.005178189 0.06352172 -0.02885067 0.0071529127
000030 b0 84 25 bc 68 76 b2 bc 27 da ec bc dc c7 16 3c
       -0.010102436 -0.021784976 -0.028912617 0.009202924
000040 71 15 4c 3d 2b 2d af 3c 38 8b 15 bb c3 34 fc 3c
       0.049825136 0.021383842 -0.0022818577 0.030786877
000050 89 9f 88 3c c0 2d 5f bb 78 49 ba bc 54 19 81 bc
       0.016677635 -0.0034054369 -0.02274011 -0.015759148
000060 15 4f 8e bd c6 12 57 3d e8 68 48 3b 51 87 04 bd
       -0.069486775 0.052508138 0.0030580107 -0.03235561
000070 4b fa a7 bc d7 92 01 bc fb e7 56 bc 3b e8 71 bd
       -0.020505091 -0.0079085445 -0.013116832 -0.059059363
000080 4b 74 dd 3b da f8 05 3d a8 fd 58 3d 5e 06 f4 3c
       0.006758248 0.032708026 0.05297628 0.029788192
000090 18 59 ad bc a8 0e 6e bd 03 67 09 bd 20 d5 91 bc
       -0.021160647 -0.058119446 -0.033545505 -0.017801821
0000a0 1d 41 46 3c 65 12 08 3d 49 29 07 bb 92 90 30 3d
       0.012100485 0.033220667 -0.0020623973 0.043106623
0000b0 68 f3 54 bd 0c 8f db bc 85 be dc bb 99 17 f5 3b
       -0.051989943 -0.026801609 -0.006736579 0.0074796197
0000c0 f3 aa c9 bb 07 62 40 3d
       -0.006154412 0.046968486

MLP3.weight f4 [50, 50]
000000 0e bb c4 3d db 56 28 3e 37 c0 ac 3c 6b fb dd 3c
       0.0960599 0.16439383 0.021087749 0.027097424
000010 50 99 4c be ac e3 03 be 9b 93 da bb 11 28 4d 3e
       -0.19980359 -0.12879819 -0.006670428 0.20034815
000020 fa e0 82 bd bc 3f 38 be 9c dc 1d be 21 b1 c5 3d
       -0.06390567 -0.17993063 -0.15416187 0.09652925
000030 4a 8d c4 3d c3 ed d5 3d cd 55 a2 bd b1 22 5a be
       0.09597261 0.1044574 -0.079265215 -0.21302296
000040 cb 54 26 3d dd a4 15 3e 5f d5 16 3d 59 85 27 be
       0.04060821 0.14613672 0.03682458 -0.16359462
000050 61 d4 1b be dd eb 39 3c d3 d8 3e 3e 9f 92 e4 3d
       -0.15217735 0.011347738 0.186374 0.11160778
000060 f8 d1 16 be ec 13 ba bc e8 6e 55 3e ca 1a 83 3d
       -0.14728534 -0.022714578 0.20843089 0.06401594
000070 29 a2 8e bb e2 5e 9e be 6a d5 25 3c 2e 38 1e be
       -0.004352827 -0.30931765 0.010121683 -0.15451118
000080 b4 2f 0f 3e c3 93 41 3e 59 09 64 be ff 88 1d be
       0.13983041 0.18904023 -0.22269191 -0.15384291
000090 a7 6c 85 3e ad 75 9b 3c d2 c5 59 3d 96 98 9d be
       0.26059458 0.01897701 0.05316717 -0.30780476
0000a0 05 37 d3 bd 7c 21 09 3d dd e3 9a bd f8 8d 41 3e
       -0.103132285 0.0334792 -0.07562993 0.18901813
0000b0 93 cd 11 3e 31 50 ea 3c c5 29 4e bd c3 2a eb 3d
       0.14238577 0.028602691 -0.050332803 0.114827655
0000c0 cc a1 de 3d d7 27 db 3d 3d 11 72 3d 3c f2 23 3e
       0.10870704 0.10700958 0.05909847 0.16010374
0000d0 57 7d cb 3a 15 30 8e ba 08 20 a2 bb 2b b1 00 3e
       0.0015525025 -0.001084807 -0.004947666 0.12567584
0000e0 36 3d 5a 3d 7b 86 28 bd 37 51 87 3d 11 75 15 3e
       0.05328103 -0.041143876 0.066072874 0.14595439
0000f0 9f b4 7f bd 1b b2 26 3e 4f d3 7f 3e d7 59 ac bd
       -0.062428113 0.1627888 0.24982952 -0.08415573
000100 2a 9f 36 be 7d 72 b7 3d 27 09 11 bc 62 dd 1d 3e
       -0.17834154 0.08957384 -0.00885228 0.15416482
000110 67 01 a4 bc 8b 0b 82 3e 32 93 86 be 06 83 86 3d
       -0.0200202 0.25399432 -0.26284176 0.065679595
000120 59 d0 2a be 10 78 01 be 1a a9 b7 bc c6 ee 6f 3d
       -0.16681041 -0.12643456 -0.022419501 0.05857732
000130 00 d0 bf 3e 41 a8 fa bd 06 f6 ef 3d 13 0f b4 3c
       0.3746338 -0.12239123 0.11716847 0.021979844
000140 fd ca 71 3e 53 b6 00 bf aa 88 99 be 2d 0b 15 bd
       0.2361259 -0.50278205 -0.2998708 -0.03638761
000150 82 7f a1 3d 68 df 1b 3e a5 2e 44 be 81 98 03 3e
       0.07885648 0.15221941 -0.19158418 0.12851144
000160 ae bf 29 bd 3b 3f 65 3e 33 32 22 be 21 9b 10 3e
       -0.041442566 0.22387402 -0.15839462 0.14121677
000170 5d a7 d0 bc c3 47 0e bb ed c2 7d be 84 9e 6e bd
       -0.02547043 -0.0021710254 -0.2478139 -0.05825664
000180 6c 7b a8 be dc db 98 3e 4b f4 9b 3d ca 72 a6 3c
       -0.32906663 0.2985524 0.076149546 0.020318408
000190 90 65 c1 3d 55 86 69 3e 73 2b b7 bd 1f 57 14 3e
       0.094432 0.2280515 -0.08943834 0.14486359
0001a0 04 d9 f8 bd b6 5b 7e 3e d8 10 55 3e a6 2f da bd
       -0.121507674 0.24839672 0.20807207 -0.106536195
0001b0 0a d1 5a 3e 73 71 1c 3e d4 e7 0d 3e 59 1f 2d 3e
       0.21368805 0.15277652 0.13857967 0.1690649
0001c0 66 17 8f 3e 39 98 42 bd 11 b4 63 3d 3d 71 24 3e
       0.2794754 -0.047508452 0.055591647 0.16058822
0001d0 4a 2b a9 bd f7 8e 1d 3e 40 c9 40 bd 0a 0e 2f 3e
       -0.0826021 0.15386568 -0.047066927 0.17095199
0001e0 c3 49 a7 ba 01 39 21 3e ac b0 d0 be f0 47 c4 bd
       -0.0012763072 0.15744402 -0.4075979 -0.095840335
0001f0 12 1e 87 3d 2b 85 80 bd ae ba 3b bd a6 05 77 be
       0.06597532 -0.062754 -0.04583233 -0.24123248
000200 6f f6 79 be e5 85 1e 3e 72 75 56 3e 76 0d 13 be
       -0.24410413 0.15480764 0.2094324 -0.14360604
000210 79 07 04 3d 48 d9 00 be cd 16 07 3e 35 20 03 be
       0.03223369 -0.12582886 0.13192292 -0.12805255
000220 62 4c 26 bd 6d 1a a9 bd 5f 56 f9 3d b7 4d 7a 3e
       -0.040600188 -0.082569934 0.12174677 0.24443708
000230 4f bc ad 3d dc 5e 1e 3e 3c d3 4d ba 1c 45 14 3e
       0.08483183 0.15465873 -0.0007851606 0.14479488
000240 01 84 65 be 67 6b 7d 3d 97 7d 99 3b 32 c3 ad 3d
       -0.22413637 0.061870005 0.004684161 0.08484496
000250 4b 19 e4 3d 82 10 44 3b 90 4b fd 3d a9 38 c3 bd
       0.11137637 0.0029917066 0.12367928 -0.095322914
000260 6d b0 25 3e 88 f6 58 3e 9b 02 03 3c f7 b9 c8 3c
       0.16180582 0.21187794 0.007996227 0.024502737
000270 84 21 f4 3c 5b d6 ec bd 19 14 07 bf 61 f7 28 3c
       0.029801138 -0.115643226 -0.5276504 0.010312886
000280 53 75 ac be e8 27 53 3e c3 85 5b 3d cd 5a 79 3d
       -0.3368326 0.20620692 0.053594362 0.06087761
000290 07 22 b8 3b 70 14 ff bc b7 1e eb bd 35 d9 f1 be
       0.0056192908 -0.031137675 -0.11480468 -0.47236028
0002a0 75 37 c7 3d 34 a4 0d bc c1 e0 25 be 58 51 70 3d
       0.097273745 -0.008645106 -0.16199018 0.058671325
0002b0 32 da d3 bd 3c 48 11 3e a8 c2 c5 bd f7 01 55 3e
       -0.10344352 0.14187711 -0.09656268 0.20801531
0002c0 8c 6e 1a 3e 11 74 41 3d 8b c1 40 3e ba 0b 2f be
       0.15081233 0.04722983 0.18823831 -0.17094317
0002d0 b6 05 22 3d 10 b1 8c bd 38 e4 7a be 56 64 b3 3e
       0.039556228 -0.068697095 -0.24501121 0.35037488
0002e0 03 8d 70 be b8 1b 09 3e 5f bc 6e be 4c a8 fc bc
       -0.23491292 0.1338948 -0.23314045 -0.030841969
0002f0 1f 54 aa bd 78 58 f6 be 35 d0 2d be 4d 58 11 3e
       -0.08316826 -0.4811437 -0.16973956 0.1419384
000300 c1 2c 1a 3e 3a 96 8c 3d 04 2b b7 3d 50 b8 18 be
       0.15056135 0.06864591 0.089437515 -0.1491406
000310 6e 99 0e bc 69 20 6f 3e 7d b2 73 bd 79 d1 3f 3e
       -0.008703573 0.23352207 -0.05949639 0.18732251
000320 23 8c f4 bd f3 75 09 be 84 be de bd ce 58 63 be
       -0.119407915 -0.134239 -0.10876182 -0.22201845
000330 2f bf 03 3e 56 d1 a4 be 32 fc 03 3e 32 48 c2 3e
       0.128659 -0.3219096 0.12889174 0.37945706
000340 75 e8 c0 3e 21 c3 42 bd f4 f3 ce 3d df e1 64 3c
       0.3767735 -0.04754937 0.10105124 0.0139698675
000350 81 8c 6b bd 5c e9 c5 bb c6 be ec 3e af 4d 2f be
       -0.05750704 -0.0060397815 0.462393 -0.17119478
000360 c6 3d 22 3d 83 4c ef 3e d0 6f 8c 3c 9b 26 90 be
       0.039609693 0.4673806 0.01714316 -0.28154454
000370 32 fe 6a 3d ff 4d df bd 7a c7 78 3e 50 80 82 3d
       0.057371326 -0.109035484 0.24294844 0.0637213
000380 e9 3a eb bd b7 19 fb bc 0e ae aa be ff 95 a2 3e
       -0.114858456 -0.03065191 -0.33335918 0.31755063
000390 78 df 4d 3d cc 70 8a bd df 74 b5 be 75 16 87 be
       0.050261945 -0.067597955 -0.35440728 -0.2638432
0003a0 4c d3 08 3e d6 e4 01 be de 14 06 3e e6 48 de bd
       0.13361853 -0.1268495 0.13093898 -0.10853748
0003b0 53 f0 75 3e 09 6a 51 be a9 e3 9f 3e fc 13 59 bd
       0.24017458 -0.20450605 0.31228378 -0.052997574
0003c0 23 89 7c 3e fc b2 01 3e e0 e1 87 be 27 96 e8 3d
       0.24661689 0.12665933 -0.26539516 0.11356764
0003d0 8f 88 3e 3e b5 a1 c5 3e 90 88 bb 3e 39 78 9f be
       0.1860678 0.38599935 0.36627626 -0.3114641
0003e0 50 55 fd bd 1c ea 0d 3e fc bc d4 3b f3 9a 45 bd
       -0.12369788 0.13858837 0.0064922553 -0.048243474
0003f0 92 d9 8c be c7 ac 15 bb d3 b8 f6 3c fa 64 6b be
       -0.27509743 -0.002283858 0.030117428 -0.22987738

MLP3.bias f4 [50]
000000 42 74 97 b7 57 46 41 3d 9d b0 d7 3d 9e 97 13 3e
       -1.805474e-05 0.047186222 0.10531733 0.14413306
000010 31 a0 1e bc e4 39 56 3d 56 56 a4 3d 5d 53 c3 bd
       -0.009681747 0.052301303 0.0802428 -0.09537385
000020 1d cf ff bc eb ac 3d 3d dd c4 c2 3a a4 ac 6f 3e
       -0.031226689 0.046307486 0.0014859695 0.23405701
000030 99 c0 13 be 27 1c f4 bc 54 45 81 bb eb 6f f3 3d
       -0.14428939 -0.02979858 -0.003945032 0.11886581
000040 ee 52 47 3d b8 79 6c 3b 58 df 1d 3e b6 24 f6 3d
       0.048663072 0.0036083292 0.1541723 0.12018721
000050 e0 06 02 be 6b b1 5b bd fd 29 a0 bd bf 0a a4 3d
       -0.12697935 -0.053635996 -0.07820509 0.08009862
000060 9c 10 35 3d 20 a5 d1 bc c8 c4 f6 bc fe a6 bd bd
       0.044205293 -0.025591433 -0.03012313 -0.09260367
000070 07 06 cc 3d 30 79 31 3c aa 70 6d bc ed ca c3 bd
       0.09962087 0.010832116 -0.014492193 -0.095601894
000080 5f 18 9e 3c 53 f5 7d 3d a5 21 92 bd e0 ab bc 3d
       0.01929873 0.062001538 -0.071353234 0.0921247
000090 c1 7d d2 3c 15 5a 07 3e 9c bd d0 3d c3 cd 1d 3e
       0.02569473 0.13217957 0.10192415 0.15410523
0000a0 70 62 77 bd 97 38 be 3c df df 02 3e 05 ba 91 3d
       -0.06039661 0.023220344 0.12780713 0.071155585
0000b0 4a 11 33 3d 3d 5d 08 be ac ef e1 bd 3b 68 18 be
       0.04371766 -0.13316818 -0.11032042 -0.14883511
0000c0 41 69 0f 3e e2 0a 09 3a
       0.14004995 0.0005227757

MLP4.weight f4 [7, 50]
000000 a0 68 de bc d2 d0 f5 bc cf b9 a1 bd 11 92 dc 3d
       -0.027149498 -0.0300068 -0.07896768 0.107700475
000010 fb 19 bc be e1 fa 54 be 11 f9 57 bd 9a 43 38 3d
       -0.36738572 -0.20798828 -0.052727763 0.044986345
000020 9a 49 56 3e ef eb 89 be 8f 53 50 3e c4 33 7d 3e
       0.20926514 -0.26937816 0.20344375 0.24726778
000030 23 4e e3 bd 28 c9 48 3e 43 42 d8 3d ad 95 2a be
       -0.11098888 0.19607985 0.105595134 -0.1665866
000040 f1 a8 9a bd a5 13 c7 be c5 79 82 bc 54 2d 87 3e
       -0.07551754 -0.38882175 -0.015927205 0.2640177
000050 db c1 34 3e b5 44 0f be bf d5 89 3e 85 fa 88 bd
       0.17652075 -0.13991053 0.26920888 -0.06688408
000060 b0 b0 0e 3d c9 fd a6 3e f3 b5 8f 3e 48 12 47 be
       0.03483647 0.32615498 0.28068504 -0.19440567
000070 8a 16 17 3e f8 5c d3 bd 93 5c f0 bd 6b 8d a9 3e
       0.14754692 -0.10320467 -0.11736407 0.33115706
000080 95 d0 3e 3e bf 98 47 bf 8a 34 ac 3c 88 42 de be
       0.18634255 -0.7796745 0.021021146 -0.43410134
000090 9b cf c2 be dc 09 20 3e 36 bf d5 bd 6b cc 48 3e
       -0.38049015 0.15628761 -0.10436861 0.1960923
0000a0 c8 74 ae bd fc cb 5f 3d a3 3f a3 3e 84 4b 17 3e
       -0.08518368 0.054637894 0.31884488 0.147749
0000b0 86 71 18 3e 5a 84 82 be 7c 75 48 be 86 dc 8f be
       0.14887056 -0.254916 -0.19576067 -0.28097934
0000c0 26 cc 03 bb 0e c0 25 3e aa 9c 4c bd a1 4b 54 3d
       -0.0020110696 0.16186544 -0.049954094 0.051829938
0000d0 41 31 10 be 77 aa b9 3e 2b ac 66 3d 63 65 ad be
       -0.14081289 0.36262867 0.056316536 -0.33866414
0000e0 ef 19 07 3f a5 49 af be 7c 1f 1a 3e be aa 11 3c
       0.52773947 -0.34235874 0.15051073 0.008890806
0000f0 2c 97 47 3c c4 87 f6 3d bc c2 1a 3e 28 59 cf bd
       0.012182038 0.12037614 0.15113348 -0.10124427
000100 be 2b a5 be 2a d5 e9 be ea e3 28 3e c8 4d a8 be
       -0.32259935 -0.45670444 0.16493192 -0.32871842
000110 56 30 8c 3d 2b 55 ac bd 67 9f 3d 3e 00 77 82 3e
       0.06845157 -0.08414682 0.18517838 0.25481415
000120 e5 c3 53 3e 29 57 41 3e ec 29 d6 3e ea 4e 03 be
       0.20680197 0.18880905 0.4182886 -0.12823072
000130 de 27 17 3e a6 20 8f be 67 27 a0 3e 83 5f ad 3d
       0.14761302 -0.27954596 0.31280062 0.08465483
000140 19 85 dc 3d 09 ee b2 bb 76 04 85 3e ea 3f 8f be
       0.10767574 -0.005460505 0.25979966 -0.2797845
000150 40 bc 89 3e 80 86 b1 3d 31 c2 d8 be e4 dd a5 3d
       0.26901436 0.08668232 -0.42335656 0.08098963
000160 3b 0c 93 bd ca 1e 9a bd 42 b6 29 be 07 64 c7 3e
       -0.07180067 -0.07525404 -0.16573432 0.38943502
000170 b9 e0 83 3e 50 ee 82 3e e9 49 f9 3c e2 b3 63 bd
       0.25757387 0.25572443 0.03043075 -0.05559147
000180 9c f3 82 be 99 c0 d8 be e2 1d 24 3e 96 fb 7a be
       -0.25576484 -0.4233444 0.16027024 -0.24510035
000190 e4 e8 cf 3e a6 09 05 3e 1a 31 b0 3d 17 8f 21 3e
       0.4060737 0.12991962 0.086031154 0.1577724
0001a0 d4 f8 f9 bd e1 c1 f3 be f5 29 b2 be 9a 84 d0 3e
       -0.12205663 -0.47608855 -0.34797636 0.40726167
0001b0 c9 7f 4b 3e b4 4e d2 bb 94 8f 7f 3e 99 41 3a 3e
       0.19872965 -0.0064180735 0.24957114 0.18189086
0001c0 44 5b 81 be 59 a8 56 3e e5 67 ea be ce ed 14 3f
       -0.25264943 0.20962657 -0.4578239 0.5817536
0001d0 26 88 0a 3e e8 8b b9 bd c7 fa 8b 3e 45 99 b3 3c
       0.13528499 -0.09059888 0.27339765 0.02192367
0001e0 d2 c7 9a 3e 67 ab ad 3e f4 85 9f 3e 46 63 84 be
       0.30230576 0.33919832 0.31156886 -0.2585699
0001f0 ae 4e 47 be 9c ad 1a be e0 cf 64 bb fd 55 69 be
       -0.19463608 -0.15105289 -0.0034913942 -0.22786708
000200 13 c2 71 bc d7 c7 19 3e 3d 0d 87 3c 96 a8 16 3e
       -0.014755744 0.15017639 0.016485805 0.14712748
000210 47 d2 7c 3e 1a e1 41 bd f0 b4 e2 3e 88 c8 f9 be
       0.2468959 -0.047333814 0.4427867 -0.48785806
000220 47 1e 14 bf d7 b9 e2 bd c0 5a 04 be da 17 b1 3c
       -0.578587 -0.110706024 -0.12925243 0.021617819
000230 bd 20 e7 be cb ad a9 3e 78 92 44 3e dd 24 05 3d
       -0.45142165 0.33140406 0.19196498 0.03250586
000240 f6 e8 bb bd 45 24 cd 3d fa e6 d7 be b6 58 2c be
       -0.09175293 0.100166835 -0.4216841 -0.16830716
000250 40 a1 da 3e 6f dc 2d 3e 06 7f a1 3e 84 e9 58 3e
       0.4270115 0.1697862 0.31542224 0.21182829
000260 38 c3 14 be c6 31 9b 3e 56 3d ce be 1d 78 5c be
       -0.14527595 0.30311412 -0.4028117 -0.21530195
000270 90 35 9a 3e 86 dc ed 3b 36 03 31 be 35 84 be 3e
       0.3011899 0.0072589545 -0.17286381 0.3721024
000280 4d 18 d2 3e 71 1f 9a 3d ea 6c b8 be a7 f8 8c 3d
       0.41034165 0.07525528 -0.36020595 0.06883364
000290 32 8a a1 be 0a ee 07 bf 4b 9a 70 3e 51 0b 04 bd
       -0.31550747 -0.53097594 0.23496358 -0.032237355
0002a0 f8 49 6f be 13 6d 86 3e 72 e4 7c bc a3 21 a7 be
       -0.2336806 0.26255092 -0.015435325 -0.3264285
0002b0 71 43 f0 3e f6 be 0a bf ae f9 eb 3d 2a 60 dc 3e
       0.46926454 -0.54197633 0.11522232 0.43042117
0002c0 d9 c5 05 3e 83 98 58 be b5 50 1d 3e 8d 0d cf bd
       0.13063754 -0.21151929 0.15362819 -0.101100065
0002d0 a6 af 96 be 21 d2 98 be 3a d8 48 bc 82 f5 b8 3d
       -0.29430884 -0.29847816 -0.012258584 0.09031202
0002e0 bd 3c b2 bc 2d 64 04 be 62 75 9c 3e 23 0b de 3e
       -0.021757478 -0.12928839 0.30558306 0.43367872
0002f0 ab 55 4e be 33 08 39 3e de 4e c5 be 9c 54 97 3e
       -0.20149867 0.18069534 -0.38536733 0.2955674
000300 24 33 94 3d f4 57 15 3d d1 a8 03 3d 9b b5 b1 3b
       0.07236317 0.03646083 0.032143418 0.0054232604
000310 e9 49 f4 3e 26 fa a8 3e 0f 7b 26 3e 1f a0 57 3e
       0.4771264 0.33003348 0.1625788 0.21057175
000320 0e 16 96 bd 8c 0a 92 3e 65 6d 87 3e 1b 30 3b 3e
       -0.07328425 0.28523672 0.2645065 0.1828007
000330 5a cf 0a bf 70 a4 3d be 5a 8f d8 3e ed 9c f9 be
       -0.54222643 -0.18519759 0.4229687 -0.48752537
000340 5c 54 bc be 47 c0 8d be a7 c5 56 bc ad b5 86 3e
       -0.3678311 -0.27685758 -0.013108647 0.26310483
000350 23 71 aa be 3a d2 3d 3e 07 ed f5 bd 3a ed cd 3d
       -0.3328944 0.18537226 -0.120081 0.10055013
000360 bf e2 9d 3c 02 4f c5 be 63 4c 57 3e 7a 40 54 be
       0.01927316 -0.3853684 0.21025233 -0.20727721
000370 b6 0a d3 3d cb 83 05 3d 38 51 ff 3d 64 97 6a be
       0.10304777 0.03259639 0.12466663 -0.22909313
000380 9d 0f 90 3e 13 6e 4d be 39 6f 63 3e 38 9b 94 be
       0.28136912 -0.20061521 0.22210397 -0.29024673
000390 a6 ec 95 3e cc f1 ab be c7 08 a4 be e4 38 0e be
       0.2928211 -0.33582914 -0.32037947 -0.1388889
0003a0 e0 1c 3c 3d 36 ba 90 be f7 89 9b 3e 9e dd 64 be
       0.045925975 -0.28267068 0.30378696 -0.22350165
0003b0 f9 da 93 be 04 3f 8b 3e 72 0e ff 3c 90 60 87 3e
       -0.28878 0.27196515 0.031134818 0.2644086
0003c0 a4 f4 08 3e 45 67 43 be 69 3c 8e 3e 45 e0 da 3d
       0.13374573 -0.19082363 0.27780464 0.10687307
0003d0 64 c8 94 3e 78 85 18 bf 31 85 42 3e 76 2b a9 3e
       0.29059136 -0.5957866 0.18996121 0.3304097
0003e0 74 68 1f 3e cb 47 14 3e 84 4a a8 be 10 80 99 3e
       0.1556719 0.14480512 -0.3286935 0.29980516
0003f0 ef 92 8f 3e 47 0e 2e be c4 e7 8c be 56 1d c2 be
       0.2804179 -0.16997634 -0.27520573 -0.37913007

MLP4.bias f4 [7]
000000 0f 84 72 bc c4 0f f7 bc 08 2b 9f 3c dd b7 b6 bd
       -0.014801993 -0.030158885 0.019429699 -0.08921788
000010 18 85 4d 3e d4 86 8d 3d 71 3c 4f bd
       0.20070302 0.06910482 -0.05059475
