DQN/final_dqn_against_random/DQN_AgainstNegaMax_Epochs10000.pth (torch, 493315 bytes, 12 tensors)

conv1.weight f4 [32, 1, 5, 5]
00000000: 5a09 fa3d 6f19 243e b67a a238 5d56 893e
00000010: a4e1 12bd f633 843c 237d e3bd 354c be3d
00000020: c19e 6b3e baf3 70be 47cf 413e 7ce0 573b
00000030: e98b 483e 8203 953d ab33 3b3e 284f 93bd
00000040: 0e39 613e bfd6 603d 2a4e fabc c0c4 843d
00000050: f621 ccbd 13d7 fcbc 8fb9 1abe 402d 533e
00000060: e04e 5ebe 0849 a2bd 53fd 69bd 0131 a7bd
00000070: 1021 27bd 55e0 51be 720d 023e 2de3 51be
00000080: 9a33 5b3e 4bc8 463d 10fd f9bd 1a3c 3d3e
00000090: bf48 843d 6a66 703e e964 5cbc d5a8 edbd
000000a0: 25e4 e23d fd55 e2bd eba2 893d c8c5 503e
000000b0: 24e6 433e affe 85bd 1055 c53d 8138 f03c
000000c0: 27cf 3a3e 3bca 17be 686d 51be 681b ecbd
000000d0: 0bec 52be a4ee 253e a387 0dbc 8f2e 233e
000000e0: 5067 d13c 8bcb b53d a068 473e 8317 68be
000000f0: ccd2 2d3d 1bdb 2fbe cdda a63d 9f40 5abc
00000100: fa47 413e 388a e5bd 9af5 633e 2fb2 41be
00000110: 3e08 3cbe e64d 06be e0b9 8f3e 5fec 093e
00000120: a3b7 573e 1eb7 2dbe 55d5 89be 5f62 e8bd
00000130: 598d 0dbe 0618 c03d 4196 c63d dd12 2b3e
00000140: 95a2 dcbd 266e 24be 7a9e c93d 9dfa 6fbd
00000150: 7fe2 1e3e 6fc2 fdbd 5cc6 053e 0c18 69be
00000160: d79b 10be a3af 2b3e f691 af3d e598 bdbc
00000170: 623e de3d 6950 6c3e 4587 45be ae8e 07be
00000180: 9fb6 803e 0039 91bd 8545 f1bd fa7e 85be
00000190: 4980 40be b9e7 6c3d fbf8 57bd 8f85 0bbe
000001a0: 2b72 a2bc afac 3abe bd98 02be 2ad9 a4bd
000001b0: b528 4fbe dd9f 36be 2b41 8b3e 105f 0b3e
000001c0: fb63 d83d 1e85 6bbe fd7f 3abe 13d0 cdbd
000001d0: d0a7 363d c592 83be 1f8d b7bd 65ca 1cbe
000001e0: 4311 fc3d 50e1 ed3b bf92 8fbd aa6a 4fbe
000001f0: 3cf2 6ebe 8a98 c2bd 2f45 26bd 49ae 34bd
00000200: 301e e23d 119c 26be a627 273e 2678 ad3d
00000210: 4c8e 41be 6c93 5a3e 8926 92bd f184 4dbd
00000220: 14bc 51be f84e 49be 85f2 9d3d 9296 34bd
00000230: 82dc 1a3e d0c8 92be a62e 053e 4a61 78be
00000240: 6604 0ebe ac9f 6e3d d8cb 693e 3341 313e
00000250: fea5 4f3e 7848 2dbe 107b 823d 5ad2 2bbd
00000260: 9b58 1ebd 98eb 1fbe 12d2 7b3e e794 5bbe
00000270: 2f12 e83d 5b71 973d 54f2 073e 2cd2 44be
00000280: 550a 913e d89b a13d 9e85 0b3e 4080 5fbe
00000290: 3c60 c43d 08d1 79bd c4bc debd 998e 883e
000002a0: 77d3 143d a5a6 debd b5b2 32be d024 d5bd
000002b0: 3b39 5f3e c759 ebbd 31c1 35be a6b1 b4bd
000002c0: fb47 50be e58f ee3d 041d 263e 9008 2abe
000002d0: 4da3 b63d 3e2c 1d3e 94e3 be3d 104d d6bc
000002e0: 0f68 b13d 885e cc3d 9dd6 073e 8e5c d3bc
000002f0: 8a8a dfbc 40c7 133d 0493 bbbd f698 a4bd
00000300: 5874 243e 69e2 4e3e 856d 733b fdc7 a5bb
00000310: 1441 5ebc 829e 043d 0bd1 a23d dc70 b33d
00000320: f370 fcbd 183a 683c 5da7 fe3d 711c 883d
00000330: 50c2 a7bd bb5f 00be 5a30 50be afa9 83be
00000340: 0ea0 b2bd a869 b33d 2090 5b3e d20d 9c3d
00000350: f17e 66be 1aa5 e6bd 1997 a6bd 2e28 8f3e
00000360: 4e34 e73c 0add 6dbd fff2 163e c65c c8bd
00000370: 0aed 20be 9b5c 103e 38d8 f9bd 1ded 84bd
00000380: af28 74be 8968 0f3e 73c9 3c3e 775a db3d
00000390: c1ac 4ebe 5545 31be 3d4f a5be 66be 643e
000003a0: c612 da3d 1b7b 523e c5c9 263e 179b ad3d
000003b0: 0aa2 b4bd 1b92 6fbe d386 35be bf86 58be
000003c0: 026a 3c3e c6d1 9abd 2f9a 9ebd 5d4d ccbd
000003d0: 48af 833d 859e 02be 7f39 b9bd f382 263d
000003e0: c0de 95bd 665f 0d3e b3d4 7e3c c92a 5dbe
000003f0: 9353 2cbd 3bff edbd 7c60 dbbd 0060 64be
0.12208815 0.16025327 7.747619e-05 0.26823702 -0.03585972 0.016138058 -0.11107852 0.09291879
0.23009779 -0.23530474 0.18926726 0.00329402 0.19584621 0.0727606 0.18281429 -0.07192832
0.21994421 0.054892298 -0.03055485 0.064828396 -0.09967415 -0.030864274 -0.15109847 0.2062273
-0.21709776 -0.07924086 -0.057126354 -0.08163644 -0.040803015 -0.20495732 0.12700441 -0.20496817
0.21406403 0.048530858 -0.12206471 0.18479958 0.06459188 0.23476568 -0.013451793 -0.11604468
0.11078671 -0.11051557 0.06720527 0.20387948 0.1913076 -0.06542718 0.09635365 0.029323818
0.18243085 -0.14823239 -0.20451891 -0.11528665 -0.20597856 0.16204315 -0.008638295 0.1593573
0.025561959 0.08876713 0.19473505 -0.22665219 0.04243736 -0.17173426 0.08147202 -0.013321071
0.18875113 -0.11208004 0.22261658 -0.18915628 -0.18362519 -0.13115653 0.280715 0.13469075
0.21066146 -0.16964385 -0.26920572 -0.11346888 -0.13823451 0.09379582 0.096966274 0.16706415
-0.107731976 -0.16057643 0.0984468 -0.058588613 0.15516089 -0.12390601 0.1306395 -0.2276308
-0.14121948 0.16766219 0.08572762 -0.023144195 0.10851742 0.23077549 -0.19289882 -0.13238022
0.2513933 -0.0709095 -0.11780838 -0.26073438 -0.18798937 0.057838175 -0.05272768 -0.13625167
-0.01982983 -0.18229936 -0.12753578 -0.08049233 -0.20230372 -0.1783442 0.27198157 0.13610482
0.10565945 -0.22999999 -0.18212886 -0.10049453 0.044593632 -0.25697914 -0.089624636 -0.15311582
0.1230798 0.0072595254 -0.070104115 -0.20255533 -0.23334593 -0.09501751 -0.040593322 -0.044111524
0.11040914 -0.16270472 0.16323718 0.08470182 -0.18901938 0.213453 -0.07136256 -0.05017561
-0.20481902 -0.1965903 0.077122726 -0.044088908 0.1512318 -0.28668833 0.13006076 -0.24255863
-0.13868865 0.058257744 0.22831666 0.17310028 0.20278165 -0.16922176 0.063711286 -0.041948654
-0.03865872 -0.15617216 0.24591854 -0.2144352 0.11331593 0.07394668 0.13276035 -0.19220799
0.28328195 0.07891053 0.1362519 -0.21826267 0.09588668 -0.060990363 -0.10875848 0.26671293
0.03633448 -0.10871629 -0.17450984 -0.10407412 0.21799175 -0.11491733 -0.17749478 -0.08822946
-0.20339958 0.116485395 0.16222006 -0.16604829 0.08917866 0.15348908 0.09320751 -0.026159793
0.08662426 0.09978968 0.13265462 -0.02580097 -0.02728774 0.03607869 -0.091589004 -0.080369875
0.16060007 0.20203556 0.0037144136 -0.005059241 -0.0135653205 0.032377727 0.07950028 0.087617606
-0.12326231 0.014174007 0.12434266 0.0664605 -0.08191359 -0.12536518 -0.20330945 -0.25715396
-0.08721934 0.08760387 0.21441698 0.076198235 -0.22509362 -0.112619594 -0.08134288 0.27960342
0.028223183 -0.058072127 0.14741133 -0.0978332 -0.15715423 0.14097826 -0.121994436 -0.06490538
-0.23843645 0.14004721 0.18436222 0.10710614 -0.20183088 -0.17311604 -0.32287017 0.22338256
0.10648112 0.20554774 0.16287906 0.08476847 -0.08819969 -0.23395579 -0.17727213 -0.21145152
0.18399814 -0.07559542 -0.07744252 -0.099756934 0.064299166 -0.12755783 -0.0904417 0.040652227
-0.07317877 0.13805923 0.015553641 -0.21598352 -0.04207189 -0.11620947 -0.10711762 -0.22302246

conv1.bias f4 [32]
00000000: a237 03bd eac7 da3d e292 01be 2331 113e
00000010: 31cd 11bd 1728 1abe 171e 3dbb 4a13 0b3e
00000020: 4d92 4a3e c63e 01be f109 b4bd 00d1 0f3d
00000030: 3c1a b43d a528 c43d ea58 0b3e a726 20bd
00000040: 31c1 0c3e 99e1 343e 77d5 bcbc caff 2d3e
00000050: 39a1 703d dd16 463e 10a1 c9bd a768 babd
00000060: decd babc 98e6 683b ca61 0f3e bf2a cfbd
00000070: ba07 033e 6cf9 babd 890e 2f3e 25f5 dabb
-0.032035477 0.10682662 -0.12653688 0.141789 -0.035596076 -0.15054356 -0.0028857046 0.13581577
0.19782372 -0.12621602 -0.08790959 0.035111427 0.08794066 0.09578065 0.13608137 -0.03909936
0.13745572 0.17664184 -0.023051007 0.16992107 0.058747504 0.19344659 -0.09845173 -0.09101992
-0.022803243 0.0035537835 0.14002147 -0.10115575 0.12795916 -0.09129605 0.17095388 -0.0066820555

conv2.weight f4 [32, 32, 5, 5]
00000000: c299 99bd 0b42 4ebd e3ee 30bd f701 ed3b
00000010: 7cb7 00bd 4933 503d 9498 33bd 3226 ddbb
00000020: a8cd 0a3d db86 8ebd 7881 febc 6cc1 71bd
00000030: 0fd5 323b fb15 90bc 2a49 c53c 3521 77bc
00000040: 6e6e bc3c 3e5e f23a 08ae 5f3c 05b8 d23b
00000050: 195e 4fbd 07a5 f63c c997 d9bc b7e2 4e3d
00000060: 3bef a53c 4c29 d73c c486 0d3d 7bfb 473d
00000070: bc4d c83c e1e6 b1bb f641 0e3d 8db2 52bc
00000080: f1bd 0b3c 316a 733d 60ed 5b3d 106e 403c
00000090: 5924 193c 5d64 ffbc 4e14 143c 82a9 883d
000000a0: 8cc4 673c 8fdc 21bc 81d9 823c cf6e 9cb9
000000b0: eec1 3d3d 3c7e bd3c a0c1 5e3c 98fd 16bd
000000c0: 4e06 863d 5702 e03a b419 21bd 4846 cd3c
000000d0: 69de 043d 11a7 fbbb add8 4c3d 3623 e6bb
000000e0: 1f4f 83bd 6870 e7bc b4ff 50bc c75a eabd
000000f0: 7b24 983c 980f 563c 53f4 083d 2ebb 5f3a
00000100: 77b5 203d 3ff7 74bb a337 34bd 5d31 9dbb
00000110: aa0e 6dbb 0e2b 423d 9d00 9a3c a99b d13c
00000120: aa6b 0abd 7df3 dd3c bd3c 4cbd 5a05 a03b
00000130: bb95 183b d639 3abd 7d9a 2ebd a9b2 083b
00000140: f35c 5b3d 7236 d63c 3a6b 073d eed8 8dbc
00000150: 705f 1ebc 8321 34bc e3b0 53b8 dbe6 6cbc
00000160: 591f 4bbd e877 d4bc dde9 d2bc bfea 1c3a
00000170: b291 8c3d c0ad 62bd 9c6c 873c af59 153d
00000180: c441 c5bc d55b 2a3c 8d2a 793d 0630 68bd
00000190: 5a83 84bd b6cf 63bd 900b 92bc f4d0 c6bd
000001a0: 5283 f03c 666a fa3d 2dfd e8bc e169 efba
000001b0: 409c abbc 0fb8 8fbd ddbc 1239 d1ca a83c
000001c0: 572e 3abd 6d9b b43b 7abc 20ba e292 d6bd
000001d0: 9b53 be3c 285d 2b3d 99ac 1cbd bcca b1bc
000001e0: b5b1 c73d 464f 3d3c 5586 b33d 4bf2 933b
000001f0: a73e 65bc d529 913b f9b5 bb3d a48d 5fbc
00000200: a50e b6bc 3dc7 343d aa27 313b 15d4 e6bc
00000210: 5e71 113d 5eff 42bd 3230 aa3c 96b3 133d
00000220: 3971 483c 64db 00bd bdef a13d 441a bfbc
00000230: 0abc a7bc 2610 863d 089b 143d 752d 97bc
00000240: 9ed9 f1bb 6607 143d 9578 3c3d b670 b13d
00000250: c5c6 ff3c 6725 023a 4680 bcbb 36e1 1a3d
00000260: c922 02bd 763a 513b b7d0 15bd 8268 463d
00000270: 336a e43a 95a3 013c 9954 a8bb e623 a03d
00000280: f4ea a1bc f8d4 17bd 1283 353d fdd4 d23a
00000290: 46e8 163d a84a f2bc 6d11 233b 1d73 bdbd
000002a0: 1476 803d 2a41 83bc 0bc6 41bc 5cf0 e63b
000002b0: 5c1a 0fbd 0bee cdbc d263 003d 633f 1abd
000002c0: 5374 83bb 754e 163a 8a8e f83c 5dd5 05bd
000002d0: 4f69 efbc 102e 263d ff4a fd3b 7c72 063d
000002e0: 7685 b53b 28bc 5c3d c3dd 9abb 3b7d 4d3d
000002f0: ec07 b1bc efc6 3abc 9e5f 74bc 9692 00bd
00000300: dcc1 853d 0fde 383c 8cb3 113d 4e6a 1ebd
00000310: 9490 8f3c a3d9 42bd de6c d33c a05e d0bc
00000320: 921e d03c 8381 3bbd fa5c 96bc 63d2 923c
00000330: 6f93 8bbb 40ab d03b e1a2 323d f5fa f8ba
00000340: 8197 1fbc 506e 003d 4df7 67bb 80fd 303c
00000350: dc17 c6bb 92f5 20bd b661 d23c 0421 293d
00000360: 02bd 0fbb 3e7f f93c 2c79 af3c 3f86 903b
00000370: ec3b 2dbc 643f 033d 0873 013d e9b2 4b3d
00000380: 77b6 933b acf8 68bc 6e87 c3bc 54c5 7cbc
00000390: a505 a7bd e1c7 a43b 960f 25bd c4f2 1c3d
000003a0: 2dfd aabd 732a c8ba a337 01bd 0a6f 02bd
000003b0: 87ee 293b 35d5 f23c 8fee ed3b 2cd0 f53c
000003c0: 55bf e23c 48d3 563b 5baf 05bd 6e95 523d
000003d0: efe8 4d3c 9f2f 233d 9097 24bd 6d60 8abc
000003e0: 66e8 39bd e07a 593c fc13 913c 1272 a0bd
000003f0: cfde 13bc de40 493c 1e4f 083d 21a7 2f3c
-0.0750003 -0.050355952 -0.04319657 0.0072329002 -0.031424984 0.05083016 -0.04384668 -0.006748938
0.033887535 -0.069593154 -0.031067595 -0.059022352 0.0027287637 -0.017588606 0.024082739 -0.015083601
0.023001876 0.0018491221 0.013652332 0.0064306282 -0.050626848 0.030107988 -0.026561635 0.05050918
0.020255676 0.02626481 0.03455235 0.048823815 0.02445113 -0.0054291342 0.034730874 -0.012859953
0.008529172 0.059427444 0.053693175 0.011744991 0.009347045 -0.031175787 0.009038044 0.06672956
0.0141459815 -0.009879245 0.015972855 -0.00029837198 0.046327524 0.023131482 0.0135959685 -0.03686294
0.06544171 0.0017090541 -0.039331153 0.025057927 0.03243867 -0.007679828 0.050011326 -0.0070232404
-0.064115755 -0.028251842 -0.012756277 -0.11443096 0.018572083 0.013065241 0.03343613 0.0008534667
0.03923556 -0.0037378815 -0.04399837 -0.0047971443 -0.003617207 0.04740434 0.01879912 0.02558692
-0.033794083 0.027093643 -0.049862612 0.0048834505 0.0023282606 -0.045465313 -0.0426278 0.0020858443
0.05355544 0.026149008 0.033061244 -0.017315354 -0.009666309 -0.010994318 -5.047106e-05 -0.014459337
-0.049590442 -0.025936082 -0.02574628 0.00059859076 0.06863727 -0.055341482 0.016531281 0.036462482
-0.024079211 0.010397871 0.060831595 -0.056686424 -0.06470366 -0.05561801 -0.017827779 -0.097078234
0.029359493 0.12227325 -0.028441036 -0.0018265807 -0.02094853 -0.07017528 0.00013994002 0.020604523
-0.04545435 0.0055116923 -0.0006131601 -0.104772344 0.023233226 0.041836888 -0.03825054 -0.021703117
0.09750692 0.011554545 0.08765856 0.0045149676 -0.013991988 0.0044300356 0.09165568 -0.01364461
-0.02222378 0.04413532 0.0027031698 -0.0281773 0.035508506 -0.04760682 0.020774934 0.03605994
0.012234026 -0.031459227 0.079070546 -0.023327954 -0.020475406 0.06546049 0.03628066 -0.018454293
-0.0073806783 0.03613987 0.046013433 0.08664076 0.03122271 0.000496468 -0.005752596 0.037812434
-0.031771455 0.0031925715 -0.036576 0.04843951 0.0017426669 0.007912536 -0.005137038 0.07819347
-0.019765355 -0.037068337 0.04431445 0.0016085204 0.036842607 -0.029576614 0.0024882213 -0.09250472
0.062725216 -0.016022284 -0.011827002 0.007047696 -0.034937248 -0.025137922 0.031345196 -0.037658107
-0.0040116697 0.0005733737 0.030341405 -0.032674182 -0.02922502 0.040571272 0.0077298875 0.032824025
0.0055395914 0.053890377 -0.004726143 0.050168257 -0.021610223 -0.0113999685 -0.014915375 -0.031389795
0.06531116 0.011283412 0.03557162 -0.0386756 0.017524995 -0.047570836 0.025808748 -0.025435746
0.025405202 -0.04577781 -0.018354882 0.017922586 -0.004259519 0.006368071 0.043612365 -0.001899569
-0.009740711 0.031355202 -0.0035395205 0.010802627 -0.0060453247 -0.039296694 0.025681358 0.04129125
-0.0021932726 0.030456182 0.021420084 0.0044105346 -0.0105733685 0.032042876 0.031603843 0.04973117
0.0045078355 -0.014219444 -0.023868289 -0.015427906 -0.081553735 0.0050287102 -0.040298067 0.038317457
-0.08349071 -0.001527144 -0.0315472 -0.031844176 0.0025929527 0.02964268 0.0072611044 0.03000649
0.027679125 0.0032779742 -0.032637935 0.05141204 0.012567743 0.039840337 -0.040183604 -0.016891683
-0.045387648 0.013273925 0.017709725 -0.07834257 -0.00902529 0.012283532 0.033278577 0.010720999

conv2.bias f4 [32]
00000000: dcb4 26bb 41b2 0b3d 8372 1ebc 6905 ce3c
00000010: d1ba 1f3d 69a1 463d 36ae 083b 59a8 dbba
00000020: afa1 4338 00bc 7bbc e9d9 c43b a099 13bd
00000030: 02cc ef3c 8fcc 363d 1a18 fc3c 2f9f b43c
00000040: 08f2 bcbc 177f 833b 2d87 3f3d 082e 85bc
00000050: b9b4 e0bc 5972 a7bc 416b b1bc 2330 f8bc
00000060: 5738 8bbc 5525 e13c 57c9 febb 391e ca3c
00000070: 3a4f 553d c3a0 0d3c 3004 c03c 71a1 3cbc
-0.002543739 0.034105543 -0.009670856 0.025149064 0.03899652 0.048493776 0.002085579 -0.0016758546
4.6642203e-05 -0.015364647 0.006007422 -0.03603518 0.029272083 0.044628676 0.030773211 0.02204856
-0.023064628 0.004012953 0.046759773 -0.016257301 -0.027429925 -0.020440267 -0.021657588 -0.03029639
-0.016994638 0.027483622 -0.0077754664 0.024672614 0.05207751 0.008644286 0.023439497 -0.0115131

conv3.weight f4 [32, 32, 5, 5]
00000000: c92e 153d e3b2 193d e021 983b 0296 ccbc
00000010: 5ac2 f43c 4647 0c3d d81c d33c beb9 c2b9
00000020: a824 a2bb 0952 893c 02b4 9a3c 2e3d 143c
00000030: c203 063c 0005 883d 9206 debc 949d 04bd
00000040: 5665 363b 58f5 bdbc 5ace 5e3d a83b c33c
00000050: bec6 a93d cd0f 4fbc 6abe 9c3d db8a 8fbd
00000060: 1e92 813d 96c2 bb3c 15c6 393c 8515 223b
00000070: f3f5 9fbc 9013 763c bc04 bebb 62f9 abbc
00000080: f018 1e3d a7ac d53c b745 3c3d 0772 473d
00000090: aa03 783c b010 603d 07de b53c 1b55 6d3d
000000a0: b00b 043c a633 0dbd dcf9 e239 aa97 223d
000000b0: f5bd 99bd c232 f5bb 82cb 98bb 4264 77bd
000000c0: 119f cc3c 80fe a1bd 0fde 4e3d e6b2 c63c
000000d0: 5dff 1abd ea58 7bbb 4a34 5a3c ff63 c43c
000000e0: c051 9ebc 61d9 42bc 0c2f 9c3b 5044 6a3c
000000f0: 79f6 19bd 09b4 3dbd b1bf 273c f458 533d
00000100: 90ea 393d ffe9 c33c 8ded 9dbc 328b 9fbc
00000110: f5e8 2d3c 941f 2e3c 86ee 4abc 217a 65bd
00000120: 92cd 6b3c 97b3 063d eaf2 9c3c 836e acbc
00000130: 0e7a 643d 057f f73b 42de 0ebd 3c20 c4bd
00000140: 5469 38bd 2c94 90bd 1fe1 c43c c492 60bc
00000150: cfc4 a7bc e4c4 413d 2eb8 76bd 6db6 0e3d
00000160: 715b f2bc c90d d83c 8d98 5e3d 9398 4a3b
00000170: 1d40 db3c 98fc a83d 385f 0ebc bd64 933c
00000180: 7b05 403c 3c35 6fbd f234 b43d 3224 19bd
00000190: f823 75bd e7fa 063c 3395 84bb 7679 3dbc
000001a0: 22c3 2bbc de92 683b 6416 853d 704b 64bd
000001b0: 6df7 86bd 45a5 e3bb a8bb d5bb c32e c7bc
000001c0: 2710 0e3d 5601 413a e449 033d b82c 733d
000001d0: ae92 0ebc 7f9b 423d 5edc 29bd c161 683c
000001e0: ec8f 033c dcaf 063c 572f e3bc 08dd d13d
000001f0: 006f 013d 1b31 a0bc 6a2b 5bbc 57e5 e6bb
00000200: 116f 383c 61e5 e5bc 3495 bcbc 10c7 e63c
00000210: 405d 4b3c 90d2 ff3a 73c2 b5bb 361f 503d
00000220: 7b8b 38bc 2583 1c3d 60aa 0e3c 9070 3b3d
00000230: daef b23b b6c2 203d 916e 773d be19 26bd
00000240: 4f26 2ebc 20cd 4cbd ba31 e1bb 1ce9 b7bc
00000250: 57de 043d d7e7 e0bc 8a8e 22bc 0971 203d
00000260: ac59 b23c 49dc 41bc 0f24 fcbc f214 64bd
00000270: addc d4bc 8b09 873d e44a fb3c f871 e9bc
00000280: aeeb 473d a305 aa3c bbd1 113d c717 b7bc
00000290: cc4e fdbc 0a3d 5bbc 66fa 8bbb f984 853d
000002a0: beda 023d 0e0d 6cbd 9172 2a3d 3503 39bb
000002b0: e092 ac3b d766 5f3c ce71 e73c 9025 9f3d
000002c0: 96af 153c 031d ef3c bcd7 373c d558 8d3c
000002d0: f1b5 eebc fbd0 cab9 4a9e 9a3c 389d 9a3d
000002e0: 8945 b13c f8b2 5abb d9d9 9e3d 592c 88bd
000002f0: 83c4 b8bc cb5d 003d 3775 923c d7e6 3f3d
00000300: ca02 163d f779 1dbd c425 433c e8a8 9a3b
00000310: df1c 8e3c e224 823d c9a4 1d3c 0826 8f3d
00000320: 1529 cc3c 50bf 753d 3248 253d 8b7b 583d
00000330: 3cca 373b ac5a 893c 6e45 99ba c383 e138
00000340: f6e3 a13b bf8a d13c 1142 0e3d 5191 833d
00000350: 46c8 063d 3312 5fbd 0f4f 193c f148 e03c
00000360: 6f59 acbc 08fa 05bd f300 8b3d 4a4d f73a
00000370: e6b2 fc3c bc5e 033c 94fb 163d 5dc7 633d
00000380: c3a0 433d 0af0 363d ba1f 223b fdd7 3dbd
00000390: b514 95bb 3779 713d 10d5 5b3c 3809 253d
000003a0: 9052 393c f2fe 40bd 543d ccbc fe06 d83b
000003b0: c1c6 a33c dd8e ff3b 7c74 8c3d fe58 93bd
000003c0: f0db ffbc 11ab 8d3c b360 323d b3cf 20bd
000003d0: d4c3 63bc 9f93 2f3d f24a 3fbd 09a7 8cbc
000003e0: 51af 9cbd 4bd9 29bc 2e4e 5f3c 6c07 8e3c
000003f0: efee b43b 3a54 613c 6c93 f33c 49f3 e43c
0.03642157 0.037524115 0.00464271 -0.024973873 0.02987783 0.03424766 0.02577059 -0.00037140952
-0.0049482174 0.01676275 0.018884663 0.0090477895 0.008179607 0.06641579 -0.027102742 -0.03237684
0.0027831397 -0.023188278 0.05439601 0.023832157 0.0828986 -0.012638045 0.07653506 -0.070089065
0.06326698 0.022919934 0.01133873 0.0024732065 -0.019526457 0.0150193125 -0.005798904 -0.020992938
0.038598 0.026083304 0.045964923 0.04869273 0.015137592 0.054703414 0.022200597 0.05794249
0.008059427 -0.034473084 0.0004329224 0.03969542 -0.075069346 -0.0074828574 -0.004662932 -0.060398348
0.024978193 -0.0790987 0.05050474 0.024255227 -0.03784119 -0.0038352557 0.013318131 0.023973463
-0.01932609 -0.0118926475 0.0047663506 0.0142985135 -0.03758857 -0.046314273 0.010238574 0.051598504
0.04538971 0.023915289 -0.019278312 -0.019475553 0.010614623 0.010627646 -0.01238597 -0.056024674
0.0143922735 0.032886114 0.0191588 -0.02104879 0.055780463 0.0075529837 -0.03487993 -0.09576461
-0.045022324 -0.070595115 0.024033127 -0.013706867 -0.020479588 0.04730691 -0.06023424 0.034841944
-0.029584618 0.02637376 0.054344703 0.0030913695 0.02676397 0.082513034 -0.008689694 0.017992372
0.011720057 -0.058400378 0.08799161 -0.037388034 -0.059848756 0.008238531 -0.0040461062 -0.011564603
-0.010483535 0.003548793 0.06498411 -0.055736005 -0.065901615 -0.006947192 -0.0065226145 -0.02431429
0.034683373 0.0007362565 0.03205289 0.05936882 -0.008701963 0.047511574 -0.041469924 0.014183463
0.008029919 0.008220639 -0.027732534 0.102472365 0.0316 -0.019554665 -0.01337705 -0.0070463824
0.011256949 -0.028063478 -0.023020364 0.028171092 0.012412369 0.0019517709 -0.005546862 0.050811015
-0.0112637235 0.038211007 0.008707613 0.045761645 0.0054607214 0.03924819 0.06040818 -0.040551893
-0.010629251 -0.05000031 -0.006872383 -0.022450022 0.032438602 -0.0274543 -0.009921679 0.0391703
0.021771275 -0.011832305 -0.030778913 -0.055684038 -0.025984133 0.06593617 0.03067536 -0.028496727
0.048808746 0.02075464 0.035600405 -0.022350205 -0.030921362 -0.013381252 -0.004271793 0.06519503
0.03194689 -0.057629637 0.041613165 -0.0028230671 0.0052665323 0.013635359 0.028252508 0.07770836
0.009136101 0.029188639 0.011220869 0.017254272 -0.02913949 -0.00038684145 0.018874306 0.07549518
0.021639602 -0.0033370834 0.07756395 -0.06649084 -0.022554642 0.031339448 0.017878158 0.046851005
0.036623754 -0.038446393 0.0119108595 0.004719842 0.017347751 0.06354691 0.009621807 0.06989676
0.024921933 0.059996903 0.040352054 0.052852195 0.0028044125 0.016766869 -0.0011693665 0.000107533786
0.004940505 0.025578855 0.034730975 0.06424201 0.03290584 -0.054460716 0.009357228 0.027378531
-0.021038739 -0.03270915 0.067872904 0.0018867638 0.030847024 0.008018192 0.036861017 0.05561005
0.047760736 0.044662513 0.0024738149 -0.04634856 -0.0045495876 0.05895349 0.013417497 0.040291995
0.011311188 -0.047118135 -0.024931587 0.0065926304 0.019992234 0.007799013 0.06858155 -0.07194708
-0.031232804 0.017293485 0.04354925 -0.039260577 -0.0139016695 0.04286539 -0.046702333 -0.017169492
-0.076506265 -0.010366748 0.013629479 0.017337523 0.005521647 0.013752991 0.029733382 0.027948039

conv3.bias f4 [32]
00000000: fcb4 373d bc1e 2e3d a16f 06bd 47ba 1f3d
00000010: 0544 8d3c 5933 c4bc 680c a43b 69c9 6e3c
00000020: 9307 013d c5e2 40bc 4f04 703b cd89 2cbb
00000030: 496c bf3b d4a1 533c b05b 1f3c ad46 8d3c
00000040: fd58 db3b 7ec3 443c 499c e03c 7a72 a23c
00000050: 9128 63bc c37d 55bb 938d c33c 58ae cdbb
00000060: 7011 2e3d 07c3 cf3c beb1 3d3d a66e 3a3d
00000070: aff0 2a3a 158a 093d a3c3 e8bb 5409 dd3c
0.044850335 0.04250978 -0.0328213 0.038996007 0.017244348 -0.023950266 0.0050063618 0.014574387
0.031501364 -0.011772816 0.0036623662 -0.0026327253 0.005841766 0.012917001 0.00972645 0.017245615
0.006693958 0.0120095 0.027418273 0.019829977 -0.013864652 -0.003257618 0.023871219 -0.006276887
0.0424971 0.025361551 0.046312086 0.04551568 0.000652085 0.03357895 -0.0071034 0.026981987

MLP1.weight f4 [50, 1344]
00000000: 2e2f a03c 9b43 bc3b 8691 cc3c 7c21 943c
00000010: 3218 1dbd 27f5 68bc 9ff3 19bc 1d3e 64bb
00000020: 9c5a 823c 5b06 533c aa1d c93c e309 3bb9
00000030: 4061 be3b c921 3f3c 5378 80bb a7c5 d939
00000040: 5e97 fabc 946f 7a3c e6ef cfbc acd3 ec3c
00000050: 6d8a 373c 66a9 20bd b4a1 aebc 4174 073d
00000060: a77a 2e3d 57fc bcbb 9d63 33bc b74a 1c3c
00000070: 3e3a 4ebd e9e1 023c 6bc2 063b 1311 223d
00000080: 9490 553c 5419 803c 221b 39bb 92ff ccbc
00000090: 76e4 41bc bca2 a83c 5fb6 babb 4b28 023d
000000a0: 1bbf 043d 0afd 89bc c3a2 e7bc 1c61 39bd
000000b0: 6db0 c73c 5bf2 203d 3694 4e3c bb2d 41bc
000000c0: 1dce 183d a1e3 51bc 78d0 8d3c 5e9e 19bc
000000d0: c177 95bb 3564 c0bc 05bc 8abc d28e 3cbb
000000e0: ef63 7dbc e9fd 803c 8628 ee3c 1d56 e23b
000000f0: 2727 cc3c 04a4 91bc c5a7 86bc 386e 83bc
00000100: a654 013d 2c61 223d 57b1 babc 95f8 04bc
00000110: 43c3 8b3b 7679 c13c 648f a338 2bd1 d33c
00000120: a271 763d a3d7 683c cb2b 11b9 fb20 db3c
00000130: c0a5 c23c afa5 12bc 8764 86bc 592a 543c
00000140: f5a8 f5bc 3324 093d d592 7d3c 9503 6b3c
00000150: ed8e b0bd 8836 f3bd 4fb6 07bd f6b4 26bd
00000160: 52f3 f0bc 635f 21bc 772a d33c 2049 19bd
00000170: d6e5 1fbc 3e8c e03b efae 13bd 2710 c7bc
00000180: ebf3 91bb 2dae abbc b68a 80bc 8515 433b
00000190: e416 b2bd d830 eebc 7804 0a3d 753b 073d
000001a0: 8d74 e3bc d6f4 8cbc 9f1a 22bd 51e2 1c3c
000001b0: ef88 9ebc d4fc 613c 23b2 603d ea13 ee3b
000001c0: 3715 99bb 9e60 65b9 4777 0cb9 64c4 46bc
000001d0: c6f9 06bd 8d4d e83c 0544 bbbd 0f88 0ebd
000001e0: 2724 27bd 66cc 753b dd9f 4bbd 50cf 8abd
000001f0: 0408 c53c 4d22 a7bb 5403 633b 2db3 19bd
00000200: f482 fbbc 3dac 903c 965f 503c 2ee9 433d
00000210: f426 30ba 1b28 3d3d c398 36bc 56aa 0ebd
00000220: f711 233d c605 953c f1d9 143d ae4e 003c
00000230: b4bd 933a 72b2 b83c c23e 893c 99a0 bcba
00000240: 6d6c c2bb ee66 803c fd2d 5a3c 129c c93c
00000250: c0ad 58bb 53c8 1e3d 7956 56ba d62b 213a
00000260: 36cb 80bc 2825 b439 548e 5e3d ad11 e53b
00000270: c373 8a3c 55d2 04bd 1dbc c5bb ba3c cc3b
00000280: 81bf 9b3b a3ba cbbb 9282 013c 79ff 023c
00000290: 4f25 2a3d 6711 59bc 7b8d 0b3c 7fa4 163c
000002a0: 934f 663d 10fb 5c3d 75ad 503d 8593 9e3b
000002b0: b503 58bd 100a 28bd 751f cebd 1cd3 353d
000002c0: 2eaa 7b3c 06a0 1cbd cdf0 233c c88a 063b
000002d0: d49d d5bc d666 88bd 0540 033d ca58 a5b9
000002e0: 5aba ac3c 8834 fcbc 3c05 38bd 1544 a1bc
000002f0: b31e cb3b 2e26 1a3d 3a7d 04bc 638a 92bc
00000300: 36f0 abbb 2933 083d b4e2 4f3c 6b92 383d
00000310: a9f8 c23c cbfd 58bc 1d1a 893c cfa6 813c
00000320: c3dc db3c ef78 e63c fbfd 1e3d 9cbb 443b
00000330: 964f 0bbd beb5 11bc d74d 833b b459 813b
00000340: 75d7 a33b 6fdc bbbc 3a9f 3f3d ef6d 5abc
00000350: 81e4 983c a44a e63c 6e96 3f3c 4f47 a63b
00000360: 3ada fcbc 651b c53c f34a 033c e13e 4cbc
00000370: 915c d13c 24e8 1fbd 4cd6 1bbc 8ee8 ab39
00000380: 1878 e2bc 888c e53c aaa1 ac3c 3167 e63c
00000390: 35ae 84bb 2393 edbb 7f43 f8bc e166 41bd
000003a0: 140d 47bd 3ef2 d33c 176e d53c fbf9 563c
000003b0: eae1 ff3c 8b99 e7bb 5df4 583b 29db f1bb
000003c0: 5353 cf3b 0f73 e53c d069 bd3c 175d 58bc
000003d0: 7304 a3bc c878 b3bd b2e8 153d 474b c1bc
000003e0: 0518 b13c f92a b73c 632c ec3c 2e69 eeb9
000003f0: 85ca cf3b 7c09 683d 97a1 26bc 88ac c83c
0.019553747 0.005745364 0.024971735 0.018082373 -0.038353153 -0.014218605 -0.009396463 -0.0034827061
0.015912347 0.012879933 0.024550278 -0.00017837393 0.005809933 0.01166577 -0.0039205938 0.00041536728
-0.030589756 0.015285391 -0.025382947 0.028909527 0.011202437 -0.03922405 -0.02131734 0.033069853
0.04259744 -0.005767386 -0.010949043 0.009539298 -0.050348513 0.0079884315 0.002056266 0.039567064
0.013034958 0.015637077 -0.0028244932 -0.02502421 -0.0118342545 0.02058541 -0.00569801 0.031776708
0.032408815 -0.016844291 -0.028275853 -0.045258626 0.024376119 0.03929363 0.012608578 -0.011790688
0.03730594 -0.012810619 0.01731132 -0.009376137 -0.004561395 -0.023485282 -0.016935358 -0.002877165
-0.015465721 0.015746074 0.029072057 0.006907238 0.024921013 -0.017778404 -0.01643742 -0.016043767
0.031574868 0.03964345 -0.02278964 -0.008115907 0.0042652204 0.023617487 7.799154e-05 0.025856575
0.060166962 0.014211568 -0.00013844592 0.026749125 0.023760676 -0.008950635 -0.016405357 0.01294955
-0.029987792 0.033481788 0.015476902 0.014344116 -0.08621011 -0.118756354 -0.033132847 -0.04069992
-0.0294129 -0.009849402 0.025777085 -0.037423253 -0.009759387 0.0068526557 -0.0360555 -0.024299694
-0.004454126 -0.020957077 -0.015691143 0.0029767465 -0.08695772 -0.029076025 0.033695668 0.033015687
-0.027765537 -0.01720659 -0.03957617 0.009575442 -0.019352404 0.013793189 0.054857384 0.0072655575
-0.0046717185 -0.00021875135 -0.00013395875 -0.012131784 -0.032953046 0.028357292 -0.09143833 -0.034797724
-0.040805962 0.0037505864 -0.049713004 -0.06777823 0.024051674 -0.0051005245 0.0034639435 -0.03752439
-0.030702092 0.017660255 0.012718102 0.0478298 -0.00067196717 0.046180826 -0.01114482 -0.034830414
0.039812054 0.01819123 0.036340658 0.007831259 0.0011271746 0.022546027 0.016753558 -0.0014391124
-0.0059333355 0.01567408 0.0133166285 0.024610553 -0.0033062547 0.038765263 -0.00081763376 0.00061481947
-0.015721899 0.0003435996 0.054334953 0.0069906325 0.016900903 -0.03242715 -0.0060343877 0.006232825
0.0047530537 -0.006217317 0.007904666 0.00799548 0.041539486 -0.013248778 0.008517618 0.009194492
0.05622823 0.05395037 0.05094667 0.004839363 -0.05273791 -0.04102522 -0.10064594 0.044390783
0.015360398 -0.038238548 0.010006142 0.0020529497 -0.026076235 -0.066602394 0.032043476 -0.00031537405
0.021084953 -0.030786768 -0.044926867 -0.019685784 0.006198728 0.037634067 -0.008086497 -0.017888254
-0.0052471412 0.033251915 0.012688328 0.04506151 0.023800211 -0.013244103 0.016736085 0.01582661
0.026838666 0.028133838 0.038816433 0.003001905 -0.034011446 -0.008893428 0.004007082 0.003947461
0.0050000497 -0.02293226 0.04678271 -0.013331874 0.018663647 0.028111763 0.01169358 0.0050744186
-0.030865777 0.024060914 0.008013475 -0.012466163 0.025556834 -0.039039746 -0.009511542 0.00032788928
-0.027645156 0.028021112 0.021073181 0.028125377 -0.0040490874 -0.007250206 -0.030305622 -0.047217254
-0.048596457 0.025872346 0.026053471 0.013121123 0.031235654 -0.0070678643 0.0033104636 -0.0073808623
0.0063270717 0.028008966 0.023121744 -0.013205788 -0.019899582 -0.087632716 0.03659887 -0.023595465
0.021617899 0.022359358 0.028829759 -0.00045473262 0.006341281 0.05664967 -0.010170362 0.024496332

MLP1.bias f4 [50]
00000000: aead 1a3c c3a1 36bc f3a0 8bbc 6319 9c3c
00000010: d42b 0f3d 3817 ef3c fbf8 dbb9 26b0 88bc
00000020: b1fd a3bc e1dc fcbb 981d 49bc f19a 1d3b
00000030: 7b31 3cbc 5ab4 c03c b7e4 cdb9 3a56 e4bb
00000040: 016d f33b 4fee c13c 4997 79bc 840c 99bc
00000050: ad95 083d 0218 86bc 9cb7 ec3a b49b c43a
00000060: c916 c13a 3ce8 cebc b9af bd3c d841 8b3c
00000070: d00c e13c 7bdb fc3c 8ae6 d4bc 3b0d 3fbb
00000080: 0da8 debc f3b3 80bc 9eaf 0b3d b3d2 7cbb
00000090: 7cd4 f6bc 7019 61bc 936d 743c daa1 6bbc
000000a0: 242f 4bbc 7d01 fbbc 4dee 2a3c 9d12 ec3b
000000b0: 1094 9bba ccce 0b3d b1b4 c4bc af98 023d
000000c0: 0e5b 0c3d 816e 3fbc
0.0094408225 -0.011146965 -0.01704452 0.019055074 0.034953907 0.029185876 -0.0004195644 -0.016685557
-0.02001843 -0.0077167605 -0.012275122 0.002404865 -0.011486406 0.023523498 -0.00039271053 -0.006968287
0.0074287658 0.023673205 -0.015233823 -0.018682726 0.033345867 -0.01636887 0.0018060091 0.0015000016
0.0014731522 -0.025257222 0.02315508 0.01699917 0.02747193 0.030866375 -0.025988836 -0.0029152173
-0.027179742 -0.015710806 0.03410303 -0.0038577735 -0.030130617 -0.013738975 0.014918703 -0.01438185
-0.012401376 -0.030640358 0.010432792 0.0072043673 -0.0011869688 0.034132764 -0.024011942 0.03188389
0.034266524 -0.011684061

MLP3.weight f4 [50, 50]
00000000: e1be 2fbd c24c f93d 2d3a d3bc c908 103e
00000010: c892 8a3d a9bf 33bd d43b ef3d 5378 0e3d
00000020: c8f9 293e 32a7 483c 3e88 c4bd f6a3 bcbd
00000030: ac29 ce3c cef7 1ebe 1e03 e0bd fb14 143d
00000040: b850 473d eab4 bcb9 9bb6 72bd 17e6 94bd
00000050: 2512 223d 5d55 97bd c2bb 3abd 15e0 b3bc
00000060: f025 073d e577 abbc 00dd 773d f692 86ba
00000070: f2cd 9bbb 8b6e d43c 17b8 e43c c47b 05be
00000080: 9fb9 6d3e 296a c8bd 7faf 223d f6bc 7e3d
00000090: ce9f c3bd c55a 83bd 16d2 5b3d d2a7 b0bd
000000a0: 2932 333d d35b 033d 9899 23be 1797 e53d
000000b0: b904 f5bd 9ecd c13d e438 85bd c330 69bd
000000c0: b8b5 fd3d 888d b83d 381a 23bd 37e7 003e
000000d0: 63b6 b2bd 8691 07be 7579 f23d 125a 0c3e
000000e0: f0a6 0abe 6519 0c3e b915 0abe f280 093e
000000f0: 6558 0bbe 99fe d3bd fda0 95bb 7241 403d
00000100: 7f6f 5fbd 3eaa 05be 86cb e93d ccec dfbd
00000110: ec5f 93bd a01c dbbd f729 143c 56e9 4e3d
00000120: 4fd3 7fbc 6e7f a63c b09e 413d 5608 01be
00000130: aff3 8c3c a546 803d 436d 053e f758 b63d
00000140: 916e 01be 0af3 debd 4015 c33c e4cb 07be
00000150: 0ad2 afbd 545c e03c 74ac a6bd 77d8 fb3d
00000160: 9b56 ffbd 1c8a a53d 3d1e 2ebd 6905 e43d
00000170: fc66 393d 8222 5d3d fd01 2a3d bf9e c6bd
00000180: c031 e83d 9d1b a63d 7647 ccbd a755 dc3c
00000190: f406 9e3c 8b15 243b 3c24 f5bd 40ff b8bd
000001a0: e0c0 b1bd 52fd 893d 11a9 033e 8490 03be
000001b0: 1a52 e3bd f973 01be aecf e6bd 0dd2 ed3d
000001c0: cc10 cd3d c2c2 053e fe31 e5bc 093e 983d
000001d0: 5ef6 f7bd 16a3 92bc 17b8 db3d e90e 843b
000001e0: 58a9 a73d b21c e4bd a8d4 05bd 4ed8 25be
000001f0: 6b4c 1f3e 376c 983d b8b1 e0bd f806 febb
00000200: bba8 bdbd 2fc0 4b3c fc67 7d3e 15e2 fa3c
00000210: 8839 823d 080a d43d 8870 86bd 92ba 38bd
00000220: c011 cc3d 44d3 2abd fd85 d9bd 8c89 433d
00000230: 47a9 313e 11ed 88bb b5bd a23c 84a8 1c3e
00000240: 1ca0 303d fce4 d23d 263d ab3d 4434 82bd
00000250: 274d aa3d 14af 59bd 3b44 593d dbe3 8f3d
00000260: d444 b43b caa1 ec3d a936 063d 66b1 8bbc
00000270: 61f6 043d e082 643c 71a2 61bd 2cf6 bc3c
00000280: e384 643d f26c d0bd 4795 cb3d a975 88bd
00000290: b4d3 083e df58 403d 25bc d9bd 19e8 bfbd
000002a0: 5fad 34bc 5a95 21be af56 20be 72fc cabd
000002b0: 90f7 37bd c955 423e 630e 273d 7b33 eb3d
000002c0: f1ad e63d 02f1 843d 75a6 d2bd f530 9c3d
000002d0: 51c1 203d 7fed d53d 9486 20be a350 dbbd
000002e0: 77da 073d a208 e53d 27fe a8bd 47b8 ad3d
000002f0: c7ee 8f3c 1ec6 6abd 9dbd e13d d5ae 183d
00000300: c319 df3d 9b7e 143c 2689 e03d 63dc 163c
00000310: b3f2 353e 3166 463d 296c fabd 69ef dbbd
00000320: e383 133e f2e0 eabd 10d2 823c 144a 203e
00000330: 6616 c4bc aacb 223d 430a c9bc 2636 d53b
00000340: 9535 813d 2499 88bd a4ca 10be 1872 65bd
00000350: c433 d43d 700b 25bc a9b5 34bd 2cbd 09be
00000360: e024 02be 13ac f03d 746d f23d 12e9 ed3c
00000370: 61f1 a63d f56d 2d3e fda4 b2bd bae8 d4bd
00000380: 4f40 233e 622b c33b 92cf b93d 2f89 243e
00000390: 7a84 253d a7ca 82bd 7ae4 143d 5223 c13d
000003a0: 941e f5bd bfeb bebc 7543 f0bd a2e4 74bd
000003b0: ca7b 013e a800 a23d 61d6 2ebd d015 563d
000003c0: 8c69 da3c c1e2 053e 6207 b3bd e51f a2bd
000003d0: d2ff 313e e4a7 aa3d 2f1b 0cbe 3d7a b7ba
000003e0: 7c29 0c3c 25cb 5e3d bf61 adbc 0e50 c33d
000003f0: 80b5 94bd a4b0 a23c b907 38bd 2a3d ef3d
-0.042906646 0.121728435 -0.025784576 0.14065851 0.067662776 -0.043883953 0.11681333 0.03478272
0.1659919 0.012246894 -0.09596299 -0.092109606 0.025166355 -0.15524217 -0.109380946 0.03615282
0.048660964 -0.00035992946 -0.059256177 -0.07270449 0.039568085 -0.07389329 -0.045589216 -0.021957437
0.032995164 -0.020931194 0.060513496 -0.0010267186 -0.004754775 0.025931617 0.027919812 -0.13035494
0.2321534 -0.097858734 0.039718147 0.062191926 -0.09551965 -0.06413797 0.05366715 -0.08625759
0.04374901 0.032069992 -0.1597656 0.11210459 -0.119637914 0.094630465 -0.06504992 -0.05693127
0.12388176 0.0901137 -0.039819926 0.12588201 -0.08726194 -0.13239107 0.11839572 0.13706234
-0.13540244 0.13681562 -0.13484849 0.13428095 -0.13607939 -0.10351295 -0.0045663104 0.046937414
-0.05454969 -0.13053223 0.11415772 -0.10933837 -0.0719603 -0.10698819 0.009043208 0.050515495
-0.015614345 0.020324435 0.047270477 -0.12600836 0.017206041 0.062634744 0.13029961 0.089036874
-0.12639834 -0.108862 0.023813844 -0.13261372 -0.08584984 0.027387775 -0.081383616 0.12297147
-0.124676906 0.08082983 -0.042509306 0.111338444 0.04526423 0.053987987 0.041505802 -0.09698247
0.11337614 0.081107356 -0.099745676 0.026896311 0.019290425 0.0025037255 -0.11969802 -0.0903306
-0.08679366 0.0673777 0.12857462 -0.12848097 -0.11099644 -0.12641896 -0.112700805 0.1161233
0.100129694 0.13062575 -0.02797794 0.07433707 -0.12107538 -0.017900031 0.10728472 0.0040300977
0.08186597 -0.11138286 -0.032673508 -0.16195795 0.15556495 0.07442515 -0.10971397 -0.0077522956
-0.092606984 0.012435957 0.24746698 0.030625382 0.063586295 0.10353476 -0.065644324 -0.045099802
0.09964323 -0.041705385 -0.10621259 0.047738597 0.1734973 -0.004178651 0.01986585 0.15298659
0.043121442 0.102975816 0.083612725 -0.06357625 0.08315497 -0.053145483 0.053043585 0.07025882
0.005501369 0.11554296 0.03276697 -0.017052364 0.032461528 0.013947219 -0.055086557 0.023066603
0.055790793 -0.1017703 0.09940582 -0.06663067 0.13362008 0.046959754 -0.10631589 -0.09370441
-0.011027663 -0.1577963 -0.15658067 -0.09911431 -0.04491383 0.18978037 0.040785205 0.114844285
0.112636454 0.06491281 -0.102856554 0.07626525 0.03924686 0.104456894 -0.15676337 -0.107087396
0.03316733 0.11183287 -0.08251601 0.08482414 0.017569913 -0.057317846 0.11022494 0.037276108
0.108935855 0.009063388 0.10963659 0.009207818 0.17768364 0.0484373 -0.12227661 -0.10739023
0.1440578 -0.11468686 0.015969306 0.15653259 -0.023936462 0.03974501 -0.024541026 0.006506699
0.06309048 -0.06669834 -0.14139801 -0.05601701 0.10361436 -0.010073528 -0.044118557 -0.1345107
-0.12709379 0.117515706 0.11837283 0.0290418 0.08151508 0.16936477 -0.08722875 -0.103959516
0.159425 0.0059560994 0.09072794 0.16067956 0.040409543 -0.06386309 0.036350705 0.09430565
-0.11968723 -0.023305772 -0.117316164 -0.059788354 0.12644878 0.079102814 -0.042684916 0.052266896
0.026661657 0.13074781 -0.087416425 -0.0791624 0.17382744 0.08332804 -0.13682245 -0.0013998222
0.0085548125 0.054392952 -0.021164773 0.095367536 -0.07261181 0.01985962 -0.04492924 0.11681588

MLP3.bias f4 [50]
00000000: 113b bebd ff69 bd3c 9446 623a f099 053e
00000010: e8ae eb3d 29ff 893d e229 d3bc b213 9a3d
00000020: 0e61 1a3e b186 843d 18b6 803d a38d a2bc
00000030: 04df 423d 9696 253d a824 1d3d 9927 173d
00000040: 4343 183d ff39 863d 72ef c93d cbbd 50bd
00000050: 04f4 3fbd f6b1 41bd 56fc 4e3d e9e0 9cbc
00000060: f196 093c 4a55 b93d 2189 eb3d f74a a1bd
00000070: 34e2 3f3d 344d 193e b077 e9bc b496 76bc
00000080: 0bce 80bb c072 0dbe 5de9 1c3c bcc6 fbbd
00000090: f7a7 e13d 27dd 02be 1bc7 98bc e0a6 86bd
000000a0: 3c5f dcbd 3889 113e 93e1 033e 8ad4 b43d
000000b0: 9f59 c03c affb 913d 76a0 c63c d3b9 f73d
000000c0: a539 92bd 15fa 9f3c
-0.0928861 0.023121832 0.0008631733 0.13047004 0.1150797 0.06738121 -0.025776807 0.07523288
0.15076086 0.06471003 0.062847316 -0.019842928 0.047575966 0.040426813 0.038365036 0.036902998
0.03717352 0.065540306 0.09860124 -0.05096225 -0.04686357 -0.047288857 0.050533615 -0.019150214
0.008397804 0.09049471 0.11500765 -0.078756265 0.046846583 0.14970857 -0.028499454 -0.015050579
-0.0039308122 -0.13813305 0.0095771225 -0.12293765 0.11018365 -0.12779675 -0.018649628 -0.06574798
-0.10760352 0.14212501 0.12879018 0.08829601 0.023480235 0.07128083 0.024246436 0.1209599
-0.07139901 0.019528428

MLP4.weight f4 [7, 50]
00000000: d5ba 7f3d 0b4c b13d 902f 2abd f999 b9bd
00000010: dd95 1bbe dfc3 71bc e9aa 85bd 05ea a73d
00000020: b9fe c3bd 14ad 2abb 4805 c639 17f0 75bd
00000030: a99a 04be 081a 1a3e fd17 d8bd e9f0 f2bd
00000040: 213d 123e 8b69 1f3e be97 c4bc bd77 fc3d
00000050: 2d98 aa3b f305 d33d bd76 c9bd 0df3 87bc
00000060: d4d9 743d eff2 413e e3c6 973d ea12 c2bd
00000070: 95b4 883d ab4a 053d 8548 623d c0ce 32bd
00000080: 5ee9 2d3d 4e47 5139 b352 363d db19 01be
00000090: 3134 fbbd 8995 3bbd f1fd 90bd d31a 293d
000000a0: 9a31 fbbc 87ea 383d 616d 283d f639 723d
000000b0: 2ebd 863d d11e 65bd ad3c 113d af2d a23b
000000c0: 294d c8bc 19aa 12be cf0e 0c3c f344 a93c
000000d0: e126 113d 3bfd 20be 8a2e be3d 5f1c 233e
000000e0: db39 4b3d f57b cabc 007d 633d 91df eb3d
000000f0: 79de 25bb d300 88bd 5c89 41be f803 00bd
00000100: 4c9c 24be d31a 023e 72e7 2a3e 2897 db3d
00000110: 82ec 55bc 2ee0 40bd d13f 433d 5828 d93d
00000120: a5a8 1abe 9ce9 e7bd 1a59 92bd 2e5d 4b3e
00000130: 9a72 0bbe 2132 b5bd 565d 8b3d f2e0 adbb
00000140: 4d61 2bbd 908b b4bd e7ce ff3d d4e0 7b3d
00000150: 6d74 5c3d dfbc 1fbe 9647 a43d 0204 013e
00000160: d15f 503d f38a 863d 06fa f23d 6044 b5bc
00000170: 2a55 95bd 8ff0 fc3d e344 9abd 3bab 913d
00000180: d7b4 153e a93f 0dbe 71e9 1dbe d847 0bbe
00000190: fcac 1a3e 1fd8 03bc 80ae 163d 3607 3d3d
000001a0: cc84 183e afbd 47bd 0484 0abe b398 e6bd
000001b0: f4f6 0a3e 4d62 a8bd 1dea 9b3d 71e5 03be
000001c0: 0196 9cbd 5ebb a23d 4a74 3bbe 4e50 773d
000001d0: f004 1e3e 9c38 fcbc 37e4 0c3e 716b da3d
000001e0: dc67 0bbe b2c8 29be d636 d0bd d5c1 0fbe
000001f0: 4b28 113e e54a 3c3e 0e58 813d 4085 d63c
00000200: fe35 a1bd ea72 b83d 88ec a3bd 4535 60be
00000210: 70b0 4a3d 2f90 88bc b553 da3c fbe3 f3bd
00000220: 5eee 9b3d fdb3 143e 4039 40bc ff64 1c3e
00000230: 3c2e 173d c543 dbbc a4a5 c33d 6b30 213e
00000240: 0433 a03c ac8c fbbd b634 af3c b3dc 253e
00000250: 56f4 423d efdc 48be c37d 073e 43ab 36bd
00000260: da8f 553d f3be e8bd 4bcd 6fbd 5a69 ed3d
00000270: f0e7 72be 89d8 c63b cbfd 61bc a747 c03c
00000280: 13a1 97be 3c54 093e f8c9 7d3d 3271 1dbd
00000290: 4264 19be d052 023a 57a3 a33d 5f04 2e3e
000002a0: 538d bcbd 6218 fb3d 0792 1a3e 254a 05be
000002b0: 701a 29be 4391 263e 9035 0b3d 960b 0dbe
000002c0: ef84 873d 3b79 d7bd 5504 06bd 475a c2ba
000002d0: 0070 cbbd 61d9 24be f05e d13d f525 243d
000002e0: 2fcb f73d fc20 b63d 5622 04be 7652 60bd
000002f0: 9f12 fdbd ce2b 863c c93c 29be 2263 c43d
00000300: 1438 69bd 60c8 583d b034 ddbc d633 db3c
00000310: fa61 c7bd 47c2 04be 4796 d4bd a90f 96bd
00000320: dabd f4bd b22e 02be b71e 313d 175b e43d
00000330: ba57 063c 31d6 063e 783d ddbd f970 173e
00000340: 41d0 963d fdf5 edbd 40ce 683e cf7e 913d
00000350: c8eb 5bbe fa4b 6fbd 29f9 29be 170e 9a3d
00000360: 1581 643d a9ba dfbd 0f7c 02be 3178 683d
00000370: e1d0 2f3d 508f fbbd e924 3d3e c24e 0e3e
00000380: d1c4 5bbc 94fc 753d 2393 e23d 7cfc 0c3e
00000390: f7d0 a23d a49e 073e 5d81 0c3e 55e6 6f3d
000003a0: a883 9dbd 67c7 b6bd a8dc ec3d c4bb 51be
000003b0: 63e2 18be e993 25be 14fc 383d c33d 993d
000003c0: cc25 af3d 83d8 1ebd a5ca 48bb 966c f2bd
000003d0: d60a 9dbb 7a82 ebbd 1716 033e d8a7 103d
000003e0: 161d 5cbd 82d4 2e3d 6786 eabd 65db 993b
000003f0: 1389 03be 7e7b c4bb 1698 bc3d 2163 60bd
0.062434036 0.08657082 -0.041549265 -0.09062571 -0.15193887 -0.014756172 -0.06526739 0.081989326
-0.09570069 -0.0026043104 0.00037769438 -0.06004342 -0.12949623 0.15048993 -0.105514504 -0.11862356
0.14281131 0.15567605 -0.023998138 0.12327526 0.005206129 0.10303869 -0.09837101 -0.016595388
0.05977805 0.18940328 0.074109815 -0.09476264 0.06675068 0.032541912 0.05524494 -0.043654203
0.042458884 0.00019958356 0.044512462 -0.1260752 -0.12265814 -0.045796905 -0.070796855 0.041285347
-0.0306633 0.045145538 0.041119937 0.059137307 0.06579052 -0.055937592 0.035458256 0.0049492936
-0.024450855 -0.143227 0.0085484525 0.02066276 0.03543747 -0.157216 0.0928622 0.15928791
0.049615722 -0.02471731 0.05553913 0.11517251 -0.0025309606 -0.06640782 -0.18900055 -0.031253785
-0.16075248 0.12705545 0.16689852 0.1072219 -0.013056876 -0.047088794 0.047668282 0.10603398
-0.15103395 -0.11323854 -0.07145901 0.19859764 -0.13617936 -0.08847452 0.06804912 -0.0053063566
-0.04184084 -0.08815682 0.12490635 0.06149371 0.05382197 -0.15599392 0.080214664 0.12599185
0.050872628 0.06569471 0.118640944 -0.02212733 -0.072916344 0.123505704 -0.0753267 0.07112738
0.14619766 -0.13793816 -0.15421082 -0.13601625 0.15105051 -0.008047133 0.03678751 0.046149455
0.14894408 -0.04876488 -0.13526922 -0.11259594 0.13570768 -0.082218744 0.07613013 -0.12880494
-0.076457985 0.07945894 -0.1830608 0.06037932 0.15431571 -0.030788712 0.13758932 0.10665024
-0.13613838 -0.16580465 -0.10166709 -0.14038785 0.14175527 0.18387945 0.06315623 0.026186585
-0.07871626 0.09006293 -0.08004099 -0.2189532 0.04948467 -0.016670315 0.026651243 -0.11908718
0.07613824 0.14521785 -0.011732399 0.15272902 0.036909327 -0.026765713 0.09553078 0.15741126
0.019555576 -0.122826904 0.02138744 0.16197471 0.0475963 -0.1961553 0.13231568 -0.04459692
0.05213914 -0.11364546 -0.058545392 0.1159236 -0.2372129 0.0060682935 -0.013793419 0.023471666
-0.29615077 0.13411039 0.06196019 -0.03843803 -0.14979652 0.00049714465 0.07990139 0.16993855
-0.09206643 0.1226051 0.15094768 -0.13016565 -0.16513991 0.1626635 0.033986628 -0.13773951
0.06617152 -0.1052117 -0.032718975 -0.001482793 -0.09933472 -0.16098548 0.10223186 0.04007526
0.12099301 0.0889301 -0.12903723 -0.05476614 -0.12357067 0.01637831 -0.16527094 0.095892206
-0.056938246 0.052925467 -0.027002662 0.026758116 -0.097354844 -0.12964736 -0.10380226 -0.07327206
-0.11950274 -0.12713125 0.043242183 0.111501865 0.008199627 0.13167645 -0.1080274 0.1478919
0.0736394 -0.11619184 0.22734928 0.07104265 -0.21476662 -0.058422066 -0.16598953 0.07522219
0.055787165 -0.109242745 -0.12742637 0.05675525 0.04292381 -0.12283194 0.18471111 0.13897231
-0.013413624 0.06005533 0.1106322 0.1376819 0.07950013 0.1324411 0.13721223 0.05856927
-0.07691127 -0.08924752 0.11565524 -0.20481783 -0.1493011 -0.16169704 0.045162275 0.07482483
0.08552131 -0.0387807 -0.0030638364 -0.118371174 -0.0047925515 -0.11499496 0.12801395 0.03531632
-0.053738676 0.042683132 -0.114514165 0.0046953433 -0.12845258 -0.0059961667 0.092086956 -0.054782037

MLP4.bias f4 [7]
00000000: 6a2b ecbd 876f db3d 75bb 5e3d 4536 f7bc
00000010: 1383 32ba 229f e53d b071 023e
-0.11531718 0.107146315 0.05437799 -0.030177245 -0.0006809693 0.11211993 0.12738681
