DQN/final_dqn_against_random/DQN_AgainstNegaMax_Epochs30000_player2.pth (torch, 493491 bytes, 12 tensors)

conv1.weight f4 [32, 1, 5, 5]
0.05775995 0.050589886 0.084247865 -0.056096446 0.13393311 0.059917558 -0.02164087 -0.21196514
0.27703127 0.3540889 -0.08476971 0.18008699 -0.13291013 0.14593261 0.04607422 -0.29314363
0.040783573 -0.103146166 0.17067458 0.08049757 -0.0042070462 0.20410666 0.10450897 -0.07776953
-0.2593703 -0.08547082 0.19721672 -0.0070954165 -0.23234047 -0.1858588 0.05572442 0.25307488
-0.0057223155 -0.22229157 -0.2083422 -0.019204868 -0.20887844 0.058116596 0.107060544 -0.19317055
-0.11141396 -0.09795133 -0.15240252 0.07391556 -0.028821204 0.08630035 0.29539967 -0.13819723
0.090419784 -0.059039287 -0.042938955 0.3265948 -0.046403218 -0.1126063 -0.19414568 -0.047167327
0.20566611 -0.24776201 -0.26981944 0.16408661 0.11927933 0.1299776 0.21457644 0.23873886
0.0020706584 0.06874489 -0.04187619 -0.20880258 -0.104185656 -0.1868891 0.2116668 -0.110308506
0.058479104 -0.26591682 -0.13528283 -0.12823027 -0.32688594 -0.16302037 -0.1280367 0.15534358
-0.033009 -0.040968645 0.29649168 -0.22321327 -0.23687758 0.09411784 -0.09494641 0.04120311
-0.11841056 0.080182746 -0.12609862 -0.27031204 0.052363124 0.2890962 -0.054748308 0.17903617
-0.17715949 0.10312609 -0.20488612 0.05620958 0.012411241 -0.124946155 0.2167503 -0.24279718
-0.083783455 0.0994928 -0.04973085 0.28899446 0.115908876 0.14510264 -0.12720264 -0.011814201
0.005726376 -0.031337656 0.17707457 0.042695437 0.10716305 0.14327727 -0.13390148 -0.26885223
0.14358382 0.044291567 0.081228845 0.018604822 0.249749 0.14106545 0.16664785 0.26609242
0.16710778 -0.22660844 0.17646751 0.27695706 0.18459395 -0.15894946 0.07603959 -0.057305165
-0.019277342 -0.14938019 0.1337735 -0.26101217 0.20678483 0.27748278 0.10666362 0.15470953
-0.08934264 -0.3061395 0.037076667 0.024812326 0.19861819 0.25233284 -0.16995005 0.11624764
0.2328981 -0.1338623 0.12721328 0.110893786 0.26090494 0.17224355 0.26294616 -0.05161419
0.1280088 -0.41469198 -0.047093347 0.0022450972 0.15683387 -0.2513457 -0.18919905 0.06236866
-0.15430658 0.08351253 -0.16963416 -0.024483982 0.18350926 -0.19497493 0.20440844 -0.0666022
0.16992134 0.036306564 0.2765462 0.10363367 0.17395034 0.29136652 -0.18103355 0.2809274
-0.12979491 0.046299424 0.15141186 -0.117342845 0.12121727 -0.27242646 0.18811764 0.26198035
0.31538796 0.025669694 0.04949918 0.22426161 0.066774644 -0.08008419 -0.17756416 0.17201142
-0.14844346 0.26881406 0.15035099 -0.17915633 -0.072037846 0.22342832 0.2457077 0.03313467
0.23115048 -0.025886599 -0.15563007 -0.014516428 0.30406862 0.12086599 -0.24226457 0.06971235
-0.03341281 0.19359282 0.1920125 0.30562446 0.0070946217 -0.11703561 0.16588077 -0.13844149
-0.26603705 0.13214521 0.20010358 -0.20366311 -0.18346676 -0.08667377 0.26154643 -0.042184558
0.15458517 0.18630469 -0.0002810492 0.15171494 -0.11036043 0.137062 -0.15433216 -0.1289382
0.23835681 0.074443616 0.18158257 -0.07483555 -0.004326392 0.29935655 -0.16785568 -0.08761134
-0.08115534 0.03925986 -0.038246524 -0.21968526 -0.17739645 0.04882516 -0.005510313 0.15140456
00000000: b395 6c3d 5737 4f3d 258a ac3d 63c5 65bd
00000010: c325 093e 1d6c 753d 3248 b1bc 640d 59be
00000020: 0bd7 8d3e 244b b53e be9b adbd b968 383e
00000030: 9819 08be 5c6f 153e 52b8 3c3d ec16 96be
00000040: ad0c 273d 4c3e d3bd 51c5 2e3e e9db a43d
00000050: 43db 89bb 5601 513e cd08 d63d a245 9fbd
00000060: 2fcc 84be 530b afbd 2ef3 493e ab80 e8bb
00000070: a9ea 6dbe c551 3ebe 4a3f 643d 0893 813e
00000080: 4382 bbbb 67a0 63be a857 55be 8753 9dbc
00000090: 3be4 55be ab0b 6e3d 8f42 db3d 80ce 45be
000000a0: 012d e4bd b59a c8bd 680f 1cbe 0b61 973d
000000b0: 721a ecbc 3dbe b03d a03e 973e 9383 0dbe
000000c0: 022e b93d 2ed3 71bd c2e0 2fbd 6f37 a73e
000000d0: 4d11 3ebd 229e e6bd 20ce 46be 8732 41bd
000000e0: 239a 523e 53b5 7dbe c625 8abe 5206 283e
000000f0: b948 f43d d918 053e edb9 5b3e f677 743e
00000100: e2b3 073b 1fca 8c3d 5e86 2bbd 58d0 55be
00000110: 4a5f d5bd db5f 3fbe 2ebf 583e 6de9 e1bd
00000120: c987 6f3d 4026 88be 9587 0abe cc4e 03be
00000130: 985d a7be d0ee 26be 0d1c 03be 6312 1f3e
00000140: 7234 07bd bdce 27bd c2cd 973e 0592 64be
00000150: 0990 72be dbc0 c03d 4373 c2bd 98c4 283d
00000160: 3c81 f2bd da36 a43d ff1f 01be 5766 8abe
00000170: b77a 563d 6b04 943e c33f 60bd 4255 373e
00000180: 4c69 35be c533 d33d abcd 51be 043c 663d
00000190: 8558 4b3c c5e3 ffbd caf3 5d3e d39f 78be
000001a0: a996 abbd e2c2 cb3d 93b2 4bbd 15f7 933e
000001b0: a261 ed3d c995 143e 6941 02be 5a90 41bc
000001c0: 53a4 bb3b ea5b 00bd 0953 353e 69e1 2e3d
000001d0: 4d78 db3d 47b7 123e 781d 09be 00a7 89be
000001e0: a307 133e 136b 353d 4f5b a63d 2469 983c
000001f0: 34be 7f3e 7673 103e bca5 2a3e 443d 883e
00000200: 4d1e 2b3e 0b0c 68be e6b3 343e 51cd 8d3e
00000210: 3206 3d3e a6c3 22be a5ba 9b3d d2b8 6abd
00000220: 84eb 9dbc 1ff7 18be ecfb 083e 63a3 85be
00000230: 67bf 533e 3912 8e3e 7572 da3d 2d6c 1e3e
00000240: 46f9 b6bd 51be 9cbe b4dd 173d 3843 cb3c
00000250: 9162 4b3e c531 813e 6307 2ebe 3e13 ee3d
00000260: d77c 6e3e 3313 09be 3344 023e 481c e33d
00000270: 5595 853e 9d60 303e e1a0 863e 6769 53bd
00000280: bd14 033e 8252 d4be f4e4 40bd 7b22 133b
00000290: 0f99 203e 62b0 80be 65bd 41be 4876 7f3d
000002a0: 8b02 1ebe 9e08 ab3d 94b4 2dbe a292 c8bc
000002b0: dae9 3b3e 82a7 47be 7250 513e bc66 88bd
000002c0: dcff 2d3e 31b6 143d 7797 8d3e e43d d43d
000002d0: 0a20 323e fe2d 953e dc60 39be b7d5 8f3e
000002e0: f5e8 04be 77a4 3d3d b60b 1b3e 7251 f0bd
000002f0: c340 f83d 7b7b 8bbe e9a1 403e 4a22 863e
00000300: 887a a13e 4049 d23c a7bf 4a3d d6a4 653e
00000310: 25c1 883d 2e03 a4bd 61d3 35be c323 303e
00000320: 9001 18be ffa1 893e 9cf5 193e c274 37be
00000330: 9488 93bd 65ca 643e cd9a 7b3e 38b8 073d
00000340: b6b2 6c3e 2210 d4bc 7d5d 1fbe 50d6 6dbc
00000350: e2ae 9b3e 9788 f73d 3414 78be 59c5 8e3d
00000360: dfdb 08bd 323d 463e ed9e 443e cf7a 9c3e
00000370: 007a e83b 5eb0 efbd a6dc 293e 9bc3 0dbe
00000380: 0236 88be 1351 073e f4e7 4c3e 108d 50be
00000390: b6de 3bbe 0482 b1bd 6ae9 853e b7c9 2cbd
000003a0: 934b 1e3e a8c6 3e3e c959 93b9 295b 1b3e
000003b0: a604 e2bd fb59 0c3e 4009 1ebe 6008 04be
000003c0: cf13 743e e575 983d c8f0 393e 6143 99bd
000003d0: 68c4 8dbb 4345 993e 5ce2 2bbe 936d b3bd
000003e0: c534 a6bd f2ce 203d 63a8 1cbd 2cf5 60be
000003f0: 6aa7 35be e4fc 473d db8f b4bb cc09 1b3e

conv1.bias f4 [32]
0.05087791 0.19047563 -0.09679967 0.17197527 0.109944336 0.059919067 0.038599588 0.13099709
0.07141587 -0.1645451 -0.030724393 0.059006996 0.1683089 0.12176135 -0.11229593 -0.14306496
0.06256924 0.21198218 0.08558411 0.15272331 -0.05383141 -0.12776996 0.21990092 -0.11889238
-0.13252091 0.13547203 -0.090478964 0.11969028 0.12840214 0.09432803 0.09574974 0.19070773
00000000: 5b65 503d 0b0c 433e e83e c6bd 491a 303e
00000010: 7f2a e13d b26d 753d 9a1a 1e3d 1a24 063e
00000020: 7c42 923d 837e 28be b9b1 fbbc 52b1 713d
00000030: 2b59 2c3e 045e f93d 69fb e5bd 9f7f 12be
00000040: 4d24 803d db11 593e b946 af3d 8063 1c3e
00000050: 537e 5cbd 21d6 02be b52d 613e d97d f3bd
00000060: 90b3 07be 2eb9 0a3e 094d b9bd 2d20 f53d
00000070: da7b 033e 0e2f c13d 7118 c43d e348 433e

conv2.weight f4 [32, 32, 5, 5]
0.03221264 -0.0072197136 0.015485375 0.0057618674 0.0022575408 0.028469838 0.013081621 0.06027801
0.012490367 -0.06899832 -0.041424908 -0.04898183 -0.07221796 0.046486348 0.030189116 0.04199103
0.06708102 0.019577414 -0.053430334 -0.01212829 0.017451134 0.041975815 -0.062207688 0.0087093515
-0.10978158 0.04254943 -0.008358073 -0.02035303 0.00021973325 0.009631189 0.023806239 0.06578628
0.022424053 0.028499402 0.078114636 0.027926622 0.03609823 0.045495525 -0.011117568 0.051636223
0.059227064 0.024172414 -0.011060771 -0.0016351268 0.124525055 0.030693877 -0.030431965 0.04821048
-0.01769644 0.069582865 0.073882654 0.067388155 -0.034229934 -0.06700242 0.00018716583 -0.06353882
-0.016448721 -0.012133533 -0.07033364 -0.066741005 0.012591242 -0.0058469926 -0.035362348 0.023558097
0.004136213 0.04282961 0.0067278827 -0.0899949 -0.015626041 -0.016228972 -0.05480649 -0.106627375
-0.0053981924 0.11619932 0.06858778 0.08989775 0.044396687 -0.030476654 -0.053308032 0.05479569
0.019813666 0.045234397 0.045929555 -0.04739523 0.026708182 0.059964016 -0.0061461967 0.0004942423
-0.06678377 0.0055747773 -0.02726688 -0.034503717 0.014367804 -0.012742725 -0.01887643 0.019886298
0.011294352 0.045884594 0.0016758607 -0.012462888 -0.014484091 0.06722118 -0.051175028 -0.045017622
0.02532496 0.028838864 0.023331 -0.0081190765 0.06984109 0.08939612 -0.05216534 0.07333207
-0.022451872 -0.012060502 0.049246203 -0.04682775 0.028727466 0.053073596 -0.0017878646 0.091590635
-0.016116261 0.035989434 -0.042572204 -0.09009786 0.077610284 0.03466126 0.027183212 -0.08004712
-0.0068852664 -0.082287386 -0.022768866 0.040981285 -0.120723516 -0.026131626 0.06336294 -0.04113073
0.10203897 -0.042444184 -0.017809944 -0.07501231 0.024754632 0.009304238 -0.020980567 0.017845193
-0.0024014045 -0.03698966 -0.049575202 -0.02083001 0.028976895 0.004535417 -0.05794645 -0.0516041
0.049926784 0.029647116 0.05080661 0.045707032 0.041030243 0.07554598 0.024372859 0.044859186
0.01971601 -0.030036118 0.023334188 -0.075071685 -0.017065657 -0.019035462 -0.096964754 0.014401056
0.05175057 -0.03856888 0.04013688 -0.01652023 0.029295933 -0.031687148 -0.04227961 0.060436472
-0.019327462 -0.0065301433 -0.0478672 -0.020790912 0.07185317 -0.02454951 -0.015796768 0.07311324
-0.025289677 0.05635656 0.05189405 -0.024682853 0.08413431 -0.0001062329 0.007886293 0.014329541
-0.006276904 0.06918227 -0.0021623992 0.021938674 -0.067129865 0.03410797 0.04054104 -0.021369448
-0.027497387 -0.067227125 -0.05194029 -0.048676103 0.07347801 -0.004686501 0.05964405 -0.05993829
-0.084113665 0.062046666 -0.05538439 0.026179943 -0.057978567 -0.06636526 -0.039925497 -0.056334473
0.15136781 0.008857341 -0.07345524 0.03167788 -0.0011300495 0.019735355 0.062084895 -0.07323319
-0.031485166 0.0051054005 0.037855376 0.09148677 -0.0711417 0.012673408 0.057791423 0.024962382
0.016669583 0.06864501 -0.028602414 0.044446744 -0.011424356 0.00395015 -0.04908818 0.011007296
-0.06451329 -0.0027494896 -0.010399289 0.078885265 -0.008152235 -0.021671247 0.046079975 -0.10493314
0.0035985054 -0.029166149 0.018288601 0.039295673 -0.027748374 0.024543984 -0.02465946 0.045128632
00000000: 67f1 033d 5993 ecbb 5fb6 7d3c 0cce bc3b
00000010: 40f3 133b 9439 e93c 4c54 563c 13e6 763d
00000020: 65a4 4c3c fe4e 8dbd 2aad 29bd 2ca1 48bd
00000030: 03e7 93bd 7868 3e3d 2a4f f73c c9fe 2b3d
00000040: c661 893d d060 a03c c4d9 5abd bcb5 46bc
00000050: aef5 8e3c d5ee 2b3d 7dcd 7ebd abb1 0e3c
00000060: 2ad5 e0bd 5048 2e3d 4df0 08bc 66bb a6bc
00000070: 3268 6639 22cc 1d3c 4d05 c33c f5ba 863d
00000080: a6b2 b73c 9477 e93c 91fa 9f3d 5fc6 e43c
00000090: bddb 133d 8459 3a3d 7626 36bc 8180 533d
000000a0: 1498 723d 3a05 c63c 3c38 35bc c051 d6ba
000000b0: fe06 ff3d ba71 fb3c 754c f9bc 5a78 453d
000000c0: 20f8 90bc 7681 8e3d ca4f 973d cd02 8a3d
000000d0: b034 0cbd 9138 89bd f241 4439 a420 82bd
000000e0: 78bf 86bc bacb 46bc 150b 90bd 82af 88bd
000000f0: 7f4b 4e3c 2198 bfbb 1cd8 10bd e9fc c03c
00000100: 1289 873b 1a6e 2f3d 9275 dc3b 3f4f b8bd
00000110: 2f02 80bc 9ff2 84bc c57c 60bd 745f dabd
00000120: 52e3 b0bb e9f9 ed3d c077 8c3d 501c b83d
00000130: 4dd9 353d 2daa f9bc 8659 5abd 7271 603d
00000140: 4550 a23c b447 393d a120 3c3d 8021 42bd
00000150: 1ecb da3c d49c 753d 0966 c9bb 0a90 013a
00000160: eec5 88bd 9fac b63b cb5e dfbc c553 0dbd
00000170: f066 6b3c ddc6 50bc bea2 9abc 97e8 a23c
00000180: f20b 393c 7cf1 3b3d 8ea8 db3a 2431 4cbc
00000190: ae4e 6dbc 42ab 893d e89c 51bd 6664 38bd
000001a0: 4a76 cf3c 7b3f ec3c a720 bf3c e005 05bc
000001b0: d808 8f3d 5015 b73d 53ab 55bd 202f 963d
000001c0: fdec b7bc 6999 45bc 63b6 493d 74ce 3fbd
000001d0: dd55 eb3c b363 593d c856 eaba df93 bb3d
000001e0: 4006 84bc a869 133d 3160 2ebd 3a85 b8bd
000001f0: 24f2 9e3d f7f8 0d3d 54af de3c bfef a3bd
00000200: cd9d e1bb 4a86 a8bd c685 babc fedb 273d
00000210: e43d f7bd fe11 d6bc 6ec4 813d b278 28bd
00000220: cff9 d03d f4d9 2dbd 29e6 91bc 0ea0 99bd
00000230: 3aca ca3c cd70 183c 70df abbc 1530 923c
00000240: e260 1dbb 7882 17bd 5e0f 4bbd b2a3 aabc
00000250: f460 ed3c d69d 943b 4259 6dbd d25e 53bd
00000260: 0780 4c3d 82de f23c 981a 503d 4c37 3b3d
00000270: 540f 283d dab7 9a3d 97a9 c73c 44be 373d
00000280: 7883 a13c 4e0e f6bc 5727 bf3c 2fbf 99bd
00000290: 47cd 8bbc 42f0 9bbc 7595 c6bd 68f2 6b3c
000002a0: 68f8 533d 67fa 1dbd 9266 243d 6f55 87bc
000002b0: 06fe ef3c 62ca 01bd 622d 2dbd 3c8c 773d
000002c0: a054 9ebc d0fa d5bb 6610 44bd b451 aabc
000002d0: c127 933d 0e1c c9bc 3968 81bc 65bc 953d
000002e0: 4c2c cfbc 23d6 663d db8e 543d b233 cabc
000002f0: 9c4e ac3d 5bc9 deb8 8335 013c 73c6 6a3c
00000300: 7dae cdbb 6faf 8d3d 0ab7 0dbb bcb8 b33c
00000310: 627b 89bd ccb4 0b3d 5d0e 263d fb0e afbc
00000320: 3342 e1bc 60ae 89bd 57bf 54bd 9860 47bd
00000330: a47b 963d 3891 99bb 524d 743d da81 75bd
00000340: c943 acbd a524 7e3d beda 62bd 5277 d63c
00000350: ef7a 6dbd 82ea 87bd eb88 23bd fabe 66bd
00000360: 2a00 1b3e 611e 113c b36f 96bd aac0 013d
00000370: 2b1e 94ba 0aac a13c bb4c 7e3d 48fb 95bd
00000380: 97f6 00bd 344b a73b 3d0e 1b3d 6a5d bb3d
00000390: bdb2 91bd 20a4 4f3c b3b6 6c3d e97d cc3c
000003a0: a68e 883c c195 8c3d 9c4f eabc ca0d 363d
000003b0: 392d 3bbc 4370 813b b010 49bd f257 343c
000003c0: 8b1f 84bd c830 34bb c861 2abc 998e a13d
000003d0: f490 05bc e687 b1bc 5bbe 3c3d 30e7 d6bd
000003e0: e7d4 6b3b d9ed eebc fad1 953c 80f4 203d
000003f0: 8f50 e3bc 7710 c93c a302 cabc cdd8 383d

conv2.bias f4 [32]
0.00033326558 0.045645755 0.015751353 0.01305406 0.040900126 0.04617196 0.006161712 0.056559935
0.044973936 -0.028541725 0.031210221 0.0070299553 0.028331874 0.05698851 0.059574734 0.03219224
0.037471015 0.038395707 0.018333456 -0.020180574 0.0117993 0.016970983 0.044952895 0.016615383
-0.0054880516 0.01308873 0.012719136 -0.018690564 -0.032493066 -0.029253248 0.03461065 0.024956934
00000000: 26ba ae39 0bf7 3a3d fb08 813c b2e0 553c
00000010: e486 273d cf1e 3d3d 30e8 c93b 64ab 673d
00000020: 9736 383d 56d0 e9bc 94ac ff3c 8a5b e63b
00000030: 3f18 e83c c96c 693d a304 743d 03dc 033d
00000040: 357b 193d d144 1d3d 0b30 963c bb51 a5bc
00000050: da51 413c bb06 8b3c 8720 383d fc1c 883c
00000060: 1dd5 b3bb 1d72 563c ec63 503c f41c 99bc
00000070: 7317 05bd 82a4 efbc e6c3 0d3d 7c72 cc3c

conv3.weight f4 [32, 32, 5, 5]
-0.001148479 -0.0075473227 -0.012456411 -0.02015572 -0.059806738 -0.060306948 -0.006089559 -0.010692347
0.06391948 -0.057108294 0.061735936 0.0476811 0.07702367 0.012663153 -0.03894758 0.0070961528
0.049961325 0.013963042 -0.006299559 -0.043281797 -0.02005175 0.016132843 0.030947067 -0.0014896854
-0.10345732 0.018394023 -0.060737893 -0.005886371 -0.015809473 -0.02094232 -0.010257815 0.023139033
0.0048303036 -0.034633383 0.07247849 0.020695928 0.03965177 -0.015462462 -0.0012145144 0.12283577
-0.0387868 -0.018743256 -0.0055862004 0.09438524 0.11977991 -0.04730683 0.11005899 0.067481376
0.010093305 0.068528354 -0.07592618 -0.022213563 -0.033286996 0.036611944 0.069523335 -0.03972005
0.0029573648 0.057295583 0.04527427 0.06614984 -0.03121868 0.0035721455 0.030797632 0.07367605
0.043415744 0.032507792 0.06446842 0.08437145 0.03428155 -0.02931176 0.04845113 0.007012349
0.059113786 -0.03187897 0.015294102 0.049487624 -0.007655566 0.07351066 0.01203731 0.054729953
0.02167852 0.12383098 0.025582202 -0.020994196 -0.02915189 -0.030081445 0.025067642 0.037791327
-0.01756331 0.010199686 0.06837292 0.013529023 -0.021330753 -0.048795126 -0.041395828 -0.07294867
-0.074471645 -0.12024672 -0.079956256 0.009377605 -0.05077509 0.011949219 -0.0063333353 0.040607616
0.06495257 -0.06986052 0.059307132 0.06882363 0.06835185 0.026812732 0.01972761 0.004871326
0.07683472 0.040878642 -0.007343825 0.012199412 -0.007860253 0.023115244 0.008206057 -0.043272275
0.045170113 -0.06870576 -0.059807498 -0.029461682 -0.05054158 0.049941752 -0.023663215 0.0517474
0.0041161734 0.026820015 0.04581735 0.09821305 -0.003503823 -0.07403036 0.05988173 -0.009795858
0.03127847 -0.022735583 -0.05627513 -0.014531801 0.025956785 0.0135560315 -0.07000867 -0.06602281
-0.011439848 -0.08905323 -0.0070364997 -0.045597497 -0.088755555 0.07706376 0.02819501 -0.008362299
-0.057241935 -0.03571434 0.028972857 -0.05063633 -0.0281849 -0.06964751 -0.08746117 -0.0053188214
0.039395384 -0.10254738 0.026261317 0.010467154 -0.02631252 -0.08461949 0.05346117 -0.014200335
-0.0405288 0.03257945 -0.04551352 0.03027276 -0.030023234 0.023175739 0.046409324 0.014264246
0.054546293 0.017358612 0.05648004 -0.0068935454 -0.012321662 0.023423918 0.044533998 -0.0039972244
0.012496274 0.043189865 0.02485089 0.0857639 0.06315679 0.016269471 0.003134539 0.02336209
0.05490267 0.034776222 -0.03931542 0.017253049 -0.074140795 -0.042909306 -0.10245213 -0.1604144
0.032491926 -0.035737507 -0.034422487 0.021331664 -0.014408841 -0.0018907058 -0.0017737318 0.0053296117
0.024595518 -0.00067606935 -0.09954836 -0.061750837 -0.022544006 7.450962e-05 0.07887446 0.0036450832
-0.0056009027 -0.008798285 0.11001495 0.094474435 0.06541358 0.08519637 0.05361756 0.017909672
0.038303386 -0.062608056 -0.0029158469 -0.05552402 -0.020623915 0.04603926 -0.07074525 -0.01851697
-0.0349494 -0.024236683 0.03914 -0.035026662 -0.049530268 -0.029938852 0.04499749 0.07339573
0.040418323 0.00069868943 0.05396883 0.072858445 0.002859763 0.03816621 0.07114598 0.007831928
0.10202451 0.055736624 0.11036437 0.046571933 0.024520196 -0.013926179 -0.017669728 -0.014208138
00000000: 8f88 96ba 884f f7bb f915 4cbc 9c1d a5bc
00000010: e9f7 74bd 6b04 77bd ec8a c7bb f42e 2fbc
00000020: 37e8 823d 63ea 69bd d2de 7c3d 424d 433d
00000030: 96be 9d3d 1d79 4f3c 7f87 1fbd d886 e83b
00000040: 3fa4 4c3d 3ec5 643c 886c cebb 4148 31bd
00000050: 9143 a4bc 0629 843c b484 fd3c 8c41 c3ba
00000060: 6ee1 d3bd 10af 963c 4cc8 78bd 75e2 c0bb
00000070: de82 81bc 3a8f abbc 6510 28bc 128e bd3c
00000080: 8647 9e3b bcdb 0dbd 9a6f 943d 828a a93c
00000090: e569 223d 4456 7dbc 5730 9fba 5291 fb3d
000000a0: e8de 1ebd 758b 99bc 720c b7bb 0c4d c13d
000000b0: 2b4f f53d cec4 41bd 9c66 e13d ad33 8a3d
000000c0: 645e 253c 9858 8c3d 2f7f 9bbd 38f9 b5bc
000000d0: f257 08bd 68f6 153d 4062 8e3d 7eb1 22bd
000000e0: 59d0 413b c6ae 6a3d 8371 393d 9179 873d
000000f0: 51be ffbc a81a 6a3b 514b fc3c 78e3 963d
00000100: b5d4 313d e426 053d 0508 843d f0ca ac3d
00000110: d06a 0c3d 371f f0bc b174 463d d9c7 e53b
00000120: 4c21 723d 8693 02bd 1d94 7a3c 89b3 4a3d
00000130: 8bdb fabb c28c 963d 2338 453c 842c 603d
00000140: 2797 b13c 199b fd3d c491 d13c 05fc abbc
00000150: f2cf eebc 5d6d f6bc a85a cd3c 14cb 1a3d
00000160: eee0 8fbc 951c 273c 1a07 8c3d d6a8 5d3c
00000170: d5bd aebc 66dd 47bd ac8e 29bd 1d66 95bd
00000180: 9784 98bd ea43 f6bd 1bc0 a3bd 87a4 193c
00000190: 8af9 4fbd a8c6 433c de87 cfbb 2c54 263d
000001a0: da05 853d 0813 8fbd 09ec 723d 67f3 8c3d
000001b0: 0efc 8b3d 60a6 db3c cc9b a13c a59f 9f3b
000001c0: 865b 9d3d 5d70 273d 78a4 f0bb 0be0 473c
000001d0: 4ac8 00bc 2e5c bd3c b372 063c 453e 31bd
000001e0: 4c04 393d 9bb5 8cbd b5f8 74bd a059 f1bc
000001f0: b004 4fbd b98f 4c3d 5cd9 c1bc 15f5 533d
00000200: f7e0 863b a6b5 db3c f9aa 3b3d ec23 c93d
00000210: 65a0 65bb 3b9d 97bd 8b46 753d ce7e 20bc
00000220: da1d 003d f93f babc c080 66bd cb16 6ebc
00000230: 53a3 d43c 1e1a 5e3c b560 8fbd f836 87bd
00000240: 336e 3bbc 8a61 b6bd 7092 e6bb 71c4 3abd
00000250: 79c5 b5bd 9bd3 9d3d 39f9 e63c 0602 09bc
00000260: 8576 6abd 3349 12bd 7c58 ed3c 0a68 4fbd
00000270: 05e4 e6bc 5ba3 8ebd d81e b3bd 8249 aebb
00000280: 0e5d 213d 5c04 d2bd f921 d73c 6d7e 2b3c
00000290: 5b8d d7bc fc4c adbd 1afa 5a3d 86a8 68bc
000002a0: 8701 26bd 0872 053d 626c 3abd 94fe f73c
000002b0: 49f3 f5bc 0cdb bd3c b417 3e3d 96b4 693c
000002c0: ef6b 5f3d a633 8e3c 9d57 673d 40e3 e1bb
000002d0: cce0 49bc 84e3 bf3c 4869 363d 26fb 82bb
000002e0: 2cbd 4c3c dbe7 303d 1894 cb3c fca4 af3d
000002f0: 5958 813d 8e47 853c d66c 4d3b db61 bf3c
00000300: 9fe1 603d 8371 0e3d 3509 21bd 4456 8d3c
00000310: 21d7 97bd abc1 2fbd 6cd2 d1bd ac43 24be
00000320: 4116 053d 7e61 12bd 98fe 0cbd bebf ae3c
00000330: 0f13 6cbc 8fd1 f7ba 907c e8ba 06a4 ae3b
00000340: 8a7c c93c 3f3a 31ba 03e0 cbbd 72ee 7cbd
00000350: 35ae b8bc 0c42 9c38 ef88 a13d 59e2 6e3b
00000360: c787 b7bb af26 10bc 854f e13d d07b c13d
00000370: 8ef7 853d 6f7b ae3d 169e 5b3d 4eb7 923c
00000380: 03e4 1c3d a738 80bd cb17 3fbb 286d 63bd
00000390: 7cf3 a8bc aa93 3c3d e3e2 90bd e7b0 97bc
000003a0: 1a27 0fbd 028c c6bc 4451 203d 1e78 0fbd
000003b0: 40e0 4abd 5342 f5bc 4a4f 383d 8050 963d
000003c0: af8d 253d 4128 373a 6b0e 5d3d cf36 953d
000003d0: dd6a 3b3b 2c54 1c3d fcb4 913d 7d51 003c
000003e0: 3af2 d03d 164c 643d b706 e23d 36c2 3e3d
000003f0: 94de c83c a12a 64bc 1bc0 90bc 40c9 68bc

conv3.bias f4 [32]
0.010436557 0.03199985 -0.055001173 0.04097786 -0.029149676 0.080467105 0.025853654 -0.032653354
-0.0027661093 0.007243263 -0.006091083 -0.013971328 -0.0016677711 0.024132594 0.041910607 0.046789836
0.053921226 0.04321672 -0.02095336 0.008428268 0.028140856 -0.015628077 0.056644723 0.050531887
0.052583814 0.002068323 0.030771622 -0.049664557 -0.0040951283 0.014007593 0.011280556 -0.008712341
00000000: 18fe 2a3c 4612 033d e948 61bd 67d8 273d
00000010: 4dcb eebc f0cb a43d 0bcb d33c 86bf 05bd
00000020: 9d47 35bb e558 ed3b b597 c7bb ffe7 64bc
00000030: 1d99 daba b8b1 c53c 75aa 2b3d b3a6 3f3d
00000040: 81dc 5c3d 0404 313d 61a6 abbc b816 0a3c
00000050: a787 e63c 7406 80bc 4c04 683d 86fa 4e3d
00000060: 2062 573d b48c 073b c514 fc3c 106d 4bbd
00000070: 6d30 86bb 1a80 653c 15d2 383c 35be 0ebc

MLP1.weight f4 [50, 1344]
-0.007950565 0.023353701 0.03665469 0.046549585 0.04261196 0.051888503 0.050674368 -0.030798288
-0.036319584 0.03454076 0.056996316 -0.014588051 0.016915075 -0.03649968 -0.005906345 0.012957108
0.029093076 -0.008223173 -0.05600646 -0.03802773 -0.07826141 0.005141129 -0.0012119891 0.0031792987
-0.0045310208 0.0042542606 -0.028379183 0.0009419585 0.0052815666 -0.0125056505 0.024794608 0.0047308723
0.010486367 0.037232287 -0.010351998 -0.02713322 -0.026154028 0.008443676 -0.0029385174 0.015503791
0.01699779 0.025093244 -0.0019633682 0.00845888 0.053851277 0.0036240553 -0.0020573572 0.018656936
0.007540048 0.03989205 0.0065752217 -0.006150548 0.030737717 -0.029293988 0.022744197 0.0679949
-0.004923885 0.024035271 0.024382833 0.038906846 0.02404949 0.014162165 0.0049716798 -0.0028099737
-0.029484719 0.03680685 0.045991167 -0.048385065 0.05429222 0.05210085 0.12139646 0.06690721
-0.013180735 0.07314858 -0.032331746 -0.001908148 0.006450388 -0.037527505 -0.021127056 -0.08360839
0.0344509 0.037449833 0.09507463 0.11043219 0.13748284 -0.10912614 -0.028993946 0.026374772
-0.012259444 0.0021740356 0.0023056187 0.0548614 -0.0121156145 0.0014038434 0.03570432 0.018192967
0.025808824 0.044874378 0.03795867 -0.0021107998 0.013516598 0.017941643 0.019608865 0.06342008
0.023335746 0.012996657 -0.031579338 -0.017996326 -0.014801785 -0.019016264 -0.0032398286 0.018202983
0.054489695 0.009219578 0.049883436 -0.0033617376 0.020925313 0.03335435 -0.016972765 0.036663175
-0.058758125 -0.01396995 -0.005545602 -0.030760273 -0.022846786 -0.09042235 0.07898832 0.057926636
-0.100946896 -0.013356622 0.04416035 -0.014389414 -0.036892287 0.03038746 0.08176778 -0.008283082
0.0043746317 0.05443979 0.008448247 0.033050317 0.028972734 0.022008115 -0.0029907932 0.04052229
0.031303935 0.040488485 0.0021036256 0.0036651606 0.049244996 -0.044662125 0.025079759 0.039324634
0.0033574917 0.023983246 -0.016992403 -0.02525947 -0.043915175 -0.017029846 0.059892386 0.044058587
-0.011386718 0.021528168 -0.012025061 -0.0220367 -0.0043234797 -0.027083382 0.00027870553 -0.058614302
0.024024177 0.023118135 0.0031458153 0.003788228 0.0060722353 -0.044596534 0.048287846 0.031384423
0.026051408 0.029301798 0.029358126 0.008800413 0.07008942 0.0018983856 -0.03496629 0.019899795
-0.012457789 -0.00043111143 0.024696773 0.06596046 0.02549719 0.022446586 -0.02302878 0.028578509
0.017414061 0.03651011 0.00833537 -0.035346612 -0.009299135 -0.037882797 0.00044107533 -0.04163439
0.020540657 -0.02141132 -0.043997426 -0.033773817 0.022936482 -0.03571493 -0.025131268 -0.051384207
0.015049041 -0.05214782 0.016301889 -0.007699402 -0.009534094 -0.065812394 0.026256239 0.015262489
-0.01188211 -0.050165143 0.02272231 0.030925974 -0.004362453 -0.0023025002 0.07236785 0.0015048624
0.0054975334 0.012287649 -0.002737693 -0.0060263793 0.03601172 0.021918107 0.027661562 0.057014965
0.05008761 0.05484534 0.02363335 0.023513444 0.06431878 -0.014117969 0.0027558221 0.039762173
-0.014478475 0.03016004 0.0039679473 0.018877447 0.0037086518 -0.007119925 0.01497658 -0.0038805576
-0.021052696 0.017030353 0.0155725945 0.014165234 0.009985902 -0.0007529171 0.006452434 0.008644152
00000000: 1643 02bc 4350 bf3c 3a23 163d c7aa 3e3d
00000010: e189 2e3d 0a89 543d ed8f 4f3d b14c fcbc
00000020: d8c3 14bd 9d7a 0d3d f874 693d b802 6fbc
00000030: 7c91 8a3c b080 15bd 038a c1bb 0d4a 543c
00000040: 9a54 ee3c 7dba 06bc 0867 65bd f7c2 1bbd
00000050: 8547 a0bd ea76 a83b 9bdb 9eba c85b 503b
00000060: f578 94bb 5367 8b3b 767b e8bc c4ed 763a
00000070: fe10 ad3b 80e4 4cbc 101e cb3c 6f05 9b3b
00000080: 03cf 2b3c e280 183d 6d9b 29bc 7d46 debc
00000090: f940 d6bc 5857 0a3c 2494 40bb 9d03 7e3c
000000a0: f33e 8b3c 5990 cd3c daab 00bb 1d97 0a3c
000000b0: 2893 5c3d 8f81 6d3b bad4 06bb 6ed6 983c
000000c0: 8212 f73b d965 233d f574 d73b 898a c9bb
000000d0: aacd fb3c f2f9 efbc 0a52 ba3c e940 8b3d
000000e0: 8b58 a1bb 9ee5 c43c 82be c73c c95c 1f3d
000000f0: 7003 c53c 6d08 683c 79e9 a23b 8927 38bb
00000100: f089 f1bc c8c2 163d 3c61 3c3d 6b2f 46bd
00000110: 8561 5e3d b367 553d b59e f83d a606 893d
00000120: 02f4 57bc ecce 953d 4b6e 04bd d31a faba
00000130: c75d d33b 71b6 19bd a612 adbc e03a abbd
00000140: 631c 0d3d ff64 193d 7db6 c23d 462a e23d
00000150: 4dc8 0c3e 877d dfbd b684 edbc e80f d83c
00000160: d6db 48bc 447a 0e3b dd19 173b 59b6 603d
00000170: 9280 46bc 2b01 b83a b13e 123d 6b09 953c
00000180: 076d d33c 32ce 373d 8d7a 1b3d 5855 0abb
00000190: b974 5d3c 5afa 923c c5a2 a03c 63e2 813d
000001a0: 9b2a bf3c eeef 543c 5659 01bd 086d 93bc
000001b0: 3083 72bc ffc7 9bbc 4e53 54bb 6c1e 953c
000001c0: 9630 5f3d b60d 173c 9352 4c3d 9950 5cbb
000001d0: 906b ab3c 929e 083d 780a 8bbc 202c 163d
000001e0: 5cac 70bd 38e2 64bc e2b7 b5bb f8fc fbbc
000001f0: 2f29 bbbc 5a2f b9bd a1c4 a13d 7b44 6d3d
00000200: 3fbd cebd bcd5 5abc 7ce1 343d 94c1 6bbc
00000210: 5e1c 17bd 1fef f83c de75 a73d c4b5 07bc
00000220: 1259 8f3b 42fc 5e3d 846a 0a3c c55f 073d
00000230: 3a58 ed3c 5d4a b43c 2f01 44bb b3fa 253d
00000240: 8e38 003d 41d7 253d fbdc 093b 3133 703b
00000250: 1fb5 493d a2ef 36bd 1174 cd3c de12 213d
00000260: 5d09 5c3b 8378 c43c a733 8bbc f3ec cebc
00000270: 66e0 33bd 2d82 8bbc b851 753d c776 343d
00000280: 5b8f 3abc d75b b03c c304 45bc 4f86 b4bc
00000290: faab 8dbb f8dd ddbc 391f 9239 8d15 70bd
000002a0: 5ace c43c 3e62 bd3c 062a 4e3b eb43 783b
000002b0: 9af9 c63b dbaa 36bd 7ac9 453d f48c 003d
000002c0: c369 d53c 530a f03c 7480 f03c 9c2f 103c
000002d0: 0b8b 8f3d 40d3 f83a d038 0fbd e504 a33c
000002e0: c11b 4cbc cc06 e2b9 e350 ca3c 4716 873d
000002f0: 7cdf d03c e7e1 b73c daa6 bcbc 7a1d ea3c
00000300: efa7 8e3c a08b 153d 1391 083c 9cc7 10bd
00000310: 665b 18bc fe2a 1bbd 2140 e739 d288 2abd
00000320: e144 a83c cb66 afbc a536 34bd 6a56 0abd
00000330: 4ae5 bb3c d249 12bd 17e0 cdbc 3f78 52bd
00000340: 4190 763c f498 55bd 8a8b 853c 444b fcbb
00000350: e334 1cbc a6c8 86bd 5317 d73c 850f 7a3c
00000360: 2ead 42bc f779 4dbd 2324 ba3c 7858 fd3c
00000370: e8f2 8ebb 8be5 16bb 9835 943d ce3e c53a
00000380: a724 b43b 2352 493c de6a 33bb ef78 c5bb
00000390: 0681 133d 9a8d b33c 809a e23c 8688 693d
000003a0: aa28 4d3d 82a5 603d ba9a c13c 449f c03c
000003b0: 91b9 833d 0e4f 67bc 069b 343b a9dd 223d
000003c0: 2037 6dbc 3012 f73c 8e05 823b e0a4 9a3c
000003d0: da0c 733b 434e e9bb 5460 753c f450 7ebb
000003e0: b476 acbc 3d83 8b3c 3224 7f3c 4c15 683c
000003f0: e99b 233c 695f 45ba f16e d33b 34a0 0d3c

MLP1.bias f4 [50]
0.03897257 -0.007171118 -0.010322864 0.02278594 0.018450998 0.0016754931 -0.009184911 0.010605541
-0.009391081 0.027514866 -0.007032176 -0.0139001785 -0.0005113915 -0.034847327 -0.01401531 -0.0033460436
0.03908399 0.035243224 -0.0077570397 0.01758582 0.0074142553 -0.010641383 -0.008409104 -0.010049637
-0.031821743 0.032620415 -0.006769203 -0.012514109 -0.04305278 -0.0032983941 -0.025915986 -0.048283387
0.00772931 0.042249326 0.042586595 0.043179594 -0.014558595 -0.054820873 -0.017827315 -0.029901646
0.017712492 0.014170666 -0.0152111435 0.02673254 -0.037309766 -0.013663621 -0.012639171 -0.016657664
0.002075939 0.027207265
00000000: b4a1 1f3d b3fb eabb 3b21 29bc 94a9 ba3c
00000010: 8c26 973c 389c db3a 4f7c 16bc ddc2 2d3c
00000020: 0cdd 19bc db66 e13c 2b6e e6bb 93bd 63bc
00000030: e70e 06ba 12bc 0ebd 79a0 65bc 4c49 5bbb
00000040: 8916 203d 335b 103d c42e febb 2310 903c
00000050: 48f3 f23b 3259 2ebc 57c6 09bc 3ca7 24bc
00000060: 8457 02bd fc9c 053d 31d0 ddbb fa07 4dbc
00000070: 1d58 30bd df29 58bb c34d d4bc cdc4 45bd
00000080: 2746 fd3b a10d 2d3d 486f 2e3d 16dd 303d
00000090: 2c87 6ebc da8b 60bd 970a 92bc 4cf4 f4bc
000000a0: ca19 913c 152c 683c 2938 79bc 33fe da3c
000000b0: 20d2 18bd 61dd 5fbc 8714 4fbc a775 88bc
000000c0: 7a0c 083b c5e1 de3c

MLP3.weight f4 [50, 50]
0.052919224 0.032774087 0.069299474 0.017458767 -0.09470622 -0.109677896 -0.012599976 0.17496361
0.03350476 -0.13327453 -0.10587379 -0.014222664 0.074624844 0.10821104 -0.09525362 -0.13574353
0.017966272 0.06578044 0.049776882 -0.10289374 0.06375983 0.08843563 0.031738676 0.076465115
-0.14424771 0.0059733274 0.09913153 -0.09033623 0.05068927 -0.1253042 0.022534398 -0.24732754
0.13309065 0.028665736 -0.14333643 -0.09218727 0.17669038 -0.0111995265 0.01443441 -0.11363692
-0.10619525 -0.020373303 -0.083338566 0.13683476 0.021229653 -0.1097077 -0.020277336 0.095988914
0.095202275 0.095847316 -0.028832419 -0.0037980122 -0.014158221 -0.092832685 0.047692865 0.026709542
0.01068692 0.046514425 0.11227193 0.1044679 -0.056056146 0.07179564 0.16411336 -0.088993944
-0.07462138 -0.0094929375 -0.05408786 0.032892533 0.063568145 0.13150162 -0.101715975 0.06981544
-0.05163943 -0.076474324 -0.025072489 0.08143598 0.15114285 -0.093229085 -0.0011173917 0.006960318
0.058709 -0.24285352 -0.15780392 -0.019553248 0.112227894 0.14124304 -0.1285743 0.0914315
-0.005357921 0.06605716 -0.08666881 0.090727754 0.07382933 0.011488489 -0.016113779 -0.10531797
-0.21490541 0.11536215 0.1294555 0.037889373 0.08231467 0.06925528 -0.08059645 0.09839516
-0.08316159 0.19656177 0.14726055 -0.12126284 0.10213277 0.07658671 0.06329959 0.14282192
0.18294708 -0.028406791 0.09252856 0.07596585 -0.10402108 0.08759927 0.002697771 0.0525851
-0.0892856 0.117221825 -0.2692012 -0.022119282 0.08212722 -0.092407435 -0.12755473 -0.16286995
-0.2078005 0.038301185 0.12123918 -0.12118169 0.06057458 -0.05946934 0.061364815 -0.11041792
-0.021226874 -0.06253506 0.14122336 -0.006368239 0.0641883 0.104018345 0.100261815 0.114322186
-0.08095179 0.10479702 -0.022568336 -0.025612412 0.14367667 -0.006928976 0.07182497 -0.12398623
0.17347476 0.07650577 -0.029562954 -0.042377926 0.03792929 -0.06965234 -0.13987055 0.006203757
-0.1592092 0.14544784 0.07436482 0.022845384 0.04465551 -0.04976463 -0.11768019 -0.2037105
0.006379645 -0.09161046 -0.06959816 0.023903186 -0.07148288 0.09660157 -0.08769163 0.18085581
-0.006942585 0.06865279 0.10353502 -0.17373937 -0.03903675 -0.14138535 -0.22086713 0.119376004
-0.19397801 0.09759971 -0.17326616 -0.033059057 -0.023553088 -0.17775227 -0.086817496 0.081749156
0.020685762 0.028501501 -0.0649216 -0.111733764 0.018833792 0.055962015 -0.1029243 0.16751882
-0.078471296 -0.011663391 -0.039591376 -0.10354101 0.0536757 -0.18983424 0.13352929 0.23185763
0.11223211 -0.06185587 -0.0012027549 0.028214272 -0.06686875 -0.047892164 0.21982321 -0.09182309
0.036546424 0.2424136 0.032651875 -0.13630426 -0.005104697 -0.07504527 0.21791881 0.062905066
-0.107447386 -0.017591665 -0.1498275 0.20738411 0.10871783 -0.040895537 -0.2142765 -0.19364637
0.061865684 -0.104842566 0.11959776 -0.056764998 0.15588273 -0.1687391 0.18213938 -0.040232956
0.19062571 0.10487091 -0.27969056 0.07313865 0.0072526345 0.16701446 0.20100033 -0.14810848
-0.07910843 0.10923443 0.001855155 -0.021593157 -0.20743908 -0.017839305 0.01611286 -0.061861306
00000000: d4c1 583d 1f3e 063d e2ec 8d3d b005 8f3c
00000010: 56f5 c1bd ce9e e0bd 2170 4ebc a929 333e
00000020: 4a3c 093d 1e79 08be 5cd4 d8bd 2d06 69bc
00000030: e9d4 983d c09d dd3d 5414 c3bd 5a00 0bbe
00000040: 012e 933c e5b7 863d d8e2 4b3d f4b9 d2bd
00000050: 8494 823d bd1d b53d 6a00 023d be99 9c3d
00000060: acb5 13be e7bb c33b 7905 cb3d 3402 b9bd
00000070: 8d9f 4f3d bf4f 00be 0f9a b83c 6e43 7dbe
00000080: ea48 083e 68d4 ea3c c9c6 12be aecc bcbd
00000090: 53ee 343e 387e 37bc 4e7e 6c3c 79ba e8bd
000000a0: e57c d9bd eae5 a6bc 69ad aabd 691e 0c3e
000000b0: cfe9 ad3c 6eae e0bd a81c a6bc d695 c43d
000000c0: 69f9 c23d 994b c43d f731 ecbc 12e8 78bb
000000d0: e2f7 67bc 101f bebd 9859 433d f8cd da3c
000000e0: 3118 2f3c e985 3e3d d3ee e53d 44f3 d53d
000000f0: 219b 65bd 9809 933d 550d 283e 7542 b6bd
00000100: 18d3 98bd 4488 1bbc 3b8b 5dbd 52ba 063d
00000110: 0430 823d 5ca8 063e 7750 d0bd 66fb 8e3d
00000120: de83 53bd 929e 9cbd d264 cdbc e8c7 a63d
00000130: 31c5 1a3e e4ee bebd 7275 92ba 6113 e43b
00000140: d978 703d 98ae 78be 5a97 21be 222e a0bc
00000150: bdd7 e53d 04a2 103e fba8 03be 7040 bb3d
00000160: 8091 afbb fa48 873d 6b7f b1bd 79cf b93d
00000170: d533 973d 373a 3c3c 0b01 84bc f3b0 d7bd
00000180: 2a10 5cbe fe42 ec3d fc8f 043e e331 1b3d
00000190: 9894 a83d b6d5 8d3d c00f a5bd 6783 c93d
000001a0: a050 aabd 7d47 493e 78cb 163e a758 f8bd
000001b0: fc2a d13d 7ed9 9c3d 37a3 813d e93f 123e
000001c0: 7b56 3b3e 5cb5 e8bc 9d7f bd3d fc93 9b3d
000001d0: 0109 d5bd 3f67 b33d 16cd 303b 7963 573d
000001e0: 5edb b6bd ff11 f03d bdd4 89be 7f33 b5bc
000001f0: 5132 a83d 1c40 bdbd b59d 02be 61c7 26be
00000200: a7c9 54be b4e1 1c3d 3f4c f83d 1b2e f8bd
00000210: 0d1d 783d 1f96 73bd ac59 7b3d ca22 e2bd
00000220: fbe3 adbc 6212 80bd db9c 103e a9ac d0bb
00000230: 2875 833d 9207 d53d 1156 cd3d c021 ea3d
00000240: 0dca a5bd d29f d63d 3be1 b8bc 1fd1 d1bc
00000250: fa1f 133e 770c e3bb f818 933d 7eec fdbd
00000260: 5ea3 313e 0faf 9c3d 022e f2bc 7a94 2dbd
00000270: be5b 1b3d e3a5 8ebd 3a3a 0fbe e348 cb3b
00000280: bd07 23be 47f0 143e 954c 983d 3e26 bb3c
00000290: b2e8 363d ffd5 4bbd 5002 f1bd 7c99 50be
000002a0: 570c d13b 449e bbbd 7b89 8ebd 9dd0 c33c
000002b0: 9e65 92bd 0bd7 c53d ab97 b3bd 4432 393e
000002c0: a07e e3bb d599 8c3d 2b0a d43d bce8 31be
000002d0: 00e5 1fbd 52c7 10be fe2a 62be 687b f43d
000002e0: 2ca2 46be 5be2 c73d af6c 31be ef68 07bd
000002f0: 68f2 c0bc b104 36be 5fcd b1bd 1a6c a73d
00000300: 3075 a93c fb7b e93c 9ef5 84bd acd4 e4bd
00000310: 5349 9a3c 6d38 653d fac9 d2bd 0e8a 2b3e
00000320: 8fb5 a0bd cf17 3fbc 912a 22bd 4f0d d4bd
00000330: 0ddb 5b3d e863 42be e7bb 083e 166c 6d3e
00000340: f3d9 e53d 955c 7dbd c2a5 9dba 9e21 e73c
00000350: 7cf2 88bd 932a 44bd 5619 613e bf0d bcbd
00000360: b4b1 153d 453b 783e f9bd 053d 5893 0bbe
00000370: 4d45 a7bb 56b1 99bd 1c26 5f3e 5fd4 803d
00000380: 600d dcbd 651c 90bc 616c 19be 805c 543e
00000390: 74a7 de3d 1482 27bd 4c6b 5bbe 3c4b 46be
000003a0: df66 7d3d b3b7 d6bd acef f43d 6a82 68bd
000003b0: b99f 1f3e f1c9 2cbe bf82 3a3e 50cb 24bd
000003c0: 6333 433e 8fc6 d63d 9a33 8fbe b7c9 953d
000003d0: 82a7 ed3b d705 2b3e 08d3 4d3e c0a9 17be
000003e0: 9a03 a2bd 4db6 df3d ac28 f33a 22e4 b0bc
000003f0: e96a 54be bc23 92bc 1eff 833c 4862 7dbd

MLP3.bias f4 [50]
0.0152394995 0.05494186 0.026802538 0.13004084 -0.018584581 0.034419473 0.08363834 -0.14140561
-0.054750327 0.08568128 0.02171111 0.15925857 -0.10797225 -0.08701141 0.012679119 0.0245149
0.032210667 -0.02176737 0.10867824 0.12289029 -0.13086636 -0.03834868 -0.10650008 0.09344617
0.031652775 -0.024265278 -0.017489001 -0.049973715 0.05108316 0.019334173 -0.004505717 -0.08977311
-0.0041328324 0.10568207 -0.07336689 0.09782413 0.03611464 0.1694523 0.10919435 0.1038123
-0.07688072 0.027558703 0.11473122 0.10154759 -0.0558368 -0.12833138 -0.09513451 -0.10236607
0.12085568 -0.009037656
00000000: 18af 793c b70a 613d ff90 db3c 6d29 053e
00000010: b13e 98bc 6ffb 0c3d 944a ab3d a2cc 10be
00000020: e141 60bd ab79 af3d 7fdb b13c ae14 233e
00000030: 8e20 ddbd 0a33 b2bd 14bc 4f3c 79d3 c83c
00000040: 55ef 033d 7c51 b2bc b292 de3d e8ad fb3d
00000050: d501 06be 8113 1dbd b71c dabd b560 bf3d
00000060: 57a6 013d fac7 c6bc 1845 8fbc 3db1 4cbd
00000070: 933c 513d b362 9e3c b2a4 93bb f7da b7bd
00000080: b66c 87bb d76f d83d 6141 96bd 0458 c83d
00000090: f2ec 133d e784 2d3e 4aa1 df3d 8b9b d43d
000000a0: a473 9dbd cac2 e13c 34f8 ea3d 2ff8 cf3d
000000b0: 21b5 64bd 4d69 03be e2d5 c2bd 4da5 d1bd
000000c0: 2f83 f73d ad12 14bc

MLP4.weight f4 [7, 50]
-0.0065047815 -0.09770984 -0.1293614 0.003981731 -0.1269947 -0.06402166 -0.07573226 -0.11818264
0.22543257 -0.17192428 0.0768072 0.09730818 0.07307578 0.11880438 0.16212906 -0.17005493
-0.076090015 -0.17537941 -0.061217397 0.13735852 0.043477695 -0.15692286 0.1889922 0.07019868
-0.021507774 0.19313163 0.12635347 0.012301057 0.049382336 -0.0642391 -0.08923208 0.24766381
0.10548848 -0.40456775 -0.12780632 -0.15583485 -0.2701951 0.031745616 -0.048927903 0.042382266
-0.021782007 -0.094983965 0.20198128 0.054371722 0.045223862 -0.06615393 -0.13753217 -0.19523773
-0.13049456 0.094676346 -0.08672643 0.01619893 -0.1353656 0.2036918 -0.0049940567 -0.20429246
0.3419446 -0.1120646 0.079508126 -0.08429445 -0.024004295 0.024087863 0.04004578 -0.1267472
-0.19815704 0.02430105 -0.07706859 -0.26085994 -0.010248965 -0.0836164 0.05256156 0.11883307
0.10442399 0.02459653 0.27782604 -0.07029494 0.067421496 -0.15955195 0.21291117 0.034006875
0.10054637 -0.06964219 0.18112369 -0.06288891 0.1844692 0.09508988 -0.26304007 -0.0037235718
-0.034747805 -0.08306345 -0.10764756 0.20753956 0.14482887 0.15815452 -0.005005523 -0.05222564
-0.046600312 -0.2276713 0.009955888 -0.17336531 0.1350435 0.07407726 0.008976702 0.083605774
-0.017830651 -0.2667896 -0.12270062 -0.023974525 0.2261588 0.10760373 0.13208298 0.06518966
-0.11684128 0.123664565 -0.29253548 0.123705864 0.123329066 0.021242267 0.119303316 0.02474285
0.1047895 0.18495487 0.21105449 -0.15241536 -0.07614768 -0.07001983 -0.017898835 -0.05387328
-0.038113445 0.15506841 0.008408949 0.10196343 0.16973658 0.059456073 0.20436567 -0.23817217
-0.2786532 -0.03395759 -0.10796306 -0.04662424 -0.2581474 0.108758464 0.09948606 0.017447535
-0.13539685 0.06828859 -0.20882122 0.030335072 0.1246627 0.12586959 0.10332944 0.13009371
-0.07735281 0.1519951 -0.25762028 -0.18096554 0.10202321 -0.06973576 -0.10313377 0.18632956
0.18394342 0.016658839 -0.19519132 0.05921511 -0.19086207 0.016875582 0.042011827 -0.06369008
-0.10134226 0.13979554 0.0015279585 -0.1673948 0.25537103 -0.24506168 0.119401015 0.12000687
0.082147926 -0.14911659 0.067517385 -0.12174019 -0.17895761 -0.10878656 -0.00785125 0.039484568
-0.00346628 -0.10334233 0.1441199 0.11469827 -0.14520656 0.11754121 -0.18997103 0.10559362
0.023800023 -0.006583105 0.0069209062 -0.06343921 0.14185953 0.152887 0.05521129 0.032261603
0.059123542 0.15549143 0.11867298 0.095607676 -0.24651876 -0.103489675 0.27412564 -0.11689758
-0.124878645 -0.098842785 -0.065087736 0.07993344 -0.17324123 0.049295682 -0.0883105 0.020047823
-0.06031851 -0.16228408 0.08416613 -0.18683827 0.030954968 -0.03629097 0.047428876 -0.11563653
0.14644212 -0.15823428 0.08652483 -0.13296261 0.16564131 -0.3042338 -0.1516846 -0.08806281
-0.023193076 -0.20495056 0.11994719 -0.12999548 -0.1845557 0.10746384 0.10714667 0.12427471
0.052664567 -0.113983445 0.16610469 0.0034590203 0.15570228 -0.13731046 0.14783408 0.20984377
0.04669672 0.04603698 -0.04522875 0.14870735 0.1648279 -0.1308441 -0.19328398 -0.18402094
00000000: 1026 d5bb 191c c8bd 5177 04be 2e79 823b
00000010: e60a 02be ca1d 83bd 8419 9bbd bd09 f2bd
00000020: ccd7 663e eb0c 30be 184d 9d3d 8349 c73d
00000030: c1a8 953d b64f f33d 2905 263e e122 2ebe
00000040: 15d5 9bbd a996 33be 18bf 7abd b6a7 0c3e
00000050: ab15 323d 63b0 20be 2c87 413e 53c4 8f3d
00000060: 1231 b0bc 4cc4 453e ce62 013e 5f8a 493c
00000070: 2245 4a3d ca8f 83bd 4fbf b6bd 959b 7d3e
00000080: 580a d83d 8123 cfbe a9df 02be 2c93 1fbe
00000090: 0357 8abe b107 023d a068 48bd 0799 2d3d
000000a0: 2e70 b2bc f486 c2bd 2ed4 4e3e e2b4 5e3d
000000b0: a83c 393d b67b 87bd 3cd5 0cbe 66ec 47be
000000c0: 5ea0 05be ace5 c13d a09d b1bd 9eb3 843c
000000d0: 489d 0abe 9594 503e 2fa5 a3bb 0b32 51be
000000e0: 5d13 af3e 2082 e5bd 28d5 a23d 92a2 acbd
000000f0: a8a4 c4bc e953 c53c 0b07 243d 05ca 01be
00000100: aee9 4abe ff12 c73c 23d6 9dbd 6f8f 85be
00000110: 46eb 27bc 133f abbd ca4a 573d c15e f33d
00000120: 3fdc d53d a97e c93c 373f 8e3e cbf6 8fbd
00000130: 4814 8a3d 9661 23be 6305 5a3e cb4a 0b3d
00000140: 41eb cd3d 91a0 8ebd 7d78 393e e7cb 80bd
00000150: 7ee5 3c3e 7cbe c23d 30ad 86be 2b07 74bb
00000160: b753 0ebd 2c1d aabd 5376 dcbd 4085 543e
00000170: 054e 143e 42f3 213e 5f05 a4bb 8dea 55bd
00000180: f8df 3ebd aa22 69be 051e 233c ad86 31be
00000190: d848 0a3e d2b5 973d 0413 133c 8139 ab3d
000001a0: 9611 92bc a598 88be 764a fbbd 3966 c4bc
000001b0: 2c96 673e 585f dc3d c340 073e 2882 853d
000001c0: 7b4a efbd d943 fd3d 36c7 95be 8059 fd3d
000001d0: f393 fc3d 4304 ae3c 4c55 f43d 84b1 ca3c
000001e0: e19b d63d cf64 3d3e ab1e 583e c612 1cbe
000001f0: 51f3 9bbd 8e66 8fbd 94a0 92bc 3aaa 5cbd
00000200: d81c 1cbd 41ca 1e3e b0c5 093c 34d2 d03d
00000210: 6dcf 2d3e 3688 733d 3c45 513e 68e3 73be
00000220: a2ab 8ebe 1d17 0bbd bd1b ddbd 0ff9 3ebd
00000230: e52b 84be c2bc de3d 59bf cb3d 22ee 8e3c
00000240: 79a5 0abe e3da 8b3d 3bd5 55be 4281 f83c
00000250: 284f ff3d f5e3 003e 639e d33d 4937 053e
00000260: 266b 9ebd 9aa4 1b3e cee6 83be 084f 39be
00000270: 8bf1 d03d 9fd1 8ebd cc37 d3bd 2dcd 3e3e
00000280: aa5b 3c3e 1e78 883c 3ce0 47be 8b8b 723d
00000290: 5971 43be a93e 8a3c 9814 2c3d f26f 82bd
000002a0: 888c cfbd 9026 0f3e c845 c83a 8b69 2bbe
000002b0: febf 823e 73f1 7abe 8588 f43d 29c6 f53d
000002c0: 2c3d a83d 05b2 18be 8e46 8a3d ec52 f9bd
000002d0: aa40 37be 7dcb debd 87a2 00bc 92ba 213d
000002e0: 872a 63bb 25a5 d3bd 2b94 133e ede6 ea3d
000002f0: 07b1 14be 72b9 f03d c487 42be 7841 d83d
00000300: 44f8 c23c 16b7 d7bb c5c8 e23b 6bec 81bd
00000310: a043 113e 698e 1c3e 3c25 623d be24 043d
00000320: 872b 723d 2539 1f3e d20a f33d f5cd c33d
00000330: 6a6f 7cbe 65f2 d3bd 325a 8c3e 0068 efbd
00000340: 60c0 ffbd 166e cabd b84c 85bd 25b4 a33d
00000350: 2666 31be 45ea 493d 23dc b4bd 553b a43c
00000360: 8b10 77bd cc2d 26be 4b5f ac3d 8852 3fbe
00000370: 4695 fd3c d7a5 14bd c844 423d d8d2 ecbd
00000380: ecf4 153e 2b08 22be ee33 b13d 5a27 08be
00000390: e09d 293e 88c4 9bbe 3553 1bbe 465a b4bd
000003a0: 68ff bdbc 8fde 51be dfa6 f53d 891d 05be
000003b0: 2bfc 3cbe 0016 dc3d b76f db3d bd83 fe3d
000003c0: cdb6 573d 2770 e9bd 5917 2a3e bbb0 623b
000003d0: 6b70 1f3e 1d9b 0cbe d161 173e 49e1 563e
000003e0: 0f45 3f3d 4691 3c3d c841 39bd bd46 183e
000003f0: a5c8 283e fffb 05be 3cec 45be fc6f 3cbe

MLP4.bias f4 [7]
-0.033668824 -0.033785388 0.011931194 -0.07404539 0.12641649 0.067099124 -0.1203522
00000000: 52e8 09bd 8c62 0abd 0e7b 433c 1ca5 97bd
00000010: 5373 013e 446b 893d 377b f6bd
