DQN/final_dqn_against_random/DQN_AgainstNegaMax_Epochs20000.pth (torch, 493315 bytes, 12 tensors)

conv1.weight f4 [32, 1, 5, 5]
000000 c9 c1 9a 3d 2a 74 53 3e fc 88 27 bd 7d f6 86 3e
       0.07556493 0.20649782 -0.040902123 0.2635993
000010 d3 5b a5 bd 2c 30 31 3d 8c f1 d1 bd 15 94 89 3d
       -0.08074155 0.04325883 -0.102511495 0.067176975
000020 22 d9 73 3e 27 c4 83 be 2d ea 12 3e 41 fe 95 bc
       0.23813298 -0.2573559 0.14347143 -0.018309714
000030 4d b3 5e 3e fc 82 aa 3d 8f 29 69 3e 6d 00 71 bd
       0.21748085 0.083257645 0.2276976 -0.058838297
000040 cb d5 76 3e 6a 14 49 3d 01 2c a0 bc cf f0 b4 3d
       0.24104993 0.049091734 -0.019552233 0.08834993
000050 8e af a5 bd c4 01 70 bd 1d 97 0d be b7 bf 56 3e
       -0.08090125 -0.058595434 -0.13827176 0.20971571
000060 4e ee 5c be c3 1b c1 bd bc 8f 56 bd 71 51 af bd
       -0.21575281 -0.09429123 -0.05238317 -0.085604556
000070 70 29 0e bb 68 3d 63 be e4 06 1a 3e 9b 05 61 be
       -0.002169218 -0.22191393 0.15041691 -0.21974795
000080 ab b2 55 3e b5 ac ed 3c 71 fd 17 be 86 b2 40 3e
       0.20868938 0.029013017 -0.14842774 0.18818101
000090 a8 c6 80 3d 1e 7e 83 3e ba 77 f0 bc ae 08 ec bd
       0.06287891 0.25682157 -0.029353965 -0.11525093
0000a0 6c 8f 17 3e 9c ed 03 be be 67 88 3d 4b aa 3d 3e
       0.14800805 -0.1288361 0.06660412 0.18521993
0000b0 33 19 60 3e 93 8b b5 bd 63 0b 94 3d c2 31 7d 3d
       0.21884613 -0.08864512 0.07228734 0.06181503
0000c0 db 41 4e 3e 44 35 30 be 73 73 82 be 48 fc 09 be
       0.2014231 -0.17207819 -0.25478706 -0.13475144
0000d0 23 74 52 be 4e 17 4f 3e cc 88 5d bc 8f 2e 28 3e
       -0.20552115 0.20223734 -0.013521384 0.1642401
0000e0 d7 a4 d0 3c 73 f7 4e 3d 73 b3 5f 3e 70 d4 6d be
       0.025469227 0.050528955 0.21845798 -0.2322557
0000f0 34 6f 2e 3d 14 6e 2a be 7a 40 f3 3d 38 3c a3 bc
       0.04258652 -0.16643554 0.11877532 -0.019926175
000100 63 78 7e 3e e6 8a a2 bd d3 7e 79 3e f5 fc 51 be
       0.24850611 -0.07936649 0.24364786 -0.20506652
000110 27 2a 46 be 5d d8 ce bd 35 fd 92 3e 96 d4 fb 3d
       -0.19352017 -0.10099862 0.28708807 0.12296407
000120 f9 74 6d 3e 1f 8b 40 be 0f af 94 be de c5 b2 bd
       0.23189153 -0.1880307 -0.2903981 -0.087291464
000130 02 60 1d be 82 de 30 3d 1e f4 b4 3d 9f e0 22 3e
       -0.15368655 0.04318095 0.08835624 0.15905999
000140 7d ff ba bd d7 c8 1b be 81 ba df 3d 3b 51 ce bc
       -0.09130762 -0.15213333 0.10924245 -0.025185218
000150 65 12 16 3e 79 e1 e0 bd bc c8 01 3e 39 73 6d be
       0.14655454 -0.109805055 0.1267423 -0.23188485
000160 58 f4 26 be 4f 60 3c 3e d7 15 04 3e 73 79 78 bc
       -0.16304147 0.18396114 0.12898956 -0.0151656745
000170 b2 e9 cf 3d 2d ff 8a 3e 6a a8 4b be 8a ad 17 be
       0.10151996 0.2714781 -0.19888464 -0.14812294
000180 e1 7e 84 3e 31 cc b3 bd 2b e1 07 be e3 bc a0 be
       0.2587805 -0.08779181 -0.13269489 -0.3139411
000190 3d 97 2b be 10 ff 1d 3d 3c b0 40 bd 41 d8 45 be
       -0.16756912 0.038573325 -0.04704307 -0.19320776
0001a0 cf 82 bc 3c 65 6f 1c be ea 46 e6 bd ab b4 98 bd
       0.023011593 -0.15276869 -0.112439945 -0.07456335
0001b0 92 a7 57 be 60 09 41 be f4 f8 94 3e 8d 2a 15 3e
       -0.21060017 -0.18851233 0.29096186 0.14567013
0001c0 91 e2 fa 3d f6 e3 88 be eb 3d 6a be 05 7b fc bd
       0.12250245 -0.2673642 -0.22875182 -0.123281516
0001d0 96 e7 87 3c 44 66 84 be eb dd 41 bd bb f1 1a be
       0.016589921 -0.25859272 -0.047330778 -0.15131275
0001e0 2e 4c 3a 3e f7 6e 3b bd fb 68 85 bd 7f 84 4a be
       0.18193123 -0.04576012 -0.06514164 -0.19777106
0001f0 ac 92 7e be d0 9d a1 bd 86 e5 f4 bc a9 d2 12 bd
       -0.24860638 -0.078914285 -0.029894602 -0.035845432
000200 d5 2b 05 3e 1d 91 81 be b1 23 34 3e 0a d7 95 3d
       0.13005002 -0.25306025 0.1759174 0.07316406
000210 89 4a 7e be 53 8c 69 3e a1 f4 5a bd 67 45 8e bd
       -0.2483312 0.22807436 -0.053455953 -0.06946831
000220 96 a7 57 be b4 27 62 be 77 62 b4 3d 72 b4 5b bc
       -0.21060023 -0.22085458 0.08807843 -0.013409721
000230 d1 89 55 3e d6 7a be be b3 06 33 3e 89 a2 82 be
       0.20853354 -0.3720309 0.17483024 -0.2551463
000240 01 69 32 be 70 6e 72 3d 27 78 6e 3e b7 bd 24 3e
       -0.17422868 0.059187353 0.23288022 0.16087995
000250 f4 58 4c 3e 37 7e 01 be c7 52 96 3c 8c b7 70 bd
       0.19955808 -0.12645803 0.018350018 -0.058768794
000260 ac a3 c9 bc 31 ef c0 bd 03 65 93 3e 58 b2 5e be
       -0.024614178 -0.09420622 0.28788003 -0.2174772
000270 ee ab e7 3d 4f 08 47 3e 2f f0 0c 3e 0c fd 86 be
       0.1131209 0.19436763 0.13763498 -0.26364934
000280 d9 e2 a6 3e e7 e0 89 3d cd cd 2b 3e fa e3 68 be
       0.32594946 0.0673235 0.16777726 -0.22743216
000290 f5 16 d0 3d 6c fe 86 bd 84 e4 17 be 19 e0 a0 3e
       0.10160629 -0.06591496 -0.14833266 0.31420973
0002a0 ad 42 9c 3c 0a 8e e0 bd 8f 8d 0d be 34 dd 14 be
       0.019074762 -0.10964592 -0.13823532 -0.14537507
0002b0 ff 9f 6b 3e 72 66 b7 bd 94 9a 4c be 95 a7 33 bd
       0.23010252 -0.08955087 -0.19980842 -0.04386099
0002c0 ed b8 68 be 89 75 e5 3d 6b 27 2f 3e f9 5e 1a be
       -0.22726794 0.11204059 0.1710488 -0.15075292
0002d0 62 84 45 3d 7b f4 3a 3e a1 e9 df 3d 24 61 49 bd
       0.048221953 0.18257324 0.10933233 -0.049164906
0002e0 65 ce df 3d bb 1f e1 3d e4 6e 00 3e 88 70 d2 bc
       0.109280385 0.1099238 0.12542301 -0.025688425
0002f0 38 cf 02 bd b7 23 89 3d cd 78 e9 bd 64 1d 9f bd
       -0.0319359 0.06696265 -0.11399994 -0.07769278
000300 79 14 3b 3e 3f d4 48 3e e4 26 4b bd 7e e2 e9 3c
       0.18269528 0.19612215 -0.049597636 0.028550383
000310 33 47 ec bb 4d c1 3a 3d 31 ef bd 3d 9c fa 8c 3d
       -0.007210636 0.045594502 0.09274138 0.068837374
000320 65 04 09 be 65 32 2a 3d eb a2 e5 3d 30 82 d1 3c
       -0.13380583 0.041551966 0.11212715 0.025574774
000330 3d 73 c1 bd 5f 79 fa bd 80 4b 6b be 0d ba 86 be
       -0.09445808 -0.12230181 -0.2297802 -0.2631382
000340 c2 2f e6 bd f3 04 dd 3d e4 3c 80 3e bc fc 19 3d
       -0.11239578 0.107919596 0.25046456 0.037594542
000350 00 de 4d be 97 30 da bd 48 c6 01 be f6 52 89 3e
       -0.20104218 -0.10653799 -0.12673295 0.26821107
000360 23 e0 17 3c 16 94 a2 bd f9 53 45 3e fb fb b5 bd
       0.009269747 -0.079384014 0.19270314 -0.08885952
000370 12 07 56 be 44 1f 04 3e 4d aa 0f be 25 83 8c bd
       -0.20901135 0.12902552 -0.14029808 -0.06860951
000380 6f ee 7b be d1 6a f9 3d ff 2d 2c 3e da d8 9e 3d
       -0.24602674 0.12178577 0.16814421 0.07756205
000390 40 9b 5a be 4c 80 2c be da 51 9f be db f6 52 3e
       -0.21348286 -0.16845816 -0.31117135 0.2060198
0003a0 6e 83 d2 3d 2b 86 65 3e 4b 0a 3c 3e 04 1d e0 3d
       0.102789745 0.22414462 0.18363301 0.10943034
0003b0 65 08 c4 bd c0 0d 81 be cb 8c 2d be e0 13 52 be
       -0.09571914 -0.25205803 -0.1694824 -0.20515394
0003c0 87 48 49 3e 67 3c 19 bd 6b 03 0a be cf c3 d6 bd
       0.19656573 -0.03741112 -0.13477866 -0.10486566
0003d0 2b 7b 2d 3d e7 dd 0b be f8 7f 5b bd c1 d8 98 3d
       0.04235379 -0.13658868 -0.053588837 0.074632175
0003e0 cb 68 06 bd 0a cd 2a 3e 3a 8c cf 3c 0c ac 84 be
       -0.032814782 0.16679779 0.02533542 -0.2591251
0003f0 68 b1 36 bd 5b bc 2f be 3e 33 a7 bd 50 48 80 be
       -0.04460278 -0.17161696 -0.081640705 -0.2505517

conv1.bias f4 [32]
000000 59 fb 01 bd ac ed e4 3d ff 60 eb bd aa 19 2b 3e
       -0.031733844 0.11178145 -0.1149311 0.16709009
000010 f8 a7 41 bd 43 dd 0e be 02 95 5f 3c 78 a9 10 3e
       -0.047279328 -0.13951592 0.013646366 0.14127147
000020 ec 4d 51 3e 13 c4 0d be 0c b3 c6 bd 8e e0 29 3c
       0.20439881 -0.13844328 -0.09702119 0.010368479
000030 6c 72 fc 3d 13 a5 01 3e e4 86 1a 3e 47 94 d8 bc
       0.12326512 0.12660627 0.15090519 -0.026437892
000040 8c 2b 14 3e 3a 1a 3d 3e f3 78 ec bc d4 b7 29 3e
       0.14469737 0.18467036 -0.028866267 0.16574031
000050 22 db 8d 3d bd 77 40 3e f8 46 e6 bd bd 99 c0 bd
       0.06926562 0.18795677 -0.11244005 -0.09404323
000060 1f 3b d7 bc 20 27 05 3c 44 0b 19 3e f7 3c c1 bd
       -0.026273308 0.008127004 0.14945704 -0.09435456
000070 ab 19 14 3e 20 a7 c1 bd 94 ff 37 3e da 2e 93 3c
       0.14462917 -0.09455705 0.17968589 0.017966677

conv2.weight f4 [32, 32, 5, 5]
000000 38 46 92 bd 4d 9e 31 bd 46 03 79 bd 38 1e 30 3d
       -0.071422994 -0.043363858 -0.060794137 0.04299757
000010 48 17 69 bd ce 80 c7 3d 4b 73 a1 bd 53 6e 8e bb
       -0.05690697 0.097413644 -0.078833185 -0.0043466478
000020 c4 8d 60 39 86 66 bc bd db 4f 17 bd f6 e0 a2 bd
       0.00021415116 -0.09199242 -0.03694139 -0.07953064
000030 e7 ef 8b 3c ff d3 a8 bc f3 29 7b 3d 38 99 99 bc
       0.017082168 -0.0206089 0.061319303 -0.018749818
000040 67 ba df 3c 9a 1e 1d bd 17 48 23 3d 69 c3 32 bb
       0.027310563 -0.038359262 0.039863672 -0.0027277118
000050 69 24 59 bd 0d a0 24 3d 71 6e 60 bd 1f cc 20 3d
       -0.05301324 0.0401917 -0.054792825 0.039257165
000060 a3 bf 7f 3c 05 92 9c bc ea 8d 0d 3d d5 52 cf 3c
       0.015609655 -0.019112596 0.034559168 0.025308052
000070 11 01 2e 3c 32 d7 0b bd c0 64 79 3c 6d 63 e2 bc
       0.010620371 -0.034140773 0.015221775 -0.0276353
000080 a6 eb fb 3c 88 e6 83 3d ed 05 7e 3d 89 9d 7f 3c
       0.030752014 0.06440455 0.06201737 0.015601524
000090 3b 43 f2 3c 2f 93 2c bd 29 12 a5 bb 31 24 a7 3d
       0.029573074 -0.042132553 -0.0050375652 0.081612
0000a0 a9 aa b2 bc c7 a5 ee bc f5 94 c3 38 94 a4 05 bb
       -0.021809893 -0.029131783 9.32607e-05 -0.0020392286
0000b0 10 12 f8 3c 05 66 90 3c 3a d4 b7 3c 3f e2 ab bd
       0.03028205 0.017626772 0.022440065 -0.083927624
0000c0 83 d5 84 3d d8 1f d2 bc 19 40 fe 3b 50 d8 2d 3d
       0.06486037 -0.02564995 0.007759106 0.04244262
0000d0 ca 27 73 3d 2c 0f de bb f3 d1 31 3d f2 20 36 bc
       0.059364118 -0.006776711 0.043413114 -0.011116253
0000e0 36 21 c2 bd a9 71 90 bd 4e 9b a2 bc 2e ed e4 bd
       -0.09478991 -0.07052929 -0.019849446 -0.11178051
0000f0 18 7c ed 3c 74 55 81 3b 2d 2f 3f 3d 0f d4 82 bb
       0.028989837 0.0039469544 0.04667585 -0.0039925645
000100 2d 7e eb 3d de 6b ad 3b 10 f0 15 bd bf 88 b6 bc
       0.114986755 0.0052924 -0.036605895 -0.022282002
000110 ea 0f 7d bc e1 80 60 3d 4d e9 54 3d 6c 68 e1 3c
       -0.015445689 0.05481041 0.051980305 0.027515613
000120 fd 4d b2 bd 59 a7 f8 b9 4e f8 36 bd 53 b6 76 3b
       -0.08706281 -0.0004742693 -0.044670396 0.0037645295
000130 39 1f b8 bb 5d d3 35 bd c1 34 f5 bc 2f 74 1a bd
       -0.0056189564 -0.044391025 -0.029932382 -0.037708458
000140 0d 60 9b 3d db 05 c5 3c 0d 95 6b 3d e6 dd ba 3b
       0.075866796 0.024050644 0.057515193 0.005702722
000150 3b c1 3d bc 0b 81 1c bc 27 10 40 bb 06 1e 04 bd
       -0.011581714 -0.009552251 -0.0029306503 -0.032255195
000160 3c a3 24 bd 83 0b 81 bd b5 20 b5 bc c9 16 2f bc
       -0.040194735 -0.06301024 -0.022110322 -0.010686585
000170 f1 f5 62 3d ca a0 9e bd d3 84 49 3d 7b 2b 35 3d
       0.05541033 -0.07745512 0.049198937 0.04423092
000180 8e 69 db 3b 90 f6 61 bc 9a 2f a1 3d ff e7 87 bd
       0.0066959327 -0.013791695 0.078704074 -0.066360466
000190 be e0 a7 bd 21 81 67 bd 51 d9 58 bd 6d 93 b7 bd
       -0.08197163 -0.05651963 -0.052941624 -0.08963666
0001a0 63 32 18 3d 24 f9 2f 3e 89 aa 19 bd df 18 c5 bc
       0.037157428 0.17184883 -0.03751615 -0.024059711
0001b0 c9 fa bf 3a bb 44 ec bd 58 03 ca 3c fa f5 73 3d
       0.0014646883 -0.11536547 0.024659798 0.059560753
0001c0 0e a3 83 3c ff 26 fc bc 82 30 ce 3c 69 48 be bd
       0.016068961 -0.030780314 0.025169615 -0.09291155
0001d0 07 86 03 3d 92 fb 97 3d 1e 40 22 bd ba fa 56 bd
       0.03211024 0.0742103 -0.03961193 -0.052485205
0001e0 9b 84 06 3e 07 1f 9f 3c dd df f0 3d 47 f7 48 3d
       0.13136522 0.019423975 0.117614485 0.049063947
0001f0 35 ea 1d 3c 05 37 93 3b 12 46 d9 3d 38 7d 2e bd
       0.009638359 0.004492643 0.10609068 -0.042599887
000200 d7 71 c1 bc db e3 29 3d 75 a9 24 bc cd f2 1f bd
       -0.023613853 0.041477066 -0.010050167 -0.039049912
000210 8b 75 df 3c 72 1c 80 bd 02 7c ea 3c b2 39 97 3c
       0.027277729 -0.062554255 0.028623585 0.018460128
000220 bc 1d a4 3c 9a e8 31 bd ae 39 db 3d 1e e4 50 bd
       0.02003371 -0.043434717 0.10704361 -0.0509988
000230 de 04 65 bd 7c 9e f0 3d a5 be 22 3d 8e d3 1f bd
       -0.055912845 0.117489785 0.039732594 -0.039020114
000240 0c 8c ef bc bf a5 a6 3c 46 a9 09 3d 84 1f 14 3e
       -0.029241584 0.020342706 0.033608697 0.14465147
000250 71 93 1d 3d 62 13 72 3c d5 7c da 3c 13 92 2b 3d
       0.03847069 0.014775129 0.026670853 0.041887354
000260 e6 f4 ac bc d7 c0 bd 39 48 b9 ee bc 31 06 86 3d
       -0.02111287 0.00036192566 -0.029141083 0.0654415
000270 f2 67 e2 bc ee c1 ae 3c 6f 78 65 3a e0 e2 69 3d
       -0.027637456 0.021332707 0.0008753603 0.05710113
000280 37 1a d4 bc fa 39 13 bd 8a 7b 26 3d 3d 73 01 3d
       -0.025891406 -0.035943963 0.04064516 0.03160404
000290 20 01 62 3d 74 c0 f9 bc 7e 1f bd bc 16 45 03 be
       0.055176854 -0.030487277 -0.023086306 -0.12819323
0002a0 c9 15 aa 3d bd 75 ca 3c 5a aa 99 3c 6a b1 23 bc
       0.083049364 0.024714345 0.018757988 -0.009991029
0002b0 93 b5 8c bc b7 75 36 bd be 45 a3 3d f8 58 e2 bc
       -0.017176425 -0.044545855 0.07972287 -0.027630314
0002c0 d5 da a6 bc 42 a6 85 bb 96 46 ec 3c 45 1c 9b bd
       -0.02036802 -0.0040786574 0.028842252 -0.07573751
0002d0 66 a6 18 bd 01 32 5f 3d 91 a9 54 3b 19 ea 40 3d
       -0.037268065 0.054491047 0.0032449702 0.047098253
0002e0 b0 36 50 bc 5f f4 4c 3d c6 07 8c 3c 17 cd 3e 3d
       -0.012708351 0.050037738 0.01709355 0.046582308
0002f0 49 de c1 bc 93 00 08 bc 0f 2d 19 3b a7 b8 74 bd
       -0.023665564 -0.008300918 0.0023372804 -0.05974641
000300 f4 be b9 3d e2 cb a3 bc 23 be 82 3d 6d b9 16 bd
       0.090696245 -0.01999468 0.06383922 -0.03679793
000310 fb 2e 85 3c eb b7 81 bd 19 06 82 3c ea 80 2e bd
       0.016257754 -0.06333908 0.015872048 -0.04260341
000320 44 fd ee 3c ba e7 83 bd c2 01 24 bd 2d fd 0d 3d
       0.0291735 -0.06440683 -0.04004074 0.034665275
000330 d6 5e 25 bd 70 3d fa 3c 12 e4 82 3c 29 82 1f 3c
       -0.040373646 0.030546874 0.015977893 0.009735622
000340 50 1d cf bb 93 dd ba 3c 2d 7b 4a bc 76 0a 7e ba
       -0.006320633 0.022810733 -0.012358469 -0.000969089
000350 67 7f 86 bc e8 c4 5c bd 58 f3 3a 3c 15 78 2c 3d
       -0.016418172 -0.053898722 0.011410557 0.042106707
000360 80 60 95 3a a5 5f 2c 3c 69 e8 e8 3c ea 9f d4 bb
       0.0011396557 0.01052085 0.028431134 -0.00648879
000370 fe a9 36 bb 2f 9d 9a 3d dd 25 0d 3d a7 7d 96 3d
       -0.002787232 0.07549512 0.034459937 0.07348185
000380 15 db b4 3c f0 ea 80 3c 14 40 cd 3b f0 cd 0d bd
       0.022077123 0.015737027 0.006263742 -0.034620225
000390 f9 a4 52 bd 89 bc 2b 3d b3 e7 43 bc d1 b0 9e 3d
       -0.05142686 0.041927848 -0.011957097 0.07748569
0003a0 5e 3d 88 bd d1 cc 18 3c b2 56 88 bc 15 b0 37 bd
       -0.0665233 0.009326176 -0.016642902 -0.04484566
0003b0 16 38 d7 bc 9b 8b dc 3a fa b8 e6 bc f2 15 2e 3d
       -0.026271861 0.0016826274 -0.028164376 0.042501397
0003c0 1c 3b 58 3d e9 39 85 bc a5 eb 11 bd 97 63 8c 3d
       0.052790746 -0.016262965 -0.03562512 0.06854933
0003d0 29 19 08 3d 27 eb 85 bb 23 58 c4 bc 2c b0 49 bb
       0.03322712 -0.0040868702 -0.023967808 -0.0030775173
0003e0 fe 57 76 bc 6f d0 ea 3c e8 a7 68 3c 73 8c f4 bd
       -0.015035627 0.028663842 0.014200188 -0.11940851
0003f0 b7 fa c5 bc e9 01 04 bb 44 b0 74 3d bb 36 07 3c
       -0.024167402 -0.002014274 0.059738412 0.008252795

conv2.bias f4 [32]
000000 7f cb 96 bb 30 80 db 3c 16 8a c3 bc 28 5d c9 3c
       -0.0046018953 0.026794523 -0.023869555 0.024580553
000010 1d c8 21 3d 91 87 4a 3d e0 99 55 3c ad c8 41 bb
       0.039497484 0.049445692 0.013037175 -0.0029569075
000020 e6 c9 56 39 b7 33 88 bc f9 3d 06 3c 66 81 31 bd
       0.00020483843 -0.016626222 0.008193486 -0.043336295
000030 6d 28 ee 3c a6 75 40 3d 2f aa f2 3c e4 04 a9 3c
       0.02907201 0.0469872 0.029622165 0.020632215
000040 49 d9 b3 bc 04 15 ff 3b f3 80 39 3d 5d d9 a2 bc
       -0.021954196 0.0077844877 0.04528899 -0.019879038
000050 3e b7 eb bc 8b b0 81 bc 99 11 c1 bc b9 4b 08 bd
       -0.0287739 -0.015831253 -0.023567962 -0.03327534
000060 4c 38 a1 bc e4 fc fa 3c 62 cd 0f bc ee e4 bb 3c
       -0.019680165 0.030638166 -0.008776994 0.02293631
000070 ce 15 6e 3d 22 81 fc 3b d3 2b b8 3c 69 38 f1 bc
       0.058126263 0.0077058235 0.022481835 -0.029445844

conv3.weight f4 [32, 32, 5, 5]
000000 8a 13 03 3d 54 1a 06 3d 15 75 09 bb 5e 76 7f bc
       0.032001056 0.032739952 -0.0020974327 -0.015592186
000010 73 b9 91 3c 35 05 b3 3c f7 40 fb 3c 4e 54 a3 bc
       0.017788624 0.021853069 0.030670626 -0.01993766
000020 30 36 28 bb 59 9f 2a 3c 74 5d 04 39 b2 a6 7d 3c
       -0.0025667064 0.010413968 0.00012623315 0.015481638
000030 c1 2f cc 3c 37 e5 d4 3d 91 d9 fb bc 46 c9 f8 bc
       0.024925115 0.10395282 -0.030743392 -0.030369412
000040 27 44 c8 3b 2f 7e 25 bd 0c 94 b6 3d cf 56 8d 3d
       0.00611164 -0.04040354 0.089149565 0.06901323
000050 4c a6 dc 3d 73 c4 11 bd c5 4c c4 3d 61 34 b9 bd
       0.10773906 -0.03558774 0.09584955 -0.090431936
000060 bb de 88 3d a1 c8 02 3d c2 f9 db 3b cd cd ac 3c
       0.066831075 0.031929616 0.006713123 0.021094227
000070 0d 1b 8f bc 2c 1c 96 3c a1 13 84 3b 09 a4 dc bc
       -0.017468954 0.01832398 0.0040306603 -0.026933687
000080 17 ca 86 3d 74 d1 f8 3c c9 2f 70 3d e2 f1 29 3d
       0.06581514 0.030373313 0.05863932 0.041490443
000090 ff 57 fb 3b 0f 76 a0 3d f1 97 c8 3c 79 04 8c 3d
       0.007670402 0.07835018 0.024486514 0.068367906
0000a0 15 0a 0f bc a5 bc 51 bc 07 a9 0d 3d e4 22 7f 3c
       -0.008730431 -0.012801324 0.034585025 0.015572283
0000b0 28 6b fa bd 9a 14 77 bc 3c 48 79 3c 67 de bb bd
       -0.1222747 -0.015080595 0.015214976 -0.09173279
0000c0 c2 0e 12 ba da e2 d2 bd 8c 26 4a 3d 1a 07 9a 3c
       -0.0005571657 -0.10297175 0.049353167 0.018802214
0000d0 dc 46 33 bd 5a f1 f5 bb c9 e6 2a 3b 63 9c 95 3c
       -0.04376875 -0.007505578 0.00260775 0.018263048
0000e0 92 9f f7 bc ee f7 27 3c 53 f1 85 3c 1f b5 8a 3c
       -0.030227456 0.010251982 0.016350424 0.016932068
0000f0 db f7 7e bd 5a 1f 78 bd 58 20 e8 3c 9e be 80 3d
       -0.062248092 -0.060576774 0.028335735 0.06286357
000100 49 93 57 3d 5c 96 6a 3c ca f4 c5 bc a4 44 71 bb
       0.052630696 0.014318075 -0.024164576 -0.0036814595
000110 29 e0 be 3c 45 54 b4 bc 9b 23 42 bc 4b b9 3f bd
       0.023300247 -0.02201284 -0.011849309 -0.04680757
000120 c2 6f 08 3c f5 5b ee 3c ca ee e9 bb 0b c1 d7 bc
       0.008327426 0.029096583 -0.0071390616 -0.026337167
000130 d0 cb 53 3d fa e9 39 3a 16 ab 2c bd d1 da 01 be
       0.051708043 0.0007092055 -0.042155348 -0.12681128
000140 d6 f1 16 bd 17 8e b2 bd 47 54 d3 3c ed f6 c8 bb
       -0.036851726 -0.08718508 0.025797023 -0.0061329515
000150 82 26 33 bd f7 2f 29 3d d2 25 7f bd e8 d2 fc 3c
       -0.043737896 0.04130551 -0.062291928 0.030862287
000160 57 25 d4 bc 69 79 96 3c b8 29 86 3d a9 80 97 3a
       -0.025896711 0.01836844 0.06550926 0.001155873
000170 32 01 08 3d c3 83 12 3e a1 55 5e bb 9e b4 77 3c
       0.033204265 0.14308076 -0.003392555 0.015118746
000180 7b 74 8c ba 70 c8 9a bd 20 1b df 3d 24 ed 18 bd
       -0.0010715866 -0.07557762 0.108938456 -0.03733553
000190 27 aa 98 bd 6e 6d 8a bc 2d 55 b0 bc 0c ca 31 bc
       -0.07454329 -0.016897883 -0.02152499 -0.010851394
0001a0 96 7c bf bc ad ab cb bb 3f 00 10 3d 18 ed 1b bd
       -0.023374837 -0.0062155337 0.035156485 -0.038067907
0001b0 eb c9 96 bd 14 71 cf bc eb 30 96 bc f9 f3 14 bd
       -0.073627315 -0.025322475 -0.018333873 -0.036365483
0001c0 7e 89 61 3d d4 0a fe 3c 39 74 32 3d 0d f1 71 3d
       0.055062763 0.031011023 0.04356787 0.059067775
0001d0 93 75 62 3a b1 0c a6 3d a0 47 11 bd e8 13 2d 3d
       0.0008638736 0.081078894 -0.035468698 0.042255312
0001e0 ca 94 0f 3b fa 31 77 3c 60 31 37 bc a8 16 04 3e
       0.0021908754 0.015087599 -0.0111812055 0.12899268
0001f0 c2 c9 18 3d 1c ea bf bc 4f 1b e9 bc a9 ba 2c 3c
       0.037301786 -0.023427062 -0.028455405 0.01054255
000200 e7 ad c4 3b 1a d2 33 bc fe a5 de bc 29 8a e4 3c
       0.006002176 -0.010975385 -0.02717876 0.027897911
000210 bf 6b 51 3c f7 37 d4 3a 32 ff 63 bc e3 78 6f 3d
       0.012782036 0.0016190995 -0.013915824 0.058464896
000220 d7 23 f9 bc 49 c7 22 3d a9 ce da 3c 18 5e ba 3d
       -0.030412598 0.039740834 0.026709871 0.09099978
000230 c7 58 83 bb 0e 9d 3e 3d 41 7a 81 3d 00 b6 6b bd
       -0.004008386 0.046536498 0.06322146 -0.057546616
000240 a4 46 a7 bc 79 97 44 bd 71 50 5a 3c 14 15 45 bd
       -0.020419426 -0.047996018 0.013324843 -0.048115805
000250 d8 99 13 3d a7 c3 56 bd d4 c1 85 bc 35 a6 36 3d
       0.03603539 -0.052432682 -0.016327776 0.0445921
000260 cc 45 c4 3c ba 17 32 3c e4 e1 e1 bc 87 19 8f bd
       0.023959063 0.010869915 -0.027573533 -0.06987291
000270 94 5f 0c bd e5 52 8f 3d f8 f2 31 3d d4 8c c6 bc
       -0.034270838 0.06998233 0.043444604 -0.024237074
000280 89 af 3a 3d 53 af 4f 3c d3 3c 2b 3d d0 0a 32 bc
       0.04557756 0.012676078 0.041806053 -0.010866836
000290 ab 4f 4d bd eb 10 f9 bc 23 08 d3 ba a3 c1 ab 3d
       -0.050124805 -0.030403575 -0.0016100447 0.08386543
0002a0 30 a2 8c 3b c9 e2 7d bd d7 e3 10 3d cb 92 b9 bc
       0.004291795 -0.061983857 0.035373535 -0.022653004
0002b0 52 33 0b 3b 42 34 79 3c 72 2a 98 3c f4 e4 a9 3d
       0.0021240306 0.015210213 0.018574927 0.082956225
0002c0 d2 6b 56 3c 97 fa 2d 3d 29 cb c0 3c f2 f0 9f 3c
       0.01308723 0.04247531 0.023534374 0.019524071
0002d0 96 94 f4 bc 44 d7 ea 3a cf 3b 08 3d c0 68 94 3d
       -0.029856008 0.0017916937 0.033260163 0.07246542
0002e0 00 74 0d 3d cd 87 5a bc ce 29 ac 3d 9a be d7 bd
       0.034534454 -0.0133380415 0.08406411 -0.10534401
0002f0 0a a2 fa bb 9d 64 0b 3d fd 50 13 bc 93 f9 2d 3d
       -0.007648711 0.0340315 -0.008991477 0.04247434
000300 32 28 92 3d 00 bd 7b bd e5 e0 b8 3b 1b 69 8f bc
       0.07136573 -0.06145954 0.005642044 -0.017506173
000310 76 9e c5 3c ad 7a 44 3d 44 c5 59 3c df 94 9c 3d
       0.024123412 0.047968555 0.013291661 0.076455824
000320 b8 41 08 3d 28 63 91 3d 70 35 39 3d 76 f6 c0 3d
       0.0332658 0.07098991 0.045216978 0.09422009
000330 20 70 31 3c 06 bb 14 3c 28 8b 46 3c db 48 71 bc
       0.010829955 0.009077793 0.012118138 -0.014726843
000340 18 fb 85 3b cd f6 27 3d da f9 7d 3d 18 f7 8e 3d
       0.0040887706 0.041006852 0.062005855 0.06980723
000350 44 23 0a 3d 12 1b d6 bd 5c d4 2a 3d f7 b4 a7 3c
       0.03372504 -0.10454382 0.041706428 0.020472033
000360 cc ac ac bc 81 0d 38 bd b5 e7 c9 3d 49 76 28 bc
       -0.02107849 -0.044934753 0.09858648 -0.010282108
000370 ad 62 ba 3c 1b 35 8b bc 8a 0e 6c 3d d2 da fd 3c
       0.02275213 -0.016993096 0.057631053 0.03098813
000380 fd c0 73 3d 91 6c d0 3c fb f7 4d 3c a1 9c 42 bd
       0.05951022 0.025442393 0.01257133 -0.047512654
000390 35 cb 2e 3b b5 cc 4a 3d 61 1b b9 3c 3d ed fd 3c
       0.0026671414 0.04951163 0.022596063 0.030996913
0003a0 90 e7 32 3c 18 fc 87 bd 04 e1 37 bc a2 45 80 3a
       0.010919467 -0.0663988 -0.0112230815 0.0009786377
0003b0 05 88 87 3c 59 10 3c 3c 27 7e dc 3d c2 72 fb bd
       0.016544351 0.011478507 0.10766249 -0.12277748
0003c0 ee 48 3f bd 2b 35 b4 3a 00 c9 63 3d b6 6c 39 bd
       -0.04670041 0.0013748755 0.05561161 -0.04526969
0003d0 c1 cd 1b ba d7 37 49 3c 67 f5 bc bd 98 dd df bc
       -0.00059434405 0.01228138 -0.09226494 -0.027327344
0003e0 ef a7 02 be 30 5f 1b bd f1 4e 2d 3c 12 43 10 3d
       -0.12759374 -0.037932575 0.010577903 0.035220213
0003f0 2d d0 3e 3c 9c 35 e5 3c 00 7f 50 3d 66 74 10 3d
       0.011646313 0.027979665 0.050902367 0.035267256

conv3.bias f4 [32]
000000 d7 40 31 3d f7 0b 33 3d b5 be 12 bd 7d ac 18 3d
       0.043274727 0.043712582 -0.035826404 0.037273873
000010 c2 1a aa 3c 0a 57 b8 bc 5c c9 3e 3b 20 d5 a6 3b
       0.020764712 -0.022502441 0.0029111719 0.0050913244
000020 8a 8b e4 3c 0c 9d ff bb 52 74 a9 3b ca 0c 54 b9
       0.027898569 -0.007800704 0.005171337 -0.0002022266
000030 f4 e2 59 3c c1 f9 83 3c cd 4e d1 3b e9 25 9c 3c
       0.013298739 0.016110303 0.0063875676 0.019061046
000040 02 9e 0a bb 0f 69 04 3c 66 bb c6 3c b2 04 ca 3c
       -0.002115131 0.008081689 0.02425928 0.024660442
000050 07 f6 ae b9 fc 36 d7 bb f0 89 cf 3c ba e2 eb bb
       -0.0003337117 -0.006567834 0.025334328 -0.007198659
000060 52 be 2a 3d 7f 26 c1 3c a8 b9 5c 3d 62 57 2c 3d
       0.04168541 0.023577927 0.053887993 0.042075522
000070 f0 f9 38 3b 23 a0 fb 3c a9 f2 1d bc 3f 1f f4 3c
       0.0028225146 0.030716008 -0.009640374 0.029800056

MLP1.weight f4 [50, 1344]
000000 b9 ba db bc f2 83 90 3c 1b 98 14 3d 1e cf 20 3d
       -0.026822435 0.017641041 0.03627787 0.039260022
000010 34 c8 46 bd 17 c2 d0 bb 73 7a 00 bc 1c 9e c0 bb
       -0.048530772 -0.0063707936 -0.007841694 -0.005878223
000020 61 fe 7c 3b 61 49 36 3c 61 ab 5c 3c ad a3 a2 b9
       0.003860377 0.011125893 0.013468594 -0.00031020996
000030 81 ed 46 bb 24 60 91 3c 69 b4 32 bc 97 0a 28 3c
       -0.0030353966 0.017746039 -0.010907271 0.010256431
000040 34 cd 02 bd cf 7a e9 3c f6 a4 f1 bc ef 69 ca 3c
       -0.03193398 0.028500943 -0.029497605 0.024708716
000050 0b ed a4 3c d3 6a 18 bd a1 4b 0e bd 82 79 11 3d
       0.020132562 -0.03721125 -0.034740094 0.03551627
000060 a8 32 3d 3d 22 66 04 bc 95 fd 8b bb 1d 78 90 3b
       0.046190888 -0.008080991 -0.0042721727 0.00440885
000070 29 88 eb bc 04 32 11 3d 74 13 6e b9 8b 44 e4 3c
       -0.02875145 0.03544809 -0.00022704696 0.027864715
000080 6d f9 8f bb 55 45 92 3b 9c fb 02 3c a2 ff 8b bd
       -0.0043937475 0.0044638314 0.007994559 -0.068358675
000090 db 19 42 bc c7 11 83 3c 1e 71 ff 3b a7 2e ff 3c
       -0.011846985 0.015999688 0.007795467 0.031150175
0000a0 85 0d b6 3c f1 08 ab bc 90 a9 27 bc a4 ea 5e bd
       0.022223243 -0.020878287 -0.010233298 -0.05442299
0000b0 72 59 66 3c f6 ac 6b 3d a6 1b 28 3c f7 70 12 3c
       0.014059411 0.057537995 0.010260498 0.008938066
0000c0 8c 4d 22 3d ac 46 a3 bc bf fd 16 3d 36 8e d2 3b
       0.039624736 -0.01993116 0.036863085 0.0064256443
0000d0 d5 fd 80 bc 0d a9 29 bd a2 6f 23 bd 15 8c 0e bc
       -0.015746037 -0.041420985 -0.039901383 -0.00870039
0000e0 e1 16 0f bd 05 23 b4 3c 26 7e 13 3d 80 06 06 3b
       -0.03493393 0.021989355 0.036008976 0.0020450652
0000f0 0a d1 fb 3c aa af e3 ba 82 f2 aa 3a cf 95 02 bd
       0.030739326 -0.0017371078 0.0013042244 -0.03188115
000100 3a f1 41 3d 92 8c 23 3d ad b7 ee bc 3b cb 68 3c
       0.047349192 0.03992898 -0.029140318 0.01420861
000110 7e ff b4 3a 7b ae 0b 3d 7f 6f 34 3b 58 bb 8a 3c
       0.0013809053 0.034101944 0.0027532277 0.016935036
000120 33 8b 86 3d bd d2 de 3a 7a b6 92 bc d5 f8 bf 3c
       0.06569519 0.0017000061 -0.017909277 0.023434082
000130 d3 68 81 3c b8 63 13 bd 06 88 b7 bc 7e e7 cb 3c
       0.015797054 -0.03598377 -0.022403728 0.024890658
000140 9d db 96 bc 8f 98 28 3d 69 e9 c9 3c 4d 97 12 3c
       -0.018415267 0.041161116 0.024647431 0.008947206
000150 bc 51 01 be 99 f0 c2 bd 98 a6 53 bd 0d 7f 0f bd
       -0.12628835 -0.095185466 -0.051672548 -0.035033274
000160 ae 72 3a bd e3 3b 4f bc 66 c9 e2 3c 2b 28 98 bd
       -0.045519523 -0.012648555 0.027683925 -0.074295364
000170 b5 55 2e bd b6 85 6f 3c fd 40 87 bd 16 7f 0a bd
       -0.042562205 0.0146192815 -0.066041924 -0.033812605
000180 42 e5 aa bc 81 e3 18 bd 51 b8 97 bc c3 cf 8c bc
       -0.020861272 -0.03732634 -0.018520506 -0.017188912
000190 3d 2e c4 bd fd 07 2c bd a6 2f ca 3c b2 00 8d 3d
       -0.09579132 -0.041999806 0.024680924 0.06884898
0001a0 1f 32 f4 bc 3c 60 99 bc 1b d4 22 bd 5d d7 9b 3c
       -0.029809056 -0.018722646 -0.03975306 0.019023592
0001b0 d0 7f f7 bc 5d 80 74 3c c7 98 3d 3d 1f 01 2b 3c
       -0.030212313 0.014923182 0.046288278 0.010437279
0001c0 82 79 0c bd d8 60 91 3c af b1 6f bb d1 bd e8 bc
       -0.034295566 0.017746374 -0.0036574414 -0.028410824
0001d0 b7 a9 0d bc 5e cf 2e 3d 4f d4 d4 bd c4 11 24 bd
       -0.00864642 0.04267823 -0.10392057 -0.040056005
0001e0 29 66 67 bd f9 d3 69 3c de 8e 49 bd fd 8e a0 bd
       -0.056493912 0.01427173 -0.049208514 -0.07839773
0001f0 37 9c 16 3d fa a1 80 bc fd cf c1 3b 65 04 44 bd
       0.03677007 -0.015702236 0.0059146867 -0.047855753
000200 26 30 b6 bc 27 ba 4d 3c 9e a3 a3 3c e0 44 8e 3d
       -0.022239756 0.012556589 0.01997548 0.069467306
000210 01 a4 c9 b9 0c e0 12 3d b4 90 ec bc ad ba 25 bd
       -0.000384599 0.0358582 -0.028877594 -0.04046123
000220 39 f3 12 3d a5 24 c3 3c c5 88 d0 3c 3b fb b6 bb
       0.035876486 0.023821184 0.025455842 -0.005584148
000230 25 24 6f bc 38 f6 43 3c a5 5d 69 3c b4 b8 94 bc
       -0.01459602 0.011960559 0.014243518 -0.01815448
000240 1d ca 90 bc a4 e1 57 3b 30 39 94 3c 69 b0 ec 3c
       -0.0176745 0.0032940889 0.018093675 0.028892713
000250 91 48 97 3c 38 c9 0d 3d 56 5f ec 38 4f cb 73 3c
       0.01846722 0.034615725 0.000112711146 0.0148800155
000260 12 00 7f 3b d1 2e 7c bc 77 16 73 3d d8 e3 2f 3c
       0.0038909954 -0.015392021 0.059347596 0.0107354745
000270 6d 7d bd 3c 42 96 5b bd 23 c7 32 bc cb 75 7b bc
       0.023131097 -0.053610094 -0.010911736 -0.015347908
000280 3a 1f cf 3c ff 81 41 bd cc 9b 5d 3c 81 eb 8d 3c
       0.025283445 -0.047243115 0.013525914 0.017324211
000290 94 0d 67 3d dd 36 a3 bc 44 3d 0e 3d bd b4 a3 3c
       0.056409433 -0.019923622 0.034726396 0.019983644
0002a0 0c 3c 8f 3d 90 30 4e 3d 77 c3 71 3d a9 aa d1 3b
       0.06993875 0.05033928 0.0590243 0.006398518
0002b0 2f 15 1a bd 27 8c 41 bd 23 a5 a5 bd a3 5e 82 3d
       -0.03761786 -0.0472528 -0.08088138 0.06365707
0002c0 1a 7c 05 3c 5f ab eb bc ec 56 e8 3b 82 37 a4 3c
       0.008147264 -0.02876824 0.00709044 0.020046
0002d0 d9 5b a1 bc af 48 8b bd 20 37 e2 3c 06 c1 8b bc
       -0.019697117 -0.06800973 0.027614176 -0.017059814
0002e0 3e 97 f2 3c 7e ef af bc 7b 36 07 bd 62 b0 e8 bc
       0.029613134 -0.021476503 -0.03301094 -0.028404418
0002f0 c1 79 9f bb dc d5 1f 3d cd 8c b7 bc 3c f9 ca bc
       -0.004866809 0.03902231 -0.022406006 -0.024777047
000300 05 76 d7 bb 85 4a 35 3d e1 d8 98 3b 58 1b 4a 3d
       -0.0065753483 0.04426052 0.004664526 0.049342483
000310 ca e6 d5 3c 41 db 41 ba 8a 5a d1 3b 03 12 b0 3c
       0.026111025 -0.0007395037 0.006388967 0.021492964
000320 38 04 fa 3c 08 47 a1 3c 93 3b 3e 3d a2 5b f4 bb
       0.03051959 0.01968719 0.046443533 -0.0074572125
000330 57 30 22 bd 6f 40 37 3c e9 4f f5 3b 39 99 b3 3c
       -0.03959688 0.011184796 0.0074863327 0.021923648
000340 52 9b a8 3b da 40 22 bd 98 43 a2 3c 1b c9 52 bc
       0.0051454687 -0.03961263 0.019807622 -0.01286533
000350 b3 62 85 3c 97 e9 0e 3d ba e1 a7 bb 37 7d 42 3d
       0.016282415 0.034890737 -0.0051233443 0.047482695
000360 3f 5e 8e bc 91 91 df 3c b8 da ba 3b 5f 03 6e bc
       -0.017378924 0.027291091 0.005702343 -0.014527171
000370 bf 7c a0 3c 02 bc 5d bd c6 cd 34 bc d6 33 cb 3c
       0.019590734 -0.054134376 -0.011035388 0.02480499
000380 85 03 92 bd 89 cf b5 3c 09 33 d5 3c ae ba 36 3d
       -0.071295775 0.022193687 0.026025312 0.044611625
000390 79 d3 8f 3b 97 b3 c4 3a 5d 8a a8 bc 4e ca 8a bd
       0.004389223 0.0015007135 -0.02057379 -0.06776868
0003a0 05 ec 20 bd cb 4f 17 3d e5 e7 a9 3c af 9c 00 3d
       -0.039287586 0.03694133 0.020740459 0.031399425
0003b0 6b 83 3c 3d 77 f5 e1 bb e8 48 a3 3c db 53 fd bc
       0.046023767 -0.006895717 0.019932225 -0.030923774
0003c0 29 41 ba 3a 87 5f 03 3d 32 c1 86 b9 19 ae e8 bc
       0.0014210093 0.032073524 -0.00025702413 -0.028403329
0003d0 5c 87 72 bc 81 a0 b3 bd 0e 87 6c 3d f1 77 1e bd
       -0.01480278 -0.08770848 0.057745986 -0.038688604
0003e0 60 ba f1 3c 7b 5a 21 3d df 64 48 3d 1a 9e 11 3b
       0.029507816 0.03939293 0.048924323 0.002221948
0003f0 e4 b9 e8 3c a9 18 67 3d 27 1b 0b bd 7d ed 42 3d
       0.028408952 0.056420002 -0.03396144 0.047589768

MLP1.bias f4 [50]
000000 09 1c d9 3b 82 28 6a bc b7 29 7c bc d0 04 e4 3c
       0.0066256565 -0.014291884 -0.015390805 0.027834326
000010 bd f4 f3 3c 05 1c d4 3c a8 17 d0 3b 06 c5 a5 bc
       0.029779786 0.025892267 0.0063504763 -0.02023555
000020 ba 58 57 bc 6b e3 42 3b a8 15 0a bc e2 df 32 39
       -0.013143713 0.0029737602 -0.008428015 0.00017058806
000030 0a f5 a6 3a 2c 22 79 3c 5d 75 8d bb 03 c3 fa bb
       0.0012737822 0.015205901 -0.0043169693 -0.0076526417
000040 81 5a f8 3a e0 d2 13 3d 4f 07 38 bc f6 e5 d7 bc
       0.0018947871 0.036089778 -0.011232211 -0.026354771
000050 10 d4 e4 3c ef f8 6f bc ca 50 c5 3b 17 b7 9a 3b
       0.02793315 -0.014646753 0.0060215937 0.004721533
000060 39 4b 1e 3c 27 db f2 bc 45 fa d7 3c 11 97 bd 3c
       0.009661489 -0.029645516 0.026364455 0.023143323
000070 45 98 d7 3c f8 87 0e 3d 52 3b 1b bd 1e 23 a7 bb
       0.026317725 0.03479764 -0.03789837 -0.005100622
000080 31 53 88 bc 5f 9c c3 bc 83 03 f9 3c 3f 8d ae ba
       -0.016641231 -0.023878274 0.030397182 -0.0013317241
000090 51 b4 db bc bf 15 ef bc 15 b2 24 3c 89 4d 70 bc
       -0.02681938 -0.029185174 0.010052224 -0.014666923
0000a0 8f ba d0 ba fb c1 b9 bc 4a b6 81 3c d1 ca 89 3c
       -0.001592474 -0.022675505 0.015833993 0.016820343
0000b0 11 25 6d 3b 1a 46 05 3d 3a 09 82 bc 73 ec e9 3c
       0.0036185423 0.032537557 -0.01587354 0.02855513
0000c0 9b e6 39 3d 8b fa d4 bb
       0.04538594 -0.0064995936

MLP3.weight f4 [50, 50]
000000 36 d9 36 bd c5 6e 08 3e 54 a2 ef bc b7 6d 1c 3e
       -0.044640742 0.13323505 -0.029252209 0.15276228
000010 86 45 7f 3d 60 8d fb bc ed bd 02 3e 01 8b c8 3c
       0.062322162 -0.030707061 0.12767763 0.024480345
000020 56 65 60 3e e1 b7 0d 3d f8 05 cd bd f3 36 c7 bd
       0.21913657 0.03459919 -0.10010904 -0.097272776
000030 6e 81 03 3d 5c eb 17 be be 4c eb bd 4f b5 f4 3c
       0.032105856 -0.14835876 -0.11489247 0.02987161
000040 14 9f 5c 3d 1c 66 14 3c 75 0a 8a bd a6 55 9f bd
       0.053862646 0.009057548 -0.06740276 -0.07780008
000050 2e c2 39 3d 95 9b a1 bd 67 38 09 bd 1c 8b 0b bd
       0.0453512 -0.07891003 -0.033501055 -0.034068212
000060 62 60 56 3d 53 e3 16 bd 4d 25 95 3d c5 54 56 3c
       0.05233801 -0.036837887 0.07282505 0.013081734
000070 fb ce d0 bb 3d 5c eb 3c 91 15 97 3d 11 b3 04 be
       -0.0063723302 0.028730506 0.0737716 -0.12958933
000080 cd 8e 9c 3e 75 a2 fc bd 1d 91 23 3d 7c 64 7f 3d
       0.30577698 -0.12335674 0.039933313 0.06235169
000090 1d 5b ba bd d9 45 a1 bd ef bf 3a 3d 2b 65 c6 bd
       -0.0909941 -0.078746505 0.0455932 -0.09687265
0000a0 d6 ce e1 3d b6 3e a2 3d c3 1b 41 be 37 3f 00 3e
       0.11025779 0.079221174 -0.18858247 0.12524115
0000b0 6e db 0a be f2 75 c9 3d ee 19 65 bd 7b 54 28 bd
       -0.13560268 0.098369494 -0.05593293 -0.04109619
0000c0 94 17 13 3e 80 33 dd 3d 6d a3 1a bd 1e 63 f6 3d
       0.14364463 0.108008385 -0.03775351 0.12030624
0000d0 13 4d ae bd e1 00 0a be 52 66 f7 3d a6 aa 0d 3e
       -0.085107945 -0.13476898 0.12080063 0.13834628
0000e0 00 f5 09 be 12 eb 04 3e 66 6f 0a be ae 0e 2c 3e
       -0.13472366 0.12980297 -0.13519058 0.16802475
0000f0 f4 f7 eb bd 8c 07 cd bd 82 a1 d9 bb c4 12 3b 3d
       -0.11521903 -0.10011205 -0.0066415677 0.045672193
000100 f7 6f 69 bd 0a fb 04 be 29 be f4 3d 98 70 f7 bd
       -0.056991544 -0.12986389 0.11950333 -0.120820224
000110 12 e7 b5 bd 8b e6 cf bd 6e 84 45 3c 1c 45 44 3d
       -0.08881964 -0.101513945 0.0120554995 0.04791747
000120 7f 76 95 bc 63 b3 df 3c b4 f4 2b 3d ed 4d 0a be
       -0.01824498 0.027307218 0.041981414 -0.13506289
000130 9e a9 26 bb 19 a3 19 3d 91 21 f5 3d f7 e2 b2 3d
       -0.002543069 0.037509058 0.11969293 0.08734696
000140 5c 1b f4 bd 33 6d ec bd 0f d1 17 3d ac 9a 11 be
       -0.11919281 -0.115442656 0.03706461 -0.14219159
000150 77 b5 a5 bd 63 1d eb 3c f4 43 b6 bd 24 66 01 3e
       -0.08091252 0.028700536 -0.0889968 0.1263662
000160 4c e5 02 be 83 fd a4 3d 1d 8b 36 bd 40 71 0d 3e
       -0.12782782 0.08056166 -0.044566263 0.13812733
000170 07 b2 2c 3d c8 d0 43 3d ca 4b 89 3d 4a 3a c9 bd
       0.042161968 0.04780653 0.06703909 -0.09825571
000180 45 9f c8 3d 8f cb a6 3d 56 a9 c8 bd e3 20 09 3d
       0.09796003 0.081442945 -0.09797923 0.03347863
000190 f2 01 54 3c 65 95 87 3c e2 27 fb bd 8b fb 88 bd
       0.012939917 0.016550729 -0.122634664 -0.06688603
0001a0 17 bb bd bd 96 d9 94 3d f3 97 0d 3e 48 95 e1 bd
       -0.092642 0.07268064 0.13827495 -0.11014801
0001b0 10 15 12 be 1f cc 2f be 00 12 f4 bd 3c c2 e1 3d
       -0.14265847 -0.1716771 -0.11917496 0.110233754
0001c0 3a 07 e1 3d f5 d2 06 3e 69 9b 78 bd 9d 1c 86 3d
       0.109877065 0.13166411 -0.060695086 0.06548426
0001d0 02 b0 00 be ff 4e 1d 3c 77 f2 08 3e 88 48 ed 3a
       -0.12567142 0.009601354 0.13373743 0.0018103281
0001e0 55 d2 b2 3d bc fc f3 bd 54 2c 9a bc cc 0f 29 be
       0.08731524 -0.1191344 -0.018819965 -0.16509932
0001f0 f4 24 3c 3e c1 95 a0 3d 30 90 bd bd e2 74 a5 bc
       0.18373471 0.07841063 -0.09256017 -0.020197336
000200 0f 13 b1 bd a4 22 92 3c 55 1c 9b 3e 57 ce 28 3d
       -0.08646213 0.017838784 0.30295053 0.041212406
000210 be a8 8d 3d a1 fc fd 3d 91 7b b0 bd 72 a3 36 bd
       0.06916951 0.12401701 -0.086173184 -0.044589467
000220 a2 e7 dc 3d 53 98 94 bd ff f7 c5 bd 20 3d 11 3d
       0.10786368 -0.07255616 -0.09666442 0.035458684
000230 e3 4f 5c 3e 30 79 9b bc 76 b1 27 3b 85 53 2e 3e
       0.2151485 -0.018978685 0.0025587953 0.17024048
000240 1a 9f 53 3c f5 73 e0 3d eb 2c a0 3d be 87 48 bd
       0.012916351 0.10959617 0.078210674 -0.04895758
000250 9b d7 d4 3d 77 f8 a9 bc db b1 21 3d 46 c6 4a 3d
       0.10392686 -0.02074836 0.039476257 0.049505495
000260 8b 78 21 3c 48 02 dd 3d 78 ce 99 3c c9 a2 1f bd
       0.0098554 0.10791451 0.01877521 -0.038973603
000270 e8 4c 97 3c db 3d eb 3b 38 f7 9c 3c 4a 04 80 3d
       0.018469289 0.0071790046 0.019160852 0.06250818
000280 70 44 85 3d 91 c0 04 be 5c 53 e9 3d 42 b6 31 bd
       0.06507194 -0.12964083 0.11392853 -0.043386705
000290 41 83 75 3e 2f 3a 28 3d 4d 43 12 be 77 34 a4 bd
       0.2397585 0.041071113 -0.14283486 -0.080178194
0002a0 33 79 26 3b 2f a9 31 be b7 b6 31 be 77 f6 b7 bd
       0.002540183 -0.17349695 -0.17354856 -0.08982556
0002b0 bf c3 7a bd 11 79 80 3e d2 7b ca 3c b2 10 21 3e
       -0.061221834 0.25092366 0.024717245 0.15729025
0002c0 42 07 2b 3e 2f 24 94 3d 5e 63 da bd 1c 4b 93 3d
       0.16701987 0.07233464 -0.10663484 0.0719206
0002d0 cb ef 47 3d 9e 0f c6 3d a3 0c 3a be 45 26 e1 bd
       0.04881267 0.096709475 -0.18168883 -0.109936275
0002e0 4d 65 52 3c 01 05 e8 3d 13 08 c5 bd 24 1f a3 3d
       0.012841535 0.113290794 -0.09620681 0.07964924
0002f0 fd cf 52 3d 93 49 86 bd 3e d5 03 3e 2d 41 e5 3d
       0.051467884 -0.06557002 0.12874314 0.11194072
000300 e6 a7 3d 3e d5 8f 37 bc eb 12 1a 3e e6 ab 9d bb
       0.1852108 -0.011203726 0.15046279 -0.0048117517
000310 13 f6 7f 3e af 86 bb 3c 2c 11 03 be 4c cd 8c bd
       0.24996214 0.02289137 -0.1279952 -0.06875095
000320 e9 58 20 3e 81 b4 f0 bd a5 52 3e 3c 5d 7f 1e 3e
       0.15658917 -0.117531784 0.011616384 0.15478273
000330 a8 9d 10 bd 28 e7 26 3d 72 2f da bc f6 6b 47 bc
       -0.035306603 0.04074779 -0.026633952 -0.012171736
000340 d0 2e 91 3d b4 9a d0 bd 3d f7 49 be 02 7b 56 bd
       0.07089007 -0.10185757 -0.1972322 -0.052363403
000350 90 fe a5 3d 30 8a c8 3b 64 5c 71 bd 51 0c 01 be
       0.081051946 0.006119989 -0.058926 -0.12602355
000360 f4 80 f5 bd 75 3f e1 3d 08 83 df 3d c4 49 c1 3c
       -0.119874865 0.109984316 0.10913664 0.023594745
000370 aa a8 9e 3d b8 0c 42 3e 33 06 b4 bd 21 cd 0b be
       0.07747014 0.18950164 -0.08790245 -0.13652469
000380 fb a5 32 3e fd b4 47 bd 9f b6 b6 3d ae 4e 29 3e
       0.17446129 -0.04875659 0.08921551 0.1653392
000390 22 24 5e 3d be 71 84 bd d8 47 d2 ba b0 27 c2 3d
       0.054233678 -0.06467007 -0.001604314 0.09480226
0003a0 f8 87 14 be 29 6c 30 bd ba b1 e5 bd 81 cb 9d bd
       -0.14504993 -0.0430719 -0.11215539 -0.07704831
0003b0 4f ef 15 3e d7 01 c4 3d ba d8 75 bd ee 3f 6f 3d
       0.1464207 0.095706634 -0.06002114 0.058410577
0003c0 b2 b6 ea bb de 39 c1 3d c8 db b5 bd e4 34 a6 bd
       -0.0071628923 0.094348654 -0.088798106 -0.08115557
0003d0 ae 04 42 3e 60 40 a6 3d 88 e4 21 be a4 fa 29 3a
       0.18947098 0.08117747 -0.15809834 0.0006484187
0003e0 08 f9 31 b9 71 de bd 3c 86 f3 51 bc d4 55 de 3d
       -0.00016972807 0.023177357 -0.012814408 0.10856214
0003f0 7b c9 96 bd ba 03 cc 3c 34 36 5b bd 9a d1 00 3e
       -0.07362648 0.02490412 -0.05351849 0.12579957

MLP3.bias f4 [50]
000000 b5 3d 9f bd 2d 2e b8 3c 5a d3 b5 3c 00 4f 0a 3e
       -0.077754416 0.022482956 0.022195507 0.13506699
000010 39 30 ed 3d 61 26 95 3d 46 02 9d bc 0a ad 86 3d
       0.11581463 0.07282711 -0.019166123 0.06575973
000020 65 c8 28 3e 4a 3f 77 3d 33 69 78 3d a1 af 68 bc
       0.16482694 0.06036309 0.0606472 -0.014202029
000030 bf 9c 7e 3d 59 d7 29 3d 2b 48 5a 3d 16 90 30 3d
       0.062161203 0.041465137 0.05329148 0.04310616
000040 c8 c4 13 3d 37 4c 81 3d 51 1b ca 3d 18 45 51 bd
       0.036076337 0.06313365 0.098684914 -0.051091284
000050 83 30 21 bd 7c 23 30 bd 7a d0 6d 3d 11 09 2a bc
       -0.039352905 -0.04300259 0.058060147 -0.010378138
000060 5c 6a be 3c 90 02 ca 3d 07 a9 e6 3d 08 2e 9d bd
       0.023244075 0.0986377 0.11262708 -0.076747954
000070 68 2f 00 3d c1 f7 20 3e 08 17 06 bd cc c6 dd bb
       0.03129521 0.1571951 -0.032736808 -0.006768083
000080 6e 85 ba bb 9c 83 15 be 1d 0b 4d 3c b7 49 e2 bd
       -0.0056921756 -0.14600986 0.012514857 -0.11049216
000090 e2 6d f1 3d 58 ea ff bd a7 2c 73 bc c2 e1 80 bd
       0.117885366 -0.124958694 -0.014842189 -0.0629306
0000a0 38 76 e2 bd cc 39 0f 3e 9b 5f 0b 3e da 3c c1 3d
       -0.11057705 0.13986892 0.1361069 0.09435435
0000b0 df 84 ba 3c 82 64 ac 3d f8 2b b5 3c dd 3b f0 3d
       0.022768436 0.08417608 0.022115692 0.11730168
0000c0 4c 93 92 bd a6 3e be 3c
       -0.07157001 0.023223232

MLP4.weight f4 [7, 50]
000000 06 b9 a6 3d 41 8f b6 3d 6d 7c dc bc 67 8a ef bd
       0.08140759 0.08914042 -0.0269148 -0.1169632
000010 88 e6 2b be 50 ce ce bc e0 eb c7 bd 99 e9 d2 3d
       -0.1678716 -0.025244862 -0.097617865 0.102984615
000020 0a d6 cb bd f0 8e af bc 59 ae 68 3c 74 5f a1 bd
       -0.09952934 -0.021430463 0.014201724 -0.07879534
000030 fe 16 2c be 13 33 45 3e 60 07 1e be e3 f2 c6 bd
       -0.16805646 0.19257765 -0.15432501 -0.09714296
000040 8e 50 24 3e 26 fe 24 3e 82 ab e4 39 80 ae 2e 3e
       0.16046354 0.16112575 0.00043615332 0.17058754
000050 fe 04 0f bd d1 73 af 3d 59 04 ce bd 64 9d dd bc
       -0.03491687 0.08567012 -0.10059423 -0.027052589
000060 3a 60 93 3d 48 08 87 3e c7 88 d7 3d bd 46 a9 bd
       0.07196088 0.26373506 0.10524135 -0.082654454
000070 6a 96 74 3d 3c 66 55 3d 56 f0 34 3d a6 d4 a5 bd
       0.05971376 0.05209945 0.044174515 -0.080972
000080 fb 4c 9a 3d 30 5c 1e bd ab bb 45 3d f8 cd 38 be
       0.07534214 -0.038662136 0.048274677 -0.18047321
000090 c8 06 3d be 92 c8 a5 bd 09 88 28 be 73 91 48 3d
       -0.18459618 -0.080948964 -0.16458143 0.048966836
0000a0 ff 81 80 3b c0 b8 7a 3d 75 9a 5d 3d f1 55 a0 3d
       0.0039217467 0.061211348 0.05410238 0.07828892
0000b0 1d 2b 96 3d e4 c5 3d bd c8 0e 12 3d b0 49 c7 3c
       0.07332442 -0.0463313 0.035658628 0.02432713
0000c0 c6 95 b7 bc 30 75 52 be dd 3e 61 3b b1 36 70 3c
       -0.022410285 -0.20552516 0.0034369745 0.014661477
0000d0 e5 73 49 3d c7 3a 8b be 2f dd c8 3d ea a1 30 3e
       0.04918279 -0.2719328 0.098078124 0.17249265
0000e0 40 2e 58 3d d6 92 19 bd 5c f1 91 3d 0d 10 0a 3e
       0.052778482 -0.03749355 0.07126114 0.13482685
0000f0 be 41 8f 3a d2 a2 c8 bd fa 96 6f be b4 33 e9 bc
       0.0010929627 -0.097966805 -0.23397437 -0.028467037
000100 3f f4 62 be c9 fb 10 3e be 05 44 3e ea 46 01 3e
       -0.22163485 0.14158548 0.19142815 0.12624708
000110 ae 86 d3 3b 20 96 42 bd f6 04 66 3d 80 c3 02 3e
       0.006455264 -0.04750645 0.056157075 0.1276989
000120 c2 16 3f be f3 ad df bd 5a 0c 93 bd f7 73 70 3e
       -0.18661025 -0.1092185 -0.0718009 0.23481737
000130 68 9e 15 be 75 74 e1 bd 55 9f b1 3d fc a9 1d 3c
       -0.14611208 -0.110085405 0.08672968 0.009623047
000140 d4 e9 1b bd 27 dc 04 be 68 53 ab 3d b8 70 81 3d
       -0.038064793 -0.12974606 0.08365518 0.063203275
000150 24 5e 90 3d 87 7f 71 be 53 c4 a9 3d 0a c4 10 3e
       0.07049206 -0.23583804 0.08289399 0.14137283
000160 b6 70 aa 3d 49 d8 ae 3d 41 19 bf 3d 58 04 1d bc
       0.08322279 0.08537347 0.09330989 -0.009583555
000170 9f 5d f0 bd 55 c9 1b 3e d7 63 9d bd fc 40 9b 3d
       -0.11736607 0.15213521 -0.076850586 0.07580754
000180 a8 e4 2e 3e 2d 9f 26 be 57 ee 84 be 79 33 5e be
       0.17079413 -0.16271658 -0.2596309 -0.21699323
000190 b5 4b 2a 3e 35 65 61 3b e5 53 42 3d a7 d3 70 3d
       0.16630442 0.00343926 0.04744329 0.058795597
0001a0 67 1d 23 3e b9 e3 35 bd eb 9e 2f be 69 f6 05 be
       0.15929185 -0.044406626 -0.17150466 -0.1308228
0001b0 0b 04 1f 3e 70 e0 cf bd 7c f3 a9 3d e9 25 55 be
       0.15528886 -0.1015023 0.08298394 -0.20815243
0001c0 68 2e a4 bd ad 11 a9 3d d1 97 67 be 04 f4 8d 3d
       -0.08016664 0.082553245 -0.22616507 0.06931308
0001d0 fd 49 24 3e 7b 7a 05 bd c9 8a 1d 3e 6e ba e6 3d
       0.1604385 -0.03258751 0.15384974 0.112660274
0001e0 e5 b4 0b be b3 d2 47 be df a6 f7 bd 59 09 10 be
       -0.13643225 -0.19513969 -0.12092375 -0.14066066
0001f0 8d ac 1d 3e db c0 50 3e 5b 6c 79 3d f9 eb 9f 3d
       0.15397854 0.20386069 0.06089435 0.0780868
000200 6b 09 ac bd 5c dc d4 3d 03 ad b8 bd 5e 3b a5 be
       -0.08400234 0.10393593 -0.09017374 -0.32271856
000210 a1 3a 27 3d e9 b2 3f bd e2 4e 09 3d f5 35 12 be
       0.040827397 -0.04680148 0.033522494 -0.14278395
000220 df 7b a4 3d aa fa 24 3e 2b 47 6d bd e5 23 26 3e
       0.08031439 0.16111246 -0.0579292 0.1622463
000230 30 84 24 3d ba e0 dc bc 0c 8b c1 3d 53 9c 29 3e
       0.040165126 -0.026962627 0.09450349 0.16563539
000240 40 51 cf 3c 7b 3e 13 be 32 b1 d1 3c e9 ef 29 3e
       0.025307298 -0.14379303 0.025597189 0.16595425
000250 78 89 73 3d 84 8a 81 be 44 12 26 3e 4d 79 42 bd
       0.059457272 -0.25300992 0.16217905 -0.047478963
000260 99 ca 73 3d b3 48 2f be 09 10 46 bd 70 1c ff 3d
       0.059519384 -0.17117576 -0.048355136 0.12456596
000270 dd 03 c2 be 7d ea 74 bb 04 53 ab bb 06 60 cb 3c
       -0.37893572 -0.0037371211 -0.005228402 0.024826061
000280 d0 be cc be 81 08 23 3e c2 ef bb 3d 16 7d fe bc
       -0.39989328 0.15921213 0.091765895 -0.031065505
000290 7e 12 44 be 17 29 8d bd 17 4b bb 3d 71 d4 37 3e
       -0.19147679 -0.06892603 0.091451816 0.17952134
0002a0 84 f5 aa bd f8 fb 12 3e ae d6 25 3e 22 2c 50 be
       -0.0834761 0.14353931 0.16195175 -0.20329335
0002b0 cd f1 55 be 41 3a 39 3e d9 34 42 3d 70 b0 3e be
       -0.20893021 0.18088628 0.04741368 -0.18621993
0002c0 53 7a 94 3d 72 3a c9 bd e6 b9 d4 bc 44 d2 d4 3b
       0.07249894 -0.09825601 -0.02596755 0.006494792
0002d0 4a de ed bd 38 7a 63 be 31 f6 d6 3d 57 f4 50 3d
       -0.11614664 -0.22214592 0.10496176 0.05101427
0002e0 82 54 07 3e e1 18 f4 3d be bc 36 be 47 fe f1 bc
       0.13215831 0.11918808 -0.17845437 -0.029540194
0002f0 55 aa 56 be 85 cf e1 3c fe 0e 90 be e1 d2 d9 3d
       -0.20963414 0.027564773 -0.28136438 0.10635925
000300 0c 76 ef bd 36 8f 84 3d 89 d8 ea bc 79 db ea 3c
       -0.116924375 0.06472628 -0.028667705 0.028669106
000310 7f 29 cd bd 50 d4 05 be 2f 98 dd bd f1 b6 c0 bd
       -0.100176804 -0.13069272 -0.10820042 -0.09409893
000320 96 9a 0a be 3d c8 06 be 22 15 42 3d 0d 02 03 3e
       -0.13535532 -0.13162322 0.047383435 0.12793751
000330 db 43 3a 3c 54 65 0a 3e ff a1 ff bd 6b ac 24 3e
       0.011368717 0.13515216 -0.1248207 0.16081397
000340 06 dc b1 3d 74 17 18 be bc 87 7e 3e 83 f8 ab 3d
       0.08684544 -0.14852697 0.24856466 0.08397009
000350 ed c6 96 be 2b 30 52 bd 19 07 56 be 5b 6d d5 3d
       -0.29448643 -0.051315468 -0.20901145 0.104212485
000360 9a 73 87 3d 08 bf e2 bd c0 30 0c be 84 96 84 3d
       0.06613846 -0.110715926 -0.13690472 0.06474021
000370 ab b3 f2 3c d2 0d 28 be 0e 14 59 3e 52 6f 16 3e
       0.029626688 -0.16411522 0.21199057 0.14690903
000380 23 2d d3 bb d2 17 a7 3d b0 35 0c 3e dd d9 1e 3e
       -0.0064445897 0.0815884 0.13692355 0.15512796
000390 1d 9a ad 3d 45 31 11 3e ab ae 1a 3e 00 15 83 3d
       0.084766604 0.14178951 0.15105693 0.0640049
0003a0 a7 14 06 be 38 b5 25 be fb 59 05 3e 6b 28 9e be
       -0.13093816 -0.1618241 0.13022606 -0.3089021
0003b0 a6 69 76 be fb f4 7e be c3 b9 ee 3c 0d f6 ac 3d
       -0.24063739 -0.2489814 0.029141312 0.08445368
0003c0 8e 03 cf 3d 25 ee ee bc 2a 03 96 bd 1e a6 f7 bd
       0.101081 -0.02916629 -0.07324822 -0.12092231
0003d0 d7 88 fc ba 27 02 0b be 41 60 11 3e 74 e9 2a 3d
       -0.0019266856 -0.1357504 0.14196874 0.041726544
0003e0 e8 45 cd bd a5 63 d1 3c 6e c6 17 be 1f 11 bb 3c
       -0.10023099 0.02556021 -0.14821789 0.022835312
0003f0 79 c6 25 be 86 4d 08 bd 3c d7 be 3d d0 7c 6b bd
       -0.16188993 -0.033277057 0.093183964 -0.057492077

MLP4.bias f4 [7]
000000 23 f8 00 be e8 44 d6 3d 3c 19 74 3d bb 8b 96 bc
       -0.12594657 0.104623616 0.059594378 -0.018377176
000010 87 d9 17 bb 37 c5 ca 3d 7f ce 05 3e
       -0.0023170428 0.09900897 0.13067053
