DQN/final_dqn_against_random/DQN_Epochs0_player2.pth (torch, 493097 bytes, 12 tensors)

conv1.weight f4 [32, 1, 5, 5]
000000 b4 e6 26 3d 06 b2 8b bd 74 77 59 3d e7 83 f7 bd
       0.04074736 -0.06821065 0.053092435 -0.12085705
000010 b7 dd 03 3e d0 a3 19 bc 80 1a 9e 3a f7 29 fc bd
       0.12877546 -0.009377435 0.0012062341 -0.12312692
000020 83 1e 2f 3e b5 71 47 3e 00 78 2d bd 99 7d 24 3e
       0.17101483 0.1947697 -0.04235077 0.16063537
000030 00 95 b4 bc 1d b3 25 3e 20 eb 2f 3c ef 93 3b be
       -0.022043705 0.16181608 0.0107372105 -0.18318151
000040 7e 3c be 3d f0 22 f4 bc dd 7f 1c 3e 74 30 2c 3d
       0.09288882 -0.029801816 0.15283151 0.042038396
000050 b6 5e 83 3d aa b3 e2 3d 27 88 05 3e 33 0a eb bd
       0.06414549 0.110694245 0.13040219 -0.11476555
000060 ee e7 1e be f7 b6 d4 bd c9 26 39 3e c0 11 bb bb
       -0.15518162 -0.1038646 0.18081202 -0.005708903
000070 3b fa 49 be 78 89 19 bd 78 91 2b 3d f2 2f e3 3d
       -0.19724362 -0.037484616 0.041886777 0.11093129
000080 60 83 a0 bb e2 16 2d be 9d 69 2b be e8 de f7 bc
       -0.0048984736 -0.1690326 -0.16739507 -0.030257657
000090 d0 11 34 be d2 b4 d8 3d 30 cb 89 3c c0 1e 05 be
       -0.1758492 0.10581364 0.01682052 -0.13000011
0000a0 7d 24 ab bd 67 91 c6 bd b4 92 02 be b4 63 0b bd
       -0.08356569 -0.09695702 -0.12751275 -0.03403063
0000b0 90 3e fa bc 84 32 74 3d 4b b0 4c 3e 70 a0 b5 bd
       -0.03054741 0.059618488 0.19989125 -0.08868492
0000c0 b8 b2 0e 3d 2a a8 8c bd 77 72 9e bd 7f 2c 14 3e
       0.03483841 -0.06868012 -0.07736676 0.14470099
0000d0 58 90 3d bd 18 59 51 bd 0b 8c 26 be 90 25 d9 bc
       -0.046280235 -0.051110357 -0.1626436 -0.026507169
0000e0 29 78 07 3e 2d a5 06 be 53 04 42 be 90 6b 90 bc
       0.13229431 -0.13148947 -0.18946962 -0.017629415
0000f0 84 71 57 3d b9 73 06 3e 39 83 0d 3e 26 70 f7 3d
       0.05259849 0.13130082 0.13819589 0.120819375
000100 d7 b8 cc bd d4 47 0e 3d 50 b4 bd bd 94 b0 06 be
       -0.09996193 0.03473647 -0.092629075 -0.13153297
000110 6a 5f ac bd b3 ea c2 bd ad ba 02 3e 10 ca d8 bc
       -0.08416636 -0.095174216 0.12766524 -0.026463538
000120 b6 9a ca 3d b7 44 43 be 80 5d a9 bd 77 ba e4 bd
       0.0989279 -0.19069181 -0.08269787 -0.11168378
000130 20 16 c2 bd b4 f9 94 bd 40 e0 9b bd da 49 b5 3d
       -0.09476876 -0.072741896 -0.07611132 0.08851977
000140 d8 0a 27 3d b8 08 38 bd 9b 12 1f 3e fe 39 16 be
       0.040781826 -0.04493019 0.15534441 -0.1467056
000150 e5 b1 3c be 74 dd 7e 3d 63 03 bc bd 30 73 a5 bc
       -0.18427236 0.062222913 -0.091803335 -0.020196527
000160 48 c4 15 be 72 85 99 3d ba 63 99 bd f8 de 3f be
       -0.14625657 0.07496156 -0.074897245 -0.187374
000170 f8 49 78 bd ae db c1 3d ec f8 2e bd b9 78 25 3e
       -0.060617417 0.09465729 -0.04271786 0.16159333
000180 1d 78 16 be d0 47 d8 3c 00 ee d0 bd 00 74 ab bc
       -0.14694257 0.02640143 -0.10201645 -0.020929337
000190 98 b6 ec 3c 97 df f1 bd 4a 0b fa 3d b8 a1 38 be
       0.028895661 -0.118102245 0.122091845 -0.18030441
0001a0 18 cb b0 bc 40 1d f9 3b 80 2d 0a bc c7 60 3c 3e
       -0.021581218 0.007602364 -0.0084337 0.18396293
0001b0 82 90 cc 3d e2 fb d5 3d 40 b7 72 3b e8 c7 37 3d
       0.099885 0.104484335 0.0037035495 0.04486838
0001c0 20 ed 4d bc 40 7a a7 bb ce 17 e9 3d 98 81 04 3d
       -0.012568742 -0.005111009 0.113814935 0.032350153
0001d0 0c 31 2b 3d 24 36 7a 3d 80 0a cf bc 4d 90 12 be
       0.04179482 0.06108679 -0.025273561 -0.14312859
0001e0 89 81 13 3e 82 b6 d6 3d ac 8e 78 3d 24 ab 50 3d
       0.14404882 0.10484029 0.060682938 0.050944462
0001f0 95 bb 46 3e d1 3f 17 3e c9 37 0b 3e d9 9a 37 3e
       0.19407494 0.14770438 0.13595499 0.17930163
000200 cd ed 09 3e a5 f3 3a be f3 81 1e 3e c1 c6 00 3e
       0.1346962 -0.18257006 0.15479259 0.12575819
000210 89 cb 28 3e 20 2b 44 be 00 93 ce bb d8 ad 87 3c
       0.16483893 -0.19157076 -0.006304145 0.016562387
000220 8c 78 29 bd 9d 1c e9 bd 1e b4 9c 3d d8 1d 2a be
       -0.041374728 -0.11382411 0.07651542 -0.16612947
000230 71 43 1f 3e 59 03 31 3e 42 f1 b1 3d 13 d8 17 3e
       0.1555307 0.17286433 0.086885944 0.1482852
000240 80 17 b7 bd ad 93 40 be 10 7c 89 3c 40 06 32 3d
       -0.08940029 -0.18806334 0.01678279 0.04346299
000250 06 17 dc 3d 9d 61 26 3e 00 15 d1 bc 20 33 71 3c
       0.10746579 0.16248174 -0.025522709 0.014721662
000260 05 46 14 3e 50 13 04 be a8 1e ad 3c 1a 0e 95 3d
       0.14479835 -0.12897992 0.021132782 0.0727808
000270 bb 6c 45 3e f1 5f 29 3e eb 57 18 3e 80 44 3c bb
       0.19279759 0.16540505 0.14877288 -0.0028727353
000280 ec 11 6f 3d cd 8a 4c be 5d ac e8 bd f8 d6 02 3d
       0.0583667 -0.19974823 -0.11361001 0.03194329
000290 4e 4f ec 3d e3 0f 49 be 7d 1a 0a be 00 ca 3a bb
       0.11538564 -0.19634967 -0.13486667 -0.002850175
0002a0 97 39 cf bd c2 a6 d0 3d 0a 76 f5 bd dd d5 e5 bd
       -0.10118406 0.101880565 -0.11985405 -0.11222432
0002b0 67 9c 26 3e 70 8f 46 be d9 3f 16 3e 2b f2 47 be
       0.162706 -0.19390655 0.14672793 -0.19525973
0002c0 a2 24 ac 3d e2 a7 ef 3d 01 b8 28 3e 92 83 f9 3d
       0.08405425 0.11701943 0.16476442 0.12183298
0002d0 d6 b6 dd 3d d9 50 10 3e 96 11 17 be 4d 0a 3e 3e
       0.10825889 0.14093341 -0.14752802 0.18558617
0002e0 80 d0 99 bc 50 34 9d bc 46 88 ea 3d ba f5 e4 bd
       -0.018776178 -0.019189984 0.11451773 -0.11179681
0002f0 a5 01 0f 3e 3d 6e dd bd d5 67 45 3e 29 77 30 3e
       0.13965471 -0.10812042 0.1927789 0.17232956
000300 e1 27 2b 3e a7 74 b2 bd be 41 f9 3d 09 63 44 3e
       0.16714431 -0.08713656 0.121707425 0.19178404
000310 ee 28 a2 3d d8 45 8e bc 85 9f 1c be ab 37 01 3e
       0.07917963 -0.017367288 -0.15295227 0.12618892
000320 05 86 0c be d7 a5 0b 3e a7 11 1d 3e b4 c9 5c bd
       -0.13723 0.13637482 0.15338765 -0.053903297
000330 76 f1 0c be b9 e5 28 3e 7f 47 05 3e f4 0b 2e bd
       -0.13763985 0.16493882 0.13015555 -0.04249187
000340 ee 29 e4 3d 00 36 d9 39 74 3a 8f bd 28 f8 c0 3c
       0.1114081 0.00041429698 -0.06993571 0.02355583
000350 bb 86 39 3e 01 9c 38 3e 1f d6 35 be dd d7 01 3e
       0.18117802 0.18028261 -0.17757462 0.12680002
000360 8c f3 21 3d 72 0b e2 3d 9d a4 4b 3e 11 db 37 3e
       0.039538905 0.11037339 0.19887014 0.17954661
000370 4e 82 ec 3d 40 16 82 bd 62 42 a0 3d 10 18 20 be
       0.11548291 -0.063519 0.078251615 -0.15634179
000380 fe a8 13 be d2 4f a2 3d c1 41 49 3e 58 2b 1c be
       -0.14419934 0.07925381 0.1965399 -0.1525091
000390 e6 0c 2a be 10 1e d1 bc de 81 c3 3d d0 41 9c bc
       -0.16606483 -0.02552703 0.095462546 -0.01907435
0003a0 39 17 19 3e 19 d4 2a 3e 57 7b fb bd e2 5b 9b 3d
       0.14950265 0.16682471 -0.122793846 0.07585885
0003b0 80 6f 6a 3c ec 9e 26 3d 3d 9b db bd 20 a9 07 be
       0.01430881 0.040678903 -0.10722969 -0.1324811
0003c0 a1 54 25 3e d2 55 b3 3d b2 3b c2 3d 80 f2 5d bd
       0.16145565 0.08756603 0.09484042 -0.054186344
0003d0 68 85 9a bc ab 1c 03 3e 74 01 96 bd 1c 60 82 bd
       -0.018862441 0.12803905 -0.07324496 -0.06365988
0003e0 14 ee 94 bd 28 73 9a 3c 4c bd 7d bd f3 a4 34 be
       -0.07271972 0.018853739 -0.061948106 -0.17641048
0003f0 04 f8 07 be 1c 18 70 3d 68 a3 19 3d 46 ea fe 3d
       -0.13278204 0.058616742 0.037509352 0.12447028

conv1.bias f4 [32]
000000 7c 12 87 bd 27 aa 0f 3e c0 3d b7 bd 6e 4d ec 3d
       -0.065953225 0.14029752 -0.08947325 0.11538206
000010 e2 aa 9b 3d b0 45 3a 3c 8c 6e 32 3d 8a e1 90 3d
       0.07600953 0.011369154 0.043562457 0.07074268
000020 00 2c 19 b9 c2 c4 2e be b8 5b 1e bd d0 27 09 bc
       -0.00014607608 -0.17067245 -0.03866169 -0.008371308
000030 cb 71 2e 3e 0a f8 80 3d e0 0d 2a be ed d1 2b be
       0.17035596 0.0629731 -0.16606855 -0.16779299
000040 00 98 f9 3c bf db 33 3e 02 df 89 3d aa 29 f0 3d
       0.030467987 0.17564295 0.067319885 0.11726697
000050 e0 9d 01 be d0 0b 43 be 45 8c 44 3e bc 95 07 be
       -0.12657881 -0.19047475 0.19194134 -0.13240713
000060 0a e4 13 be ea d3 d7 3d 4d 1a e0 bd d2 c6 98 3d
       -0.14442459 0.10538466 -0.109425165 0.07459797
000070 33 d1 03 3e 3a 80 91 3d d2 b4 99 3d 1f 4e 2c 3e
       0.12872772 0.071045354 0.07505192 0.16826676

conv2.weight f4 [32, 32, 5, 5]
000000 54 00 47 3c a1 ef 05 3d 10 ae a5 3b 21 30 8a bc
       0.012146074 0.03269923 0.0050561503 -0.016868653
000010 28 ea c1 3b be 23 9b 3c c0 91 0a bb 46 04 f1 3c
       0.005917806 0.018937942 -0.0021144003 0.029420983
000020 2a 2a cc bc 08 1f bd bb b0 d4 38 bc bc 93 e2 bc
       -0.02492245 -0.0057715215 -0.011281177 -0.027658336
000030 a4 e0 fa bb e1 48 01 3d 44 0c 7f 3c 5e 29 b3 3c
       -0.007656174 0.031563643 0.015566889 0.021870311
000040 d8 71 c4 3c b6 d8 b6 3c 15 73 e3 bc 2a 0e 2c bc
       0.023980066 0.022320133 -0.027764836 -0.010501424
000050 c0 74 91 ba 9d 1f 0c 3d 5a e6 6d bc 70 02 bc 3c
       -0.0011097416 0.034209836 -0.014520252 0.022950381
000060 fd 5b b6 bc bb 17 03 3d 3a c5 08 bc 28 97 80 3c
       -0.02226066 0.032005053 -0.008347804 0.015697077
000070 52 ec 6f bc aa 45 36 bc 34 38 f0 bb 00 f8 ad 3c
       -0.0146437455 -0.011125008 -0.0073309187 0.02123642
000080 04 bb 86 bb 38 de 48 3c 6c 78 91 3c df 6a 03 3d
       -0.0041116495 0.012260012 0.017757617 0.032084342
000090 b0 6d 7f bb a0 37 18 3b 12 9c 8a 3c 80 46 55 ba
       -0.003897529 0.0023226514 0.016920123 -0.00081358105
0000a0 5a ad bc 3c 00 ce 62 b9 dd b8 9a bc 70 3d 2a 3b
       0.02303188 -0.0002162978 -0.018886978 0.002597656
0000b0 9f e9 0f 3d f4 d4 ad 3c d0 d4 99 bc d6 96 93 3c
       0.035134908 0.021219708 -0.018778235 0.01801626
0000c0 98 38 c5 bb 0e 1d b9 bc 30 aa db 3c f8 44 9d 3c
       -0.0060187094 -0.022596862 0.02681455 0.019197926
0000d0 50 92 10 bd be 05 7d bc fa bf f3 3c 3f 89 fd bc
       -0.035295784 -0.015443264 0.029754627 -0.030949233
0000e0 9a b2 f0 3c 54 c9 5a 3c f4 1b bd 3c be 59 ff bc
       0.029382039 0.013353664 0.023084618 -0.031170722
0000f0 90 c5 5c bb 84 a3 68 3c 60 17 d4 bc 2a 3e de 3c
       -0.0033687092 0.014199141 -0.025890052 0.027129252
000100 c7 a0 0a 3d 54 60 c8 bb c0 1a 32 3b 05 be 9f bc
       0.033844735 -0.006114999 0.0027176589 -0.019499788
000110 e8 ac cd 3b 70 6c 02 3b 7d 5c 98 bc 70 ee e0 bc
       0.0062767155 0.001990106 -0.01859879 -0.027457446
000120 22 36 f7 3c 58 92 2c 3c f0 63 22 3c 6d e1 06 3d
       0.03017718 0.010532938 0.009911522 0.032929827
000130 9e f9 d8 3c 9b 08 0c bd d4 d7 a9 bc 74 50 a1 bb
       0.026486214 -0.034187894 -0.020732798 -0.004922921
000140 4d 5a 0c 3d 92 b1 92 3c 78 4e 70 bc f2 3b b4 bc
       0.034265805 0.017906938 -0.014667146 -0.02200124
000150 22 1e f4 3c b0 3d 98 bc fd 43 8e bc e0 9d ba bb
       0.029799525 -0.018584102 -0.017366404 -0.0056950897
000160 c2 5d 60 bc d0 17 d2 bb 8e 83 e4 bc 10 42 69 bb
       -0.013694229 -0.00641153 -0.027894761 -0.0035592355
000170 58 de 96 bc 4c 5d 3f bc 4e 24 c7 bc 58 b5 a5 3c
       -0.018416569 -0.011679959 -0.024309304 0.020228073
000180 fc d6 01 bc ee a0 97 3c 80 64 c2 bc de 5e 8a 3c
       -0.007924791 0.018509354 -0.023729563 0.01689094
000190 f8 0a 06 bd 83 3f 08 3d 7a 8c ed bc 82 89 b9 bc
       -0.032725304 0.033263694 -0.028997649 -0.022648577
0001a0 a9 2b a7 bc 92 44 a6 3c b4 31 2b 3c a4 42 48 bc
       -0.020406561 0.020296369 0.010448862 -0.01222292
0001b0 82 79 e9 3c f9 84 04 3d 39 a4 fc bc d6 23 b7 3c
       0.028500322 0.032353375 -0.030840026 0.022355955
0001c0 10 4a 85 3b 5c 31 2b 3c 80 c4 b0 3b 14 15 07 bd
       0.004067667 0.01044878 0.0053945184 -0.032979086
0001d0 d0 b4 10 3b b4 d0 b6 3c 8e 25 97 bc 92 95 f8 3c
       0.002208043 0.022316314 -0.018450525 0.030344758
0001e0 38 1c b4 3b 48 23 27 3c b0 bc 77 3b be 5f 4b bc
       0.005496528 0.010201283 0.0037801675 -0.012412963
0001f0 56 19 e3 3c 00 dd 07 39 80 c2 0e ba c2 6e 3c bc
       0.027722042 0.00012956932 -0.0005445853 -0.011501016
000200 8e 08 fd 3c 78 f5 80 bb d8 bc c4 3b 59 54 c4 bc
       0.030887868 -0.003935512 0.0060039572 -0.023966001
000210 a0 64 a1 ba 47 94 fd bc ce fe c7 3c b4 aa 07 bc
       -0.0012313314 -0.030954493 0.024413493 -0.008280445
000220 a4 62 23 bc bc 37 bc bc 78 6e 33 3c 0e f5 d0 bc
       -0.009972248 -0.022975795 0.010951631 -0.025507476
000230 3c bc d3 3c 54 9b 9d 3c 64 bf 01 3c 2a 33 90 3c
       0.025846593 0.019239105 0.007919166 0.017602522
000240 20 f7 b6 ba 42 c9 87 3c c0 a8 78 3a 44 f0 82 bc
       -0.0013959147 0.01657546 0.0009485595 -0.015983708
000250 a8 99 d5 3b fe 35 dc bc 4a 69 e4 bc f8 7f d7 bc
       0.0065185614 -0.026881214 -0.027882237 -0.026306137
000260 b0 e1 04 bb 70 7d 87 3c 78 89 33 3c 2e 39 9f 3c
       -0.0020276122 0.016539305 0.010958068 0.019436445
000270 bf 54 00 3d 28 71 db 3c 9e 4f 69 bc 7b e8 09 3d
       0.03133082 0.026787356 -0.014240174 0.033668976
000280 8c 04 90 3c 20 97 f0 3a 60 be aa 3b db fd 06 bd
       0.017580293 0.0018355586 0.0052106827 -0.03295694
000290 40 b7 62 3a c0 0a e2 bc 2c 1e d5 bc 36 9b af 3c
       0.0008648522 -0.027593017 -0.026015364 0.021436315
0002a0 6e ad f1 3c 08 eb ae bc 60 11 04 3c b4 0c 8e 3c
       0.029501643 -0.021352306 0.008060783 0.017340042
0002b0 01 1d 0c 3d 57 54 9a bc ce a4 b5 bc 8d 91 05 3d
       0.034207348 -0.018839044 -0.022173312 0.03260951
0002c0 20 e2 ce bb 8c 0d b5 3c 31 07 d1 bc c0 b1 60 3b
       -0.0063135773 0.022101186 -0.025516124 0.0034285635
0002d0 0e 55 db 3c 14 a5 5d bc bf af b4 bc 24 fd d6 3c
       0.026773956 -0.013528127 -0.022056459 0.026243754
0002e0 c0 76 74 bc 98 40 8a 3c 3f 55 0a 3d 0a f2 27 bc
       -0.01492089 0.016876504 0.033772703 -0.010250578
0002f0 dc 38 c7 3c 62 59 c7 3c 5a 37 3e bc 61 6a e8 bc
       0.024319105 0.024334613 -0.0116098765 -0.028371038
000300 48 b0 d6 3c 43 c5 0f 3d 41 98 fc bc 16 5b 02 bd
       0.026207104 0.035100233 -0.03083432 -0.031825148
000310 40 54 19 ba c0 4f 9d 3b b6 55 e8 3c 74 d7 8f bc
       -0.0005849041 0.0048007667 0.028361183 -0.01755879
000320 80 5a d1 ba 18 90 b0 3b b7 b8 05 bd 86 86 7d bc
       -0.0015972406 0.005388271 -0.03264686 -0.015473967
000330 d7 72 05 3d 00 79 4c bb 62 1a 83 3c 76 61 14 bc
       0.032580223 -0.0031200051 0.016003791 -0.00905644
000340 84 6e b3 bc 28 94 aa 3b 9c ce 11 bc 24 5f b0 3c
       -0.021903284 0.00520565 -0.008899357 0.021529742
000350 04 a9 cb bc 6c 80 ce bc b8 77 ef bb 0e 8d 08 bd
       -0.024860866 -0.02520772 -0.0073079728 -0.033337645
000360 06 92 f0 3c 65 c1 0e 3d d6 eb b1 bc 70 06 5e 3b
       0.029366504 0.034852404 -0.0217189 0.0033878349
000370 38 6c 91 3c fe e1 33 bc 3e cd 73 bc 82 11 7c bc
       0.017751798 -0.010979174 -0.0148804765 -0.015385034
000380 72 fe b3 bc c0 c3 95 3c 50 90 ff 3b c0 84 86 3b
       -0.021971915 0.018281817 0.007799186 0.0041051805
000390 c2 bc a9 3c 90 44 48 bb 20 c9 99 3b f6 c7 8c 3c
       0.02071989 -0.0030558445 0.0046931654 0.017185193
0003a0 6a 27 ab 3c c7 d8 08 3d 34 d8 7a 3c 60 db 4c bc
       0.020892818 0.03340986 0.015310336 -0.012503475
0003b0 00 84 19 38 a0 90 ca ba 68 0c e4 bb 02 5b 63 bc
       3.6600977e-05 -0.0015454479 -0.0069594868 -0.013876678
0003c0 d0 4d 8d bb 8b 41 f6 bc 3d 67 ad bc a6 9f f9 3c
       -0.0043122545 -0.03006055 -0.021167392 0.030471634
0003d0 8c 41 2e 3c 4e 9c bd bc 20 57 54 bb ca 5d ac bc
       0.010635745 -0.023145821 -0.0032400563 -0.021040816
0003e0 08 8e ed bc 37 53 fe bc a0 ca c5 3a aa 93 c6 3c
       -0.02899839 -0.03104554 0.0015090294 0.024240334
0003f0 30 0e b7 3b 40 74 d2 3c fc ee a2 3c 10 b5 2c 3b
       0.005586408 0.025690198 0.019889347 0.002635304

conv2.bias f4 [32]
000000 22 a0 fa bc d3 9f 0c 3d d0 15 9e bb 0e 91 66 bc
       -0.030593935 0.034332108 -0.0048243776 -0.01407267
000010 ce 6c fc 3c 10 46 07 3c 30 be 7b bb 73 e8 09 3d
       0.0308136 0.00825645 -0.003841292 0.033668946
000020 90 eb 28 3c 3f 6d 0b bd c8 64 f8 3b ec c7 31 3c
       0.010310069 -0.034039732 0.0075803734 0.010850888
000030 96 09 cc 3c 9a cb 97 3c d0 d9 dc 3c 88 56 1e 3c
       0.024906915 0.018529702 0.02695933 0.009664185
000040 1c 2d 9a 3c 7b 9f 05 3d 28 f5 cf 3b 94 a0 11 bc
       0.018820338 0.032622796 0.0063463636 -0.008888382
000050 47 fc 02 3d 00 b7 03 ba fa ee ba 3c d0 16 05 bb
       0.03197887 -0.00050245225 0.022819031 -0.0020307787
000060 1e 60 85 3c cc 74 a9 bc a0 14 4a bb b3 76 ea bc
       0.016281184 -0.020685576 -0.0030835047 -0.028621053
000070 34 d0 87 bc 11 33 94 bc a2 cf de 3c 30 ff 80 bb
       -0.016578771 -0.018090757 0.027198616 -0.0039366707

conv3.weight f4 [32, 32, 5, 5]
000000 b4 76 cc bb c0 a5 d4 3a 2a 3b a4 bc 98 18 c0 bb
       -0.0062397365 0.0016223714 -0.020047743 -0.005862307
000010 fb 94 d6 bc 9c 47 0e bd bc 65 5d 3c 78 70 e8 bc
       -0.026194086 -0.03473626 0.013513025 -0.028373942
000020 35 dc 0a 3d 5b 39 e2 bc 38 91 f5 3b aa 0f fa 3c
       0.033901412 -0.02761524 0.007494118 0.030525047
000030 f4 0e 40 3c fc 65 d8 bc 41 03 8b bc 4e 8a f7 bc
       0.011722315 -0.026415817 -0.016969325 -0.030217316
000040 10 aa 58 3c ca 9a c7 bc 9c dc ff bb 52 7c 4a bc
       0.01322414 -0.024365801 -0.007808281 -0.012358742
000050 9e 48 d9 bc ee 4b d4 bc 30 7f 28 3c 7a 33 eb 3c
       -0.026523884 -0.025915112 0.01028423 0.02871107
000060 0a f1 ea bc 60 59 68 3b ae 1a 52 bc 82 19 fd 3c
       -0.02867939 0.0035453662 -0.012823744 0.030895952
000070 2e 30 47 bc 14 77 c7 bb 04 db 2f 3c 2e 14 c5 3c
       -0.012157483 -0.0060871933 0.01073337 0.024057474
000080 5c 17 35 3c 3a 44 f1 bc b0 c9 5b bb e0 ec ab 3c
       0.011052933 -0.029451478 -0.0033536963 0.020986974
000090 1c 74 e1 bb 16 7b 04 bd 48 4c 28 bc fa 9c c7 3c
       -0.0068802964 -0.032343946 -0.010272093 0.024366844
0000a0 47 54 0a bd 19 45 00 bd 51 09 c2 bc f3 85 03 3d
       -0.03377178 -0.031315897 -0.023686083 0.032110166
0000b0 f4 84 d1 bb 54 a9 78 bc 02 95 93 3c c0 02 28 3c
       -0.006394023 -0.01517709 0.018015388 0.010254562
0000c0 cc 93 d7 bc 00 6b 3d 3b 2a da a8 bc 80 87 75 3b
       -0.026315592 0.0028902888 -0.020611841 0.0037464797
0000d0 f1 a4 8b bc dc be 98 3c 28 56 2d 3c 7d a8 0d 3d
       -0.017046424 0.018645696 0.010579623 0.03458451
0000e0 20 24 6b bc 93 46 0f 3d f0 db f9 3b 50 8b ad 3b
       -0.014351875 0.034979414 0.0076250955 0.0052961484
0000f0 a2 4d ab bc 0a ef 04 bc 2a 74 40 bc f0 4f 56 3c
       -0.020911042 -0.008113632 -0.011746446 0.013080582
000100 a0 a4 2f 3c 70 96 97 bc b8 6a 21 bc 49 bb 00 3d
       0.010720402 -0.018504351 -0.009852104 0.03142861
000110 70 89 18 bb f8 93 92 bb 00 57 e5 3b ec b7 4c 3c
       -0.0023275279 -0.0044732057 0.0069988966 0.012495022
000120 0e 7c a9 3c 8a 6e 0c bd 28 3f 8c 3c d6 a5 ee 3c
       0.020689037 -0.034285106 0.017119959 0.029131811
000130 3d b6 0d bd ca e5 eb 3c 89 5a f1 bc 78 2d bf 3c
       -0.034597624 0.028796095 -0.029462116 0.02333711
000140 23 c7 e5 bc 5a 38 ed 3c 48 fb 19 bc f8 59 0a bd
       -0.028049057 0.028957535 -0.009398289 -0.033777207
000150 42 8b 05 bd 2e 1d f6 bc ac 4f d0 bc ef 8f 00 3d
       -0.03260351 -0.03004321 -0.025428616 0.031387266
000160 70 ec 42 bb ac f3 64 3c d3 e3 0a 3d 32 41 e7 3c
       -0.0029742979 0.0139741115 0.033908676 0.02822933
000170 50 f7 71 bb a0 e3 60 3c be cd 93 3c e8 d4 6b bc
       -0.0036921091 0.013726145 0.018042441 -0.0143940225
000180 c6 c2 21 bc a8 20 ce bc a2 99 02 bd 0a e9 96 3c
       -0.009873098 -0.025162056 -0.031884797 0.018421669
000190 0f cd 8e bc 00 d3 a2 ba 04 71 77 3c 98 db c4 3b
       -0.017431764 -0.0012422502 0.015102629 0.006007623
0001a0 00 10 75 3b ce b7 ad bc 06 eb c6 3c d2 f1 ba 3c
       0.003739357 -0.021205809 0.02428199 0.022820387
0001b0 16 74 9e 3c 10 fe 5a 3b 94 79 08 bc 5c 58 03 bd
       0.019342463 0.0033415593 -0.008329768 -0.032066688
0001c0 00 0b 72 3b c9 6c bd bc 70 3a 92 3c 02 e2 85 3c
       0.0036932826 -0.023123162 0.01785013 0.01634312
0001d0 24 ca d0 bc 70 8f 61 bc be dd bf 3c 6d d7 86 bc
       -0.025487013 -0.013767108 0.023421165 -0.016460145
0001e0 20 cf 9d 3a f9 c5 e3 bc f4 89 07 bd a6 33 0c bc
       0.0012039877 -0.027804362 -0.033090547 -0.008557236
0001f0 d0 36 b1 bb ac df 14 3c 38 13 fe bc 2c b4 5e 3c
       -0.0054081455 0.009086531 -0.031015024 0.013592761
000200 1c 53 82 3c 48 f1 d6 3c ca 00 fc 3c 51 8f 07 3d
       0.01590877 0.026238099 0.030762095 0.03309566
000210 5c 4d 70 3c 5c 99 f6 bb 10 63 a3 3c a4 a2 24 bc
       0.014666881 -0.007525606 0.019944698 -0.010048542
000220 14 e3 2a 3c 20 3f c8 3a c4 75 ef bc 56 89 6c bc
       0.010430116 0.0015277602 -0.02923096 -0.01443704
000230 4a 41 f7 3c b4 7f a5 3c 95 43 8a bc f9 13 85 bc
       0.0301825 0.020202495 -0.016877929 -0.016244875
000240 ae 68 0d bd f7 7b 84 bc 3c ba 1f 3c dc ae e4 bb
       -0.03452366 -0.016172392 0.009748992 -0.0069788527
000250 b8 c0 f9 3b c8 f9 af 3c fa 2a bf bc 00 bf 32 3c
       0.007621851 0.02148141 -0.023335923 0.010909796
000260 94 76 0d bd 78 ff 08 3c ec 1e c2 3c e8 27 0c bc
       -0.034536913 0.00836169 0.023696385 -0.008554436
000270 9a 8e 3d bc 74 5a c6 bc 75 ce 0f bd 52 0d 41 bc
       -0.011569643 -0.024213053 -0.035109002 -0.011782961
000280 f8 6a ab 3c 82 8e fb bc fe 9b df 3c b4 f0 3b 3c
       0.02092503 -0.030707601 0.027296063 0.011470962
000290 50 75 0a 3b e9 00 0e bd aa a2 f9 3c 04 3a 39 3c
       0.0021127053 -0.034668837 0.030473072 0.011305336
0002a0 38 59 b7 bb 92 b8 7d bc 70 de 48 bc 00 ae c7 3b
       -0.0055953525 -0.0154858995 -0.0122600645 0.0060937405
0002b0 9d 70 0f bd 0a 06 f0 3c 31 af 0b 3d 0e 6c 3c bc
       -0.035019506 0.029299755 0.034102622 -0.011500372
0002c0 dc 93 09 bc 3a 8e 4c bc f8 3c 88 3c fc 74 c9 bc
       -0.008397069 -0.012485081 0.016630635 -0.024591915
0002d0 e4 ac 31 3c ac 68 d2 bc e4 30 94 3c 19 1b 9b bc
       0.010844443 -0.025684677 0.01808972 -0.01893382
0002e0 70 dc 90 bc 24 fb 09 bd 62 38 22 bc 33 b4 07 3d
       -0.017683238 -0.033686772 -0.009901138 0.033130836
0002f0 40 d4 c4 3b 98 6f 60 3c 8b 51 e7 bc a0 81 f9 3b
       0.0060067475 0.013698481 -0.028237125 0.0076143295
000300 bb f6 07 3d 96 ba f8 3c 18 57 dc bc b0 40 1c 3b
       0.033194285 0.030362409 -0.026896998 0.0023842268
000310 38 78 cf bc 4c 05 48 bc 29 d4 ac bc ce 28 b2 bc
       -0.02532588 -0.012208294 -0.02109726 -0.021747973
000320 e8 ba 2b 3c 04 b2 3e 3c 40 3f 3a 3b fd 9f 04 3d
       0.010481574 0.011639122 0.0028419048 0.03237914
000330 00 7d 37 3c 60 9e 0c bb 20 4d ab 3b b8 db 22 3c
       0.011199236 -0.0021456704 0.0052277 0.00994008
000340 04 f9 b6 3c 8c b7 39 bc e9 35 10 bd 7e 9e 10 bd
       0.022335537 -0.011335265 -0.035207663 -0.0353074
000350 48 50 64 3c d4 aa 57 bc 62 db 85 3c 00 a5 6c 3b
       0.013935156 -0.013163287 0.016339961 0.003610909
000360 5a 1d 50 bc 91 db 0c bd a9 fc 01 3d 82 a4 a3 3c
       -0.01270231 -0.034389082 0.031735096 0.019975904
000370 c0 6c 7b 3c b0 70 9d 3b e8 a6 87 bb 88 70 ab bc
       0.015345752 0.004804693 -0.00413977 -0.020927683
000380 a0 b2 a3 3b 2c ce 05 bd 50 76 a7 3c ba 5d bc bc
       0.004995659 -0.032667324 0.020442158 -0.022993911
000390 6c e4 a3 bc d8 40 5a 3c d6 21 07 bd 46 c3 92 3c
       -0.020006381 0.013321124 -0.032991253 0.01791538
0003a0 bf 42 f5 bc 7a 0d 03 bd 2c 7e c5 3c 6a e7 a6 3c
       -0.029939054 -0.031995274 0.024108015 0.020374019
0003b0 9b dc f1 bc 4c 84 dc bc f2 96 f6 3c fe 60 e1 3c
       -0.029524138 -0.026918553 0.030101273 0.02751207
0003c0 16 c9 ac 3c a9 e9 85 bc 10 f7 bb 3c cc d8 bd 3c
       0.021091979 -0.01634677 0.022944957 0.023174666
0003d0 b3 3d 07 bd 80 7c a6 ba 4a cd be 3c ee e0 c6 bc
       -0.033017825 -0.0012701899 0.023291249 -0.024277177
0003e0 7e 76 bc 3c a0 b6 c2 3b be 5b e3 3c 66 72 89 3c
       0.02300572 0.0059421808 0.027753707 0.016778182
0003f0 d6 cb f2 3c 64 27 75 3c 58 0d 74 bc 8a 43 43 bc
       0.029638212 0.014963005 -0.0148957595 -0.011917958

conv3.bias f4 [32]
000000 12 93 0e bc 40 ea a8 3a 28 64 08 bd 87 a3 02 3d
       -0.0087020565 0.0012887195 -0.03329864 0.031894233
000010 ea 5d 07 bd ee f3 c7 3c 30 c4 d1 3b ff e9 9a bc
       -0.033048548 0.024408307 0.006401561 -0.018910406
000020 98 ca f5 3b 02 ae e5 3c 40 e4 ad 3b 52 61 5f bc
       0.0075009577 0.028037075 0.0053067505 -0.013634043
000030 64 4c ca bc 00 5f 8c ba 48 19 f4 3b 72 5f e0 3c
       -0.024694629 -0.0010709465 0.007449303 0.027389262
000040 f2 12 84 3c 10 0f e0 3b 48 e0 b3 3c 90 e6 16 3b
       0.016122315 0.006837733 0.021957532 0.002302561
000050 68 23 ad 3c a2 80 ab bc 59 86 06 3d 7b 9f 0c 3d
       0.021135047 -0.02093536 0.032842968 0.03433178
000060 f0 60 35 3b 1b 8b 98 bc 4e a8 f5 3c 8d 26 e7 bc
       0.0027676187 -0.018621018 0.02998748 -0.028216625
000070 5d 9b a0 bc c6 a0 fc 3c 18 67 c4 3c 44 68 40 bc
       -0.019605333 0.030838381 0.02397494 -0.011743609

MLP1.weight f4 [50, 1344]
000000 e0 9e 96 bc d3 2a d0 3c 44 94 ae 3b 5c 9b c3 bb
       -0.018386304 0.025411045 0.0053277332 -0.005969448
000010 85 a3 db 3c 6c 96 85 bb 8e 99 6e 3c b2 c9 ce bc
       0.02681137 -0.0040767696 0.0145629775 -0.02524266
000020 ec 7b d3 bc 9f 45 93 3c c6 46 14 3c e6 7f ae bc
       -0.025815926 0.017977534 0.009050077 -0.021301221
000030 1a d2 12 3c 06 39 ae bc 00 de cd b8 92 fa 57 3c
       0.008961225 -0.021267425 -9.8165125e-05 0.013182299
000040 34 65 c1 3b 60 00 0b ba 88 96 11 3b 30 60 67 bb
       0.005901957 -0.0005302485 0.0022214968 -0.0035305135
000050 c4 de 60 bc 37 bc 97 3c d5 ef cc 3c 00 5b a9 ba
       -0.013724986 0.018522365 0.025016705 -0.0012920797
000060 7c 18 a4 3b 2b f1 85 3c 64 b3 b0 3b 28 7f c2 bb
       0.0050078016 0.01635035 0.005392479 -0.0059355684
000070 2b ff b1 3c 89 19 ca 3c 4c 39 fa 3b aa 9e 7c 3c
       0.021728119 0.02467038 0.007636225 0.015418688
000080 5e 1e 47 3c cb b0 b5 3c 01 6c c8 bc 72 d8 67 3c
       0.012153236 0.022179028 -0.024465563 0.014150726
000090 a0 9b fb bb be 8d 03 3c 00 60 7c 3a 38 61 b5 bb
       -0.007678464 0.008029399 0.0009627342 -0.005535271
0000a0 78 d9 51 bb f1 fe d0 3c 64 1c b1 3b b7 90 68 bc
       -0.003202049 0.02551219 0.0054049958 -0.014194659
0000b0 a3 4d c3 3c 46 44 58 3c 8c 1e eb bb 88 67 b1 bb
       0.023840731 0.013199871 -0.0071752723 -0.005413953
0000c0 92 e5 3d bc 26 0c 06 3c ce ec 38 bc c6 3a a8 bc
       -0.011590378 0.008181607 -0.011286927 -0.020535838
0000d0 08 6d 77 3b 5c 44 b7 bb 48 b4 0b bb c8 09 47 3b
       0.0037754197 -0.005592866 -0.0021317173 0.003037082
0000e0 f8 bb 83 bb d3 5e ab bc 7d bc 9c 3c dc 22 c6 3b
       -0.0040202104 -0.02091924 0.019132847 0.006046636
0000f0 ec d9 b1 3b 30 44 f8 bb be 5d 52 3c 62 bf 40 3c
       0.0054275896 -0.007576488 0.012839733 0.011764379
000100 48 94 f4 bb a1 60 9c 3c d2 07 1a 3c 49 53 de bc
       -0.0074639656 0.019089045 0.009401279 -0.027139323
000110 30 89 cc 3a 62 05 1d 3c 50 19 e2 bb 6c 16 c1 3b
       0.001560485 0.009583803 -0.00689999 0.0058925655
000120 30 af 1c bb a5 a8 aa 3c 3c a3 b6 bb 64 1a f7 bb
       -0.002390813 0.02083237 -0.0055736583 -0.007540988
000130 cb 51 a8 3c 80 d0 99 39 5e dc 45 3c 20 90 32 ba
       0.020546814 0.0002933778 0.012076465 -0.00068116374
000140 00 18 b2 38 86 7d 06 3c 12 40 40 3c f2 df ad bc
       8.492172e-05 0.008208638 0.011734026 -0.02122495
000150 77 e4 89 3c af 83 d2 bc 22 72 1f 3c cd 44 cd 3c
       0.016832573 -0.025697557 0.009731801 0.02505722
000160 48 6b 70 bb 5c f4 8a 3b 7a 0d c1 bc ad 04 88 bc
       -0.0036685038 0.0042405557 -0.023565996 -0.016603792
000170 a1 0c a6 bc 6e b9 23 3c 65 4c c2 3c 9a b4 7e 3c
       -0.020269694 0.00999294 0.023718068 0.015545988
000180 90 2b fe 3a a6 2f 4b 3c c4 5e 92 3b 68 8f 81 bb
       0.0019391645 0.012401497 0.0044668633 -0.003953863
000190 54 04 b2 bb e0 c8 05 ba 5a 7a 33 bc b5 9a d4 3c
       -0.005432645 -0.000510348 -0.010954464 0.025952676
0001a0 64 b7 9e bc 63 fd 98 bc 16 48 90 bc 6e d9 84 bc
       -0.019374557 -0.018675512 -0.017612498 -0.01621696
0001b0 da a8 12 bc 68 7c a7 bc f0 bb a4 bb 70 b6 fb 3a
       -0.00895139 -0.020445064 -0.0050272867 0.0019204151
0001c0 63 0c 9d 3c 84 76 f5 3b bb 1e d2 3c 06 39 5a bc
       0.019170946 0.007490935 0.025649419 -0.0133192595
0001d0 4f 3b c7 3c 97 ec d7 3c 10 a4 47 bb 35 a9 6e bc
       0.024320273 0.026357932 -0.003046278 -0.014566709
0001e0 74 89 c9 bc 52 94 4d bc 9a 6b 2a 3c 38 ca 05 bb
       -0.024601676 -0.012547569 0.010401631 -0.0020414721
0001f0 64 67 63 bc 26 34 23 bc c4 be 9a bb d5 c1 a0 3c
       -0.013879631 -0.009961164 -0.004722448 0.019623676
000200 71 60 48 bc fb 17 d4 bc 60 6c c5 ba b4 f2 e6 bb
       -0.012230025 -0.025890341 -0.0015062205 -0.0070479754
000210 08 1f 98 bc 75 05 99 3c 66 64 72 3c a5 6e 8c 3c
       -0.018569484 0.01867936 0.014794445 0.017142603
000220 1d f9 95 bc e6 11 73 3c c0 d0 cf ba bf 6b a9 3c
       -0.018307263 0.01483581 -0.0015855059 0.02068126
000230 e9 6d 8d 3c a0 fe f1 3a 40 f6 bf 3a 6d 0a 80 3c
       0.017264323 0.0018462725 0.0014645532 0.015629971
000240 64 d0 d3 bb 46 9b 58 3c ea 59 5c bc b0 83 7d bb
       -0.006464051 0.013220614 -0.013449172 -0.0038683228
000250 f0 ff fd 3a 16 f5 c8 bc d5 e3 83 bc d7 1a 8e 3c
       0.0019378643 -0.024530929 -0.01609985 0.017346783
000260 75 5b 7e bc a0 c6 9f bb 3c 7b e4 3b aa 12 66 3c
       -0.015524735 -0.004875973 0.0069726985 0.014042536
000270 a7 dd 95 bc 42 9b 1a bc b5 f9 a6 3c 88 7a 3a 3b
       -0.018294169 -0.00943643 0.020382741 0.0028454382
000280 c9 13 9a 3c c3 5e a8 3c 1a da 2e 3c 92 2d 2d 3c
       0.018808262 0.020552998 0.010672117 0.010569947
000290 2c dd a8 bc ad f1 ae bc d6 e1 23 3c 00 dd ce 39
       -0.020613275 -0.021355474 0.010002574 0.0003945604
0002a0 7f 1f a6 bc af 27 b4 3c 40 67 66 bb e1 65 dc 3c
       -0.02027869 0.021991579 -0.0035156757 0.026904048
0002b0 d4 e7 c6 3b 98 6f a3 bc c8 ba e0 bb aa fb 1f bc
       0.0060701165 -0.019950673 -0.0068582036 -0.009764591
0002c0 62 5d 0b 3c 1a aa 69 3c ff 7a d3 3c 58 de 82 bc
       0.008506151 0.014261747 0.025815485 -0.015975162
0002d0 07 47 cc 3c 0e bc a0 bc 52 0d db bc 40 63 bb 39
       0.024936212 -0.019620921 -0.02673975 0.00035741366
0002e0 d4 fd b2 bc 20 eb d1 bb b5 17 3f bc c9 96 a5 3c
       -0.02184955 -0.006406203 -0.011663367 0.020213502
0002f0 10 70 be ba 42 1e 6c 3c 2f cb d9 bc 07 10 90 3c
       -0.0014529247 0.014411511 -0.026586143 0.017585767
000300 80 21 cc 3a 95 81 9c 3c 29 9c a6 bc b2 9e 86 bc
       0.0015573949 0.019104758 -0.020338135 -0.016433094
000310 64 fb b0 3b 68 56 c3 bb b6 72 25 3c 08 cf 9a bc
       0.005401062 -0.005961228 0.01009815 -0.018897548
000320 f1 16 a1 3c 00 4a 25 b8 f6 d9 3e bc cc 4f 4d bc
       0.01966426 -3.9407983e-05 -0.011648646 -0.012531232
000330 0f 33 93 3c 00 1d 1b bb 38 db cd bc 88 73 88 bc
       0.017968683 -0.0023668408 -0.025128946 -0.016656652
000340 1a 6e 87 bc 6e 8c a4 bc ae a9 07 3c 28 4b 7e bc
       -0.016531993 -0.020086493 0.008280201 -0.015520848
000350 80 30 70 b9 fb 14 c5 3c 64 6d e0 3b 99 51 8d 3c
       -0.00022906251 0.024057856 0.006848978 0.017250823
000360 07 1d d4 3c 00 67 cd b9 f6 d8 4e 3c b0 63 a3 ba
       0.025892748 -0.00039177388 0.01262497 -0.0012465622
000370 44 5c 8b 3b 8c 2c 7c bc df a0 a1 3c 46 30 31 bc
       0.0042529423 -0.01539148 0.01973003 -0.010814732
000380 18 c7 14 bb c0 9a c6 bb 6f b5 c2 bc d9 e6 c8 3c
       -0.0022701677 -0.006060928 -0.023768155 0.02452414
000390 da b2 02 3c 54 f0 c9 3b 6d 55 b9 3c 76 e9 7d 3c
       0.007977212 0.0061626825 0.022623742 0.015497556
0003a0 90 d8 ca 3a 19 6f db 3c 06 ec 04 3c be 02 bd bc
       0.0015475918 0.026786374 0.008112913 -0.023072597
0003b0 b3 22 87 3c 6c e6 3b bc fd 61 d3 3c 2e 87 5b 3c
       0.016496038 -0.011468511 0.02580356 0.013398929
0003c0 93 0e a4 3c 8f 3b da 3c f1 9c b6 bc 63 dd 80 3c
       0.02002648 0.026639728 -0.022291632 0.015730565
0003d0 40 df 08 3b 70 af db 3a a0 02 31 3b 88 e7 29 bb
       0.002088502 0.0016760658 0.0027009621 -0.0025925357
0003e0 e3 ca 85 3c 3f 69 64 bc 0a b7 56 3c bc 10 b5 bb
       0.016332095 -0.013941108 0.013105163 -0.0055256765
0003f0 6a 72 6f bc 64 57 84 bc bc ec 88 bc 34 78 30 bc
       -0.014614681 -0.016154952 -0.016714446 -0.010770846

MLP1.bias f4 [50]
000000 0f e9 8f 3c 60 15 b9 bb f6 d7 2f 3c 2b 64 a1 3c
       0.017567186 -0.0056483 0.010732641 0.019701084
000010 4e f2 62 3c 90 a6 23 bc 26 be 6b bc b6 cd 56 3c
       0.013851715 -0.009988442 -0.014388597 0.013110569
000020 f4 69 f0 bb 4e d8 39 3c 55 94 83 bc a5 b1 ce bc
       -0.0073368493 0.011343075 -0.016061941 -0.025231192
000030 4e c4 9d bc c1 2f de bc 1d 7c 80 bc 2c 74 a6 3b
       -0.019258644 -0.02712238 -0.015684182 0.0050797667
000040 1a 02 44 3c dd 4c d1 3c 95 79 ac bc d2 85 09 3c
       0.011963392 0.025549347 -0.021054069 0.008393722
000050 76 94 11 3c ed f9 cf bc 40 80 bb bb 10 74 c0 bb
       0.0088854935 -0.025387729 -0.0057220757 -0.0058732107
000060 da d6 66 bc b9 91 ae 3c 8f 46 b5 bc 10 49 0b bc
       -0.014089311 0.02130972 -0.022128372 -0.008501306
000070 48 04 a0 bc d8 0d 5a 3b 37 eb d6 bc 4f d7 9e bc
       -0.019533291 0.0033272412 -0.026235206 -0.019389777
000080 1a dd 07 3c c9 31 d5 3c 0d 00 9f 3c 8a c1 35 3c
       0.008292461 0.026024716 0.019409204 0.011093507
000090 04 87 05 bc 21 82 93 bc f3 dc d8 bc a2 81 b5 bc
       -0.008149866 -0.018006386 -0.026472544 -0.02215654
0000a0 00 12 6c b8 00 32 ec b8 b8 41 41 3b 47 cd b7 3c
       -5.628355e-05 -0.0001126267 0.0029488634 0.022436751
0000b0 36 81 8e bc bf 50 cb bc 40 01 36 3a e6 a7 bd bc
       -0.017395597 -0.024818776 0.0006942935 -0.02315135
0000c0 c4 53 bf bb a4 60 b1 3b
       -0.005838843 0.005413132

MLP3.weight f4 [50, 50]
000000 40 e4 ff 3c dc de 49 3d a6 aa fc 3d c0 91 2a 3b
       0.031236768 0.0492848 0.12337236 0.0026026815
000010 c1 5c c4 bd c4 09 fd bd 30 ec 23 bd 13 55 02 3e
       -0.09588004 -0.12355378 -0.040020168 0.12727766
000020 24 e2 49 3d e9 23 0c be c1 d5 0e be d6 95 49 bd
       0.04928793 -0.13685574 -0.13948728 -0.04921516
000030 40 13 0a 3d 16 b9 ca 3d d2 10 c0 bd 47 b9 0e be
       0.033709764 0.098985836 -0.09378208 -0.13937865
000040 20 e0 49 bc f8 df 71 3d 10 b1 ac 3c ea 8d ce bd
       -0.012321502 0.059051484 0.021080524 -0.10085662
000050 02 e1 8f 3d f8 26 8d 3d 50 e5 20 3d 3e fd 90 3d
       0.07025339 0.06892198 0.03928119 0.07079552
000060 b3 76 06 be 60 25 c8 bb ae a5 9d 3d 88 40 0b be
       -0.13131218 -0.006107971 0.076976165 -0.13598835
000070 fa 24 95 3d 33 86 02 be 80 c2 b2 3c 04 91 02 be
       0.07282443 -0.12746505 0.02182126 -0.12750632
000080 52 12 ec 3d 00 bf af 3c ed 9a 0c be 9a bd d6 bd
       0.11526932 0.02145338 -0.13730974 -0.104853824
000090 37 cb 00 3e 20 95 83 bb 7c e6 ac bc a2 02 c5 bd
       0.1257752 -0.00401558 -0.021105997 -0.09619643
0000a0 cc 09 d4 bd d0 b3 ac bc 30 f7 c3 bd d5 10 03 3e
       -0.10353431 -0.021081835 -0.09568632 0.1279939
0000b0 70 3f dd bc e4 da e6 bd 50 d2 ed 3c e0 ae ba 3d
       -0.027007788 -0.11272219 0.029030949 0.09115386
0000c0 5c 2b 4e 3d 6c e6 9c 3d fd a3 8d bd e8 7c af 3c
       0.05033432 0.07661137 -0.06916044 0.021421865
0000d0 4e 12 8e bd 0e 81 b9 bd 2c 6f 22 3d d0 04 0b 3c
       -0.06937085 -0.09057818 0.039656803 0.008485034
0000e0 00 bb 48 ba c8 fb 3d 3d 12 68 f3 3d e2 93 a6 3d
       -0.00076572597 0.046382695 0.11885084 0.08133675
0000f0 80 01 f0 bc 28 1c db 3c 26 3e f2 3d 84 48 c8 bd
       -0.02929759 0.026746824 0.1182826 -0.09779456
000100 de 0e 4f bd f0 3f 3a bc 53 ba 95 bd 98 05 c2 3c
       -0.050551288 -0.011367783 -0.07310929 0.023684308
000110 98 39 4a 3d de ca f5 3d 82 46 b5 bd 74 dd 73 3d
       0.049371332 0.120015845 -0.08851339 0.059537366
000120 a0 fb fe 3b e9 a0 98 bd c0 a1 2e bc da 9d 8c 3d
       0.007781461 -0.07452566 -0.010658681 0.06866045
000130 6a e7 f8 3d 8e 35 ce bd 6a 33 b2 bd f0 57 05 3c
       0.12153514 -0.100688085 -0.08701213 0.008138642
000140 20 57 de bb dc 21 02 be 50 d5 ba bd 80 09 f9 ba
       -0.0067852885 -0.12708229 -0.091227174 -0.0019000024
000150 ce b8 c7 3d ca 3c f4 3d 06 5a 78 bd 5a b7 ee 3d
       0.097520456 0.11925657 -0.060632728 0.11656065
000160 20 c2 f5 bc a0 0d ac 3d 44 60 48 bd b8 b8 2c 3d
       -0.029999793 0.08401036 -0.04891993 0.04216835
000170 f4 b0 11 bd 00 0d 89 3c 80 4d d4 3c d1 a1 c9 bd
       -0.035569146 0.016729832 0.025915861 -0.09845317
000180 07 d3 e2 bd e4 d9 d6 3d ae 67 e8 3d 80 53 29 3d
       -0.110754065 0.10490778 0.113479 0.041339397
000190 e4 7e 8f 3d f8 c7 85 3d f3 40 80 bd de 4f d9 3d
       0.07006624 0.06532282 -0.06262388 0.106109366
0001a0 3f 0f ae bd 11 93 0b 3e 9e bb f1 3d 97 1a 9f bd
       -0.08499002 0.1363032 0.11803363 -0.077687435
0001b0 b4 9f b7 3d b0 9f a0 3d b8 db 0b 3d 43 95 00 3e
       0.08966008 0.07842958 0.034145087 0.12556939
0001c0 d3 36 03 3e 48 86 8d bc c8 ae d2 3d ae c6 a9 3d
       0.12813883 -0.017275944 0.10287243 0.08289848
0001d0 d7 ad ba bd 48 5e 28 3d 40 84 4a bc 00 f6 55 3d
       -0.091151886 0.04110554 -0.012360632 0.052236557
0001e0 62 43 7d bd 1a 7a e9 3d 80 82 09 be f0 68 54 3c
       -0.06183184 0.11400242 -0.13428688 0.012964472
0001f0 a4 3a 9e 3d ba f0 a3 bd 13 e0 00 be c0 f6 fd bd
       0.077260286 -0.08004899 -0.12585478 -0.124005795
000200 82 5d 59 bd 78 c7 a8 3c 44 35 47 3d e2 fe dc bd
       -0.05306769 0.020602927 0.048634782 -0.107908025
000210 00 dd a9 3b fc c7 bf bc 00 0c c8 3c 9e d1 cc bd
       0.005183816 -0.02341079 0.024419785 -0.10000919
000220 20 4c 40 bc e6 61 72 bd a2 b2 ea 3d f0 8b b4 bc
       -0.0117369 -0.059175394 0.11459853 -0.022039384
000230 c0 5b f4 3b 12 ee f9 3d d0 47 79 3d 7d f0 02 3e
       0.0074572265 0.122036114 0.0608595 0.12787051
000240 5c 77 9e bc 8e cf c3 3d 9c f8 2f 3d 40 2e d5 bc
       -0.019344024 0.09561072 0.0429617 -0.02602303
000250 12 89 e4 3d c0 37 44 3c a4 53 40 3d b6 1b af bd
       0.111589566 0.011976182 0.046954766 -0.08550207
000260 10 52 4f 3d 6c 3b 6c 3d 7a 66 9a bd c6 68 21 bd
       0.05061537 0.057673857 -0.07539077 -0.03940656
000270 04 dc 0c 3d e9 42 d7 bd e2 dc da bd d0 e3 47 bc
       0.03438951 -0.10510809 -0.10686661 -0.012200311
000280 1a a8 19 bd 1a 70 b0 3d 8a 90 96 3d c0 08 66 bb
       -0.03751383 0.08615132 0.073517874 -0.003510043
000290 fc 25 77 3d 44 49 aa bd d8 9b 0c be c2 d1 08 be
       0.06033896 -0.083147556 -0.13731325 -0.13361266
0002a0 60 ef d1 bc e0 2b fd bd bc 3b 81 bd 20 a9 28 bc
       -0.025626838 -0.12361884 -0.063102216 -0.010294229
0002b0 70 22 a1 bd dc bc 68 3d 66 d0 4a bd bb 8c 0e 3e
       -0.078678966 0.056820735 -0.04951515 0.13920872
0002c0 a6 a4 3d bd 7e 11 a3 3d 90 c5 7d 3c 9a 3e 10 be
       -0.0462996 0.07962321 0.015488997 -0.1408638
0002d0 bc 0c a3 bd ca cf bf bd 3b 0b e7 bd 60 1d 93 3d
       -0.07961413 -0.093658045 -0.11281439 0.07183337
0002e0 b8 6e 03 be d2 0c 8a 3d b6 2a ce bd a0 51 d8 bb
       -0.12835205 0.067407265 -0.1006674 -0.0066015273
0002f0 b8 07 96 3c ad c0 06 be 60 63 b0 bc 20 a2 e0 3c
       0.018314227 -0.13159437 -0.02153176 0.027421057
000300 79 b7 b3 bd f0 3e 46 bc 01 6b e2 bd da c9 a1 bd
       -0.08775229 -0.012099966 -0.110555656 -0.07899828
000310 74 56 6c 3d b0 c9 58 3c 32 74 b7 bd f9 04 08 3e
       0.057699636 0.01323168 -0.08957709 0.13283147
000320 0d d7 b5 bd c8 03 c3 3c a2 de 11 bd b7 69 b6 bd
       -0.08878908 0.023805514 -0.03561271 -0.08906882
000330 0c f3 5b 3d 7e 7a f7 bd 0e 91 fb 3d 12 de b6 3d
       0.053698584 -0.120839104 0.12283526 0.08929075
000340 ac 48 d5 3d 08 d4 9e bd 24 32 f3 bc d0 38 b0 3c
       0.10414252 -0.077552855 -0.029686995 0.021511465
000350 f8 c1 10 be fb 9f 92 bd 50 3d 48 3d 72 3f 4d bd
       -0.14136493 -0.0715942 0.048886597 -0.050109334
000360 18 ad ed 3c 58 cc a4 3d d0 1f 16 bc f0 60 90 bc
       0.029013202 0.08046788 -0.009162858 -0.017624348
000370 80 c1 d1 3b 18 10 83 bd c7 b5 09 3e d8 8f 94 3d
       0.006401241 -0.06399554 0.13448249 0.072539985
000380 d2 ff c7 bd 08 e5 ee bc 89 85 f2 bd 58 9d 9d 3d
       -0.09765591 -0.029161945 -0.11841876 0.076960266
000390 f8 86 b2 3d 94 58 15 bd 18 19 a6 bc ca f2 07 be
       0.087171495 -0.036461428 -0.020275638 -0.1327621
0003a0 82 b8 ae bd a0 58 b3 bd 5e f7 f6 3d 4e 90 5f bd
       -0.08531286 -0.08757138 0.120589 -0.05458098
0003b0 d0 10 01 3c 6c 65 06 be 44 8e 66 3d 80 b0 9f bc
       0.007877544 -0.13124627 0.05628802 -0.019493341
0003c0 60 94 57 3d 10 6b 14 3d 35 de ba bd ce 71 ae 3d
       0.052631736 0.036234915 -0.09124414 0.085178
0003d0 4e 3c ce bd 38 c8 c2 bc 38 93 da 3d 78 f6 b1 bd
       -0.10070096 -0.023777112 0.10672611 -0.08689588
0003e0 aa 03 6a bd f1 0c 08 3e 20 09 b6 bc fc fd 13 bd
       -0.0571324 0.13286187 -0.022221148 -0.03613089
0003f0 a6 fc 56 bd c0 5e 52 3b c4 37 38 3d de 20 31 bd
       -0.052487038 0.0032099932 0.044975057 -0.043244235

MLP3.bias f4 [50]
000000 a0 c9 93 3b 80 5b 19 3b f0 95 0d 3c f8 58 bd 3d
       0.0045101196 0.0023400486 0.008641705 0.09245485
000010 6c 33 4d bd 7c f2 44 3d 68 e0 8a 3d f4 c6 07 be
       -0.050097868 0.048082814 0.06781083 -0.13259488
000020 0a 48 8b bd ac ce ac 3d 28 32 a1 3c 63 7a 0a 3e
       -0.0680085 0.08437857 0.019677237 0.1352325
000030 0e 53 ff bd 10 89 90 bd d0 53 05 3c 18 7b d3 3c
       -0.12467013 -0.070573926 0.008137658 0.025815532
000040 d4 96 03 3d d2 51 2f bd 62 8c f4 3d be 2d fc 3d
       0.032126263 -0.04280264 0.119408384 0.12313412
000050 09 2c 09 be 50 df ef bc b2 3a ca bd 9a 0e af 3d
       -0.13395704 -0.029281288 -0.098744765 0.08547707
000060 b0 0d e3 3c 90 98 f8 bc 9a 53 07 bd 1d 77 ab bd
       0.027716488 -0.030346185 -0.033038713 -0.083723284
000070 00 fc e1 3b 20 1f 0d 3c 00 9f 9d 3b 20 a0 8b bd
       0.006896496 0.008613378 0.004810214 -0.06817651
000080 80 3d b1 ba 4e cf c6 3d 64 f7 ab bd 28 6e 9c 3d
       -0.0013522357 0.09707509 -0.083967954 0.07638198
000090 e0 25 9e 3b d9 71 0c 3e 70 90 da 3d 4a 0e 91 3d
       0.0048262924 0.13715304 0.106720805 0.070828035
0000a0 a5 56 e5 bd 10 27 82 3c 2c 73 c8 3d 82 ce ac 3d
       -0.11198167 0.015887767 0.09787592 0.08437826
0000b0 14 af a1 bd ce 29 07 be a0 9d 00 be 7d c2 c5 bd
       -0.078947216 -0.13199541 -0.12560129 -0.09656236
0000c0 12 94 fd 3d d0 89 17 bc
       0.12381758 -0.009249166

MLP4.weight f4 [7, 50]
000000 f0 b9 1a 3d b8 1d 0e be 2a 3d 06 be 40 98 2e bc
       0.03777498 -0.13878524 -0.1310927 -0.010656416
000010 9c f2 6a bd a0 f9 be 3b cc bd ab bd 3f 95 aa bd
       -0.057360277 0.0058280975 -0.0838581 -0.08329248
000020 28 d8 7c 3d 9b 82 0a be 84 34 b7 bc b0 83 47 3c
       0.06172958 -0.13526385 -0.022363909 0.012177393
000030 e4 f7 97 3d e4 0c c7 3d 7e ff f9 3d 68 c2 03 be
       0.07420328 0.097192556 0.122069344 -0.12867129
000040 a4 c8 b1 bc e8 1a 18 bd f0 6d 98 bc b0 8d a0 3c
       -0.021702118 -0.037135035 -0.01860711 0.019598812
000050 d8 3f e3 3c b0 9f 01 be ec 92 00 3d 52 76 a1 3d
       0.027740404 -0.12658572 0.031390116 0.07883896
000060 74 7e b3 bd 2f 73 05 3e 7e b5 91 3d ba 48 8a 3d
       -0.087643534 0.1303222 0.07114695 0.06752153
000070 80 b3 dd bb 80 6c eb bb 0c 52 93 bd d5 36 04 3e
       -0.006765783 -0.007184565 -0.071933836 0.12911542
000080 3c a6 5a 3d 82 7a f8 bd 82 2a 06 be bc 70 07 bd
       0.05338119 -0.121327415 -0.13102153 -0.033066496
000090 40 56 f6 bd 60 d1 8e bb 58 a0 a0 bc 6f 0d b9 bd
       -0.1202817 -0.0043584555 -0.019607708 -0.090357654
0000a0 80 93 6c bb f1 5e 09 be 59 b5 02 3e 80 7b e6 3a
       -0.003609866 -0.13415124 0.12764491 0.0017584413
0000b0 a0 2d 25 bc d0 8e e1 3c e4 12 5e bd 7e 99 67 bd
       -0.010081679 0.027533919 -0.054217234 -0.056542866
0000c0 ac 1c d8 bd e0 86 8d 3d 62 64 d9 bd 84 98 e5 bc
       -0.10552344 0.06910491 -0.106148496 -0.028026827
0000d0 8e d6 0e be 99 23 02 3e ec 5e 69 3d ec 4b 06 be
       -0.13949034 0.12708892 0.05697529 -0.131149
0000e0 13 95 0b 3e e5 4c b2 bd 20 69 87 3d b0 d4 78 bd
       0.13631086 -0.08706073 0.06611848 -0.06074971
0000f0 9a 0d 57 bd 52 4d 32 bd f4 67 49 3d 99 28 d8 bd
       -0.052503206 -0.04353077 0.049171403 -0.105546184
000100 16 79 e9 bd 20 01 a5 3c d4 24 f3 bd 43 f8 c8 bd
       -0.114000484 0.020142138 -0.11872259 -0.09812977
000110 e0 6e 16 bd e2 ac dc bd 02 66 9a 3d 5e 6d 86 3d
       -0.036726832 -0.10775162 0.07538988 0.06563829
000120 44 85 3f 3d 0c 47 65 3d 3e 98 f3 3d a2 ca 93 bd
       0.04675795 0.05597596 0.11894272 -0.072163835
000130 e0 0a d3 3c ec 9b 1d bd a5 18 01 3e 00 3c 68 bc
       0.025762022 -0.038478777 0.12607057 -0.014174461
000140 78 88 fc 3c e0 89 e6 bb 25 09 07 3e a0 47 e1 3c
       0.030826792 -0.007035479 0.13187082 0.027499974
000150 70 91 56 3d ee e9 83 3d e3 de 04 be 3b 53 9d bd
       0.052384794 0.06441103 -0.1297565 -0.076818906
000160 d0 74 2d bc b8 aa 68 bd 80 21 df 3b 5c d1 d6 3d
       -0.010586932 -0.056803435 0.0068094134 0.10489151
000170 fa f7 c9 3d a6 29 e7 3d 94 3f a5 bc 5a 3c 1a bd
       0.09861751 0.11287241 -0.020171918 -0.037655212
000180 14 d8 26 bd 08 01 99 bd 40 49 3f 3b 24 e2 05 be
       -0.040733412 -0.074709 0.0029187948 -0.13074547
000190 5a 65 89 3d d8 03 c4 3c 40 94 08 bc d0 d3 60 3d
       0.067087844 0.023927614 -0.008336127 0.0548895
0001a0 38 49 51 3d 28 2b d4 bd 54 41 95 bd 5c 4c ca bc
       0.051095217 -0.10359794 -0.07287851 -0.024694614
0001b0 c3 b0 06 3e 38 fe a0 3d e0 f2 ad 3d e8 32 a6 3c
       0.13153367 0.078609884 0.0849359 0.020287946
0001c0 7d f6 96 bd 4e 54 c3 3d cf e9 03 be 5a 81 e6 3d
       -0.07371233 0.09537564 -0.1288216 0.112551406
0001d0 b2 99 d3 3d 6c 56 7a 3d 1c d0 cd 3d 2c e8 8d bc
       0.103320494 0.061117575 0.10049459 -0.017322622
0001e0 46 3f 95 3d 25 28 08 3e 6e 1b e9 3d d5 3a 80 bd
       0.07287459 0.13296564 0.11382185 -0.06261221
0001f0 d0 cb 71 bd 6c 46 8b bd 10 d9 87 bc 60 24 91 3c
       -0.05903226 -0.06800541 -0.016582996 0.01771754
000200 e2 9a 97 bd 28 4d bc 3d a0 d7 5e bc ce 7f 81 3d
       -0.074025884 0.09194404 -0.013601214 0.06323205
000210 73 92 0c 3e 01 42 0c 3e 7a 0e ec 3d 67 22 00 be
       0.13727741 0.13697053 0.11526199 -0.12513123
000220 c6 b9 cf bd e6 a6 50 bd 52 65 da bd 4f d5 8d bd
       -0.10142855 -0.050940417 -0.106638566 -0.06925451
000230 02 be c1 bd 56 07 9c 3d be b7 8f 3d 00 90 6b 39
       -0.09460069 0.07618587 0.07017468 0.0002246499
000240 df 4f 09 be 3c 81 31 3d b7 bd 02 be 2e 95 bd 3d
       -0.13409375 0.043336138 -0.12767683 0.092569694
000250 b7 c5 05 3e 60 d0 c5 3d a8 c0 c8 3c e8 19 ac 3d
       0.13063703 0.09658885 0.024505928 0.08403379
000260 98 d8 e1 bc d0 94 b7 3d f5 04 f1 bd 65 9a b0 bd
       -0.0275691 0.089639306 -0.117685236 -0.086231984
000270 70 8d 6f 3c 20 cf b1 bd 41 be 9b bd 78 2c c5 3d
       0.014621124 -0.08682084 -0.076046474 0.09627622
000280 eb 81 02 3e f0 91 19 3c 28 bc be bd 62 aa a3 3d
       0.12744872 0.009373173 -0.09313232 0.07991482
000290 13 13 c2 bd a0 71 5a bc 80 8e 92 3a ec 3e f6 bc
       -0.09476294 -0.013332754 0.0011181384 -0.0300593
0002a0 76 86 7c bd 2c ce 7f 3d 00 0f 76 3b 40 8f fa bd
       -0.06165167 0.06245248 0.0037545562 -0.12234354
0002b0 72 c0 ea 3d f5 93 bf bd fc 10 5f 3d 96 cb ac 3d
       0.11462487 -0.093543924 0.054459557 0.084372684
0002c0 80 54 92 3d 40 c3 c5 bd 9c 07 2c 3d 8c e9 43 bd
       0.07145023 -0.096563816 0.041999444 -0.04783015
0002d0 7a fd b3 bd 00 66 6a bd 80 7b cd 3a b2 eb b0 3d
       -0.08788581 -0.05722618 0.0015677065 0.08638705
0002e0 20 1c 05 bc 38 cb 8c bc 7a 3e b5 3d d4 11 35 3d
       -0.008124381 -0.017186746 0.08849807 0.044206455
0002f0 94 26 0c be 96 ab 8e 3d 5e 65 07 bd 40 d8 cd 3c
       -0.13686591 0.06966321 -0.033055656 0.02512753
000300 a0 22 71 3c 40 4b 55 3b 90 bd 02 3c 79 10 86 bd
       0.014717728 0.0032546073 0.007979766 -0.06546111
000310 ce dd fc 3d 30 d6 52 3d 10 61 19 3d 9c 76 1f 3d
       0.123469934 0.051473796 0.03744608 0.038931474
000320 6e 02 9b 3d 34 b9 a6 3d 48 92 44 3d c8 f8 6a 3d
       0.07568823 0.081407934 0.047991067 0.057366163
000330 40 27 be 3b 62 cd 58 bd 1e 54 e8 3d c9 83 86 bd
       0.005803019 -0.052930243 0.11344169 -0.06568105
000340 d8 e4 81 3c 89 17 a6 bd 19 d5 bf bd ac 8d 2e 3d
       0.015856192 -0.08109958 -0.09366817 0.042615578
000350 0b ea 8b bd 80 96 a2 3a 80 f7 c3 bc 60 fb 55 3c
       -0.068317495 0.0012404472 -0.023921728 0.013060421
000360 1d 61 8b bd 60 c7 d9 bc 78 0e 8a 3c 3e 34 ea bd
       -0.06805632 -0.026584327 0.016852602 -0.11435746
000370 40 fb 92 bb 8e 02 97 bd e0 d0 b2 3b 94 e6 b0 bc
       -0.0044855177 -0.07373534 0.0054570287 -0.021594323
000380 70 26 da 3c 8a 57 05 be 40 05 5e 3d a0 f3 00 bc
       0.026629657 -0.13021675 0.054204226 -0.007870585
000390 a6 2f e2 3d 1b 2e f8 bd 7a 88 a7 bd 28 46 0c be
       0.110442445 -0.12118169 -0.08180328 -0.13698637
0003a0 30 a9 cc bc df e4 84 bd e0 1d a2 3c e1 27 86 bd
       -0.024983019 -0.06488966 0.019789636 -0.06550575
0003b0 ba 7f b0 bd 1c 5e 08 3d 49 74 05 3e 00 91 ca 3c
       -0.08618112 0.033292875 0.1303264 0.024727345
0003c0 c0 ae b3 3c 4a 78 10 be ce d7 f4 3d 48 6d c2 bc
       0.021933913 -0.14108387 0.11955224 -0.02373375
0003d0 d8 c7 c7 3d 0a da 33 bd 4c ac 97 3d 22 09 d8 3d
       0.09754914 -0.04390911 0.0740591 0.10548617
0003e0 74 d8 77 3d 24 63 2d 3d bc 0e 04 3d 6e 0a e1 3d
       0.06050916 0.042330876 0.032240614 0.109883174
0003f0 37 73 03 3e 2a 41 e6 bd 20 52 15 bd 0c b1 dd bd
       0.1283692 -0.11242898 -0.036455274 -0.10824785

MLP4.bias f4 [7]
000000 50 45 5f bc 88 7d 63 bd 98 a9 dc 3c d8 03 c7 bd
       -0.013627365 -0.055539638 0.026936337 -0.0971753
000010 94 2a ac 3d 3c d7 64 3d 9c 3b fa bd
       0.08406559 0.055869326 -0.12218401
