DQN/final_dqn_against_random/DQN_AgainstNegaMax_Epochs0.pth (torch, 493259 bytes, 12 tensors)

conv1.weight f4 [32, 1, 5, 5]
000000 d7 93 1c 3e 51 fc 29 3e 80 ea 3f bd b1 21 3c 3e
       0.15290771 0.16600157 -0.046854496 0.18372227
000010 58 7d 33 bd 94 4e 25 3d 73 6a c7 bd 0e 8d f0 3d
       -0.04382071 0.04035814 -0.097371005 0.11745654
000020 3d 8a 34 3e 3e 3f 16 be e9 02 32 3e 28 52 19 3d
       0.17630859 -0.14672562 0.17383923 0.037431866
000030 dd 4e 17 3e b0 e3 dd 3c 16 81 c5 3d d0 53 e7 bc
       0.14776178 0.027086109 0.09643762 -0.028238207
000040 9f e0 1d 3e 90 2b f2 3c b7 37 bf bd 0c d0 50 3d
       0.15417717 0.029561788 -0.09336799 0.05097966
000050 bd b7 bc bd d0 23 c0 bc ca 5c a6 bd bf db 07 3e
       -0.09214733 -0.023454577 -0.08123167 0.1326742
000060 bb a9 21 be 70 d4 bc bd 48 52 67 bd fd 47 f6 bd
       -0.15787403 -0.09220207 -0.056474954 -0.120254494
000070 28 a3 9a 3c d5 46 4a be ed f4 38 3e 9a f8 2d be
       0.018876627 -0.19753583 0.18062182 -0.16989365
000080 79 1c 1e 3e a0 54 08 3d bc ff 84 bd c2 1c fd 3d
       0.15440549 0.03328383 -0.0649409 0.12359001
000090 90 58 ff 3c 8d 78 25 3e 00 1c b3 3c 46 2d 81 bd
       0.03117016 0.16159268 0.021863937 -0.06307463
0000a0 0c 1b 5c 3d 74 26 5e bd 1e 62 ac 3d 99 d9 36 3e
       0.05373673 -0.05423589 0.08417152 0.17856444
0000b0 f2 c5 ec 3d dd 10 b3 bd 96 72 ec 3d 8c 93 12 3d
       0.115611926 -0.08743451 0.11545293 0.035785243
0000c0 5e 02 d0 3d 3d a7 f9 bd b7 bb 4a be d7 40 9e bd
       0.101567015 -0.12190101 -0.1979817 -0.07727211
0000d0 16 16 1d be df 0b 28 3e 8c f4 6b 3d 72 a9 a9 3d
       -0.15340456 0.16410778 0.057606265 0.08284272
0000e0 62 8a 81 3d 40 03 64 bb 37 47 20 3e 60 83 11 be
       0.063252226 -0.0034791976 0.15652166 -0.14210272
0000f0 d0 51 4e 3c c4 c8 0b be 1c 9a 7c 3d 1a 0f 8d bd
       0.012592748 -0.13650805 0.061670408 -0.06887646
000100 24 04 7b 3d 60 ac 2a bd 05 dc 29 3e 4d c5 f2 bd
       0.061283246 -0.041668296 0.16587837 -0.118540384
000110 dd 48 f4 bd a3 4c f4 bd b5 34 38 3e ea 7f 88 3d
       -0.1192796 -0.1192868 0.17988856 0.06665023
000120 a7 11 45 3e 3e 04 29 be e0 22 4b be 65 3a 20 be
       0.19245015 -0.16505525 -0.19837523 -0.15647276
000130 48 c4 09 be 8a e7 a5 3d fa aa 92 3d 5f 2c 2a 3e
       -0.13453782 0.08100803 0.071615174 0.16618489
000140 20 87 d3 bd 55 9d 0b be 26 53 d9 3d ea 8f a5 bd
       -0.103285074 -0.13634236 0.106115624 -0.0808409
000150 92 98 f8 3d 8c 65 42 bd 5e 4f ea 3d 80 1f 1f be
       0.121384755 -0.047460124 0.11440919 -0.1553936
000160 5d b4 ce bd 3c c1 79 3d 60 2f 2d 3d b8 dc 50 bd
       -0.10092995 0.0609753 0.04228151 -0.050991744
000170 6a 26 f4 3d 95 39 0b 3e f8 83 14 be 23 ac da bd
       0.119213894 0.13596185 -0.14503467 -0.10677364
000180 0f 87 3b 3e 5c 36 8a bd bc 35 91 bd d3 29 46 be
       0.1831324 -0.067486495 -0.07090327 -0.19351892
000190 d3 90 ea bd a0 a3 4c 3d f0 41 d8 bc 55 a9 14 be
       -0.11453404 0.049960732 -0.026398629 -0.1451772
0001a0 c0 b9 99 3b 25 e5 0b be 6b c0 2d be 2a 8d e1 bd
       0.0046913326 -0.1366163 -0.16967933 -0.11013253
0001b0 52 3e 33 be 6a 67 02 be 4b b8 4c 3e f4 b9 1a 3d
       -0.17504242 -0.12734762 0.19992177 0.037774995
0001c0 c4 71 7c 3d 85 03 3f be dd 81 06 be 76 56 88 bd
       0.061631933 -0.18653686 -0.13135476 -0.06657116
0001d0 68 19 00 3d 38 35 34 be 50 7c b0 bd f3 36 f5 bd
       0.03127423 -0.17598426 -0.08617461 -0.11973371
0001e0 00 4b 11 3a da 69 98 bd 80 11 63 bc 50 c7 0a be
       0.0005542487 -0.074420646 -0.013859153 -0.13552594
0001f0 e0 92 0c be 1d f6 ee bd 7c 34 8c bd 0d a5 21 be
       -0.13727903 -0.11668036 -0.06845948 -0.15785618
000200 f9 b7 2b 3e ec 94 22 bd 91 35 30 3e 84 3f 7f 3d
       0.16769399 -0.039692804 0.17207934 0.062316433
000210 8d 6c 2d be 93 ba 0d 3e 0c 66 61 bd a7 02 9d bd
       -0.1693594 0.13840704 -0.05502896 -0.076665215
000220 9a ff 29 be a7 9a 4b be c4 61 6a 3d 00 f3 32 bd
       -0.1660141 -0.19883214 0.057222143 -0.043688774
000230 7e 77 9f 3d 66 12 28 be ab 0c 18 3e 8e 55 16 be
       0.07786463 -0.16413268 0.14848582 -0.14681074
000240 38 74 0d bd 28 1b 2b 3d ee 74 d3 3d 51 56 25 3e
       -0.034534663 0.041773945 0.10325037 0.16146208
000250 81 90 3a 3e f5 63 22 be 74 2a 4e 3d fa 2d b0 bd
       0.18219186 -0.15858443 0.050333455 -0.08602519
000260 30 8b b3 bc 70 4a 19 be 39 8b 3a 3e 25 50 16 be
       -0.021916956 -0.14969802 0.18217172 -0.1467901
000270 46 e9 da 3d 1e f3 8f 3d 1a 1a 85 3d dd 72 dd bd
       0.106890246 0.07028793 0.06499119 -0.10812924
000280 3d 27 3a 3e 00 05 34 3d 90 c3 d2 3c 22 7b 34 be
       0.1817903 0.04395008 0.025728017 -0.17625096
000290 02 f2 ab 3d 30 cb f5 bc d0 a5 bb bd 89 e9 2f 3e
       0.08395769 -0.030004114 -0.091624856 0.1717893
0002a0 c0 a3 36 3d 3d 9f e2 bd 83 50 cf bd 60 7c 1c bc
       0.044589758 -0.110655285 -0.10122778 -0.009551138
0002b0 6e b4 e4 3d 54 55 51 bd 1d b5 e9 bd bc 43 8c bd
       0.11167227 -0.051106766 -0.11411498 -0.06848857
0002c0 3d 00 19 be a2 13 92 3d 01 86 1e 3e 97 ce 40 be
       -0.14941497 0.07132651 0.15480806 -0.18828808
0002d0 80 42 3e 3d 92 98 d3 3d 88 8b 14 3d 60 de 91 bd
       0.046450138 0.10331835 0.03626588 -0.07122493
0002e0 9a c9 d5 3d 0e 40 d7 3d 1e 29 99 3d 74 f3 0f bd
       0.10438843 0.10510264 0.074785456 -0.035144284
0002f0 d8 ec 58 bd 10 47 af 3c 0c b7 10 bd 58 1f 74 bd
       -0.052960247 0.02139619 -0.035330817 -0.059600204
000300 d9 e8 02 3e 49 01 30 3e 80 32 a2 bc 94 6a 37 bd
       0.12784137 0.1718799 -0.01979947 -0.044779375
000310 80 43 3f 3b e0 a6 43 bc e8 f1 44 3d 44 91 65 3d
       0.002918452 -0.011941642 0.048082262 0.05604674
000320 d0 02 3a be 6a 28 97 bd d7 77 2c 3e ce 8f 9f 3d
       -0.18165135 -0.07380755 0.1684259 0.077911004
000330 e0 fa 22 bc 40 f3 f6 bd 6a 98 fa bd fb 73 37 be
       -0.009947509 -0.12058115 -0.12236102 -0.17915337
000340 a4 83 85 bd da 52 8a 3d bd 95 02 3e 7a 1c bd 3d
       -0.06519249 0.06754084 0.12752433 0.09233947
000350 20 08 35 be 6d 51 f6 bd 8c 48 01 bd f9 1c 46 3e
       -0.1767888 -0.120272495 -0.031563327 0.1934699
000360 c0 01 ed 3c 18 26 54 bd 32 75 a9 3d 53 02 9c bd
       0.028931499 -0.05179414 0.08274306 -0.07617631
000370 d6 8e 04 be 1d 7b 15 3e f0 3e ba bd ec 38 24 bd
       -0.12945113 0.14597745 -0.090940356 -0.040093347
000380 65 bc 4b be 0f 11 09 3e e1 29 1b 3e 2a 47 95 3d
       -0.19896086 0.13385414 0.15152694 0.07288964
000390 40 cd 0e be 13 20 4a be 92 55 26 be 2b b8 18 3e
       -0.13945484 -0.19738798 -0.1624358 0.14914005
0003a0 be a6 c4 3d 11 57 2c 3e be 93 d6 3d 44 55 4f 3d
       0.09602116 0.16830088 0.10477398 0.050618425
0003b0 c0 5a 00 bb 6b c0 1b be 8a 77 2f be 35 8f 3f be
       -0.0019585341 -0.1521012 -0.17135444 -0.18706973
0003c0 b6 ac a7 3d ba 19 c9 bd b8 dd 24 bd 1a ba eb bd
       0.08187239 -0.0981936 -0.04025051 -0.115101054
0003d0 0c 47 15 bd 38 25 10 be cd d1 05 be 66 de 87 3d
       -0.03644471 -0.14076698 -0.13068314 0.06634216
0003e0 98 76 73 bd 22 dd fc 3d 3c 67 83 bd 0d 3c 16 be
       -0.05943927 0.12346865 -0.06416175 -0.14671345
0003f0 ec 89 10 bd 73 8d c6 bd 98 a0 7a bd fd f7 42 be
       -0.035287783 -0.09694948 -0.06118831 -0.19039913

conv1.bias f4 [32]
000000 98 50 24 bd 5e b0 a2 3d 4d de 36 be 02 cb eb 3d
       -0.040115923 0.079437956 -0.17858239 0.1151333
000010 14 98 7e bd 15 c9 1b be 58 92 ef 3c 82 6f c6 3d
       -0.06215675 -0.15213425 0.029244587 0.09689237
000020 bb 3b 31 3e 40 2e fa bd e0 90 c9 bd 74 80 1d 3d
       0.17307942 -0.12215853 -0.09842086 0.03845258
000030 9c 37 5e 3d d6 7a 9d 3d be d1 e0 3d b4 c1 39 bd
       0.054252252 0.07689445 0.10977505 -0.045350745
000040 b2 8f e3 3d 51 ff 16 3e 20 fe 55 bd d9 b4 11 3e
       0.11111392 0.14745833 -0.052244306 0.14229144
000050 46 1f c8 3d f9 a4 34 3e d7 c3 e8 bd a0 43 ca bd
       0.0977159 0.17641057 -0.113654785 -0.0987618
000060 d4 dc 6c bd 50 38 26 3c 6e d7 f5 3d 4a d3 e9 bd
       -0.057827786 0.010145262 0.120039806 -0.11417253
000070 62 11 cd 3d 04 cb 92 bd 72 71 f7 3d d0 92 1b bc
       0.10013081 -0.071676284 0.12082185 -0.009495452

conv2.weight f4 [32, 32, 5, 5]
000000 ed bd fd bc 45 5e 9f bc f9 9e d1 bc 66 a5 8f 3c
       -0.030974353 -0.01945413 -0.0255885 0.017534923
000010 26 36 c2 bc 60 0d 41 bb 50 f5 f9 3b 03 d5 9e bc
       -0.02370746 -0.0029457435 0.0076281205 -0.019388681
000020 84 19 27 3c b6 66 0d bd c0 3b cf bc 7f 38 03 bd
       0.0101989545 -0.03452178 -0.025297046 -0.0320363
000030 b0 36 2f bc 0a 06 53 bc 98 e4 a5 3b 54 3a d6 bb
       -0.010694191 -0.012879858 0.005062651 -0.006537715
000040 7a 26 88 3c 23 c4 04 3d 84 d5 4f 3c da 35 64 bc
       0.01661991 0.032413613 0.012685183 -0.013928855
000050 67 9a 07 bd 4c cf 51 3c fc 7f 8f bc e6 62 93 3c
       -0.033106234 0.012805771 -0.017517082 0.017991494
000060 2a 9d c1 3c e4 6e 5f 3c c5 e1 07 3d 93 8b 09 3d
       0.023634512 0.013637278 0.033174295 0.033580374
000070 40 4e f5 3b 27 09 d3 bc 57 62 01 3d bd 6d 89 bc
       0.007486135 -0.0257612 0.031587925 -0.01677596
000080 e7 ce 88 bc 62 5b f2 3c b6 68 e0 3c 54 06 2f 3c
       -0.016700221 0.02958459 0.02739368 0.010682661
000090 d0 3d 11 3b b0 a0 f3 bc e0 84 70 bb 77 e5 0a 3d
       0.0022162087 -0.029739708 -0.0036700293 0.03391024
0000a0 a0 83 13 3c 90 61 46 3b 94 91 f0 bb 4a 09 4a bc
       0.00900355 0.0030270554 -0.007341573 -0.012331316
0000b0 6a a0 ac 3c 90 e3 0e 3b 2a 6d bc 3c a0 0e cd bb
       0.021072585 0.0021803118 0.023001272 -0.006257847
0000c0 b8 15 7d 3c 14 1a 6f 3c 30 be b8 3b 0c ff b5 3c
       0.015447073 0.01459362 0.0056379065 0.022216342
0000d0 fe 7e b5 3c 9b 3b 06 3d 4a a9 de 3c 86 1d 14 bc
       0.022155281 0.032771688 0.027180333 -0.009040242
0000e0 19 35 f5 bc 60 cc d3 3b 80 ca a1 b9 12 16 17 bc
       -0.029932545 0.0064635724 -0.00030859187 -0.009221571
0000f0 14 00 c2 bb 60 f4 d9 3a ca 52 d3 3c 70 94 34 3c
       -0.0059204195 0.0016628616 0.025796313 0.011021718
000100 4e b1 4d bc fa 34 6e bc 82 71 0f bc ee e2 5f bc
       -0.01255448 -0.014538998 -0.00875509 -0.013664944
000110 ad 38 02 3d d4 66 99 3c cd c3 02 3d 00 ca ec 38
       0.03179233 0.01872579 0.03192501 0.000112909824
000120 f8 a3 e9 3b 18 de 48 3c 56 13 09 bd 90 e7 4e 3b
       0.0071301423 0.0122599825 -0.033465706 0.0031571127
000130 c0 fc 1a bb fd 61 a2 bc 06 bd e0 bc 91 33 00 3d
       -0.0023649186 -0.019822115 -0.027433883 0.031299178
000140 36 7d eb 3c 20 3c 86 3c ad 30 0a 3d ac 11 6b bc
       0.028746229 0.016386092 0.033737827 -0.014347475
000150 74 1a c8 bb c0 51 5b 3c 40 6b bf bb bc 57 e3 bb
       -0.006106669 0.01338619 -0.0058416426 -0.006937949
000160 d5 65 ef bc 10 a0 1b 3c 28 08 af bc 40 86 a8 3a
       -0.029223362 0.009498611 -0.021366194 0.0012857392
000170 09 31 0d 3d 42 4e 32 bc 1e 94 36 bc f2 bc ae 3c
       0.03447059 -0.010882916 -0.011143712 0.02133033
000180 b0 f7 54 bc 70 fb 46 bb 43 38 07 3d 70 7b 6d bc
       -0.012998506 -0.003036227 0.03301264 -0.014494762
000190 78 34 cf bc 14 17 a2 bc 0c 99 20 bc f5 6d 89 bc
       -0.025293574 -0.019786395 -0.009802114 -0.016776064
0001a0 77 4c 96 bc 5c fd 69 3c 80 e0 c4 3b 44 66 39 bc
       -0.018347008 0.014281597 0.006008208 -0.011315886
0001b0 80 04 e1 bc e6 62 36 bc a0 78 74 bc b8 80 3c bc
       -0.027467966 -0.011131978 -0.014921337 -0.011505298
0001c0 31 a4 02 bd 68 94 f9 3b 76 cc d4 bc 79 90 e1 bc
       -0.031894866 0.0076165684 -0.0259764 -0.02753471
0001d0 5a a3 ec bc 44 c6 71 3c 96 5d ae bc 42 17 6f bc
       -0.028886486 0.014756743 -0.02128486 -0.014592947
0001e0 46 06 e3 3c a0 c8 99 3c 64 12 a6 3c d4 80 09 bd
       0.027712952 0.018772423 0.020272441 -0.033570126
0001f0 bd b1 cf bc 82 ad 5a bc 72 43 ef 3c f0 08 6d 3b
       -0.025353307 -0.013347032 0.029206965 0.0036168657
000200 3a 9d d8 bc 00 25 68 39 aa f2 e0 bc ec d4 fd bb
       -0.026442159 0.00022139028 -0.027459461 -0.0077463295
000210 56 48 1f bc ee b8 fa 3c 30 6b 33 3c 5c 03 ca bb
       -0.009721836 0.03060576 0.010950848 -0.0061649512
000220 40 b5 c3 3b 84 36 27 bc 9c 97 63 3c 94 22 65 3c
       0.0059725344 -0.010205869 0.013891127 0.013985295
000230 fc 8e 1b 3c 6e c8 61 bc 4e 19 f7 3c 8c 41 a7 bb
       0.009494539 -0.013780696 0.030163433 -0.0051042493
000240 2e 84 61 bc 62 66 b5 3c ce 10 ec 3c 51 1d 10 3d
       -0.013764424 0.022143546 0.028816607 0.03518421
000250 74 9c 2b 3c 82 77 45 bc ec 19 93 3c 7e 7d f8 3c
       0.010474313 -0.012052419 0.017956696 0.030333277
000260 3b 0a 0e bd a8 86 8f bb b0 84 c5 bc f8 e6 d7 3b
       -0.034677725 -0.004380066 -0.024111122 0.006588813
000270 ec 92 6f 3c 48 56 ef bb 70 d6 41 bb b4 5d 82 3c
       0.014622431 -0.0073039867 -0.0029577278 0.015913822
000280 78 b6 c2 bb e4 39 f3 bc 82 be e7 3c 84 c6 91 bc
       -0.005942162 -0.02969069 0.028289083 -0.017794855
000290 20 8c 7e bb 00 8f 5a 3b 50 3f 0b bb d4 39 08 bd
       -0.0038840845 0.0033349395 -0.0021247454 -0.033258274
0002a0 f6 e1 84 3c 3b 8f 83 bc 49 38 96 bc 04 65 0a 3c
       0.016221028 -0.016059509 -0.018337386 0.008446936
0002b0 bc 25 97 bc 11 db 85 bc a8 2e 43 bc a0 9d 59 bc
       -0.01845061 -0.01633981 -0.011912979 -0.01328221
0002c0 e6 eb 71 bc 00 38 1c bc 40 89 16 3c e3 5f ea bc
       -0.014765715 -0.009534836 0.009187996 -0.028610175
0002d0 d2 4e af bc 80 3c 07 3a 20 1d a1 3b 04 f6 9f 3c
       -0.02139989 0.00051588565 0.004916802 0.01952649
0002e0 13 73 cb bc 0c e6 38 3c 8e 9f a4 3c 0e d2 a0 3c
       -0.024835145 0.011285316 0.020095613 0.019631412
0002f0 5e e2 06 bd 7c 0c 5d bc f1 f4 f8 bc 22 48 b7 bc
       -0.032930724 -0.013491746 -0.030390235 -0.022373263
000300 ca 51 a1 3c 5c fd ac bb e4 04 76 3c e4 03 aa bc
       0.01969232 -0.005279226 0.015015814 -0.020753808
000310 98 0c b0 3b 82 2f af bc c0 c8 90 3c 64 5b 7d bc
       0.005372595 -0.021384958 0.01767385 -0.015463684
000320 56 41 11 bc fa 4a fb bc 00 f2 f4 38 db 7f 09 3d
       -0.008865675 -0.0306754 0.00011679903 0.033569198
000330 9e 94 8c 3c ad 87 9a bc 80 4a f9 39 90 0f 7e bb
       0.01716071 -0.018863523 0.00047548488 -0.00387666
000340 a6 2c e9 bc da 18 e3 3c c0 68 15 3a 50 fb f3 3b
       -0.028463673 0.027721811 0.0005699508 0.0074457303
000350 38 ec 69 bc 1c 86 87 bc 48 07 bf 3b d0 28 56 3c
       -0.01427751 -0.01654344 0.0058297254 0.013071254
000360 64 ed 01 3c 11 96 8b bc dd 99 0c 3d 30 8a aa bb
       0.0079301335 -0.01703933 0.034326423 -0.0052044615
000370 d6 5f b1 bc cc 76 87 bc 33 8f 0e 3d 00 80 e4 35
       -0.021652143 -0.016536139 0.034804534 1.7024577e-06
000380 4c 43 9d bb 10 11 71 bc d0 d9 17 bc 7a ef f3 bc
       -0.004799282 -0.014713541 -0.009268239 -0.029777277
000390 38 2a e6 bc 98 84 a9 3c be c3 f7 3c 8d 32 0a 3d
       -0.028096303 0.020693108 0.030244704 0.033739615
0003a0 ca 18 d1 bc 98 a6 9c 3c 9a 45 b3 bc 46 c8 ac 3c
       -0.025524516 0.019122407 -0.021883775 0.021091592
0003b0 06 fc d0 3c 12 23 e0 3c 94 8c d0 3c 76 2f b5 3c
       0.0255108 0.027360473 0.025457658 0.022117358
0003c0 80 64 34 3a 90 14 85 3c 3a 3e 4f bc 14 3b 7c 3c
       0.0006881431 0.016245157 -0.012649113 0.015394945
0003d0 08 2d 3a bc 00 a0 1b ba b2 16 fc bc 58 76 17 bc
       -0.011363275 -0.00059366226 -0.03077254 -0.009244524
0003e0 20 4f 98 bc a8 65 43 bc 55 f4 b8 bc e2 40 02 bd
       -0.018592417 -0.011926092 -0.022577444 -0.03180016
0003f0 d0 e0 16 3b e6 f6 bb 3c ff e3 03 3d ee 03 a9 3c
       0.0023022182 0.022944879 0.032199856 0.020631757

conv2.bias f4 [32]
000000 f6 00 91 bc 3b be 07 3d f6 1f 8b bc 68 cb b0 3c
       -0.017700654 0.033140402 -0.016983014 0.021581367
000010 cb eb 00 3d 43 ad 03 3d 92 e0 8c bc 61 7c 99 bc
       0.03147487 0.032147657 -0.017196927 -0.018736066
000020 1c d7 76 bc 5a 9a c1 bc 06 81 15 bc 58 38 28 bc
       -0.0150659345 -0.02363317 -0.009125 -0.01026734
000030 68 93 53 3c 52 e8 fa 3c a4 77 55 3c 00 a5 bf 39
       0.012913562 0.030628357 0.013029013 0.00036553293
000040 aa e8 4c bc e0 aa 2a bc 8e 52 f5 3c 1a c7 f9 bc
       -0.012506643 -0.010416716 0.029946592 -0.030490447
000050 ec dd 91 bb a6 17 0c bd fe 13 51 bc f9 3b d6 bc
       -0.004451504 -0.03420224 -0.012761114 -0.026151644
000060 1b b5 0c bd 94 4b 43 3c 38 8e 96 bc 08 59 ff 3b
       -0.034352403 0.011919875 -0.018378362 0.007792596
000070 96 2c fe 3c 9c d8 c1 bb 88 b7 51 3c 9c d0 6d bc
       0.03102712 -0.0059157144 0.012800105 -0.014515068

conv3.weight f4 [32, 32, 5, 5]
000000 c2 e6 bc 3c 6b 12 0a 3d a8 98 57 bc 60 2b e2 bc
       0.023059253 0.03370897 -0.013158955 -0.027608573
000010 28 c1 dd 3c 30 50 ca 3c 98 a6 7d 3c 40 c2 11 3b
       0.027069643 0.02469644 0.015481614 0.0022241026
000020 24 df 31 3c dc 06 04 3c 08 66 a3 3b ae 64 43 bc
       0.0108564235 0.008058276 0.0049865283 -0.011925859
000030 f0 12 12 3c 3f 1a 00 3d fe ac 35 bc a0 b0 e4 bc
       0.008915648 0.03127503 -0.011088608 -0.027916253
000040 0c 73 cf bc 80 dd 75 ba c0 09 56 3c 60 9c 73 3b
       -0.025323413 -0.00093790144 0.013063848 0.0037172064
000050 65 53 05 3d bc fa 29 3c cc 17 80 3c b0 38 02 bd
       0.032550234 0.010374721 0.015636347 -0.031792343
000060 e2 75 aa 3c 8e 41 be 3c 88 45 f2 3b b8 20 56 3c
       0.020808164 0.023224618 0.0073935427 0.013069324
000070 88 5e 06 bd ed f8 05 3d 10 f0 2b bb 28 46 0e bd
       -0.032804996 0.032708097 -0.0026235618 -0.034734875
000080 68 8e 4a 3c 2a f6 a9 3c 96 a2 ba 3c e7 9f 04 3d
       0.012363054 0.020747263 0.022782605 0.032379057
000090 e8 ef bc 3b e6 1c a6 3c 43 64 0d 3d 98 61 7c 3c
       0.0057659037 0.020277452 0.034519445 0.015404128
0000a0 70 29 5e 3c 40 21 78 bb 52 07 d6 bc f8 4e 43 3c
       0.013559684 -0.0037861615 -0.026126537 0.011920683
0000b0 8c 9e d2 bc 00 aa f1 39 f6 d0 07 bd 85 a9 0b bd
       -0.025710367 0.00046093762 -0.033158265 -0.034097213
0000c0 21 69 81 bc 92 17 0f bd 2e 1c ab 3c 50 b0 0e 3c
       -0.0157972 -0.034934588 0.02088746 0.008709028
0000d0 f8 05 20 bc dd ad 04 3d 98 90 80 3c f4 05 b2 3c
       -0.009767048 0.03239237 0.015693948 0.021731354
0000e0 8e 48 bd bc ea 16 f4 bc 72 76 50 bc 2c 05 bd 3c
       -0.023105886 -0.029796083 -0.012723552 0.023073755
0000f0 6d d9 f9 bc b0 3e c8 bc 80 24 cf 3a 94 a4 52 3c
       -0.030499185 -0.024443954 0.0015803725 0.012856621
000100 f4 30 a4 3c 48 c8 d4 3b 08 06 aa bb 90 df 5e bc
       0.020042874 0.006493602 -0.0051887073 -0.013603106
000110 80 31 53 ba 26 76 b6 3c 22 8e ea bc 1d ba 05 bd
       -0.00080563873 0.022273134 -0.028632227 -0.032648195
000120 60 94 6a bb 00 83 e9 3a b8 ed 8b 3c 48 01 5c 3c
       -0.0035794005 0.001781553 0.017081127 0.01342804
000130 1d 2d 0b 3d 40 18 51 bc 04 50 40 3c da 70 c5 bc
       0.03397857 -0.012762129 0.011737827 -0.024101663
000140 34 17 cc bc a5 2a 99 bc f6 f1 fb 3c 8a fb c2 bc
       -0.024913408 -0.018697092 0.030755024 -0.023801584
000150 38 64 50 bc 0c ea 2c 3c e2 a4 be bc 64 3e 45 3c
       -0.0127192065 0.010553848 -0.023271982 0.012038801
000160 74 c7 df bc ea 38 f1 3c e2 9b d9 3c 5c dd 79 3c
       -0.027316786 0.029446084 0.026563589 0.01525053
000170 78 44 d2 3c ee 4b a0 3c b8 43 14 3c d0 6a 37 3c
       0.025667414 0.019567456 0.0090493485 0.0111949
000180 60 8f 9b 3a e4 26 3d bc a0 ff 7b 3b 60 4d d6 bc
       0.0011868291 -0.011544917 0.0038451925 -0.026159942
000190 e0 79 0e bd 80 f9 f5 39 6a ac 94 bc c0 09 7c bc
       -0.034784198 0.00046915933 -0.01814862 -0.015383184
0001a0 4a 25 82 3c da fb 2e bc 0d 3a 06 3d dc 6a 9b bc
       0.015886921 -0.010680163 0.032770205 -0.018971853
0001b0 48 44 05 bd 6c 16 3f 3c 88 37 82 3b e8 81 e8 3b
       -0.03253582 0.011663061 0.003973905 0.007095564
0001c0 44 c4 13 3c 74 48 24 bc 2a 89 0e bd 46 b7 bb 3c
       0.009018961 -0.01002704 -0.03479878 0.02291454
0001d0 06 20 4c bc 7e ce e9 3c 3c 34 92 bc 06 18 e5 3c
       -0.012458807 0.028540846 -0.017847173 0.027965557
0001e0 cc 89 04 3c 62 46 19 bc 0a ba 37 bc ab 44 0b 3d
       0.008089494 -0.0093551595 -0.011213789 0.034001034
0001f0 de e4 ea 3c 5a a1 10 bd 06 04 64 bc 82 1f 1d bc
       0.028673586 -0.035310127 -0.013916975 -0.009590032
000200 f0 ef 18 3c 8c ae d1 bc e9 d1 bc bc 08 7d 8f 3b
       0.009334549 -0.025595926 -0.023049312 0.0043789186
000210 40 d3 50 3a d4 96 bf bc c2 70 9b 3c b1 4d 01 3d
       0.0007966049 -0.02338735 0.018974666 0.031568233
000220 f2 99 66 bc 89 d8 0f 3d b8 45 25 3c 30 9d 9a 3b
       -0.014074789 0.035118613 0.010087423 0.0047184452
000230 2a a0 49 bc 3e 9a fa 3c ba 57 cc 3c b0 f6 fc bc
       -0.0123062525 0.030591127 0.024944175 -0.030879349
000240 b4 8b 25 3c 2e 1e c1 bc 41 e9 90 bc 3f cc 99 bc
       0.010104109 -0.023573961 -0.01768935 -0.01877415
000250 80 2a 8b 39 3a 52 20 bc 84 05 0b bc e4 9b cc 3c
       0.0002654381 -0.009785229 -0.008485202 0.024976678
000260 10 72 9b 3b 2e 05 d7 bc 0e ae 8c bc ea 15 ed bc
       0.004743822 -0.026247587 -0.01717284 -0.028941114
000270 26 aa 82 bc cc e6 a4 3c e4 ba 32 3c 80 94 2d bc
       -0.015950274 0.020129584 0.010908816 -0.010594487
000280 9c ed 95 3c 60 dd c8 3a 02 1b ea 3c 82 11 6f bc
       0.018301778 0.0015324764 0.028577331 -0.0145915765
000290 00 f8 09 bd 52 11 51 bc 90 3b 7f bb fd 66 03 3d
       -0.033683777 -0.012760477 -0.0038945414 0.03208064
0002a0 50 ae e2 3b 7c 41 78 bc ce 8a a5 3c e5 b0 01 3d
       0.0069177523 -0.015152331 0.020207789 0.03166284
0002b0 1b 95 a0 bc a0 f5 bf bb f7 a9 0f 3d 5b 9b 01 3d
       -0.019602349 -0.005858138 0.0350742 0.0316423
0002c0 60 9a fa ba 9c 8d ac 3c 5c be a8 3c e0 97 9b ba
       -0.0019119494 0.021063618 0.020598583 -0.0011870824
0002d0 ac 59 7d bc 00 16 d3 b9 00 7b 07 3b db 09 07 3d
       -0.015463274 -0.00040261447 0.002067268 0.032968383
0002e0 1e 6f 89 3c e4 34 8e bc 8d 90 01 3d 2c 44 75 bc
       0.016776618 -0.017359205 0.031631995 -0.014969867
0002f0 26 40 79 bc 2e da c9 3c 40 c8 9e 3c e4 36 b0 3c
       -0.015213048 0.024640169 0.019382596 0.021510549
000300 00 40 7a 39 97 72 ff bc dd 53 0f 3d b8 31 c6 3b
       0.000238657 -0.03118257 0.034992088 0.0060484074
000310 8a 53 9c 3c d3 74 03 3d 10 20 4f 3c 54 aa dd 3c
       0.019082803 0.032093834 0.012641922 0.027058758
000320 60 9b 16 3b 96 c4 e6 3c ae eb fb 3c 63 a8 03 3d
       0.0022980794 0.028169911 0.03075203 0.032143008
000330 74 19 42 3c ac 27 8d 3c 30 53 a3 bb 82 60 26 bc
       0.011846889 0.017230831 -0.004984282 -0.010154845
000340 41 60 9b bc 44 76 a9 3c b4 57 1d bc a0 ac c4 3c
       -0.018966796 0.020686276 -0.00960343 0.024008095
000350 20 1e 4c 3b 40 e9 11 bc 54 5e 80 bc d4 3f c7 bb
       0.0031145886 -0.008905709 -0.01566998 -0.006080607
000360 3b 5b a7 bc 3a 0a 0a bc d2 89 2a bc 24 93 c0 bc
       -0.020429244 -0.00842529 -0.0104088355 -0.023507662
000370 5b 03 04 3d 10 45 48 bc f6 43 f8 3c b1 05 02 3d
       0.032229763 -0.012223497 0.030305844 0.03174371
000380 18 dd 92 3c 97 c4 02 3d dc 34 5c 3c a3 f2 f6 bc
       0.017927691 0.031925764 0.013440337 -0.030144995
000390 05 49 9e bc 50 98 d5 3b 18 33 bd 3b a8 33 00 3c
       -0.019321928 0.006518401 0.005773913 0.007824816
0003a0 75 05 89 bc 50 b9 ad bc 0c 60 94 bb 78 74 8d 3c
       -0.016726235 -0.021206528 -0.0045280512 0.01726745
0003b0 28 d2 6c 3c 70 18 72 bb 2e 9a 9e 3c 5a 84 dc bc
       0.014454402 -0.0036940835 0.019360628 -0.026918579
0003c0 7c 93 c2 bc b8 01 51 3c 42 a6 f6 3c 68 58 a5 bc
       -0.023751967 0.012756757 0.030108575 -0.020183757
0003d0 92 93 a9 bc 6c 7a 45 3c 00 70 d0 39 e8 b8 dd bc
       -0.02070025 0.012053113 0.00039756298 -0.02706571
0003e0 68 f6 e6 bc af 32 f5 bc 48 73 45 bc 80 3c 87 39
       -0.028193668 -0.029931394 -0.012051411 0.00025794283
0003f0 d0 4e f3 bb c6 1e 02 bc 7c 1e dc bc 16 fd c2 3c
       -0.0074251667 -0.007941907 -0.026870005 0.023802321

conv3.bias f4 [32]
000000 d2 7c f4 3c 06 12 b7 3c 92 d5 0e bd 96 a7 e4 3c
       0.029844675 0.022347461 -0.034871645 0.027911942
000010 a8 61 eb 3b 5c 39 e7 bc 7c 41 8a bb e0 e9 90 ba
       0.0071832724 -0.028225593 -0.004219232 -0.0011056028
000020 1c c6 5c 3c 4b cb e4 bc 7e c9 2c bc 30 3c 1a bc
       0.013474967 -0.027928969 -0.010546086 -0.009413764
000030 18 d1 3e bc dc 43 1a 3c 00 08 86 3b 7c 2f 4e 3c
       -0.0116465315 0.009415593 0.004090309 0.012584563
000040 14 27 e3 bb 00 0c e1 b8 80 ec 0c 3c e2 7b 8c 3c
       -0.0069321487 -0.00010731071 0.008601308 0.017148916
000050 3f 16 a5 bc 34 26 63 bc 10 57 3e 3c f4 19 a3 bc
       -0.02015221 -0.013864089 0.011617437 -0.019909836
000060 3e 72 ac 3c 90 91 c1 3b 3a 9f fa 3c c2 b7 f1 3c
       0.021050569 0.005907245 0.030593503 0.029506568
000070 c2 ec 6e bc a2 83 a0 3c f0 5a 85 3b 98 fc 5c 3c
       -0.014582815 0.019594017 0.0040696785 0.013487957

MLP1.weight f4 [50, 1344]
000000 bc 0b e6 3b 68 48 74 3b 40 bf 56 3a d0 05 73 3b
       0.007020442 0.0037274603 0.00081919506 0.0037082322
000010 fc 77 cd bc ca bf 82 bc 50 c5 bc 3a 56 b1 2d bc
       -0.025081627 -0.015960593 0.0014402065 -0.010601362
000020 9c 77 a3 3b e8 2b 05 bc 7c 75 a2 3b e3 e0 9b 3c
       0.004988624 -0.008128144 0.004957853 0.019028133
000030 3a f9 1f 3c d7 90 85 3c 8a 19 86 bc 40 18 b2 3a
       0.00976401 0.016304417 -0.0163696 0.0013587549
000040 7e 5f c3 bc 82 ae 33 3c 77 73 c8 bc 7a 84 6e 3c
       -0.023849245 0.010966899 -0.02446912 0.014557952
000050 6c ff cd 3b c0 72 76 3a f4 ef a6 3b 02 18 07 3c
       0.006286552 0.00094012544 0.0050945226 0.00824547
000060 65 97 b1 3c c2 9b 85 bc 24 64 8a bc c2 52 11 bc
       0.021678636 -0.016309623 -0.016893454 -0.008869829
000070 d8 8f d8 bc 7c 73 a6 bb 78 16 92 bc 40 37 6c 3a
       -0.026435778 -0.005079685 -0.01783298 0.00090109184
000080 a8 35 02 3b 79 87 af 3c 6b 39 5e bc 15 73 d3 bc
       0.0019868407 0.021426903 -0.013563494 -0.025811711
000090 7c 62 d0 3b 74 d1 c1 3b 6f 84 bd bc 4c 42 a5 3b
       0.0063593965 0.0059148613 -0.023134438 0.0050433036
0000a0 5f 34 d0 3c c8 eb ba bc 11 c4 a8 bc 80 57 fc 39
       0.025415597 -0.022817507 -0.020601304 0.00048130378
0000b0 62 b4 79 3c b3 20 bc 3c da 96 7a bc 79 38 d7 bc
       0.0152407605 0.022964811 -0.015294755 -0.026272045
0000c0 f2 16 2a 3c 70 47 0d bc a0 78 e0 ba 53 50 c6 bc
       0.010381447 -0.008622989 -0.0017125793 -0.024208223
0000d0 9c e1 83 bc 8c 5c 19 bc c9 bd 93 bc e0 72 90 3a
       -0.01609879 -0.009360444 -0.018034833 0.0011020564
0000e0 46 23 1b bc 2d 6f 85 3c 62 14 7d 3c 76 56 2a 3c
       -0.009468859 0.016288364 0.015446754 0.01039659
0000f0 07 11 a9 3c c8 91 be bc 7b 8b 52 bc 0c 3b cb bb
       0.020638002 -0.023262873 -0.012850638 -0.0062021073
000100 c9 4d d3 3c 2b ab ba 3c e0 e7 28 bb 70 66 32 bb
       0.025793927 0.022786697 -0.0025772974 -0.0027221702
000110 7d b1 9e bc fb 90 c0 3c 18 e8 fd bb 1c f5 c1 bb
       -0.019371742 0.023506632 -0.007748615 -0.005919112
000120 f9 6b cf 3c 00 06 bc b9 d8 4a 28 bc d8 4a 27 bb
       0.02532004 -0.00035862625 -0.01027175 -0.0025526788
000130 d1 54 d4 3c a9 cd b9 3c bd ae cf bc 06 e9 66 3c
       0.02591935 0.022681074 -0.025351876 0.014093643
000140 5a 06 1d bc 1e 19 52 3c e5 05 9e 3c a5 fa ab 3c
       -0.009584034 0.012823371 0.01928992 0.02099354
000150 98 e3 8a bc 01 ca 73 bc 56 da 26 3c 9f 4d d6 3c
       -0.016954228 -0.014879704 0.010183891 0.02616006
000160 40 03 9d 39 c8 b2 ea bb 65 62 ac 3c 40 ed 28 bc
       0.00029947795 -0.0071624257 0.021043012 -0.010310471
000170 1e 82 9b bc 3e c2 38 3c 7e a9 31 bc 07 24 af 3c
       -0.018982943 0.01127678 -0.010843633 0.021379484
000180 40 ea 81 39 2e 07 69 bc 04 41 b4 bb 5d 6d 81 3c
       0.00024779327 -0.014222903 -0.0055009145 0.015799219
000190 51 1a c6 bc 00 a5 e8 ba f5 89 92 3c 85 b8 93 3c
       -0.02418247 -0.0017749369 0.017888049 0.018032322
0001a0 6c 6b d3 3b 0c f2 cd bb d0 6b 29 bc 35 be 95 3c
       0.0064520147 -0.0062849578 -0.010340646 0.018279174
0001b0 80 44 c6 ba 8c f7 cc 3b fe 90 28 3c f4 a9 af 3b
       -0.0015126616 0.006255096 0.010288475 0.005360836
0001c0 d2 71 17 bc 58 04 00 3b 1f b9 af bc d7 b8 a8 3c
       -0.0092434455 0.001953384 -0.021450577 0.020595951
0001d0 20 da e4 bb ca 3c 71 3c 47 56 93 3c 7e 08 77 3c
       -0.0069840103 0.014723966 0.017985476 0.015077708
0001e0 07 7b aa 3c 47 76 b5 3c 30 6b 8a bc 85 ce b1 bc
       0.020810617 0.022151126 -0.016896814 -0.021704921
0001f0 64 f1 c8 3b 33 7d d3 3c a8 05 75 bc d7 b8 ca 3c
       0.0061322916 0.025816536 -0.014954962 0.024746342
000200 00 f2 2d 38 cb 01 c1 3c 98 3f 81 3b 8f 08 b4 3c
       4.1471794e-05 0.023560425 0.0039443485 0.021976737
000210 04 7e ab bc 8a e8 77 3c 46 81 4b 3c 72 cf a9 bc
       -0.020934112 0.015131125 0.012420958 -0.0207288
000220 f1 57 c8 3c 80 ff 5e b9 2f 21 95 3c c8 20 69 bb
       0.024455996 -0.00021266751 0.0182043 -0.0035572518
000230 20 1b b8 bc eb 40 94 3c a8 ce 28 bb 30 20 6b bc
       -0.022473872 0.018097362 -0.0025757942 -0.014350936
000240 0b b1 9f 3c 16 3b 30 3c fe c4 7b 3c 1d 19 82 3c
       0.0194936 0.010756275 0.015366791 0.015881116
000250 72 40 27 3c 01 ba cb 3c 5c b8 86 3b d8 15 34 bb
       0.010208236 0.024868967 0.004111333 -0.002747884
000260 3e fa 59 bc bb 4e b1 3c 07 b7 c8 3c 86 8f 88 bc
       -0.013304291 0.021643987 0.024501337 -0.01667
000270 d0 e2 b0 ba 6e ba a5 bc d2 82 72 3c 28 8e 89 bb
       -0.001349533 -0.020230498 0.014801698 -0.0041978545
000280 e8 ef f1 bb 12 97 a5 bc 8a 13 36 3c 8f 91 8b bc
       -0.0073833354 -0.020213638 0.011113057 -0.017037181
000290 6d ac d3 3c 04 c2 8f 3b 72 92 b2 bc 31 e8 4f bc
       0.025839055 0.004387142 -0.021798346 -0.012689636
0002a0 fd d5 c6 3c f2 62 3b 3c 37 7f da 3c c0 6b aa b9
       0.02427196 0.011437165 0.026671989 -0.00032505207
0002b0 c0 d1 8f 39 c7 67 cc 3c 5e 10 3f bc 87 f6 cd 3c
       0.0002743136 0.024951829 -0.011661617 0.025141967
0002c0 28 a3 86 bb 5c db a2 bc a0 ef 24 3a 63 c3 8a 3c
       -0.004108805 -0.01987999 0.00062918104 0.01693887
0002d0 ee cb 60 3c 34 cd 9d 3b 50 61 ca 3a 20 54 0e 3b
       0.013720496 0.004815722 0.0015440378 0.0021717623
0002e0 b4 d2 d5 3b b9 dc a3 bc ff 5b be bc 2f ec b6 bc
       0.006525362 -0.02000271 -0.023237227 -0.022329418
0002f0 5e 71 13 bc 9c 56 9d 3b e8 ca 90 bb d2 83 b6 bc
       -0.008999197 0.0048015844 -0.0044187196 -0.022279654
000300 5d a5 d5 bc 3e 34 1d 3c ec f8 dd bb 62 27 4c 3c
       -0.026079828 0.009594975 -0.0067740586 0.0124605615
000310 37 bc a8 3c f0 04 98 bc 6c 8d e1 3b 5b d9 ab bc
       0.02059756 -0.018557042 0.006883314 -0.020977667
000320 68 46 0f 3b e6 a5 34 3c b2 3a 79 3c 50 9a 94 bc
       0.0021862034 0.011025881 0.015211748 -0.018139988
000330 5f 70 54 bc 57 6d d3 bc 63 7a 69 bc 60 d0 b7 ba
       -0.0129662445 -0.025808973 -0.014250371 -0.0014023893
000340 7c c0 17 bc e1 34 98 bc a2 e0 33 3c 50 fa dd ba
       -0.0092622 -0.018579902 0.01097885 -0.0016935561
000350 f4 63 34 bc ba 92 7e 3c e2 49 2e bc ca e7 9d bc
       -0.011010159 0.015537912 -0.010637732 -0.019275565
000360 59 ba a0 bc ff 1a c5 3c f4 0b dc 3b 52 6a d8 bc
       -0.019620107 0.024060724 0.006715292 -0.026417885
000370 6c 65 13 bc 8d d2 b3 bc 5b 85 89 3c 0d 93 d9 3c
       -0.008996349 -0.021950984 0.016787222 0.026559377
000380 32 ba 14 bc a2 6f 6f bc a0 f8 01 3b c3 21 d0 3c
       -0.009077596 -0.014614018 0.001983203 0.025406724
000390 26 91 37 3c 60 d1 12 3a 36 59 2c 3c 64 ae b0 3b
       0.01120404 0.00056006573 0.010519316 0.0053918827
0003a0 a3 ab 68 bc f8 52 8f bb d1 c8 a7 3c 8a 6b 42 3c
       -0.014201078 -0.0043739043 0.020481499 0.01186646
0003b0 8b 93 d0 3c bd 40 5f bc 00 34 bf b9 a3 fe d0 bc
       0.025460979 -0.013626275 -0.00036469102 -0.025512045
0003c0 fe aa 41 3c 30 8e 73 3b 96 80 27 3c ac 03 86 bc
       0.011820553 0.0037163608 0.010223528 -0.016359173
0003d0 50 d8 c3 bc 1c 30 3d bc 7c 57 b1 3b f0 15 d5 bc
       -0.023906857 -0.011547115 0.0054120403 -0.026011437
0003e0 60 d9 32 3a e8 1c 6d bb 1c c7 84 3b e0 63 86 3a
       0.00068225525 -0.003618056 0.004052056 0.0010253154
0003f0 f6 14 b9 bc 76 0b 19 3c 06 5c 8d bc 5c bb e7 bb
       -0.022593003 0.009341111 -0.017255794 -0.0070718955

MLP1.bias f4 [50]
000000 dc ab 9d 3b e9 54 9e bc fa 42 b8 bc 3a 54 5d 3c
       0.004811747 -0.019327598 -0.022492874 0.013508851
000010 41 53 c4 3c 9a c5 7c 3c a3 ad b1 bc 1c bd 99 bc
       0.02396548 0.015427971 -0.021689242 -0.018766932
000020 fc 3e 86 bc d8 4e 15 3b e8 ce df bb 10 4a 22 3b
       -0.016387455 0.002278259 -0.006830085 0.0024763383
000030 f1 43 60 bc 16 79 52 3c c0 a7 05 bc e0 99 b7 bb
       -0.0136880735 0.012846252 -0.0081576705 -0.00560306
000040 b8 ff c2 bb 60 96 73 ba d8 b4 9d bb 8f 29 d9 bc
       -0.005950894 -0.0009292122 -0.004812818 -0.026509074
000050 46 9f 5b 3c bc bf a3 bb 62 22 9b bc aa 3d 5d 3c
       0.013404673 -0.0049972218 -0.018937293 0.013503471
000060 48 92 c4 bb 0e 6d c6 bc 2f df ac 3c 00 85 d1 ba
       -0.0059988834 -0.024221923 0.021102516 -0.0015985072
000070 9e 32 2c 3c c0 f7 2c 3b 65 93 9a bc ac 62 9a bc
       0.010510115 0.0026392788 -0.018869111 -0.018845879
000080 0e 17 92 bc a1 dc 4d bc 29 57 82 3c e1 6b ab bc
       -0.017833259 -0.012564809 0.015910702 -0.020925464
000090 37 8a ae bc 92 e1 83 bc 60 1b 7d 3b 51 2b 4c bc
       -0.02130614 -0.016098771 0.0038621053 -0.012461499
0000a0 d0 5e fe bb 28 a4 ca bc 0f 84 d0 3c 5e f8 27 bc
       -0.0077627674 -0.024736479 0.025453595 -0.010252086
0000b0 2a 8f 54 3c 46 32 4e 3c 56 da a3 bc 42 ed 4c 3c
       0.012973586 0.012585228 -0.020001572 0.012507739
0000c0 1f cf 84 3c 08 6d 12 3b
       0.016212044 0.002234282

MLP3.weight f4 [50, 50]
000000 b2 cc 3e bd 8a ad d8 3d 32 49 24 bd e7 e8 01 3e
       -0.04658193 0.10579975 -0.040108867 0.12686501
000010 74 02 5e 3d b0 6b 57 bd 76 0a dc 3d 80 92 ac 3c
       0.05420156 -0.052592933 0.10744183 0.02106595
000020 ed 67 0a 3e 10 f8 4a bc 3a c9 d9 bd c6 03 bb bd
       0.13516207 -0.012388244 -0.10634084 -0.09131579
000030 00 0b c2 3a 18 73 fd bd 25 9e 80 bd 38 7e 05 3d
       0.0014804304 -0.12375468 -0.06280164 0.032591075
000040 88 2e 24 3d 70 d2 3b bc 82 ed 76 bd 74 24 6a bd
       0.04008344 -0.011463746 -0.0602851 -0.05716367
000050 98 42 10 3d 62 33 93 bd 7a d5 79 bd 74 15 03 bd
       0.03521976 -0.07187535 -0.060994603 -0.03200288
000060 b0 fa 94 3c 56 bb 8c 3d 5c 1c 91 3d a0 19 08 3c
       0.018185943 0.06871669 0.07085487 0.008306891
000070 00 c9 44 ba 78 90 81 3c e0 22 31 3c 3a 6e 0f be
       -0.0007506758 0.015815958 0.0108115375 -0.14006892
000080 55 7c 0e 3e 62 a8 d4 bd 54 d5 0c 3d 64 3d 41 3d
       0.13914616 -0.10383679 0.034383133 0.047177687
000090 3c 37 d8 bd 88 11 57 bd 84 78 63 3d 08 9c a1 bd
       -0.1055741 -0.052506953 0.055534855 -0.07891089
0000a0 40 98 df bb 04 f3 71 3d b0 0e d9 bd a4 47 da 3d
       -0.0068235695 0.05906965 -0.105985045 0.106581956
0000b0 4e 39 f6 bd 06 7e b9 3d b7 0c 91 bd e1 8a 93 bd
       -0.12022649 0.0905724 -0.07082503 -0.072042234
0000c0 de 9a ce 3d fe bb e0 3d 6e df 4b bd f2 f5 fd 3d
       0.10088132 0.10973357 -0.049773626 0.12400426
0000d0 74 87 b7 bd 8c 9b 03 be 22 e3 f9 3d 07 9c 06 3e
       -0.089613825 -0.12852305 0.12201525 0.13145457
0000e0 04 76 08 be 07 10 0d 3e 46 91 00 be 60 aa ad 3d
       -0.1332627 0.13775645 -0.12555417 0.08479762
0000f0 2e 08 0a be 28 7f eb bd 80 66 10 3b 54 b4 74 3d
       -0.13479683 -0.114988625 0.002203375 0.059742287
000100 94 5c 58 bd 2f 05 02 be 3c 29 de 3d c4 ec c4 bd
       -0.052822664 -0.1269729 0.108477086 -0.09615472
000110 eb 74 99 bd 50 16 e1 bd d0 0d 30 3c 60 37 30 3d
       -0.074930035 -0.10990584 0.010745481 0.04302156
000120 b0 c4 33 bc a0 3d 38 bc 7c cc 55 3d 1e 7e 89 bd
       -0.010972187 -0.011245161 0.052196965 -0.06713508
000130 fc 93 1b 3d d0 a6 a8 3d 7b 18 0d 3e f0 f4 bb 3d
       0.037982926 0.08234942 0.1377887 0.091775775
000140 60 d4 fe bd 2c c1 d6 bd a8 cd 91 3c 8b 6a 08 be
       -0.12442851 -0.10486063 0.01779826 -0.13321893
000150 dc 06 c0 bd 90 cd 06 3d 45 65 9d bd 2e df ee 3d
       -0.09376308 0.032910883 -0.07685331 0.11663662
000160 8f f6 ef bd d6 d6 a7 3d 22 6c 25 bd d8 ea d5 3d
       -0.11716949 0.081952736 -0.040386327 0.104451835
000170 e0 1c e5 3c 84 71 5b 3d 70 fe a3 3c 45 db bc bd
       0.02796787 0.053575054 0.020018786 -0.0922151
000180 19 48 05 3e a2 9d ac 3d 6f c2 c6 bd 18 9b c8 3c
       0.13015784 0.084285036 -0.09705054 0.024488017
000190 88 9c 85 3c d0 03 29 bc 38 e9 00 be ea 83 e8 bd
       0.016309991 -0.01031585 -0.12588966 -0.113532856
0001a0 36 cb d2 bd 6c 5b 82 3d 1a 3b ec 3d 30 9e a5 bd
       -0.10292666 0.063650936 0.1153471 -0.080868125
0001b0 fe c3 ec bd 4e e4 74 bd 0c fd ec bd d2 e6 ed 3d
       -0.1156082 -0.05978804 -0.11571702 0.11616291
0001c0 be 80 be 3d 4e 49 fc 3d 70 3e 59 3c d4 32 94 3d
       0.093018994 0.12318669 0.013259515 0.07236257
0001d0 81 ad 08 be 08 35 1c bd c8 a3 ca 3d 60 e6 8f bb
       -0.13347436 -0.038136512 0.0989452 -0.0043914765
0001e0 18 2f 90 3d 3e 24 de bd 14 24 39 bd b3 5b 02 be
       0.070402324 -0.108467564 -0.045200422 -0.12730293
0001f0 89 e9 09 3e be 15 c3 3d d0 e6 01 be 20 36 1b 3c
       0.13467993 0.09525631 -0.12685704 0.009473354
000200 70 0e bf bd 00 10 83 39 2d f1 04 3e 70 31 71 3c
       -0.093289256 0.00024998188 0.12982626 0.0147212595
000210 40 87 32 3d 26 04 ce 3d 98 a8 68 bd 3a ac 55 bd
       0.043586016 0.10059385 -0.05680141 -0.0521662
000220 d8 7e a7 3d a0 40 95 bc 42 fc c3 bd e0 bc 50 3d
       0.081784904 -0.018219292 -0.09569599 0.050961375
000230 0f 38 0b 3e 20 82 aa 3c 20 16 15 3d a3 de 0f 3e
       0.13595603 0.020814002 0.036398053 0.14049773
000240 18 eb 69 3d 7a d5 bf 3d ec d6 95 3d a4 10 a4 bd
       0.05710897 0.09366889 0.07316384 -0.080109864
000250 ac 6f 70 3d 88 2e bc bd 5c 27 95 3d 48 96 be 3d
       0.05870025 -0.09188563 0.07282898 0.093060076
000260 80 a6 91 3c 55 4f 07 3e 10 5b 39 3d 20 54 86 3c
       0.017779589 0.13213857 0.04525286 0.016397536
000270 84 12 4c 3d c0 e0 19 bc f4 66 b1 bd 40 8c c4 3b
       0.049822345 -0.0093919635 -0.08662215 0.0059981644
000280 78 33 31 3d 87 d1 96 bd fc c2 a9 3d 1a 20 61 bd
       0.043261975 -0.07364183 0.082891434 -0.054962255
000290 96 c5 80 3d e8 79 10 3d da a1 92 bd 1e 21 cd bd
       0.062876865 0.03527251 -0.07159777 -0.10016082
0002a0 00 0c b9 ba 7e 49 06 be fd d2 04 be c3 b5 cd bd
       -0.0014117956 -0.13113973 -0.1297111 -0.10044434
0002b0 ca cf 2a bd 75 bd 05 3e a2 3b 89 3d ac b0 21 3d
       -0.04170207 0.13060553 0.06700827 0.039475128
0002c0 52 83 a7 3d a4 e2 02 3d 32 db c3 bd 32 2d bf 3d
       0.08179344 0.031954423 -0.095632926 0.09334792
0002d0 d0 aa 14 3c 62 28 ef 3d 4e 06 9e bd da 85 db bd
       0.009073928 0.11677624 -0.07716046 -0.107188895
0002e0 88 25 1e 3d 0c 99 bd 3d ba e7 7c bd 0c da 9a 3d
       0.03861001 0.09257707 -0.06174443 0.075611204
0002f0 70 73 56 bc fa f9 7b bd 9a 8f df 3d 40 2d b0 bc
       -0.013089046 -0.061517693 0.10916062 -0.021505952
000300 4c d7 47 3d 08 58 0f 3d 0a bd b2 3d c8 91 dc 3c
       0.048789307 0.034996063 0.087274626 0.026924983
000310 c8 05 d1 3d a6 14 8c 3d 3c c1 d7 bd 5a fd 06 be
       0.10206181 0.06839876 -0.105349034 -0.13182583
000320 b6 fa e6 3d e4 62 00 be 78 3a 9c 3c 07 85 0f 3e
       0.11278288 -0.12537724 0.019070849 0.1401559
000330 70 b1 6f bc 80 53 81 ba 94 9a 3a bd 14 14 5a bd
       -0.014629707 -0.0009866804 -0.045557573 -0.053241804
000340 10 ea 1f 3d 7c 04 91 bc d6 0d b2 bd 97 b5 90 bd
       0.03904158 -0.017702334 -0.08694045 -0.070658855
000350 80 8d 9f 3d 88 d3 e9 bc 90 25 27 bd b4 dd 0f be
       0.07790661 -0.028543249 -0.040807307 -0.14049417
000360 28 bb 0b be d6 b9 e6 3d ca 5d ff 3d ec e4 2a 3d
       -0.13645613 0.11265914 0.12469061 0.041722223
000370 1c 53 99 3d 15 74 06 3e da 20 d8 bd b5 26 95 bd
       0.07486555 0.1313022 -0.10553141 -0.072827734
000380 41 c4 0d 3e d0 69 1a 3d e9 aa 08 3e a5 cf 07 3e
       0.13844396 0.037698567 0.13346447 0.13262804
000390 d8 82 c3 3c 21 4c a2 bd b0 90 0c bc 86 65 b3 3d
       0.023866102 -0.07924677 -0.008579418 0.087595984
0003a0 25 8d e6 bd 60 29 92 bc e9 dd f7 bd 4f 67 c2 bd
       -0.1125739 -0.017841995 -0.12102873 -0.09492361
0003b0 ee 7f e1 3d 24 8c b0 3d 44 bd 68 bd a4 5e 76 3d
       0.11010729 0.0862048 -0.056821123 0.06014885
0003c0 00 0d 3d 3d 17 b9 04 3e a0 1b 04 bd f8 da ba bd
       0.046154976 0.12961231 -0.032252908 -0.09123796
0003d0 b1 9f 0d 3e 86 43 91 3d 93 d9 f2 bd 10 ca 4d bc
       0.13830449 0.07092957 -0.11857905 -0.0125603825
0003e0 80 91 c5 3b 4e 36 c3 3d c2 8d 21 bd 10 29 7a 3d
       0.006029308 0.09531842 -0.03944183 0.061074317
0003f0 16 a7 a9 bd 80 32 6a 3b 42 96 7f bd d2 0b c1 3d
       -0.08283822 0.0035735667 -0.062399156 0.09426083

MLP3.bias f4 [50]
000000 cb 12 ed bd 90 1d d1 3c 54 3d 95 bc 45 2c 09 3e
       -0.1157585 0.025526792 -0.01821772 0.13395794
000010 aa 3d f1 3d a0 e4 4b 3d 08 08 d0 bc c0 92 9c 3d
       0.117793396 0.04977858 -0.025394455 0.07645178
000020 21 12 09 3e 18 fd 87 3d 34 da 7d 3d 10 cb 3b bd
       0.13385822 0.06640071 0.061975673 -0.045847952
000030 a4 65 30 3d 88 a0 1c 3d 10 c1 47 3d 04 dd 1e 3d
       0.043065682 0.038239032 0.048768103 0.038784996
000040 80 a8 9e 3c 6c 1e 4d 3d e4 b9 d1 3d fe 24 a3 bd
       0.019367456 0.05007784 0.10240534 -0.0796604
000050 c7 be 83 bd 88 d1 0d bd 2c 35 6d 3d 44 ee 10 bd
       -0.06432872 -0.034623653 0.057912037 -0.035383478
000060 e0 cc 23 bc b2 75 bf 3d be 4e b8 3d 68 8d 95 bd
       -0.0099975765 0.093486205 0.08999394 -0.07302362
000070 a0 88 68 3d 45 75 0a 3e cc 21 c1 bc f0 cb 42 bc
       0.05677092 0.13521297 -0.023575686 -0.011889443
000080 80 02 21 bc ef 7d 0b be a0 60 58 bc aa c1 04 be
       -0.009827256 -0.13622259 -0.013206631 -0.12964502
000090 62 89 eb 3d 36 5b 0e be 10 1a 52 bc 77 04 a1 bd
       0.11500813 -0.13901982 -0.012823597 -0.0786218
0000a0 7a c7 d6 bd eb 71 06 3e 69 14 01 3e 9c 9c 96 3d
       -0.10487266 0.13129394 0.12605442 0.073540896
0000b0 98 80 c1 3c f4 74 99 3d 08 67 b2 3c f1 03 04 3e
       0.023620889 0.0749301 0.021777645 0.12892129
0000c0 a9 24 9d bd a0 34 11 bc
       -0.07673008 -0.008862644

MLP4.weight f4 [7, 50]
000000 d8 74 71 3d f0 d8 97 3d 82 c0 34 bd 30 5e 56 bd
       0.05894932 0.074144244 -0.044128902 -0.052335918
000010 2a f6 01 be 64 95 8a bc 68 b1 78 bd 64 75 7d 3d
       -0.1269156 -0.016916938 -0.060716063 0.06187953
000020 70 2b c1 bd 90 84 65 3c 72 1a 40 bd f2 b2 01 bd
       -0.09432113 0.014008656 -0.04690022 -0.031664796
000030 8e 21 79 bd 8b 20 06 3e b2 7e 44 bd 84 21 f9 bd
       -0.060823016 0.13098352 -0.04797239 -0.12164596
000040 de 1a e4 3d 01 5e 0d 3e 1e 0c 45 bd 9c a5 ba 3d
       0.11137937 0.13805391 -0.04810726 0.09113619
000050 48 49 0c 3d 8a d3 cb 3d 8a ab ec bd 00 06 b2 39
       0.034249574 0.09952457 -0.11556156 0.00033955276
000060 f0 dc 59 3d 4b 80 0c 3e c8 94 0d 3d 5e 0f dd bd
       0.053189218 0.13720815 0.034565717 -0.10793947
000070 30 3d 62 3d 70 37 71 3c fc 8c 66 3d 44 90 f0 bc
       0.055234134 0.01472269 0.056286797 -0.029365666
000080 a0 ae 46 3d 1c 42 16 3d 10 07 06 3d 78 c0 69 bd
       0.04850638 0.03668414 0.03272158 -0.057068318
000090 d6 2f 72 bd a0 42 81 3c ee 43 01 bd 40 0a 19 3d
       -0.05912765 0.01577884 -0.031558923 0.03736329
0000a0 b2 ab 38 bd e8 95 f8 3c 48 60 4c 3d 94 96 30 3d
       -0.045085616 0.030344918 0.04989651 0.043112352
0000b0 d8 b4 6a 3d b1 cd 87 bd a0 89 b9 3c c0 be 42 bb
       0.057301372 -0.066310294 0.022648633 -0.0029715747
0000c0 00 d8 2f ba 16 1d b2 bd 40 08 8b bc 48 bc e0 3c
       -0.0006707907 -0.08696954 -0.016971707 0.02743353
0000d0 40 16 26 bb 4e be f5 bd 86 17 a0 3d c3 6a 08 3e
       -0.0025342852 -0.11999188 0.07816987 0.13321976
0000e0 c8 b6 f5 3c 48 d4 03 bd cc 41 04 3d 10 2a ba 3d
       0.029994383 -0.03218487 0.03228931 0.09090054
0000f0 00 04 ca 3b 88 37 28 bd f0 e8 0e be de 26 17 bd
       0.0061650276 -0.041068584 -0.13956046 -0.0369023
000100 dd 43 c5 bd 91 7f 0d 3e f1 e3 01 3e 44 cc ae 3d
       -0.096320845 0.13818194 0.12684609 0.08535054
000110 00 44 55 bc fa f7 57 bd 80 18 a9 3a f0 5c a3 3d
       -0.013016701 -0.052726723 0.0012900978 0.07976711
000120 34 c7 bd bd b9 83 e7 bd 49 6a a5 bd a2 f1 e1 3d
       -0.092665106 -0.11304421 -0.08076913 0.11032416
000130 27 f8 0e be 30 0f c1 bd f0 98 08 3d c8 00 00 bd
       -0.1396185 -0.09426725 0.033348978 -0.031250745
000140 7c f3 82 bd ec 6b e7 bc 97 2e 0d 3e 26 52 b5 3d
       -0.06394097 -0.028249703 0.13787304 0.08853559
000150 d8 3f e8 3c 59 39 d8 bd 64 d4 7f 3d d9 6a 0e 3e
       0.028350756 -0.10557813 0.06245841 0.13907947
000160 5a 2f d0 3d 40 d5 11 3d 73 36 0e 3e 0a b4 1b bd
       0.101652816 0.03560376 0.13887958 -0.038013496
000170 5c 25 3a bd 38 8e ab 3d 3a 9c 59 bd 30 24 7e 3d
       -0.045445785 0.083767354 -0.053127505 0.06204623
000180 b8 ef cd 3d 10 a2 08 be 18 07 f1 bd 94 d6 cf bd
       0.10055488 -0.13343072 -0.11768931 -0.101483494
000190 ef fc 0c 3e 00 1d 66 bc a8 8a d8 3c 80 ee ec 3c
       0.13768362 -0.014045 0.026433304 0.02892232
0001a0 e1 60 0e 3e 90 89 43 bd 07 6e 05 be b0 13 d6 bd
       0.13904144 -0.04773861 -0.13030253 -0.10452974
0001b0 b4 f9 bf 3d fa b1 74 bd ae d6 91 3d 42 f8 a0 bd
       0.09373799 -0.059740044 0.07121025 -0.078598514
0001c0 f2 2c 10 bd 74 20 5a 3d e8 77 02 be d8 62 5e 3d
       -0.035199113 0.053253606 -0.12741053 0.054293483
0001d0 61 df 00 3e ec 29 e4 bc 22 50 fd 3d fe f6 ac 3d
       0.12585212 -0.027852021 0.123688 0.084455475
0001e0 c6 8a e0 bd be 87 ff bd 12 4d 70 bd 8c d3 0f be
       -0.10963969 -0.12477063 -0.05866725 -0.14045542
0001f0 7a 3d e4 3d be bb e6 3d 50 b1 1d 3d 00 b1 93 3b
       0.11144538 0.11266278 0.038499177 0.004507184
000200 26 45 7d bd 60 c3 94 3d 66 60 8a bd 2c f7 ec bd
       -0.061833523 0.07263827 -0.06756668 -0.11570582
000210 58 81 66 3d 00 52 6f 3c f0 c3 d2 3c 9e 79 4c bd
       0.056275696 0.014606953 0.025728196 -0.04992067
000220 80 b3 a4 3d 07 cb 10 3e f8 8c c0 3c 7d 00 0b 3e
       0.080420494 0.14139949 0.02350472 0.13574405
000230 c8 92 91 3d 14 71 03 bd 4c b1 9b 3d 59 0e 08 3e
       0.071080744 -0.03209026 0.07602176 0.13286723
000240 18 98 cf 3c 4c eb cd bd a0 72 33 3c 85 a3 06 3e
       0.025341079 -0.10054645 0.010952622 0.13148315
000250 b4 b1 35 3d e7 d6 07 be 72 5d ca 3d 4c 6b 32 bd
       0.044358924 -0.13265572 0.098811045 -0.043559358
000260 10 53 43 3d c9 30 94 bd 62 22 63 bd 30 12 cd 3d
       0.047686636 -0.072358675 -0.055452712 0.100132346
000270 5c 1f f9 bd 00 98 ff b8 c0 ba 4f bc 20 2d c9 bb
       -0.121641845 -0.0001218766 -0.012678802 -0.0061394125
000280 d2 69 09 be ac ad d9 3d 14 07 c8 bc b0 4b 69 bd
       -0.13419273 0.106288284 -0.024417438 -0.056956947
000290 4c c2 00 be a0 b4 f1 3b a4 55 5e 3d 8d db 0c 3e
       -0.12574118 0.0073762685 0.054280892 0.13755627
0002a0 04 c0 cf bd 06 63 b2 3d d1 79 0d 3e 68 ae 5c bd
       -0.10144046 0.087102935 0.13816 -0.053877264
0002b0 60 03 ba bd 1d be 06 3e 40 01 a3 3c 94 36 bc bd
       -0.09082675 0.1315846 0.019898057 -0.091900975
0002c0 00 83 11 3d 96 1f 9e bd 52 50 6f bd cc 16 94 bc
       0.035525322 -0.07720868 -0.05842621 -0.018077277
0002d0 8a f2 7e bd 27 ea df bd de 21 df 3d 08 19 7e 3d
       -0.062243022 -0.10933333 0.108951315 0.06203559
0002e0 f2 d3 c1 3d e0 a0 73 3d 55 29 cb bd b8 bd c7 bc
       0.094642535 0.059479594 -0.09919993 -0.024382457
0002f0 1c a1 34 bd d0 5b 09 3c 74 7a da bd 70 ed 89 3d
       -0.04409896 0.008383706 -0.10667887 0.06734741
000300 40 d8 b7 bc c8 ee 1d 3d aa 8c 05 bd 40 14 71 bb
       -0.022441983 0.038557798 -0.03260485 -0.0036785752
000310 4e 3d af bd 2e d9 0a be 9a a7 30 bd 4c 92 e4 bc
       -0.08556615 -0.1355941 -0.043128587 -0.027901791
000320 bb 59 fc bd a6 4a 02 be 84 d1 0a 3d a2 93 90 3d
       -0.12321802 -0.12723789 0.033891216 0.07059409
000330 b0 6a 41 3c 53 01 02 3e d8 f2 e5 bd 85 02 10 3e
       0.011805221 0.12695818 -0.112279594 0.14063461
000340 70 b9 6a 3d 05 f7 c1 bd 2f b3 07 3e 04 95 48 3d
       0.057305753 -0.09470943 0.13251947 0.048970237
000350 cb 6d f3 bd b2 bb 55 bd 31 e5 ce bd ce 14 a3 3d
       -0.11886176 -0.052180953 -0.101023085 0.079629526
000360 68 5a 33 3d 26 80 d2 bd c6 5f 0a be b4 0d 3b 3d
       0.04378739 -0.102783486 -0.13513097 0.045667365
000370 78 25 64 3d b8 f3 dc bd b3 f0 0c 3e 75 ee 01 3e
       0.055699795 -0.10788673 0.13763694 0.1268862
000380 b8 6d 8a bc 24 ec 27 3d 50 0e 99 3d e2 22 e1 3d
       -0.016898021 0.040996686 0.07473433 0.109929815
000390 1e b9 9e 3d fa f0 f2 3d 22 96 c9 3d 30 64 8a 3d
       0.07750152 0.11862369 0.09843089 0.067573905
0003a0 9d 91 81 bd 98 fa b4 bc 12 a4 d1 3d 54 2a 03 be
       -0.06326602 -0.022092149 0.10236372 -0.12809116
0003b0 20 8f bb bd 76 84 d8 bd 48 55 2c 3d 92 46 8a 3d
       -0.09158158 -0.1057214 0.042073518 0.067517415
0003c0 90 86 61 3d aa 6d 2d bd 74 a2 00 3d 79 d9 e0 bd
       0.05505997 -0.042340912 0.031404927 -0.109789796
0003d0 60 6c a6 bb 0f 1f d9 bd 92 7a de 3d 10 fb e0 3c
       -0.0050788373 -0.10601627 0.10863222 0.027463466
0003e0 b8 0f 5d bd f0 21 19 3d 72 d4 e7 bd e0 50 92 3b
       -0.05397007 0.03738588 -0.113198176 0.0044652075
0003f0 c3 2f fd bd 08 ef 9c 3c 50 20 af 3d 7a fd 58 bd
       -0.123626254 0.019156948 0.08551085 -0.05297611

MLP4.bias f4 [7]
000000 b1 c8 fb bd 7e 06 dd 3d c0 b0 2b 3d 74 e8 60 bd
       -0.12294138 0.10792254 0.04191661 -0.054909185
000010 00 58 e9 bb ca f3 f0 3d b2 18 f6 3d
       -0.007121086 0.11765249 0.12016429
