DQN/final_dqn_against_random/DQN_AgainstNegaMax_Epochs20000_player2.pth (torch, 493491 bytes, 12 tensors)

conv1.weight f4 [32, 1, 5, 5]
000000 69 7a 9d 3d e0 89 ca ba 9c b3 99 3d d6 c1 9d bd
       0.076893635 -0.0015452467 0.07504961 -0.07702987
000010 7b db e3 3d 2d e9 76 3d 2b 96 de bc 8a 5c 52 be
       0.11125847 0.060280968 -0.027171215 -0.20543113
000020 2c e2 7b 3e fa f4 9d 3e 43 53 91 bd e9 1a 41 3e
       0.24597996 0.30850965 -0.07095959 0.18857922
000030 ca 5b 05 be 09 ff 39 3e c1 8c b4 3c a2 81 8a be
       -0.13023296 0.18163694 0.022039773 -0.27052027
000040 5e 3e 61 3d 69 f2 e0 bd d1 d9 2e 3e d5 6b 61 3d
       0.05499112 -0.10983736 0.17075278 0.055034477
000050 06 74 b2 3c b3 74 4c 3e 3d 94 d6 3d 6b 24 c4 bd
       0.02178384 0.19966392 0.10477493 -0.09577259
000060 6b d7 87 be 6d 6c 9a bd 1a fd 3d 3e e7 de 1f 3b
       -0.26531538 -0.07540212 0.18553582 0.0024394335
000070 36 2e 5c be d7 09 32 be 56 d8 2c 3d 4c f9 77 3e
       -0.21502003 -0.17386566 0.0421985 0.24216193
000080 f8 48 ce 3c 9a b8 69 be af 19 4f be c6 7d 38 bc
       0.025181279 -0.22824326 -0.20224641 -0.0112604555
000090 85 a0 59 be c2 73 4b 3d 48 dd aa 3d 8a a8 49 be
       -0.2125264 0.049670942 0.08342987 -0.19693199
0000a0 65 99 db bd b6 25 b4 bd 1b 6a 3a be 7c a5 8b 3d
       -0.10722617 -0.08796255 -0.18204539 0.06818673
0000b0 97 af be bc 50 33 af 3d 70 82 92 3e e5 ac 0f be
       -0.023277087 0.08554709 0.2861514 -0.14030798
0000c0 a4 94 d7 3d bb 5c 43 bd ee ba 14 bd 67 91 a4 3e
       0.10526398 -0.047695857 -0.036311083 0.32142183
0000d0 cc 73 19 bd 4d e9 b6 bd 60 f5 51 be 89 02 f8 bc
       -0.037463948 -0.08931217 -0.2050376 -0.030274646
0000e0 b9 0d 35 3e ac 0a 65 be 31 4e 8c be 1e c2 0c 3e
       0.17681016 -0.22367352 -0.27403405 0.13745925
0000f0 e1 22 d5 3d 8b df e9 3d 16 e9 68 3e fc 88 79 3e
       0.10407043 0.114195906 0.22745165 0.24368662
000100 8d 4e 16 ba 6b 20 f5 3c 2d 95 77 bd b3 86 53 be
       -0.0005733751 0.029922685 -0.060445 -0.20656852
000110 81 2f ba bd d6 c0 1f be ae a9 49 3e bf b6 d8 bd
       -0.09091092 -0.15600905 0.19693634 -0.10581731
000120 53 38 3a 3d 6f 1a 7c be 75 f0 05 be 55 01 1c be
       0.04546387 -0.24619459 -0.13080008 -0.15234883
000130 c2 0f 9f be 37 71 24 be 6a 05 d8 bd 3f 74 08 3e
       -0.3106671 -0.16058813 -0.10547908 0.13325594
000140 e6 06 35 bd be d1 28 bd 73 73 8d 3e 2b 6e 6c be
       -0.044196032 -0.04121565 0.27627143 -0.230889
000150 38 91 72 be d1 a4 c6 3d a9 03 aa bd 8d 53 31 3c
       -0.23688209 0.09699405 -0.08301479 0.010823143
000160 e5 08 d2 bd 7e d6 70 3d 80 ca de bd 8c f9 86 be
       -0.10255603 0.058798306 -0.108784676 -0.26362264
000170 6e 33 94 3d 4d 12 89 3e 64 fa 6c bd 4f 0a 2f 3e
       0.07236372 0.26771775 -0.05785598 0.17093776
000180 9b 86 22 be 7e 9c d5 3d 51 a7 5c be 8e 55 74 3d
       -0.1587166 0.10430239 -0.21548201 0.059651904
000190 a3 4c ca 3c e9 12 c6 bd 81 cb 34 3e 7f 39 56 be
       0.024694746 -0.096715756 0.17655756 -0.2092037
0001a0 ab 9f 89 bd 22 8b 9a 3d 4a 82 6c bd d9 5d 92 3e
       -0.067199074 0.07546069 -0.05774144 0.28587225
0001b0 c5 7c dc 3d 01 ae 1f 3e 8a 97 ed bd 0d af a9 bb
       0.107659854 0.15593721 -0.116011694 -0.0051783384
0001c0 04 ea 70 3c e6 bf 08 bd 76 b7 2f 3e 93 59 16 3d
       0.014704231 -0.033386134 0.17159829 0.03670652
0001d0 c9 e7 a9 3d 16 ab 0f 3e ee 44 f4 bd c1 72 80 be
       0.08296163 0.14030108 -0.1192721 -0.2508755
0001e0 b5 09 f8 3d cb 30 65 3d 31 80 a6 3d 89 e5 10 3d
       0.121112265 0.055954736 0.08129919 0.03537515
0001f0 4a 84 80 3e c1 1d 34 3e 0f b1 30 3e 75 30 71 3e
       0.2510093 0.17589475 0.17255042 0.23553641
000200 dd 81 0f 3e 66 9c 7d be e2 59 2c 3e 05 19 7b 3e
       0.14014383 -0.24766693 0.16831163 0.24521263
000210 61 fb 28 3e ff 3f 43 be 13 5c a5 3d fe 2e 4f bd
       0.16502143 -0.19067381 0.080742024 -0.050581925
000220 08 45 2c 3c a3 af 1f be ed d6 0f 3e 48 78 82 be
       0.010514505 -0.15594344 0.14046831 -0.25482392
000230 05 61 2c 3e d8 8e 7d 3e 91 c6 c9 3d 50 8d 29 3e
       0.16833885 0.24761522 0.09852327 0.16557813
000240 41 06 9d bd 9b 73 98 be 72 2c 10 3d 27 25 51 3d
       -0.076672085 -0.297757 0.035198636 0.05106082
000250 a5 de 3f 3e 44 2f 77 3e db 4c cf bd 0b b2 cc 3d
       0.18737276 0.24139124 -0.10122081 0.099948965
000260 d5 42 50 3e b4 17 31 be 64 4c df 3d f4 31 eb 3d
       0.20337994 -0.17294198 0.10903242 0.11484137
000270 68 d4 84 3e 1c 9e 3d 3e c6 25 91 3e c0 1c 2c bd
       0.25943303 0.18517345 0.2834913 -0.042019606
000280 d3 c3 e0 3d c3 83 c5 be a3 a8 60 bd 61 54 07 3b
       0.109748505 -0.3857709 -0.054848325 0.002064966
000290 6f d3 07 3e a9 5e 63 be a3 00 45 be 7c 99 65 3d
       0.1326425 -0.22204079 -0.19238524 0.056054577
0002a0 84 f9 2c be 83 12 f3 3d f8 20 2c be dc ff ae bc
       -0.16892058 0.11868765 -0.16809452 -0.021362238
0002b0 6b da 32 3e 26 9c 52 be bb d0 5e 3e d3 bf 74 bd
       0.17466132 -0.20567378 0.21759312 -0.05975325
0002c0 a2 ff 21 3e 80 eb 56 3d ef b7 86 3e 46 d6 01 3e
       0.15820172 0.052470684 0.26312205 0.12679395
0002d0 d3 1d 2e 3e 89 a9 6f 3e 4c 53 34 be f4 fc 88 3e
       0.17003565 0.23404516 -0.176099 0.26755488
0002e0 2b 18 fd bd 45 98 41 3c d1 19 2d 3e fc 69 03 be
       -0.12358125 0.011816089 0.1690438 -0.12833399
0002f0 d6 24 c2 3d 6c e3 76 be 6d e8 5f 3e df 26 74 3e
       0.09479682 -0.24110192 0.21866007 0.23842953
000300 83 45 9a 3e de d6 06 bc 55 3d 89 3d c5 61 62 3e
       0.30131158 -0.008229939 0.06701151 0.22107609
000310 43 8a 8b 3d 06 ee 8a bd f0 08 34 be 19 3f 23 3e
       0.06813481 -0.067836806 -0.17581534 0.15942039
000320 56 15 17 be 6b 62 8c 3e 52 5a 1b 3e bb a8 2a be
       -0.14754233 0.27418837 0.15171173 -0.16665928
000330 06 1a bd bd 7d e7 51 3e 4c 27 6d 3e d9 fc 29 3d
       -0.09233479 0.20498462 0.23159522 0.0415009
000340 8c 43 65 3e de 0d 35 bc d2 88 09 be f4 13 a8 bc
       0.22389048 -0.0110506695 -0.13431099 -0.020517327
000350 9a eb 86 3e cc 00 e3 3d c7 cd 72 be 9a ee a7 3d
       0.26351625 0.11084136 -0.2371131 0.081998065
000360 52 47 6f bc bf 2a 3a 3e df 87 29 3e f9 76 a0 3e
       -0.014604406 0.18180369 0.16555737 0.3134077
000370 99 3f be 3c 60 4e ef bd e3 24 11 3e 34 97 1f be
       0.023223685 -0.11684871 0.14174227 -0.15585023
000380 64 43 7f be e8 f2 26 3e 7d b5 33 3e 4c 41 55 be
       -0.24928051 0.16303599 0.17549701 -0.2082569
000390 bb 00 5b be c7 7c ba bd 6c 92 70 3e 11 72 94 bc
       -0.21386997 -0.09105831 0.23493356 -0.018120797
0003a0 bd 8f 1e 3e 1f f8 37 3e 36 2d e6 3b 94 b2 11 3e
       0.1548452 0.17965744 0.0070244325 0.14228278
0003b0 1e 83 cf bd ab 23 13 3e 41 fe 0e be 4b b6 f2 bd
       -0.101324305 0.14369075 -0.13964178 -0.11851176
0003c0 63 58 65 3e 94 15 7e 3d 62 bf 40 3e 85 95 a4 bd
       0.22396998 0.062032297 0.18823007 -0.08036331
0003d0 e6 02 0b bd 6d 9f 87 3e 69 6b 2e be 88 02 a8 bd
       -0.03393831 0.2648882 -0.17033161 -0.08203608
0003e0 07 b7 bb bd 08 58 ba bb 19 bd b2 bc e3 36 74 be
       -0.09165769 -0.0056867637 -0.021818684 -0.23849063
0003f0 d1 00 34 be a5 65 31 3d f0 d6 f2 bc 44 88 db 3d
       -0.17578436 0.043309826 -0.029643506 0.1071935

conv1.bias f4 [32]
000000 30 b3 c1 3c 5a e4 3b 3e e3 3c aa bd d2 9d 20 3e
       0.023645014 0.18348828 -0.083123945 0.15685204
000010 d0 ff c6 3d 80 b0 69 3d 95 f7 39 3d 15 13 03 3e
       0.09716761 0.05705309 0.04540213 0.12800248
000020 41 9d 6f 3d e2 f7 28 be 19 79 e7 bc 0f ed 77 3d
       0.05849958 -0.1650081 -0.028255986 0.06052881
000030 dd d5 2d 3e 92 72 f2 3d d1 e4 03 be 15 38 0d be
       0.16976114 0.11838259 -0.12880255 -0.13790925
000040 74 da 8e 3d 8b d2 4f 3e 61 e0 a6 3d 71 7b 1a 3e
       0.069752604 0.2029516 0.08148266 0.15086152
000050 fe 9a 9e bd 99 f2 0a be c5 b7 5e 3e 4f ab 0c be
       -0.07744406 -0.13569106 0.2174979 -0.13737224
000060 37 4e fa bd 65 a4 04 3e 1b 75 b6 bd 9a 33 f5 3d
       -0.122219495 0.12953337 -0.08909055 0.11972733
000070 65 31 14 3e 55 df b7 3d 2e 6f dc 3d 0d ee 4a 3e
       0.14471968 0.08978144 0.10763393 0.19817372

conv2.weight f4 [32, 32, 5, 5]
000000 7b 22 20 3d 05 32 8f 3b a2 5f 4c 3c 06 28 32 ba
       0.039095383 0.0043699765 0.0124739725 -0.0006796125
000010 39 7d c3 bb fe 59 e3 3c 48 97 a4 3b 76 17 68 3d
       -0.0059658554 0.027752873 0.005022917 0.056663
000020 0b f3 6c 3c 65 53 a2 bd 8b 83 3b bd 27 28 f4 bc
       0.014462243 -0.079260625 -0.045779746 -0.029804302
000030 5c 3a 79 bd 29 b0 39 3d 69 5d a3 3c f2 93 14 3d
       -0.06084667 0.045334015 0.019942002 0.036273904
000040 2a e8 64 3d 3a 65 f9 3c 94 f1 72 bd 79 d2 00 bc
       0.05588547 0.030443776 -0.059312418 -0.007862681
000050 d4 20 8f 3c 84 ad 2b 3d 04 00 49 bd 90 69 64 3b
       0.017471708 0.041913524 -0.04907228 0.003485296
000060 00 75 a8 bd 05 fb 04 3d c0 e8 db bb c5 be 35 bc
       -0.08225441 0.032465953 -0.0067110956 -0.011092846
000070 eb 07 1e bb c4 b3 85 3b e0 6e a5 3c e9 05 77 3d
       -0.0024113606 0.0040802676 0.02019447 0.06030837
000080 b7 ef 98 3c 87 62 d4 3c ae f8 ad 3d 5f 7d 3e 3d
       0.018668992 0.025925888 0.084946975 0.046506282
000090 cc 11 16 3d 99 8e 22 3d d6 be 97 3b 1c a9 80 3d
       0.036638066 0.039686773 0.0046309037 0.06282255
0000a0 f5 62 86 3d 89 33 00 3d 09 a4 92 3a 43 58 55 ba
       0.06561843 0.031299148 0.0011187802 -0.0008138457
0000b0 fa 5a f1 3d 55 a8 c3 3c e0 00 94 bc 51 20 7c 3d
       0.117849305 0.023883978 -0.018066823 0.061554257
0000c0 b7 ed 6e bc 47 60 99 3d 3d 4f 98 3d d4 c0 97 3d
       -0.014583043 0.074890666 0.074369885 0.07409826
0000d0 a0 fd b2 bc 09 87 57 bd 85 dc 08 3c cc 26 1f bd
       -0.021849453 -0.052619014 0.008353357 -0.03885536
0000e0 6e 98 14 bb c3 bb f5 bc 7f 69 54 bd b1 51 46 bd
       -0.0022673863 -0.029996758 -0.05185842 -0.04841775
0000f0 0f 6f bf 3b b9 b0 a2 bc 9d 94 dc bc 8b b9 d4 3c
       0.0058420966 -0.019859659 -0.026926333 0.02596738
000100 56 50 72 3c f3 7c 05 3d fd 57 e1 ba b7 bc 7c bd
       0.014789661 0.032589864 -0.001719236 -0.06170341
000110 b4 4d 2a bc 23 19 64 bd 5c 03 5c bd 45 0d a3 bd
       -0.010394502 -0.055688035 -0.05371414 -0.07961515
000120 3e cd 5f 3c 2a 06 d7 3d 38 fc 51 3d e5 b3 b4 3d
       0.013659773 0.104992226 0.051265925 0.08823375
000130 08 a7 08 3d 3c be cc bc e7 58 4c bd c7 2c 5e 3d
       0.03336242 -0.024993055 -0.04988947 0.05424192
000140 69 7a 16 3d ff b9 3c 3d f5 39 24 3d 3c ea 29 bd
       0.036737833 0.046075817 0.040094335 -0.04148315
000150 40 36 03 3d ec 0e 6d 3d 5e f8 24 bc 19 de 99 3c
       0.03203416 0.05787556 -0.010068981 0.018782662
000160 a7 05 85 bd 0b 15 88 3b 26 12 c0 bc 87 f3 cc bc
       -0.06495219 0.004152899 -0.023446154 -0.025018467
000170 4b a0 9a 3c 1e b5 3c bc 56 59 11 bc 36 73 03 3c
       0.018875262 -0.011517791 -0.008871397 0.008023074
000180 4e be 9e bb e5 a0 57 3d 76 c4 60 bb f6 c0 05 3c
       -0.0048444634 0.052643675 -0.0034296787 0.008163681
000190 2e 09 de bb 60 87 8c 3d 28 e9 36 bd 5e de 20 bd
       -0.0067759966 0.06861758 -0.04465595 -0.039274566
0001a0 02 e0 1d 3c 52 a3 04 3d fb de a3 3c 84 e3 73 3b
       0.009635927 0.032382317 0.020003786 0.0037214467
0001b0 65 14 64 3d 71 f7 9b 3d c6 d9 95 bc c3 b6 90 3d
       0.055683512 0.07615555 -0.018292319 0.07066109
0001c0 8d 81 6e bc ab fd 13 bb 27 71 1d 3d 1c 01 9b bd
       -0.0145572545 -0.0022581618 0.03843799 -0.07568571
0001d0 ac 42 0a 3d b4 b1 11 3d 37 43 f8 bc 5b 73 86 3d
       0.03375499 0.03556986 -0.030305488 0.06564971
0001e0 94 68 7a bc 9e 6a 46 3d 20 66 dc bc 3c 6d 74 bd
       -0.015283722 0.04844152 -0.026904166 -0.059674487
0001f0 2f 0e a0 3d d0 57 e8 3c 85 4e f3 3c 99 4e b1 bd
       0.07815205 0.028362185 0.029700527 -0.086575694
000200 d9 3f d7 bb de 08 a7 bd ef a0 b6 bc e0 04 17 3d
       -0.0065688905 -0.08155988 -0.022293536 0.036869884
000210 ab 65 fb bd 7f 1b f6 bc 3c 7e 2f 3d ec 28 a4 bc
       -0.12275251 -0.030042408 0.042844996 -0.020039044
000220 66 f8 ab 3d f3 2a 35 bd d2 d5 15 bc 61 a1 a5 bd
       0.083969876 -0.044230413 -0.009145217 -0.08087421
000230 4c 77 05 3d 41 03 60 3c a9 97 99 3b 53 96 d4 3c
       0.032584473 0.013672651 0.0046872688 0.025950586
000240 ef 9d 8a bc d0 92 f9 bc c0 a4 0c bd 87 0f 7a bc
       -0.016921012 -0.030465513 -0.034336805 -0.015262491
000250 77 e1 dd 3c 8a 6f 34 bc 1f 4d 5c bd 19 50 3b bd
       0.02708505 -0.011012921 -0.053784486 -0.045730684
000260 ef 9c 50 3d 41 5f db 3c 07 d9 6a 3d d8 8c 30 3d
       0.050930914 0.026778819 0.05733588 0.04310307
000270 e0 14 35 3d 7c 5c 9e 3d 60 4f 1c 3c 82 e3 3b 3d
       0.04420936 0.07732484 0.009540409 0.045871265
000280 14 16 1f 3d 40 fc 22 bd 77 92 cd 3c 73 76 8b bd
       0.038839415 -0.039791346 0.025094254 -0.06809702
000290 fa 3c 98 bb 34 f6 c3 bb 1b fc cf bd dd 90 ae 3c
       -0.004645941 -0.0059802774 -0.10155507 0.02130931
0002a0 bc 29 25 3d 02 17 49 bd ea 7e 3b 3d d9 30 f4 3a
       0.040323004 -0.049094208 0.04577533 0.001863028
0002b0 0d 78 04 3d b6 55 9f bc 3a 4a 00 bd 0f ec 4f 3d
       0.03234105 -0.01945005 -0.031320788 0.050762232
0002c0 1f f2 7c bc c7 c0 e0 bb d6 78 0d bd 4b 74 02 bc
       -0.015438586 -0.0068589184 -0.034539066 -0.007962297
0002d0 1e 45 7d 3d 7d b7 df bb 84 8b 4f bc 21 ac 95 3d
       0.061833493 -0.0068272934 -0.01266754 0.073082216
0002e0 fa 93 10 bd 25 cd 0d 3d ef 8b 50 3d ee cf 25 bd
       -0.03529737 0.03461947 0.0509147 -0.0404815
0002f0 61 4e b3 3d 67 2a 5f bc 4a 2d a8 3c b5 c0 3b 3c
       0.08755184 -0.013620949 0.020529408 0.011459519
000300 62 ec 12 3b 10 7b 88 3d af 90 8a bc a4 17 65 3c
       0.0022418727 0.06664097 -0.016914694 0.013982687
000310 76 6e 58 bd 74 e1 34 3c 88 c0 f9 3c 26 ef 05 bd
       -0.05283972 0.01104008 0.030487314 -0.032698773
000320 2d 82 17 bc 08 1d 69 bd 3c c2 39 bd 6c 87 3e bd
       -0.009247345 -0.056912452 -0.045351252 -0.046515867
000330 bd 32 ae 3d 7b 77 06 3b b2 dc 69 3d d8 80 75 bd
       0.08505771 0.0020517993 0.057095237 -0.059937328
000340 3e de a0 bd 81 df 5f 3d 54 ca 66 bd 96 0a 1a 3d
       -0.07854889 0.05465651 -0.0563453 0.03760775
000350 ac 6d 87 bd 74 e8 80 bd 02 75 a8 bc 19 01 3c bd
       -0.06612715 -0.06294337 -0.020563606 -0.045899484
000360 4d bb ff 3d 2c 6a a0 3c db c7 9d bd 20 74 0a 3c
       0.12486897 0.019581877 -0.07704135 0.008450538
000370 cf 72 0a 3c 3e 76 ce 3c d4 f9 7a 3d 39 bd 72 bd
       0.008450224 0.025202867 0.06127341 -0.059262488
000380 f9 44 cc bc b9 d7 af 3c 25 1e d7 3c 57 0d b9 3d
       -0.024935232 0.02146517 0.026259491 0.090357475
000390 36 c0 9b bd 69 bb 65 3c c7 8c 43 3d 2f f0 f8 3c
       -0.07605021 0.014021733 0.047741678 0.030387966
0003a0 b6 e1 cf 3c 02 aa 82 3d 55 07 3f bc 73 f1 d0 3c
       0.025376182 0.06380083 -0.011659463 0.025505757
0003b0 b3 ba 63 3a be 4d b3 bc 2b 09 42 bd 65 e8 a5 3c
       0.0008687183 -0.021887656 -0.047372025 0.020252416
0003c0 10 d8 70 bd d3 f7 34 3c 26 ba 35 3c 15 89 dc 3d
       -0.058799803 0.011045414 0.0110917445 0.10768334
0003d0 37 0f a3 3c a9 81 7b ba 35 8c 82 3d f0 a8 81 bd
       0.019904716 -0.0009594211 0.063743986 -0.063310504
0003e0 25 72 ac 3c 5e c3 93 bc 27 fc de 3c 6c 7a 7f 3d
       0.021050522 -0.018037494 0.027219845 0.06237261
0003f0 5c 1a 10 bc 51 a2 32 3d 92 e7 b2 bc 37 a4 13 3d
       -0.008795347 0.04361183 -0.021838937 0.03604528

conv2.bias f4 [32]
000000 a4 1b 82 bb ac 57 22 3d 90 91 58 3c 2b 3d 54 3c
       -0.00397058 0.03963439 0.013218299 0.012954037
000010 5b c4 3e 3d ff 13 1e 3d d6 8f 81 3b 3b 1d 62 3d
       0.046573978 0.03859329 0.003953914 0.055203658
000020 13 0e 16 3d 91 cb ec bc 91 7e df 3c 5a 1b cf 3b
       0.036634516 -0.028905662 0.027282031 0.006320399
000030 c3 2c d4 3c b3 13 56 3d 94 7e 54 3d cb 1b ed 3c
       0.02590025 0.05226488 0.051878527 0.028943917
000040 df 21 21 3d 41 94 08 3d 08 a2 a5 3c 18 15 81 bc
       0.039338943 0.03334451 0.020218864 -0.015757129
000050 11 47 90 3c d9 f4 49 3c cb 7a 30 3d 06 a3 7e 3c
       0.017612012 0.012326443 0.043085855 0.0155417975
000060 8d bf 72 3a 5c 71 bd 3b 91 75 8b 3c 1b e3 a0 bc
       0.00092601107 0.0057813358 0.017023833 -0.019639542
000070 58 7e f6 bc e9 cc bd bc 40 5d 1d 3d 03 2f c5 3c
       -0.030089542 -0.023168998 0.03841901 0.024070268

conv3.weight f4 [32, 32, 5, 5]
000000 64 de f7 ba 6e 1a 92 bb 57 70 9d bc 62 ac 49 bc
       -0.0018910882 -0.004458717 -0.019218607 -0.012309166
000010 e6 73 5a bd c6 1a 85 bd a8 25 34 bc 6a d6 1f bc
       -0.053333186 -0.06499247 -0.010995306 -0.00975571
000020 5d f8 8e 3d ab a2 34 bd 6d 4d 78 3d 3d fb 4c 3d
       0.06980965 -0.044100445 0.060620714 0.050044287
000030 f1 48 9e 3d 9d df 64 3c 57 eb 1b bd 4a 83 a5 ba
       0.07728756 0.013969329 -0.038066234 -0.0012627628
000040 f9 15 48 3d ae 56 ea 3b c0 d0 48 bc 9c bb 2c bd
       0.04884908 0.0071514463 -0.012256801 -0.042171106
000050 9d 22 10 bc e8 d8 8d 3c 42 1d 19 3c be c2 89 ba
       -0.008797315 0.017315343 0.0093453545 -0.0010510308
000060 3c 07 d3 bd 12 6a f5 3c 34 d1 81 bd 8e e2 d9 ba
       -0.10304114 0.029957805 -0.063387305 -0.0016623305
000070 42 72 27 bb 83 6f 75 bc 9c 9c a0 3b 3e 62 eb 3c
       -0.002555028 -0.0149802 0.004901482 0.028733369
000080 c9 9a 82 3c 4e 0b d6 bc 29 ab 4e 3d 45 7f a7 3c
       0.015942948 -0.026128437 0.0504562 0.020446429
000090 61 7e 32 3d f3 2b 59 bc 0e 4f b2 3b 86 3b ce 3d
       0.043577556 -0.013255107 0.005441553 0.10069947
0000a0 d8 1c 61 bd 86 82 ba bc 6e dc 47 ba cc 61 b1 3d
       -0.05495915 -0.022767317 -0.0007624094 0.086612314
0000b0 64 a7 bd 3d 96 18 61 bd 97 76 c8 3d 88 4e 8e 3d
       0.09260443 -0.054955088 0.09788244 0.069485724
0000c0 97 69 3f 3c 28 87 82 3d 97 d1 99 bd be 7d 91 bc
       0.011682889 0.06373435 -0.07510679 -0.017760154
0000d0 0d ca 05 bd 45 37 17 3d f2 be 8e 3d b3 f5 18 bd
       -0.032663394 0.036917944 0.06970014 -0.037343692
0000e0 7d c4 8f 3c ea 7e 86 3d b3 b6 2c 3d 8c ea 94 3d
       0.017549748 0.06567176 0.042166423 0.07271299
0000f0 9c 93 ef bc 62 90 ac ba 6a 25 14 3d 40 02 90 3d
       -0.02924519 -0.0013165588 0.036168493 0.07031679
000100 62 89 55 3d 81 af 80 3c e9 7e 29 3d 1c a4 ac 3d
       0.05213297 0.015708687 0.041380797 0.08429739
000110 cb 74 21 3d 19 1e 8a 3b f7 e7 d6 3c f8 1c 11 3c
       0.039418023 0.0042150137 0.026233656 0.008857004
000120 88 a3 9e 3d 16 42 87 bc f6 4a ff 3c ff f2 30 3d
       0.07746035 -0.016511004 0.031163674 0.04320049
000130 c3 66 c7 bc 2e 41 7b 3d ab f9 ee bb 29 ce 2c 3d
       -0.024340993 0.061341457 -0.0072929463 0.042188797
000140 62 fa 62 3c 6e d7 e7 3d f5 cf 9a 3c b0 a0 13 bd
       0.013853641 0.11320387 0.01889799 -0.036041915
000150 e9 d1 02 bd b5 43 b3 bc 03 94 86 3c 0b 65 21 3d
       -0.031938467 -0.021882871 0.016428 0.039403003
000160 e6 28 e8 bb 99 b5 e6 3c ab 83 6f 3d 81 e4 da 3c
       -0.0070849536 0.028162764 0.058475178 0.026720287
000170 cb 8b 48 bc d9 68 18 bd 65 6e 92 bc 1f d8 73 bd
       -0.0122403605 -0.037209366 -0.017874906 -0.05953228
000180 31 2a 63 bd 65 9b b9 bd 8e b1 88 bd 61 6d 0f 3d
       -0.05546016 -0.09062842 -0.06674491 0.03501642
000190 54 bc 42 bd 07 16 81 3c 85 9b ef bb 2d 85 2c 3d
       -0.047542885 0.015757574 -0.0073122405 0.042119194
0001a0 73 47 74 3d 8f d3 84 bd 7f 04 5e 3d 45 38 91 3d
       0.05963845 -0.06485664 0.054203507 0.07090811
0001b0 5e 37 86 3d 50 3f 0f 3d 63 2e b4 3c 42 f9 b0 bb
       0.06553529 0.03497249 0.021994775 -0.0054008076
0001c0 d3 c4 94 3d 33 89 2e 3d 8a c2 f1 3b 4d 5b a5 3c
       0.07264104 0.042611312 0.007377927 0.020185137
0001d0 c6 3d 3b bc 0c f5 fd 3c 6e 62 97 3c 18 04 d3 bc
       -0.011428302 0.031000637 0.018479552 -0.025758788
0001e0 13 b5 21 3d 1e 9f 26 bd 53 3e 1f bd 2f 82 f7 bc
       0.039479326 -0.04067909 -0.038877796 -0.030213444
0001f0 eb 86 10 bd 8c 12 ca 3c 7e 06 1a bd 16 66 41 3d
       -0.035284918 0.024667047 -0.037603848 0.047216497
000200 35 4d ac 3b ec fb 9d 3c 93 50 ee 3c 84 d5 be 3d
       0.0052582272 0.019285165 0.029091155 0.093180686
000210 a6 a6 03 3c d6 c7 90 bd f7 95 69 3d d4 ef 37 bc
       0.008035338 -0.07069366 0.057027783 -0.011226613
000220 70 67 3a 3d 8c 21 66 bc 47 87 39 bd 78 f8 e0 bb
       0.045508802 -0.014046084 -0.045295026 -0.0068655573
000230 5c c6 eb 3c e9 3c 9a 3c a9 61 5c bd 90 53 7b bd
       0.028781109 0.018827872 -0.053804073 -0.06135899
000240 eb 0c 30 bc 00 40 9a bd b2 db be 39 fe 6e fc bc
       -0.010745267 -0.07531738 0.0003640331 -0.030814644
000250 19 c8 68 bd 83 6c 93 3d 3c 59 60 3c 2c d7 09 bc
       -0.056831453 0.07198431 0.01369315 -0.008413117
000260 4c bd 71 bd dd 04 16 bd d1 ed a0 3c d2 e0 57 bd
       -0.05901842 -0.03662573 0.01964465 -0.05270464
000270 54 de c1 bc 17 b8 89 bd c3 1a be bd 82 92 e5 bb
       -0.023665585 -0.067245655 -0.09282448 -0.0070059905
000280 39 a9 bb 3c 87 87 c4 bd c3 ec 82 3c 7c aa 41 3c
       0.02290784 -0.09596162 0.015982037 0.011820432
000290 fa 31 ad bc 1f c5 b4 bd db 52 1b 3d e9 f5 23 bc
       -0.021141995 -0.0882666 0.037920814 -0.01000736
0002a0 d7 15 22 bd 10 39 16 3d a0 d1 06 bd 4e 35 09 3d
       -0.03957161 0.036675513 -0.032914758 0.0334981
0002b0 b9 cf eb bc 29 62 cb 3c 37 76 0b 3d 7e 34 c8 3c
       -0.028785573 0.02482708 0.034048285 0.024439093
0002c0 05 1e 83 3d 98 3c 7d 3c 81 3f 55 3d 33 0f 81 bc
       0.0640221 0.015456341 0.052062515 -0.015754318
0002d0 6f 93 2f 3c 0b 88 69 3c 2c d9 40 3d 7c 7a 15 bb
       0.010716303 0.014253627 0.04708211 -0.0022808602
0002e0 1e 8f 13 3c 60 28 00 3d 92 69 1e 3d 1b 32 c1 3d
       0.00900629 0.031288505 0.0386749 0.09433385
0002f0 fe 63 83 3d 7e 5e bb 3c 6a 88 2b 3c 0b 1e b6 3c
       0.06415556 0.022872206 0.010469535 0.022231122
000300 3a fd 80 3d 0d 75 1a 3d e9 24 ef bc eb cc 9d 3c
       0.06298299 0.037709285 -0.029192405 0.019262752
000310 3a 42 56 bd 07 b4 e6 bc 87 44 b9 bd 1e e4 17 be
       -0.052309252 -0.028162016 -0.09046274 -0.14833114
000320 6f e6 c8 3c 6c ab 0d bd c6 9d ff bc d6 c5 bc 3c
       0.024523942 -0.03458731 -0.031203162 0.023043554
000330 87 7b 1a bc 4f 68 32 bc cf 52 d1 bb 98 ab 0d 3c
       -0.009428865 -0.010889127 -0.0063880454 0.008646868
000340 b7 fe ee 3c bc b9 2c 3b ef 0d af bd 5d 21 59 bd
       0.029174192 0.0026355824 -0.085475795 -0.053010333
000350 04 03 a1 bc ed b8 80 39 97 a3 80 3d 86 26 a6 bb
       -0.019654758 0.00024551843 0.06281202 -0.0050705103
000360 75 20 42 3b 08 84 d2 bb 87 5e e8 3d ca 2a 92 3d
       0.0029621397 -0.0064244308 0.11346155 0.071370676
000370 3c e0 66 3d 89 bc 92 3d 3e 7f 3e 3d b8 b5 c6 3c
       0.05636619 0.071648665 0.046508066 0.024256572
000380 c2 58 40 3d d0 5e a4 bd 03 da fc bb 8e 7a 8a bd
       0.046959646 -0.080258965 -0.0077164187 -0.06761657
000390 45 12 d5 bc a0 95 3d 3d c6 48 95 bd d7 a2 ce bb
       -0.026009688 0.04628527 -0.07289271 -0.006306033
0003a0 c0 22 16 bd 8f c1 9a bc 6b 1a 17 3d 2d 7f e9 bc
       -0.036654234 -0.018891124 0.03689043 -0.028503025
0003b0 c9 fc 16 bd c8 a2 94 bc 60 41 23 3d 2e 61 9f 3d
       -0.03686217 -0.018144026 0.03985727 0.077822074
0003c0 4c 22 0d 3d b1 6d 69 bc a0 46 90 3d 79 7c a2 3d
       0.034456536 -0.014247344 0.07044721 0.079338975
0003d0 ba 7e 63 3c bd 0c 2e 3d d1 d3 31 3d 86 4f e4 3b
       0.013885194 0.042492617 0.043414894 0.0069674877
0003e0 84 9a ad 3d 3e 43 58 3d e1 4f e5 3d a8 d5 5d 3d
       0.08476737 0.052798502 0.11196876 0.054158837
0003f0 8c 54 36 3d 40 a9 8b bc 18 2a 9b bc db 9a e0 bb
       0.044514224 -0.017048478 -0.01894097 -0.0068543977

conv3.bias f4 [32]
000000 ec 8e 01 3c 24 a1 0b 3d e1 f0 44 bd 81 5b 1d 3d
       0.00790761 0.034089223 -0.048081283 0.038417343
000010 24 8a ee bc 46 24 8f 3d 74 52 f5 3c 87 e8 04 bd
       -0.029118605 0.069893405 0.029946543 -0.032448318
000020 a3 53 aa 3b 95 0c b2 3b 21 77 15 bb f6 d8 3d bc
       0.0051979586 0.005433629 -0.0022806602 -0.011587372
000030 0e 8e 0a bb c4 f1 c7 3c d9 8b 14 3d 83 a7 27 3d
       -0.00211418 0.024407275 0.03626618 0.040931236
000040 90 cb 36 3d 5f 20 28 3d 39 6e 6a bc 6a cf df 3a
       0.044627726 0.041046496 -0.014308506 0.0017075364
000050 ef 9b af 3c c5 84 79 bc 44 45 5b 3d a7 ae 31 3d
       0.02143666 -0.015229409 0.053532854 0.043379452
000060 bf 2b 4a 3d 31 bb 71 bb 9c 25 27 3d e2 10 35 bd
       0.049358126 -0.0036885256 0.04080735 -0.044205554
000070 24 87 fc bb 1b 8c 1b 3c 98 a2 49 3c a0 7a e2 3b
       -0.0077065397 0.009493853 0.012306832 0.0069115907

MLP1.weight f4 [50, 1344]
000000 2d e7 1c bc f9 36 be 3c ee 21 f7 3c 93 f8 54 3d
       -0.009576601 0.023219572 0.030167546 0.05199487
000010 a9 fe 26 3d 78 51 06 3d 3e 0f 46 3d 94 9d f0 bc
       0.040770207 0.03279254 0.04835438 -0.029372014
000020 0e 59 17 bd 2a 04 2f 3d a5 37 52 3d bc 89 c6 bb
       -0.036950164 0.04272858 0.051322598 -0.0060588997
000030 b8 39 55 3a d0 9a 52 bd 24 a5 5d bb 64 75 a1 3c
       0.0008133906 -0.051417172 -0.0033820355 0.019709297
000040 91 6c be 3c 8b 21 2c 3b 7e a8 01 bd dc d6 f1 bc
       0.023245128 0.002626511 -0.031654827 -0.029521398
000050 37 d2 83 bd cc 37 74 3b 45 9f 1c 3c 1b 09 bc 3b
       -0.0643658 0.0037264703 0.009559457 0.00573839
000060 18 b3 c2 bb da 60 32 3c c3 c3 16 bd 29 bd 9b bc
       -0.00594176 0.010887349 -0.036807787 -0.019011097
000070 09 54 58 3c 73 2e 1f bc c3 fa 85 3c 7d ff b4 3b
       0.013203629 -0.009715664 0.016354924 0.0055236206
000080 7e ce b4 3b 57 12 43 3d 47 08 07 bd b0 19 a1 bc
       0.00551778 0.047624912 -0.03296688 -0.019665569
000090 16 ef 07 bd 0d c6 83 3b d4 e7 0c bc 4a ed 9c 3c
       -0.033186994 0.004021412 -0.008600194 0.019156117
0000a0 a9 a2 74 3c 99 29 06 3d 6d 8d 34 3c 10 a3 39 bc
       0.014931359 0.032754514 0.011020047 -0.011330381
0000b0 65 05 4f 3d 34 50 e8 3c fd be 7e 3b 24 c3 44 3c
       0.050542254 0.028358556 0.0038871162 0.012009416
0000c0 4d 42 74 3a 78 c5 d3 3c 99 51 4c 3b 74 d3 ea 3b
       0.0009317741 0.025850996 0.0031176566 0.0071663205
0000d0 19 84 2a 3d e4 14 14 bc b5 c4 85 3c e7 11 ef 3c
       0.041629884 -0.009038184 0.016329149 0.029183341
0000e0 f5 f8 f3 ba 56 a1 92 3c 9a a2 9f 3c 00 e5 2b 3d
       -0.0018613624 0.017899197 0.019486714 0.04196644
0000f0 41 29 9a 3c 9f 4a 48 3b 98 36 15 3b 8f d3 d1 bb
       0.0188185 0.0030562056 0.0022768136 -0.0064033936
000100 d3 40 72 bc cd 3f b1 3c 63 bd 32 3d d3 bf 45 bd
       -0.014785963 0.021636868 0.043637644 -0.04827864
000110 48 84 3f 3d fb 71 85 3b e0 16 ba 3d f2 1e 33 3d
       0.046757013 0.0040724254 0.09086394 0.043730684
000120 eb 51 cd bc 4b 7d 6a 3d fa a9 cb bc 8c 07 86 bc
       -0.025063476 0.057248395 -0.024861325 -0.01636102
000130 52 a9 81 3c ef bf 1f bd 56 94 a1 3a 59 0f 26 bd
       0.015827809 -0.0390014 0.0012327533 -0.04054198
000140 e4 73 cf 3c 15 c6 0f 3d 00 5c ae 3d 26 0b a1 3d
       0.025323816 0.035101015 0.08513641 0.078634545
000150 03 cf 03 3e 01 3a bd bd 79 df 56 bc 1a f6 29 3d
       0.12871937 -0.09239579 -0.0131148035 0.041494466
000160 50 e3 e1 ba db 15 89 ba a7 7f 08 bb e8 a2 33 3d
       -0.0017233882 -0.0010458784 -0.002082804 0.04385653
000170 a0 a8 bf bc b2 56 b8 b9 98 84 2b 3d de b9 6e 3c
       -0.023395836 -0.00035159808 0.041874498 0.014570681
000180 ad 72 91 3c 95 65 0b 3d f6 be 16 3d 48 4d 0d bb
       0.017754877 0.034032423 0.03680321 -0.0021560956
000190 73 50 93 3c af 9f 7d 3c 22 b3 8a 3c a8 26 55 3d
       0.017982697 0.015479966 0.01693112 0.05203882
0001a0 85 95 96 3c 20 5d f8 3b 84 7c d8 bc 43 e3 52 bc
       0.018381843 0.0075794607 -0.026426561 -0.012871566
0001b0 b5 ae 4c bc bc af 50 bc 81 c9 5a 3a 3d 3c 8d 3c
       -0.012492825 -0.012737211 0.00083460665 0.017240638
0001c0 a0 79 5e 3d 3d ab a6 3c b0 e3 59 3d 50 cc e0 bb
       0.05431521 0.020345325 0.053195655 -0.0068602934
0001d0 fe 36 95 3c 30 ff 18 3d 73 d5 8c bc 7c 53 7c 3c
       0.018214699 0.03735274 -0.017191624 0.015400764
0001e0 39 39 6b bd 58 68 7f bc 7c fa ba bb 86 20 a9 bc
       -0.05742762 -0.015588842 -0.0057061296 -0.020645391
0001f0 97 ae 6d bc 72 7d 53 bd ce 6b 9d 3d aa 93 5f 3d
       -0.0145069575 -0.051633306 0.07686578 0.054584183
000200 a5 1e b6 bd 29 9a 47 bb bc fe cb 3c 5e e1 76 bc
       -0.08892564 -0.0030456877 0.02490174 -0.01506838
000210 36 5a 08 bd dc 4b 20 3d dd 5d 95 3d 1c 11 7a bc
       -0.033289157 0.039134845 0.072932936 -0.015262868
000220 a6 e3 62 bb 87 48 53 3d d9 8a b5 3c 04 4a cc 3c
       -0.0034620552 0.05158284 0.022160934 0.024937637
000230 d0 31 08 3d 8e e1 7a 3c df 3e 1e bb f2 a3 10 3d
       0.03325063 0.0153125655 -0.002414636 0.0353126
000240 51 90 11 3d b6 ad 09 3d d4 53 2a 3c 62 d9 30 3c
       0.03553802 0.03361293 0.010395963 0.010794016
000250 92 80 18 3d 47 cb 3b bd fd 5c 8a 3b 0c db 2f 3d
       0.03723199 -0.045848157 0.004222511 0.04293351
000260 32 19 02 38 79 5a e7 3c 60 34 e9 3c 26 d3 25 bc
       3.101788e-05 0.028241383 0.028467357 -0.0101211425
000270 45 30 93 bc 0b d7 ef bb 66 2b 2d 3d 42 45 e2 3c
       -0.017967353 -0.0073193363 0.042277716 0.027620915
000280 de bc ce 3b 79 0c 6f 3c 00 77 15 bb 00 c4 b9 3c
       0.006309136 0.014590376 -0.0022806525 0.022676468
000290 f2 19 1a bc 2c a4 83 bc 38 d8 a1 3b 9d 4b 27 bd
       -0.0094056 -0.016069494 0.0049391054 -0.040843595
0002a0 1b d4 85 3c f8 47 76 3c 85 4d b3 bb 9b dd 74 3c
       0.016336491 0.015031807 -0.0054718875 0.014945413
0002b0 87 69 65 bb c6 05 36 bd ba c9 0b 3d fa b1 0b 3d
       -0.0035005526 -0.0444391 0.03412793 0.03410528
0002c0 62 cb a3 3a f6 16 c8 3c 81 8a 07 3d 8f 43 fe 3b
       0.0012496526 0.024425011 0.033091072 0.0077595185
0002d0 21 9a 6f 3d 01 2b 43 39 27 65 f9 bc fc fd ab 3b
       0.0584966 0.0001861267 -0.030443741 0.005248783
0002e0 dc 68 15 bb da 08 b7 3b 09 87 be 3c 48 d3 69 3d
       -0.0022798097 0.005585772 0.02325775 0.05708626
0002f0 0a c7 b2 3c 2e 03 28 3d 92 f9 f6 bc 40 93 12 3d
       0.021823425 0.041018657 -0.030148301 0.03578496
000300 5a 0b b9 3b d5 fc 1f 3d 69 e1 58 bb b5 7e 0f bd
       0.005647105 0.03905948 -0.003309334 -0.035032947
000310 03 dd c0 3b ec 63 2a bd 0b 5e 1d 3c ef d4 05 bd
       0.0058857216 -0.0415992 0.009604941 -0.032673772
000320 a3 77 e5 3c 0f fa dd bc 69 80 13 bd bc 5f 9e bc
       0.028011149 -0.027096776 -0.036011133 -0.01933276
000330 e4 e8 cd 3c 32 b5 9f bc a3 ba fd bc c8 fc 05 bd
       0.025135465 -0.01949558 -0.030972784 -0.032711774
000340 54 47 73 3b cf 4f 2b bd b2 1c f4 3c 65 c6 c2 3b
       0.0037121372 -0.04182416 0.02979884 0.0059440606
000350 5f 85 e1 ba 41 ce 9c bd 2b a9 77 3c fd cd fe 3c
       -0.0017205885 -0.07656527 0.015116016 0.031104082
000360 07 bd 7f 3b 60 00 85 bc e6 e2 c5 3c d8 18 f7 3c
       0.0039022581 -0.01623553 0.024156045 0.030163214
000370 1e fe a6 bc fd d0 c4 39 33 83 89 3d 04 8b 13 bb
       -0.020384844 0.00037539742 0.067144774 -0.002251328
000380 b3 92 06 bc 3a c2 cd 3a 6c a2 e3 bb f6 3a c3 bb
       -0.008213687 0.0015698143 -0.0069468524 -0.0059579564
000390 3d 1d 29 3d e0 09 0d 3d 79 6a 4a 3d 80 54 1c 3d
       0.04128765 0.034433246 0.049417946 0.038166523
0003a0 9b b8 03 3d ff dd 4c 3d e7 f5 cc 3c 86 21 2b 3c
       0.032158475 0.0500164 0.0250196 0.010445004
0003b0 e8 8a 83 3d 72 c8 0a bc 38 9c e5 3c 29 22 ec 3c
       0.06422979 -0.008470641 0.028028592 0.028824883
0003c0 9b c7 3d 3c 3c 3b 5b 3d 59 62 08 bc b4 59 ee 3c
       0.011583234 0.053523287 -0.008324229 0.029095508
0003d0 fd 20 2e bc f6 e7 b8 bb 92 12 7c 3c 1d bf e8 bb
       -0.010627982 -0.0056428863 0.015385287 -0.0071028606
0003e0 49 9e b4 bb c7 fe 89 3c 62 44 5c 3b e3 d9 47 bb
       -0.005512033 0.01684512 0.0033610095 -0.003049486
0003f0 18 aa fa 3b 8d 54 25 b9 4f 72 ec 3b 8d dc c8 3b
       0.0076496713 -0.00015767124 0.007215775 0.0061298073

MLP1.bias f4 [50]
000000 a3 25 17 3d 65 ab f4 bb e0 d0 2e bc dd 43 a3 3c
       0.036901128 -0.007466721 -0.010669917 0.01992982
000010 a6 d9 b3 3c 0b 71 35 ba 1a 67 fb bb e2 65 1e 3c
       0.021954369 -0.0006921447 -0.007672203 0.009667845
000020 95 3e 20 bc 39 bb a3 3c 0d a1 38 bc 16 5f 6b bc
       -0.009780546 0.019986736 -0.011268866 -0.014365932
000030 46 9a 77 bb 69 03 12 bd 7e e9 62 bc e2 71 ab bb
       -0.0037781163 -0.035647783 -0.013849614 -0.0052320817
000040 cf d5 09 3d d1 89 f7 3c d6 dc 34 bc 15 63 ab 3c
       0.03365117 0.030217083 -0.0110389795 0.02092127
000050 53 99 ff 3b ad e4 44 bc 47 07 46 bb 51 80 4e bc
       0.00780026 -0.012017411 -0.003021674 -0.012603835
000060 44 0f 0d bd f3 0d 0a 3d 3b 73 2b bc fa 82 5f bc
       -0.034438387 0.03370471 -0.010464485 -0.013642067
000070 f4 c4 11 bd ee e4 ad bb 09 51 de bc c1 de 42 bd
       -0.03558822 -0.0053068316 -0.02713825 -0.047575716
000080 42 57 3e 3b 7e 27 25 3d 7b 40 3c 3d 6c 73 37 3d
       0.002904371 0.040320866 0.04595993 0.04478781
000090 b9 87 90 bc 26 9b 4e bd 77 54 a0 bc b2 bb 0d bd
       -0.017642843 -0.05044093 -0.019571526 -0.03460283
0000a0 b3 b9 39 3c 90 f6 43 3c f5 94 83 bc ac 1f fe 3c
       0.011335778 0.011960641 -0.01606224 0.031020962
0000b0 19 fb 15 bd f6 04 6f bc af 14 83 bc 54 44 87 bc
       -0.03661642 -0.014588585 -0.016001074 -0.016512074
0000c0 46 ea da 3a 9b 57 a8 3c
       0.0016701899 0.020549586

MLP3.weight f4 [50, 50]
000000 24 8c 2e 3d ff a4 41 3d 89 bf af 3d 67 0f a9 3c
       0.042614117 0.047276493 0.08581454 0.020637227
000010 9f 5e ca bd d7 67 dc bd 10 90 a8 bc b0 5f 2d 3e
       -0.09881329 -0.107619934 -0.020576507 0.16931033
000020 fb dc 1d 3d 95 59 07 be 1c 69 e1 bd 30 d3 1b bd
       0.03854082 -0.13217767 -0.11006376 -0.0380432
000030 8c eb 84 3d 16 4d d3 3d 0b 28 b7 bd 2a c8 0b be
       0.064902395 0.10317437 -0.089431845 -0.13650575
000040 82 5b 14 3c fd 17 8b 3d f5 31 2d 3d cd f9 be bd
       0.00905502 0.06791685 0.04228397 -0.093249895
000050 66 30 8b 3d 21 73 99 3d 05 ea 0f 3d 89 03 a3 3d
       0.06796341 0.07492662 0.035135288 0.07959659
000060 d2 5e 0d be fa 0a cd 3a 5c 55 bd 3d 36 df dd bd
       -0.13805702 0.001564353 0.09244797 -0.1083359
000070 af ff 7b 3d ce d1 d2 bd 1d 24 12 3d 29 02 4b be
       0.061523136 -0.10293923 0.03567897 -0.19825043
000080 32 7f 01 3e 03 ea fa 3c ea d7 04 be a7 72 bd bd
       0.12646177 0.030629164 -0.1297299 -0.09250384
000090 e8 64 23 3e f2 39 a5 bb b5 ff 23 bc c6 c1 d6 bd
       0.15956461 -0.005042308 -0.010009696 -0.10486178
0000a0 24 0a c0 bd 01 75 bc bc 52 e2 93 bd d3 6e 07 3e
       -0.09376934 -0.02300501 -0.072209015 0.1322587
0000b0 5a 65 c3 ba 80 db e5 bd 07 1b 18 bc 90 5f ce 3d
       -0.0014907524 -0.11223507 -0.009283788 0.10076821
0000c0 48 3d bc 3d 80 12 bc 3d f4 d3 36 bd 70 55 b5 3b
       0.09191376 0.09183216 -0.044635728 0.0055338666
0000d0 e6 d1 f8 bc 08 53 ae bd 3d 6d 46 3d 7e ee 04 3d
       -0.030373525 -0.08511931 0.04844402 0.032454006
0000e0 d9 ff 2f 3c c9 58 78 3d cd 3d e4 3d f8 0b d2 3d
       0.010742151 0.060631547 0.111446 0.10256189
0000f0 ee a7 26 bd ac 83 66 3d 1c e7 1a 3e 57 b8 b1 bd
       -0.040687494 0.056277916 0.15127224 -0.08677738
000100 96 65 75 bd 06 3a 9c bb c6 b3 63 bd 03 89 2a 3d
       -0.059911333 -0.004767659 -0.055591367 0.04163457
000110 4f d2 86 3d dc ce 08 3e f2 34 cd bd 72 f1 89 3d
       0.06583082 0.1336016 -0.10019864 0.06735505
000120 d7 c9 d7 bc d0 53 ae bd 06 81 b2 bc 0c fa a4 3d
       -0.026341362 -0.0851208 -0.021790039 0.08055505
000130 a6 ff 12 3e 03 40 ce bd f9 c3 d6 bc 3b 71 8f 3c
       0.14355335 -0.10070803 -0.026216494 0.017510047
000140 16 3f 95 3d 0b 09 5c be e5 94 1b be 79 e8 15 bc
       0.07287423 -0.21487825 -0.15193518 -0.009149664
000150 f2 b8 02 3e df 6d 0b 3e 18 e6 e1 bd 42 16 bd 3d
       0.12765864 0.13616131 -0.11030215 0.09232761
000160 c2 fd 3e bc 38 52 93 3d 75 e3 86 bd 68 87 a2 3d
       -0.01165718 0.07193416 -0.06586353 0.07935983
000170 1a 6e 7e 3d 88 71 99 3c 91 f7 b9 bb a6 1e c0 bd
       0.06211672 0.018730894 -0.005675264 -0.09380846
000180 b9 5c 40 be 5d 67 f5 3d 38 53 ef 3d da 9d 16 3d
       -0.18785371 0.119826056 0.116857946 0.036771633
000190 72 aa 91 3d 1e 75 91 3d 24 8b ac bd 27 7b cc 3d
       0.07112588 0.071024165 -0.084249765 0.09984427
0001a0 e0 7d 96 bd 19 8e 3a 3e 2d 82 10 3e 48 e5 e0 bd
       -0.073482275 0.18218268 0.14112158 -0.10981232
0001b0 49 77 c9 3d 46 64 a0 3d 6e 4f f3 3c d6 65 09 3e
       0.09837205 0.07831626 0.029700961 0.13417754
0001c0 db b2 25 3e 4e b9 a8 bc b3 b6 c8 3d 28 13 a4 3d
       0.16181509 -0.020596173 0.09800472 0.08011466
0001d0 8d 4b db bd a8 b4 a1 3d ce 32 74 bb 73 f7 43 3d
       -0.107077695 0.078957856 -0.0037261727 0.047843408
0001e0 a4 e1 a4 bd c3 93 f2 3d 8e 6c 6f be 0b 1a 81 bc
       -0.0805085 0.118445896 -0.23381254 -0.015759489
0001f0 84 eb aa 3d 27 29 b9 bd f5 d6 07 be 64 12 29 be
       0.08345702 -0.09041052 -0.13265593 -0.16510922
000200 8f c0 3a be 1c 78 f0 3c 5b d9 0b 3e 90 85 ed bd
       -0.18237518 0.029354148 0.13657133 -0.11597741
000210 c3 16 5a 3d 53 c4 4f bd 37 c3 58 3d 9e 3a e0 bd
       0.053244364 -0.05072434 0.052920546 -0.1094868
000220 25 e5 8d bc 4b cf 7f bd d5 ea 04 3e ed 8f 31 bc
       -0.017321179 -0.06245355 0.12980206 -0.010837537
000230 0e 6f 38 3d ff 1d d6 3d 53 d8 e3 3d 99 19 f0 3d
       0.045027785 0.1045494 0.11125245 0.11723632
000240 fa 0a 9a bd 30 03 d9 3d 24 e6 48 3b fa c3 ca bc
       -0.07521625 0.10596311 0.0030654753 -0.024751652
000250 2f 9f 01 3e 1f ff a3 bb f9 ff 8c 3d 28 d1 f0 bd
       0.1265838 -0.005004778 0.068847604 -0.117586434
000260 ed d6 11 3e 52 b6 a1 3d de 1b 20 bd 9a 59 e0 bc
       0.14242144 0.07896103 -0.039089076 -0.027386475
000270 d4 59 1f 3d 29 3c a2 bd d4 12 0b be 2a 96 17 3b
       0.038904026 -0.07921631 -0.13581401 0.0023130276
000280 81 5f b9 bd 23 74 08 3e 87 3d 98 3d 15 91 8b 3c
       -0.09051419 0.13325553 0.074336104 0.017036954
000290 7d be 45 3d fa 27 5c bd 98 c6 e7 bd 5c 45 39 be
       0.048277367 -0.053749062 -0.113171756 -0.18092865
0002a0 ea d9 26 3a 2c 32 b7 bd 4a 58 91 bd 62 e8 9f 3c
       0.0006364869 -0.089451164 -0.07096918 0.019519988
0002b0 5c bc 84 bd 5c dc ab 3d b0 bc ab bd 61 f2 31 3e
       -0.06481239 0.083916396 -0.08385599 0.17377616
0002c0 ac 9d 23 bc 70 84 91 3d eb c4 90 3d e0 83 23 be
       -0.009986322 0.071053386 0.07068809 -0.15968275
0002d0 ef 4c 6b bd 47 d6 11 be 7c e6 53 be 06 c7 e9 3d
       -0.057446416 -0.14241897 -0.20693392 0.11414914
0002e0 ba f3 22 be e0 f8 c5 3d ce 14 21 be ba e3 08 bd
       -0.15913287 0.0966661 -0.15730593 -0.033420302
0002f0 f4 f5 6a bc 77 8d 2b be 83 f0 7f bd c9 94 8c 3d
       -0.014340866 -0.16753183 -0.06248523 0.06864316
000300 8a 1b a2 bc 6a 5f d3 3c ea d1 a9 bd 30 48 d4 bd
       -0.019788522 0.025802333 -0.08291991 -0.10365331
000310 44 a1 03 3d 53 08 55 3d c3 12 b8 bd 88 7f 25 3e
       0.032136217 0.05200989 -0.089879535 0.1616193
000320 7e 1a 98 bd 48 03 45 bc 49 f1 c9 bc cf 49 b4 bd
       -0.07426928 -0.012024708 -0.024651187 -0.0880314
000330 84 5b 50 3d 5d 51 11 be 2f 7a 0b 3e 5a c7 40 3e
       0.050868526 -0.14191194 0.13620828 0.18826047
000340 2f 95 cc 3d 54 64 6f bd ba c6 01 bd c5 fe fc 3c
       0.09989392 -0.05844529 -0.03168366 0.030883202
000350 29 55 9b bd 8d c6 49 bd 3b 4a 1e 3e b1 16 91 bd
       -0.075846024 -0.04926162 0.15458004 -0.07084406
000360 5a bd 1f 3d 9b bb 43 3e 68 ee 16 3d 0d ac b3 bd
       0.03899894 0.19114535 0.036848456 -0.087730505
000370 13 68 25 bc f7 54 75 bd 30 1a 4d 3e a8 cf 7d 3d
       -0.010095614 -0.059895482 0.20029521 0.061965615
000380 88 89 dd bd e6 63 63 bc fd b5 06 be 6a e5 2f 3e
       -0.10817248 -0.013878798 -0.1315536 0.17177358
000390 02 08 f5 3d 17 fd 00 bc 68 d2 42 be d9 3f 24 be
       0.11964418 -0.007872841 -0.19025576 -0.16039981
0003a0 c6 fa ca 3c e5 d6 a7 bd f9 a6 09 3e 43 cd 5a bd
       0.024777781 -0.08195285 0.13442601 -0.05341841
0003b0 60 0c dd 3d d9 93 26 be 75 5d 1d 3e 3f 10 22 bd
       0.10793376 -0.16267337 0.15367682 -0.039566275
0003c0 a9 07 2b 3e 6e 7e ba 3d 6f 77 77 be 55 fb aa 3d
       0.16702141 0.09106146 -0.24166654 0.08348719
0003d0 6a e6 49 bc fc cd ee 3d ed 33 2b 3e 61 1e d9 bd
       -0.012323001 0.11660382 0.16719027 -0.106014974
0003e0 76 92 a6 bd 5f f8 f2 3d 5b 2a c8 bb 57 88 dd bc
       -0.08133404 0.11863779 -0.006108565 -0.027042551
0003f0 e2 a2 2e be 93 be 54 bc f9 a3 da 3c 12 06 78 bd
       -0.17054322 -0.01298489 0.026689516 -0.060552664

MLP3.bias f4 [50]
000000 01 94 37 3c e8 6c 44 3d d1 8e 97 3c d7 ed 02 3e
       0.0112047205 0.047955424 0.018500717 0.12786041
000010 f3 77 a4 bc fb 96 ff 3c 9f af a8 3d 5e c2 15 be
       -0.020076727 0.031199923 0.08236622 -0.14624926
000020 12 31 86 bd cb 8d b4 3d 9c 8d 9a 3c be 5a 17 3e
       -0.06552328 0.08816107 0.018866353 0.14780709
000030 bb 30 f0 bd ef b8 ad bd 1d 2a a0 3b 6b d9 c9 3c
       -0.117280446 -0.08482539 0.004887833 0.024639806
000040 b8 c3 ff 3c f9 fa d8 bc 40 f7 dc 3d 80 a5 ee 3d
       0.031221256 -0.02648686 0.10789347 0.1165266
000050 76 c7 04 be b3 7c 2c bd 2e e1 ee bd 8f f9 b9 3d
       -0.12966713 -0.04211111 -0.11664043 0.09080803
000060 4d 0e f7 3c 28 27 e5 bc e1 fd 82 bc 63 3a 5d bd
       0.030158186 -0.027972773 -0.0159902 -0.05401076
000070 cd 9e 45 3d 02 0f 90 3c 26 08 7e bb fc 59 b9 bd
       0.048247147 0.017585281 -0.003876218 -0.09050366
000080 c4 08 95 bb 64 de df 3d 7f 38 99 bd 9c e6 cf 3d
       -0.004548164 0.109310895 -0.07481479 0.10151407
000090 15 e8 e7 3c 3c 25 25 3e 26 d9 e0 3d fb 17 cd 3d
       0.028308908 0.16127485 0.10978918 0.100143395
0000a0 10 d3 aa bd fa b1 a4 3c 9c 9e ee 3d af 3a c6 3d
       -0.08341038 0.020104397 0.11651346 0.09679162
0000b0 7e 05 64 bd cd 8d 1d be 29 eb c2 bd 9c 09 cb bd
       -0.0556693 -0.15386124 -0.095175095 -0.09913942
0000c0 34 69 f8 3d 0c ce 3b bc
       0.12129441 -0.0114627

MLP4.weight f4 [7, 50]
000000 de b7 04 3d 0f d1 bc bd a0 99 fe bd eb 5d 06 3c
       0.032401912 -0.09219562 -0.124316454 0.008201103
000010 7b bf cf bd 2d ce 1d bd 42 12 a8 bd 27 0b e1 bd
       -0.10143944 -0.038526703 -0.082066074 -0.10988455
000020 7c 17 46 3e f9 aa 23 be 68 8a 61 3d b1 dd a2 3d
       0.19344896 -0.1598319 0.055063635 0.079524405
000030 c7 eb 96 3d df f9 f6 3d 11 fa 1e 3e 38 7d 25 be
       0.0736919 0.12059378 0.1552508 -0.16161048
000040 70 bd 67 bd 78 b3 0b be 57 fa 32 bd 48 99 e1 3d
       -0.056577146 -0.1364268 -0.043695774 0.11015564
000050 60 8e 42 3d 62 e7 14 be 68 dc 26 3e c0 9d 8f 3d
       0.04749906 -0.1454139 0.16295016 0.0701251
000060 69 dd 84 bc b7 0a 33 3e f0 0d e4 3d 82 3d f1 3c
       -0.016218858 0.17484556 0.11135471 0.029448275
000070 cb c5 3d 3d 15 a8 1c bd 40 24 a8 bd 30 6c 2e 3e
       0.04633121 -0.038246233 -0.08210039 0.17033458
000080 3c ea c4 3d 7c b3 a2 be e6 1f c3 bd 62 9a 00 be
       0.09614989 -0.3177756 -0.095275685 -0.12558892
000090 1c 7b 63 be f2 48 10 3d 00 04 21 bd 68 7a 2b 3c
       -0.22214931 0.035225816 -0.039310455 0.010466196
0000a0 4d 1d 83 bc 05 97 ce bd 7b ab 41 3e eb 1a 3d 3d
       -0.016005183 -0.100873984 0.18913071 0.04616825
0000b0 38 b0 ec 3c c4 10 9b bc cb 88 ce bd 15 f2 13 be
       0.028892621 -0.018928893 -0.10084685 -0.14447816
0000c0 8a 2a fd bd c1 ba b3 3d d3 61 c5 bd af 18 67 3c
       -0.12361629 0.08775855 -0.09637799 0.014105006
0000d0 cf 59 f5 bd 45 20 33 3e 91 85 d3 3b c4 a5 2d be
       -0.1198002 0.17492779 0.0064551313 -0.16957766
0000e0 73 47 93 3e 96 d4 d8 bd 77 c9 2a 3d 70 89 97 bd
       0.2876545 -0.105874225 0.041696038 -0.07399261
0000f0 e8 85 13 bd f5 20 b1 ba 96 1e 19 3d 70 83 e5 bd
       -0.036016375 -0.001351385 0.037382685 -0.1120671
000100 a9 ac 25 be 32 dc e0 3c 3b 9c b5 bd 2d 6f 47 be
       -0.16179146 0.027448747 -0.08867689 -0.19476004
000110 49 d4 ef bb 8e 79 cf bd f3 20 61 3d 3e 77 de 3d
       -0.0073190075 -0.101306066 0.054963063 0.108625874
000120 0a 4d a7 3d 51 5b b9 3c 5d 65 67 3e c5 97 8f bd
       0.08168991 0.02262655 0.22597261 -0.070113696
000130 11 c3 5e 3d 7e ef f7 bd f1 a2 3f 3e d3 cf 9c 3c
       0.05438525 -0.121062264 0.18714501 0.019142067
000140 04 bf b4 3d f4 89 86 bd 0e e2 26 3e ab a7 57 bd
       0.08825496 -0.06569281 0.1629717 -0.052650135
000150 1f a3 19 3e 3a 14 b6 3d 27 1e 5c be 85 07 85 bc
       0.15003632 0.08890577 -0.21495877 -0.016238937
000160 ea 3a df bc f4 dc 83 bd cc 9a 8c bd eb ef 2c 3e
       -0.027249772 -0.06438628 -0.06865463 0.16888396
000170 a2 75 07 3e 25 47 18 3e ef fe f2 bb ef 15 59 bd
       0.13228467 0.1487089 -0.0074156444 -0.052999433
000180 27 bf 31 bd 30 df 30 be 1b a3 c9 3b 9c 7a 24 be
       -0.043395188 -0.1727264 0.006153477 -0.16062397
000190 53 cd c5 3d aa fe 7f 3d 5b b8 0a 3b 95 15 96 3d
       0.09658303 0.062498726 0.0021167013 0.07328335
0001a0 00 32 1b 3b b2 c9 4a be 6f e6 01 be 5c 77 9a bc
       0.0023680925 -0.19803503 -0.1268556 -0.018855743
0001b0 65 5d 54 3e 8f 8d c8 3d 18 1e f6 3d 3f 3c 6c 3d
       0.20738752 0.09792625 0.12017459 0.057674643
0001c0 98 41 ca bd cb 43 f6 3d 15 21 71 be 8e 79 ed 3d
       -0.09875792 0.12024649 -0.23547776 0.1159545
0001d0 d3 08 ea 3d b2 fb 21 3d ac 8d e1 3d b0 53 21 3d
       0.11427464 0.039546676 0.1101335 0.03938645
0001e0 7c 76 ce 3d ec 21 26 3e 4a 70 3c 3e 89 e8 e9 bd
       0.10081193 0.16223878 0.1840221 -0.11421306
0001f0 6f df 43 bd a0 4a 6e bd 34 6b 51 bc f0 6c f0 bc
       -0.047820505 -0.058176637 -0.012781907 -0.02934882
000200 39 97 45 bd a3 24 17 3e a0 dd 40 3c b8 c8 b5 3d
       -0.04823992 0.1476007 0.0117715895 0.08876175
000210 64 9b 25 3e 72 a5 73 3d bc ec 4e 3e ae d6 53 be
       0.16172558 0.059483953 0.20207494 -0.20687363
000220 79 bf 63 be db c0 0e bd 2c 18 df bd 68 24 03 bd
       -0.2224101 -0.03485189 -0.10893282 -0.03201714
000230 4d 95 3a be 1d c6 d1 3d 3d a6 b8 3d fb 57 4f 3c
       -0.18221016 0.10242865 0.090160824 0.0126552535
000240 b2 93 04 be f5 bd 33 3d fd ce 24 be 04 9e 4c 3d
       -0.12946966 0.04388233 -0.16094585 0.049955383
000250 0e 68 f9 3d 37 24 03 3e d6 8b 85 3d 7d 5f 06 3e
       0.1217805 0.12806784 0.06520812 0.13122363
000260 74 73 7c bd c6 de 04 3e 02 8f 52 be 2b 53 27 be
       -0.061633542 0.12975606 -0.20562366 -0.1634032
000270 0c 3f bd 3d 2d 91 9f bd 81 43 b2 bd 9e 82 23 3e
       0.09240541 -0.07791362 -0.087042816 0.15967795
000280 56 cd 32 3e 90 3c a0 3c 31 ba 2c be d3 24 8e 3d
       0.17461142 0.019560128 -0.16867901 0.069406174
000290 37 1a 33 be e5 46 0f 3c 8e 9d cf 3c e6 47 3f bd
       -0.17490469 0.00874493 0.025343683 -0.046699427
0002a0 eb 5c c7 bd 21 aa 02 3e dd 57 5e 3b c5 d9 23 be
       -0.097345196 0.12760212 0.0033926882 -0.16001041
0002b0 83 34 58 3e 7e 35 54 be 5b 50 b7 3d 3d eb dc 3d
       0.21113782 -0.2072353 0.089508735 0.10787056
0002c0 f6 43 a6 3d 12 ac 01 be d9 9a 8e 3d 74 20 ed bd
       0.08118431 -0.12663296 0.069631286 -0.115784556
0002d0 c5 e5 2f be 23 df 9f bd 57 39 89 bb 63 a5 f1 3c
       -0.17177494 -0.07806232 -0.0041877436 0.029497808
0002e0 0b 4c f4 bc a5 f7 c2 bd 55 63 04 3e 79 9a d5 3d
       -0.029821416 -0.09519891 0.12928517 0.10429854
0002f0 47 ef 15 be c1 8f f2 3d 34 4e 13 be 80 d6 9c 3d
       -0.14642058 0.11843825 -0.14385301 0.076581
000300 79 08 ee 3c 18 ff 7f ba aa 41 2f 3c 19 ff 81 bd
       0.029056774 -0.000976549 0.010696808 -0.06347484
000310 8f d1 08 3e fb 86 05 3e 1b 5d 3c 3d 50 52 1c 3d
       0.1336119 0.13039772 0.04598723 0.038164437
000320 1d c4 4b 3d ae 16 16 3e d6 4d e0 3d 4d f2 a3 3d
       0.049747575 0.14657089 0.10952346 0.080051996
000330 31 2b 2e be 5f e1 ba bd da 85 76 3e c3 cc d8 bd
       -0.17008664 -0.091250174 0.24074498 -0.1058593
000340 84 2f 9c bd 15 d2 d4 bd d5 e3 a0 bd c3 af 82 3d
       -0.076262504 -0.103916325 -0.078559555 0.0638118
000350 89 8d 17 be ca d2 10 3d 6d c1 b1 bd cc fa b2 3c
       -0.14800085 0.035357274 -0.08679471 0.021848105
000360 99 01 51 bd 16 dd e2 bd 39 eb 93 3d 30 d0 31 be
       -0.051026914 -0.11077325 0.072225995 -0.17364573
000370 1a 28 a2 3c c9 b5 09 bd cf 48 f5 3c a7 83 cf bd
       0.019794513 -0.03362063 0.029941944 -0.101325326
000380 93 03 0a 3e 2d a6 20 be 21 53 a3 3d c6 a2 bc bd
       0.13477926 -0.15688391 0.0797484 -0.09210734
000390 fa 05 24 3e 5d cf 61 be 60 53 f0 bd ba 74 07 be
       0.16017905 -0.22051759 -0.117346525 -0.13228121
0003a0 16 2c 90 bc f1 97 22 be 44 b0 56 3d 08 b2 d1 bd
       -0.017599147 -0.15878274 0.052414194 -0.10239035
0003b0 9b 62 26 be 2f ac c2 3d b1 c6 db 3d 8f 5b c8 3d
       -0.16248553 0.09505498 0.10731257 0.097830884
0003c0 fa a2 ed 3c 16 21 f4 bd 9c 96 22 3e cb 12 57 3b
       0.029008377 -0.11920373 0.15877765 0.0032817598
0003d0 c3 62 0d 3e 9e c4 99 bd 99 ac f3 3d 06 db 29 3e
       0.13807206 -0.07508205 0.11898155 0.16587457
0003e0 03 d5 34 3d 76 3b 29 3d a5 8f a9 bc f0 f1 11 3e
       0.044148456 0.041316472 -0.020698378 0.14252448
0003f0 06 68 27 3e d4 2e 04 be bc 77 20 be 0c f5 2c be
       0.16348276 -0.12908489 -0.15670675 -0.16890353

MLP4.bias f4 [7]
000000 d9 82 f4 bc 75 65 0f bd 61 2c 42 3c a5 31 97 bd
       -0.02984755 -0.035008866 0.011851401 -0.07382516
000010 31 ba fd 3d d6 78 79 3d 65 ff fb bd
       0.12389029 0.060906254 -0.12304572
