DQN/final_dqn_against_random/DQN_AgainstNegaMax_Epochs10000_player2.pth (torch, 493491 bytes, 12 tensors)

conv1.weight f4 [32, 1, 5, 5]
0.06840427 0.024251852 0.08615348 -0.10122481 0.12217268 0.027128141 -0.022944165 -0.16501293
0.1882593 0.2519754 -0.08776112 0.18487282 -0.09404311 0.20785506 -0.013144646 -0.24230462
0.08654193 -0.059948567 0.20702986 0.039394822 0.04705929 0.1584055 0.09823721 -0.12814814
-0.22832334 -0.070718825 0.22773962 0.006374646 -0.16580923 -0.11818532 0.04097036 0.23154612
0.03584605 -0.23674972 -0.20564686 0.006137685 -0.20401157 0.08716548 0.07921057 -0.17661795
-0.10528921 -0.07943561 -0.16460645 0.06840808 -0.011460841 0.06828573 0.2774278 -0.12523788
0.0790071 -0.052298598 -0.013114548 0.28885123 -0.060630724 -0.07296688 -0.23248905 -0.0063708704
0.18751839 -0.16422991 -0.28097504 0.07247078 0.061620373 0.15493357 0.19080678 0.2202025
-0.031043002 0.04840249 -0.111363865 -0.21350431 -0.08552146 -0.12006339 0.17651749 -0.06436961
0.060135387 -0.20830101 -0.11523978 -0.16228308 -0.25968045 -0.15838413 -0.08913447 0.11544953
-0.0063267825 -0.018804485 0.23925401 -0.21706115 -0.17754856 0.10820295 -0.076590724 0.028090019
-0.11116701 -0.0094002 -0.111141875 -0.20417817 0.059168734 0.22361097 -0.065296285 0.15352994
-0.15331478 0.08978861 -0.1659354 0.053483494 0.042509485 -0.06228105 0.15631543 -0.1787114
-0.04368823 0.03533845 -0.06927684 0.25336105 0.090822786 0.115402274 -0.053216472 0.0049681594
0.0022876211 -0.02203363 0.17636031 0.019515667 0.081933215 0.12785722 -0.07922968 -0.19289932
0.12222297 0.03888598 0.062170506 0.07690424 0.23116103 0.1932557 0.21431287 0.22959137
0.1381397 -0.24681033 0.1836146 0.20246403 0.18614173 -0.18921892 0.085777566 -0.006927863
0.013518097 -0.18250443 0.15955128 -0.23201849 0.13059317 0.2034538 0.10476569 0.19368625
-0.06809169 -0.2644718 0.034312245 0.10468359 0.15635237 0.24032633 -0.017802782 0.06279172
0.18138072 -0.18157232 0.14031565 0.09256525 0.2808334 0.1974684 0.28123623 -0.03574616
0.07490085 -0.29982558 -0.107726306 -0.0010898501 0.124692895 -0.2365387 -0.17911173 0.05465041
-0.19062397 0.16931124 -0.15109915 -0.0557229 0.14606635 -0.21331358 0.23570281 -0.14491738
0.14613824 0.11372665 0.24290211 0.12860003 0.16195634 0.18664901 -0.15727662 0.230467
-0.07892734 0.025645783 0.17977054 -0.11405766 0.102667734 -0.1952474 0.24707179 0.21252143
0.25320703 -0.079714656 0.09278148 0.22963253 0.086041614 -0.040183894 -0.19009113 0.1607591
-0.13182484 0.25598004 0.16065417 -0.084839694 -0.12834089 0.15086599 0.20196463 -0.0015047208
0.1792024 0.01883852 -0.11992166 -0.018254753 0.22531231 0.16193503 -0.23360561 0.07057724
0.023532584 0.16444746 0.18184671 0.28755686 0.02120245 -0.08459773 0.118846826 -0.18785271
-0.20666353 0.19082728 0.20100656 -0.18349853 -0.23662685 -0.078060895 0.18001819 0.006412684
0.14825377 0.20191579 -0.038141105 0.13108554 -0.100674555 0.122928195 -0.12546846 -0.13687257
0.19960153 0.055455357 0.15768841 -0.056645315 -0.020327369 0.1925345 -0.17146115 -0.09201088
-0.079968795 0.0066147665 -0.055625994 -0.214027 -0.16240937 0.05784687 -0.03403701 0.14927673
00000000: 8a17 8c3d d2ab c63c 3c71 b03d f44e cfbd
00000010: ac35 fa3d d63b de3c 67f5 bbbc 26f9 28be
00000020: 0cc7 403e eb02 813e 1abc b3bd 4d4f 3d3e
00000030: ad99 c0bd f5d7 543e a45c 57bc b41e 78be
00000040: e53c b13d a18c 75bd a3ff 533e 775c 213d
00000050: 3ec1 403d 0d35 223e 9730 c93d 4439 03be
00000060: 98cd 69be 08d5 90bd 9334 693e 68e2 d03b
00000070: e5c9 29be 250b f2bd 89d0 273d 6d1a 6d3e
00000080: 4fd3 123d 856e 72be 1795 52be a21e c93b
00000090: 69e8 50be d183 b23d 2739 a23d 56db 34be
000000a0: dfa1 d7bd 23af a2bd 988e 28be 8919 8c3d
000000b0: 40c6 3bbc 64d9 8b3d 040b 8e3e 5c3e 00be
000000c0: 79ce a13d 0e37 56bd 67de 56bc 4fe4 933e
000000d0: ec57 78bd a96f 95bd 9c11 6ebe bcc2 d0bb
000000e0: d204 403e e32b 28be f6db 8fbe 8f6b 943d
000000f0: a565 7c3d e8a6 1e3e da62 433e c47c 613e
00000100: e54d febc b041 463d bd12 e4bd e0a0 5abe
00000110: e025 afbd cbe3 f5bd 00c1 343e 37d4 83bd
00000120: 8650 763d dc4c 55be d502 ecbd 892d 26be
00000130: d6f4 84be 732f 22be 228c b6bd ce70 ec3d
00000140: e650 cfbb dd0b 9abc 01ff 743e 4745 5ebe
00000150: 4acf 35be 8299 dd3d 99db 9cbd 0a1d e63c
00000160: 88ab e3bd 4c03 1abc 5a9e e3bd 1514 51be
00000170: ea5a 723d 46fa 643e 0fba 85bd f436 1d3e
00000180: 8dfe 1cbe 17e3 b73d f8ea 29be 8211 5b3d
00000190: 6d1e 2e3d 6a1a 7fbd 2711 203e 1f00 37be
000001a0: 6ef2 32bd 0dbf 103d 04e1 8dbd 8ab8 813e
000001b0: 4c01 ba3d 0758 ec3d 84f9 59bd f1cb a23b
000001c0: eaeb 153b df7f b4bc cc97 343e 52df 9f3c
000001d0: 9acc a73d 01ed 023e 2c43 a2bd 6687 45be
000001e0: 0950 fa3d e846 1f3d 80a6 7e3d f87f 9d3d
000001f0: 7ab5 6c3e d2e4 453e d574 5b3e 001a 6b3e
00000200: 7e74 0d3e d9bb 7cbe 7705 3c3e bb52 4f3e
00000210: f09b 3e3e 9bc2 41be 26ac af3d 2103 e3bb
00000220: 027b 5d3c 71e2 3abe 6961 233e 4196 6dbe
00000230: 37ba 053e 3156 503e 658f d63d b055 463e
00000240: a873 8bbd d968 87be ff8a 0c3d 5a64 d63d
00000250: d61a 203e 1b18 763e 24d7 91bc f298 803d
00000260: debb 393e 18ee 39be e8ae 0f3e da92 bd3d
00000270: 65c9 8f3e 2835 4a3e 32fe 8f3e 916a 12bd
00000280: 9e65 993d bd82 99be 9c9f dcbd 4dd9 8eba
00000290: fd5e ff3d 3337 72be 1169 37be 1cd9 5f3d
000002a0: ee32 43be ed5f 2d3e bcb9 1abe b23d 64bd
000002b0: 6b92 153e e06e 5abe 145c 713e 3965 14be
000002c0: 43a5 153e 85e9 e83d 55bb 783e baaf 033e
000002d0: e2d7 253e eb20 3f3e 1f0d 21be 8bff 6b3e
000002e0: a8a4 a1bd 1b17 d23c c515 383e 1097 e9bd
000002f0: 7643 d23d efee 47be 6300 7d3e 389f 593e
00000300: 5aa4 813e 7041 a3bd 3704 be3d ca24 6b3e
00000310: 9636 b03d de97 24bd 40a7 42be 099e 243e
00000320: 17fd 06be d10f 833e 8782 243e 6fc0 adbd
00000330: cb6b 03be 9d7c 1a3e d1cf 4e3e 0d3a c5ba
00000340: d580 373e 3d53 9a3c 7d99 f5bd fe8a 95bc
00000350: 45b8 663e 4cd2 253e 4f36 6fbe cd8a 903d
00000360: 68c7 c03c ea64 283e 0636 3a3e a73a 933e
00000370: c3b0 ad3c 9341 adbd f765 f33d 765c 40be
00000380: 9b9f 53be 3a68 433e aad4 4d3e 0ae7 3bbe
00000390: 4f4e 72be 64de 9fbd b056 383e 7e21 d23b
000003a0: d6cf 173e 03c3 4e3e d939 1cbd 4a3b 063e
000003b0: 762e cebd c7c1 fb3d ce7a 00be 5328 0cbe
000003c0: 5864 4c3e 2825 633d 1279 213e eb04 68bd
000003d0: 9585 a6bc c427 453e 8393 2fbe 3370 bcbd
000003e0: aec6 a3bd afc0 d83b 15d8 63bd e529 5bbe
000003f0: a44e 26be d7f0 6c3d 646a 0bbd 00dc 183e

conv1.bias f4 [32]
-0.02680289 0.18342762 -0.067486055 0.15294982 0.108253986 0.044263717 0.07280982 0.11171312
0.047862485 -0.15691571 -0.0008769066 0.04771388 0.18291849 0.09978865 -0.13602212 -0.13375048
0.05301164 0.21196651 0.071511 0.15309054 -0.080459416 -0.13524356 0.18922186 -0.11984551
-0.11448605 0.116793096 -0.08348961 0.12540087 0.16701174 0.10494581 0.123855986 0.20670845
00000000: bc91 dbbc 73d4 3b3e 2136 8abd e19e 1c3e
00000010: 44b4 dd3d df4d 353d 511d 953d d9c9 e43d
00000020: 740b 443d 83ae 20be 35e0 65ba a16f 433d
00000030: fc4e 3b3e fe5d cc3d 6249 0bbe e3f5 08be
00000040: bc22 593d c00d 593e 5c74 923d c4c3 1c3e
00000050: e8c7 a4bd 4a7d 0abe 60c3 413e 9071 f5bd
00000060: aa77 eabd 3831 ef3d 9afc aabd 1669 003e
00000070: 2005 2b3e d4ed d63d 35a8 fd3d 61ab 533e

conv2.weight f4 [32, 32, 5, 5]
0.032642208 0.01252212 -0.008244452 -0.023019018 0.013072212 0.024314655 0.0049380274 0.06803081
0.015243107 -0.048965443 -0.035332385 -0.027185172 -0.027603725 0.050476227 -0.0006003652 0.0483936
0.066376515 0.038749557 -0.047367644 -0.0339039 0.020576505 0.04022733 -0.04207077 -0.001261992
-0.066991776 0.037649922 -0.0059696822 0.0036955164 0.0035427995 -0.00026035434 0.035273902 0.059604254
-0.00034128816 0.0280456 0.057298772 0.04798564 0.03207327 0.03209185 0.020171206 0.061730225
0.06196787 0.037174392 4.910067e-05 0.010308121 0.1052173 0.038197335 0.0007496098 0.05855938
-0.008170012 0.037308957 0.03664613 0.0077788066 -0.057362262 -0.072491325 -0.0024425797 -0.02466925
0.015523287 -0.02332675 -0.024950575 -0.030849623 -0.007613751 -0.004347373 -0.040052935 0.030671883
0.030577887 0.0027247476 -0.005495786 -0.058823586 -0.008857472 -0.04685572 -0.06589506 -0.055978958
0.013674948 0.06831206 0.019671915 0.07768828 0.03154832 -0.005841268 -0.046075966 0.03919243
0.057931796 0.05080015 0.039540026 -0.02591578 0.04713081 0.02852912 0.00062031095 0.012631704
-0.037166446 0.008107802 -0.020628052 -0.014562152 0.004042967 -0.020186637 -0.0012393241 0.011403799
0.0037617753 0.04327116 -0.012671458 0.024124634 -0.01323759 0.065031305 -0.04648186 -0.03995733
0.0061651357 0.025857477 -0.0055099837 -0.017232753 0.0440908 0.061065875 -0.015228563 0.0641254
0.0036312148 0.038153086 0.03245233 -0.0750051 0.03179304 0.045346253 -0.011726002 0.0655594
-0.0072366353 0.03809365 0.009319587 -0.038558833 0.06782566 0.022500794 0.020318842 -0.06132946
0.016055482 -0.056181815 -0.019880401 0.013900604 -0.09248908 -0.04818014 0.019513693 0.0009076557
0.06538032 -0.033821937 -0.00285003 -0.09108367 0.047571268 0.013528544 0.02270064 0.03466501
-0.023533253 0.005975225 -0.03343804 -0.012454239 0.017053531 -0.0023050439 -0.06633026 -0.02806429
0.03733282 0.00541809 0.030779477 0.041422494 0.03900377 0.083142795 -0.014865815 0.031970087
0.05270228 -0.005813573 0.042539734 -0.062234394 6.750542e-05 0.0037614894 -0.07467498 0.023897823
0.031371444 -0.037036132 0.048299696 0.013485935 0.03402068 -0.014005357 -0.032191593 0.05344036
0.013486333 0.02549425 -0.016902238 0.003473238 0.06765166 -0.016957538 -0.013261135 0.052876968
-0.030378504 0.03072529 0.039603397 -0.034813695 0.08667246 -0.0034027216 0.0217231 0.002611175
0.013339444 0.07462052 -0.030329168 -0.012436038 -0.035564627 0.005819816 0.03447551 -0.04935064
0.0015345576 -0.04644612 -0.055896267 -0.015119574 0.088187195 0.0087989485 0.059662174 -0.044147342
-0.04154727 0.04500163 -0.055420153 0.040715612 -0.05205606 -0.037481464 0.012916875 -0.06436548
0.10887164 0.020535653 -0.06922506 -0.0035954488 0.0076402943 0.017834358 0.033597328 -0.067615554
-0.025861016 0.047336143 0.003303715 0.06431841 -0.058196627 -0.0007302115 0.032518253 0.0037440443
0.032146886 0.08001523 0.022639401 -0.016219214 -0.00550912 -0.01303596 -0.019905055 0.027278038
-0.071797766 0.014329158 0.025628572 0.1031964 0.047493305 0.0016665907 0.04797269 -0.037939873
-0.0099657215 -0.012652897 0.021587217 0.062128674 0.005284464 0.05184203 -0.0007133967 0.02322159
00000000: d6b3 053d 9429 4d3c bd13 07bc 6192 bcbc
00000010: d52c 563c 872f c73c 2dcf a13b bd53 8b3d
00000020: 3abe 793c fd8f 48bd b1b8 10bd 70b3 debc
00000030: 3521 e2bc 29c0 4e3d d461 1dba 5e38 463d
00000040: 69f0 873d dbb7 1e3d 9304 42bd d1de 0abd
00000050: 0f90 a83c 6ac5 243d 6652 2cbd 6d69 a5ba
00000060: fc32 89bd ce36 1a3d 539d c3bb 7a30 723b
00000070: 502e 683b 2b80 88b9 5e7b 103d 9723 743d
00000080: ecee b2b9 e3bf e53c 1eb2 6a3d 978c 443d
00000090: 435f 033d be72 033d 163e a53c d5d8 7c3d
000000a0: 05d2 7d3d 2d44 183d 71f1 4d38 65e3 283c
000000b0: 2b7c d73d cf74 1c3d 7681 443a f6db 6f3d
000000c0: 84db 05bc 47d1 183d 411a 163d 5ce5 fe3b
000000d0: b1f4 6abd 5576 94bd b013 20bb 2b17 cabc
000000e0: 6255 7e3c be17 bfbc 2665 ccbc 59b8 fcbc
000000f0: c67c f9bb 6874 8ebb 8c0e 24bd 9a43 fb3c
00000100: 7a7e fa3c ae91 323b ff15 b4bb 00f1 70bd
00000110: ee1e 11bc c9eb 3fbd fdf3 86bd 314a 65bd
00000120: e40c 603c 31e7 8b3d ff26 a13c 081b 9f3d
00000130: d038 013d 1c68 bfbb 27ba 3cbd 3e88 203d
00000140: e449 6d3d d113 503d b9f4 213d 544d d4bc
00000150: 3c0c 413d e7b5 e93c 5d9c 223a 35f5 4e3c
00000160: d83b 18bd 96d6 043c 29fc a8bc 1896 6ebc
00000170: de7a 843b 725e a5bc d170 a2ba 00d7 3a3c
00000180: 1e88 763b 1a3d 313d f29b 4fbc 06a1 c53c
00000190: 7ae2 58bc 222f 853d c363 3ebd 4caa 23bd
000001a0: e804 ca3b 0fd3 d33c 188d b4bb b42b 8dbc
000001b0: 8e98 343d 3620 7a3d 3981 79bc 2d54 833d
000001c0: adf9 6d3b 6946 1c3d bcec 043d 469c 99bd
000001d0: 6b39 023d febc 393d 6b1e 40bc 0244 863d
000001e0: 4c21 edbb 1608 1c3d 2eb1 183c deef 1dbd
000001f0: 2ee8 8a3d 9653 b83c b373 a63c 9a34 7bbd
00000200: c986 833c e71e 66bd 39dc a2bc 5cbf 633c
00000210: ea6a bdbd 8a58 45bd 2edb 9f3c beef 6d3a
00000220: 1ee6 853d df88 0abd 92c7 3abb 138a babd
00000230: 17da 423d d4a6 5d3c b1f6 b93c e6fc 0d3d
00000240: cfc8 c0bc d2cb c33b 54f6 08bd dd0c 4cbc
00000250: d9b3 8b3c 3810 17bb 29d8 87bd 15e7 e5bc
00000260: 4dea 183d 3c8a b13b 3e25 fc3c a2aa 293d
00000270: 6bc2 1f3d c546 aa3d bf8f 73bc 11f3 023d
00000280: 59de 573d c97f bebb 253e 2e3d 7ee9 7ebd
00000290: b291 8d38 5283 763b 32ef 98bd 5ec5 c33c
000002a0: 587f 003d 33b3 17bd e7d5 453d 1cf4 5c3c
000002b0: 4559 0b3d ba76 65bc 55db 03bd 47e4 5a3d
000002c0: c8f5 5c3c 51d9 d03c 9076 8abc 449f 633b
000002d0: f48c 8a3d 89ea 8abc 3b45 59bc 8595 583d
000002e0: 57dc f8bc 9ab3 fb3c 2c37 223d ce98 0ebd
000002f0: 5581 b13d 3200 5fbb a5f4 b13c 3f20 2b3b
00000300: af8d 5a3c a5d2 983d e074 f8bc 86c0 4bbc
00000310: 37ac 11bd 28b4 be3b 3136 0d3d e623 4abd
00000320: 3523 c93a 493e 3ebd 7cf3 64bd 17b8 77bc
00000330: 7d9b b43d 7729 103c 5360 743d d8d3 34bd
00000340: 782d 2abd a153 383d 3e00 63bd 6ac5 263d
00000350: bc38 55bd 2a86 19bd 4da1 533c 0cd2 83bd
00000360: 18f8 de3d 633a a83c dec5 8dbd 9fa1 6bbb
00000370: 6f5b fa3b 5c19 923c 5a9d 093d 067a 8abd
00000380: 7bda d3bc 8be3 413d 2483 583b 5fb9 833d
00000390: 965f 6ebd aa6b 3fba dc31 053d a45e 753b
000003a0: 74ac 033d 06df a33d 4476 b93c 28de 84bc
000003b0: d985 b4bb c794 55bc ed0f a3bc 3176 df3c
000003c0: b50a 93bd d8c4 6a3c 03f3 d13c a258 d33d
000003d0: 5788 423d 8171 da3a 037f 443d d766 1bbd
000003e0: 4447 23bc 194e 4fbc add7 b03c a37a 7e3d
000003f0: 4c29 ad3b 4f58 543d 3e03 3bba 343b be3c

conv2.bias f4 [32]
-0.0021452128 0.037873216 0.012160227 0.012530325 0.051953875 0.031398494 -0.0019474806 0.061800655
0.020043327 -0.031324606 0.02676894 0.010177666 0.02046227 0.051723357 0.050483868 0.03294646
0.03292849 0.03770086 0.028668454 -0.009733595 0.021180363 0.018931279 0.043771904 0.019220525
0.008296776 0.006384149 0.022306405 -0.02100225 -0.03179353 -0.013983516 0.047038097 0.023624796
00000000: b396 0cbb f220 1b3d b03b 473c fe4b 4d3c
00000010: 96cd 543d b59b 003d 9b42 ffba af22 7d3d
00000020: e731 a43c 3b4e 00bd 894a db3c 3ac0 263c
00000030: 7ea0 a73c dfdb 533d 2cc8 4e3d def2 063d
00000040: 06e0 063d 386c 1a3d 1bda ea3c a879 1fbc
00000050: 7182 ad3c c515 9b3c 2b4a 333d 5d74 9d3c
00000060: 33ef 073c 2032 d13b ecbb b63c e90c acbc
00000070: ef39 02bd 1e1b 65bc 05ab 403d ca88 c13c

conv3.weight f4 [32, 32, 5, 5]
0.0121853035 0.017053092 -0.020987695 8.6329164e-05 -0.039627187 -0.043711446 0.0016516215 -0.018770186
0.070790954 -0.034598064 0.056959007 0.04359351 0.051212326 0.0094832 -0.04043583 -0.0052674427
0.041856572 -0.015624386 -0.0077772555 -0.039842382 -0.009119976 0.0067695426 0.0019383341 0.0056971386
-0.10297421 0.03025742 -0.03619547 0.011554136 0.001475273 -0.013635151 0.010857988 0.04268969
0.024845682 -0.031226583 0.021988006 0.014979954 0.0344104 -0.008765141 -0.015796706 0.05027012
-0.056929108 -0.02928982 -0.026689809 0.039695766 0.03339746 -0.02627709 0.06434258 0.04999952
-0.003866908 0.04250367 -0.06580398 -0.0148972375 -0.03050632 0.03306529 0.05020082 -0.016149756
-0.0038583402 0.06532009 0.036769085 0.05362053 -0.03040538 -0.018576272 0.026776347 0.061302517
0.030411234 -0.0014522396 0.008028954 0.08515933 0.025733558 0.007604544 0.00059991423 -0.003007919
0.079910465 -0.031691782 0.027945934 0.04318239 -0.020701174 0.059644736 -0.011720173 0.030984845
-0.015558031 0.089211196 0.01729378 -0.0323585 -0.02674562 -0.02256068 -0.005872396 0.04487473
0.008132514 0.03795655 0.05069567 0.028069288 -0.0014942967 0.00080997916 0.006660749 -0.02978635
-0.038468167 -0.034952097 -0.03539624 0.05079002 -0.043252748 0.013176346 -0.007960345 0.044250518
0.050423983 -0.05684189 0.03562702 0.0606865 0.0674246 0.03820389 0.023149734 -0.020766208
0.04956498 0.04153733 0.014328917 0.023724457 -0.015798217 0.02396168 0.032236733 -0.017035764
0.039535187 -0.032840546 -0.022570804 -0.0207048 -0.025848128 0.029240793 -0.026641143 0.04351761
0.0125132445 0.021436103 0.028277377 0.07482687 0.028273571 -0.040233035 0.05078669 -0.007319421
0.03442466 0.0044261036 -0.030089388 -0.008447278 0.049329262 0.02852026 -0.03509103 -0.023964696
-0.022774458 -0.04016508 -0.018132877 -0.010122196 -0.018234061 0.061421305 0.0022799096 0.0061580935
-0.057694584 -0.035167836 0.020500397 -0.040593382 -0.026132185 -0.056547653 -0.07957351 0.0013835699
0.018680617 -0.0816793 0.017987557 0.02939959 -0.010852185 -0.07773686 0.028415538 -0.0019440153
-0.0099233575 0.03162709 -0.028653055 -0.0060456987 -0.0146800075 0.03351052 0.03260082 0.006511505
0.04784106 -0.008347128 0.027342333 -0.026846614 0.0124462545 -0.0016137399 0.04356004 0.009656135
0.00084202376 0.014981 0.019024586 0.07534536 0.049276423 0.015978927 0.003321255 0.025868641
0.066030666 0.044078514 -0.012488307 0.0087037645 -0.04783776 -0.0506506 -0.08001439 -0.102084376
0.031834934 -0.019362729 -0.015239333 0.031891685 -0.005544447 0.0027012527 0.006614186 0.0132058235
0.030762015 -0.0013133951 -0.07701156 -0.04334773 -0.0038043938 -0.0056908135 0.03706618 -0.0074071065
0.011990308 -0.024649857 0.09469568 0.04076041 0.037003122 0.03853522 0.003559967 0.01047465
0.020243524 -0.07380093 0.0042429753 -0.06301676 -0.03061156 0.044718932 -0.06616923 0.007817745
-0.030698055 -0.01676221 0.042967483 -0.0062337704 -0.036076453 -0.010476029 0.044245962 0.061455492
0.035955016 -0.032246068 0.06322816 0.061847445 -0.010239152 0.011977539 0.03519745 -0.015018983
0.047412448 0.029304387 0.08239233 0.043887157 0.044477228 -0.003956947 -0.011128542 -0.0050854664
00000000: dea4 473c edb2 8b3c 63ee abbc 9e0b b538
00000010: 1e50 22bd c60a 33bd 397b d83a efc3 99bc
00000020: d9fa 903d b3b6 0dbd d94d 693d 1c8f 323d
00000030: 04c4 513d 6c5f 1b3c 0aa0 25bd 839a acbb
00000040: cc71 2b3d 6dfd 7fbc 59d8 febb c431 23bd
00000050: f46b 15bc 0ad3 dd3b b30f fe3a 10af ba3b
00000060: 25e4 d2bd 69de f73c b341 14bd 8f4d 3d3c
00000070: f35d c13a f865 5fbc b4e5 313c 62db 2e3d
00000080: 2c89 cb3c e4ce ffbc 3120 b43c 7b6e 753c
00000090: ebf1 0c3d aa9b 0fbc 1868 81bc 0be8 4d3d
000000a0: 7f2e 69bd 34f1 efbc 96a4 dabc 0798 223d
000000b0: c6cb 083d 0d43 d7bc 0bc6 833d 4ccc 4c3d
000000c0: f36b 7dbb 5418 2e3d 3dc4 86bd 8b13 74bc
000000d0: 64e8 f9bc 786f 073d 609f 4d3d 7e4c 84bc
000000e0: 35dc 7cbb 8ac6 853d 2e9b 163d 33a1 5b3d
000000f0: b414 f9bc 442d 98bc 125a db3c 5918 7b3d
00000100: fb20 f93c 1359 beba e08b 033c 0468 ae3d
00000110: 2fcf d23c 8a2f f93b 9043 1d3a 8220 45bb
00000120: 19a8 a33d 3ecf 01bd dfee e43c 05e0 303d
00000130: 8295 a9bc 0a4e 743d f805 40bc eed3 fd3c
00000140: 1de7 7ebc 5cb4 b63d afab 8d3c 598a 04bd
00000150: a119 dbbc 2dd1 b8bc 3a6d c0bb 91ce 373d
00000160: 3c3e 053c 5478 1b3d 43a6 4f3d 90f1 e53c
00000170: 47dc c3ba c854 543a 6a42 da3b 8102 f4bc
00000180: cc90 1dbd ee29 0fbd a6fb 10bd 3209 503d
00000190: cb29 31bd 9ae1 573c 1b6c 02bc 0840 353d
000001a0: 6189 4e3d 0bd3 68bd a3ed 113d 6892 783d
000001b0: e915 8a3d af7b 1c3d 83a4 bd3c e51d aabc
000001c0: a604 4b3d 0c23 2a3d d5c3 6a3c cb59 c23c
000001d0: 436b 81bc 494b c43c aa0a 043d 968e 8bbc
000001e0: a6ef 213d cf83 06bd 68e6 b8bc 1d9d a9bc
000001f0: 74bf d3bc 638a ef3c 873e dabc 853f 323d
00000200: 5a04 4d3c c49a af3c f5a5 e73c d43e 993d
00000210: fa9d e73c 65cb 24bd b405 503d c1d7 efbb
00000220: df00 0d3d d908 913b 057e f6bc 7466 0abc
00000230: 7b0d 4a3d 52a3 e93c 9dbb 0fbd 9c51 c4bc
00000240: 8091 babc 2484 24bd 668b 94bc 91d7 25bc
00000250: 995f 95bc e894 7b3d 896a 153b d5c9 c93b
00000260: 2851 6cbd 260c 10bd 73f0 a73c 3f45 26bd
00000270: 2a13 d6bc 839e 67bd 70f7 a2bd e758 b53a
00000280: 1808 993c 7a47 a7bd a45a 933c 69d7 f03c
00000290: 5dcd 31bc 8134 9fbd b4c7 e83c 54ce feba
000002a0: 9495 22bc 688b 013d d0b9 eabc ff1a c6bb
000002b0: 6a84 70bc 5442 093d 7088 053d 775e d53b
000002c0: fdf4 433d 64c2 08bc 07fd df3c 6eed dbbc
000002d0: 60eb 4b3c 2084 d3ba 036c 323d c434 1e3c
000002e0: 42bb 5c3a de72 753c 73d9 9b3c ab4e 9a3d
000002f0: 13d6 493d 3de6 823c 6aa9 593b 79ea d33c
00000300: 163b 873d ac8b 343d c29b 4cbc 3c9a 0e3c
00000310: 87f1 43bd 0177 4fbd 96de a3bd 9d11 d1bd
00000320: 5965 023d 969e 9ebc 65ae 79bc dba0 023d
00000330: 31ae b5bb 8007 313b d0bb d83b 3d5d 583c
00000340: 9f00 fc3c 3a26 acba 3db8 9dbd 648d 31bd
00000350: 2353 79bb 017a babb b5d2 173d 50b7 f2bb
00000360: ff72 443c 7fee c9bc cfef c13d 63f4 263d
00000370: 9690 173d 1bd7 1d3d 564e 693b de9d 2b3c
00000380: bfd5 a53c f124 97bd a808 8b3b ee0e 81bd
00000390: 18c5 fabc 332b 373d bc83 87bd 0016 003c
000003a0: 7d7a fbbc e750 89bc acfe 2f3d a844 ccbb
000003b0: e7c4 13bd a6a3 2bbc 413b 353d c1b8 7b3d
000003c0: 9145 133d 7414 04bd c47d 813d bf53 7d3d
000003d0: 1ec2 27bc 713d 443c 342b 103d 2e12 76bc
000003e0: 8e33 423d c10f f03c 4fbd a83d 05c3 333d
000003f0: c12d 363d 47a9 81bb 7d54 36bc fca3 a6bb

conv3.bias f4 [32]
0.010533093 0.033895563 -0.041166756 0.029631322 -0.019494899 0.057197656 0.029745402 -0.03762862
0.010787777 0.008109119 0.0008471705 -0.0036047345 -0.016731592 0.029751986 0.03293054 0.043891396
0.038122047 0.024892403 0.006227382 0.01155277 0.03117509 -0.005211813 0.058584016 0.04706036
0.03301336 -0.006763856 0.054000188 -0.040827308 -5.6860714e-05 0.013391171 0.0051918025 0.008943532
00000000: fe92 2c3c 13d6 0a3d 799e 28bd 63bd f23c
00000010: c4b3 9fbc 1748 6a3d a1ac f33c 7820 1abd
00000020: 37bf 303c 1cdc 043c a614 5e3a 693d 6cbb
00000030: b110 89bc 70ba f33c 2de2 063d 77c7 333d
00000040: dd25 1c3d 27eb cb3c 110f cc3b d447 3d3c
00000050: e762 ff3c dbc7 aabb cbf5 6f3d 5dc2 403d
00000060: 0439 073d 56a3 ddbb 4d2f 5d3d 893a 27bd
00000070: ba7d 6eb8 a466 5b3c ff1f aa3b e487 123c

MLP1.weight f4 [50, 1344]
-0.011074782 0.034988143 0.022748506 0.03971459 0.047382228 0.018396297 0.03407577 -0.026264712
-0.030718999 0.03766405 0.04251847 -0.010625934 0.020102398 -0.03704927 0.00055925455 0.023764161
0.020463314 0.015494514 0.0015078593 -0.014501639 -0.022372112 0.021001156 0.019893417 0.0087123765
0.019047542 0.022707423 0.0061569167 0.00039871014 0.025242284 0.014295169 0.0063712797 0.016765218
0.022802075 0.037496794 -0.020487038 -0.005693424 -0.024020044 0.004941645 -0.018479222 -0.000298564
0.032449372 0.021566322 0.008182743 -0.015487136 0.04918028 0.033606313 0.0056875213 -0.0002840189
-0.0011811467 0.008465876 -0.009965172 -0.005511685 0.017266188 -0.010728194 0.015984762 0.014406125
0.0018535632 -0.0078030387 0.02426182 0.023576109 0.012235772 0.0057746726 0.0096890535 0.002741387
-0.01234296 0.02023058 0.011270777 -0.035602093 0.021794405 -0.0026075298 0.050035767 0.017478788
-0.027823353 0.034271397 -0.023958342 -0.0062720748 0.010732117 -0.021203043 0.023349319 -0.019547937
-0.0048048543 0.014931089 0.039341312 0.031139856 0.06867832 -0.080647364 -0.015625484 0.02689239
0.0062557235 0.0047115246 -0.010289618 0.01545371 -0.017551068 -0.0045927824 0.033869363 0.02482954
0.0070659816 0.031071652 0.009716199 -0.014823662 -0.0020757278 0.009307748 0.0064786575 0.049338087
0.008287997 0.0091479365 -0.016925069 -0.021427644 -0.0075588184 -0.009888045 0.0020792333 0.025776435
0.043798152 0.010537121 0.037008617 -0.010432717 0.018452536 0.02939787 0.009103728 0.014531735
-0.027874513 -0.011690164 0.003612561 -0.008696475 -0.017146004 -0.014258277 0.02159457 0.040693175
-0.03993616 -0.024094807 0.015680697 -0.006486255 -0.01894619 0.0063877674 0.05061907 -0.011740023
-0.016712628 0.042063013 0.02045405 0.025289422 0.019382147 -0.009573912 -0.01376125 0.025034191
0.013944325 0.030079523 -0.008700729 0.009301988 0.026321137 -0.034616116 -0.013622289 0.031371024
-0.011833871 0.020483404 0.030729352 0.022177499 -0.015855521 0.0012333542 0.0269906 0.0045123515
0.028812269 0.018602228 0.010369716 0.0370778 -0.021754289 -0.018593576 0.009421603 -0.01640619
-0.030506771 0.008045612 -0.012780604 0.005668817 -0.0018537998 -0.04144513 0.033769753 -0.0054364842
-0.005364169 0.017111938 0.037572194 -0.0074853073 0.054831374 -0.0147557445 -0.029834963 0.00013493876
-0.0021960482 0.0018583453 0.009103507 0.05203917 0.003775144 0.023082502 -0.017294524 0.025756659
0.0009312996 0.032558396 -0.004905108 -0.026896954 0.009732088 -0.015058294 0.017991362 -0.013681499
0.027286276 -0.010274011 -0.008378137 -0.014471519 0.029602962 -0.00093027775 -0.02792749 -0.012732772
-0.0083144205 -0.014217736 0.030485297 -0.0111538395 0.0062146825 -0.011972427 0.007983279 0.019763632
0.033056296 -0.015415353 0.006293194 0.0026737682 -0.0010365793 -0.0018311527 0.045646816 0.0026415526
-0.010584374 -0.005164065 -0.018689737 0.002966072 0.025086604 0.033907328 0.037093535 0.024355935
0.012907886 0.04729238 0.008320514 0.0018923745 0.034635793 -0.0048105754 0.022880439 0.017053861
0.02767102 0.048527367 -0.016963042 0.019220114 -0.012168943 -0.006579328 0.006340216 -0.01542489
0.02231505 0.007344734 0.015515165 -0.005609219 -0.0052510165 -0.008946385 -0.002882806 0.0071537197
00000000: 0173 35bc ba4f 0f3d 135b ba3c c4ab 223d
00000010: de13 423d d5b3 963c 0993 0b3d 1829 d7bc
00000020: 69a6 fbbc 9e45 1a3d d927 2e3d 6618 2ebc
00000030: c9ad a43c fac0 17bd f09a 123a 0fad c23c
00000040: aea2 a73c b4dc 7d3c 5da3 c53a 4898 6dbc
00000050: b845 b7bc 9e0a ac3c 85f7 a23c 5bbe 0e3c
00000060: 9709 9c3c eb04 ba3c f6bf c93b f809 d139
00000070: e8c8 ce3c 4936 6a3c 2bc6 d03b 3657 893c
00000080: 6bcb ba3c 3d96 193d 6fd4 a7bc e78f babb
00000090: afc5 c4bc 86ed a13b bd61 97bc 9588 9cb9
000000a0: a2e9 043d dbab b03c e910 063c c2bd 7dbc
000000b0: 4371 493d c6a6 093d 635e ba3b 5fe8 94b9
000000c0: b5d0 9aba 75b4 0a3c f644 23bc 5d9b b4bb
000000d0: d271 8d3c 4fc5 2fbc 7af2 823c ab07 6c3c
000000e0: 43f3 f23a a2b0 ffbb b9c0 c63c af22 c13c
000000f0: 8c78 483c 7739 bd3b d6be 1e3c d8a8 333b
00000100: 203a 4abc 9aba a53c 11a9 383c 80d3 11bd
00000110: 2e8a b23c 17e3 2abb 4ef2 4c3d ad2f 8f3c
00000120: cded e3bc 2a60 0c3d 4944 c4bc fa85 cdbb
00000130: c3d5 2f3c 01b2 adbc 1247 bf3c ff22 a0bc
00000140: 0a72 9dbb 87a1 743c 5b24 213d 0319 ff3c
00000150: 38a7 8c3d 722a a5bd 0401 80bc 6e4d dc3c
00000160: d0fc cc3b 2263 9a3b c995 28bc 8f31 7d3c
00000170: 42c7 8fbc 0d7f 96bb 9aba 0a3d 5267 cb3c
00000180: c089 e73b fa89 fe3c b130 1f3c f2de 72bc
00000190: ef08 08bb 867f 183c eb4a d43b bc16 4a3d
000001a0: 61ca 073c 3ae1 153c 71a6 8abc 0789 afbc
000001b0: f7af f7bb 7701 22bc bf43 083b 1a29 d33c
000001c0: b165 333d e4a3 2c3c 5996 173d fded 2abc
000001d0: c629 973c cdd3 f03c ce27 153c 8416 6e3c
000001e0: 1759 e4bc 1a88 3fbc b7c0 6c3b a97b 0ebc
000001f0: c775 8cbc 8c9b 69bc 18e7 b03c e3ad 263d
00000200: 1994 23bd 7962 c5bc ce74 803c a78a d4bb
00000210: 0a35 9bbc 7a50 d13b f155 4f3d 3a59 40bc
00000220: ece8 88bc 444a 2c3d 408f a73c c32b cf3c
00000230: 4fc7 9e3c e6db 1cbc de76 61bc 8114 cd3c
00000240: bd76 643c 5569 f63c 818d 0ebc 5e67 183c
00000250: 6d9f d73c a1c9 0dbd 0530 5fbc e77e 003d
00000260: dae2 41bc d0cc a73c 1fbc fb3c 96ad b53c
00000270: 70e3 81bc 80a8 a13a 641b dd3c 59dc 933b
00000280: b507 ec3c b363 983c bee5 293c e4de 173d
00000290: 0d36 b2bc 8e51 98bc 115d 1a3c 4666 86bc
000002a0: 56e9 f9bc bed1 033c bd65 51bc 7cc1 b93b
000002b0: 33fb f2ba 5ec2 29bd 2752 0a3d 8924 b2bb
000002c0: e9c5 afbb 562e 8c3c 4de5 193d 4f47 f5bb
000002d0: dd96 603d 14c2 71bc 7468 f4bc 597e 0d39
000002e0: 93eb 0fbb b993 f33a e026 153c 0627 553d
000002f0: 6868 773b 8417 bd3c 3fad 8dbc a1ff d23c
00000300: 7522 743a f45b 053d 07bb a0bb 0057 dcbc
00000310: 5673 1f3c 10b7 76bc 9f62 933c 5e28 60bc
00000320: 7887 df3c 5354 28bc 7444 09bc f319 6dbc
00000330: e981 f23c e2dd 73ba 31c8 e4bc 1e9d 50bc
00000340: 3539 08bc 82f1 68bc 4dbc f93c 98be 36bc
00000350: 89a4 cb3b 0028 44bc 4dcc 023c 57e7 a13c
00000360: 0a66 073d ad90 7cbc 2337 ce3b 633a 2f3b
00000370: d4dd 87ba 4a03 f0ba 28f8 3a3d e61d 2d3b
00000380: 156a 2dbc 5137 a9bb 381b 99bc 6e62 423b
00000390: 6c82 cd3c 69e2 0a3d 64ef 173d 1986 c73c
000003a0: 997b 533c a8b5 413d c452 083c 8d09 f83a
000003b0: 43de 0d3d 08a2 9dbb c26f bb3c 8ab4 8b3c
000003c0: 56ae e23c a2c4 463d 14f6 8abc 8073 9d3c
000003d0: 3f60 47bc 6797 d7bb 96c1 cf3b aeb8 7cbc
000003e0: 0dce b63c 18ac f03b 5233 7e3c 8acd b7bb
000003f0: b810 acbb dc93 12bc 75ed 3cbb c069 ea3b

MLP1.bias f4 [50]
0.019797755 -0.006564015 -0.00032416853 0.02455541 0.034049887 0.0043873587 -0.008898906 0.0026788446
-0.025605334 0.020573644 -0.018800965 -0.020734668 -0.018056765 -0.01646045 -0.024206128 0.015604515
0.019668082 0.015462612 -0.022530628 0.028738216 0.008636813 -0.002009374 -0.0048750085 -0.009713642
-0.035619188 0.039829865 -0.0052853306 -0.02870068 -0.024185566 0.0020332797 -0.027272394 -0.036184832
-0.004000674 0.04303182 0.032306135 0.034273732 -0.025944287 -0.031272996 -0.038958333 -0.03719642
-0.012564906 0.0050866413 -0.009233894 0.037282143 -0.03780145 -0.027254337 -0.013415283 -0.006185702
-0.006331753 0.014007399
00000000: e72e a23c f316 d7bb 2af5 a9b9 6d28 c93c
00000010: e577 0b3d d5c3 8f3b b8cc 11bc 8e8f 2f3b
00000020: 47c2 d1bc 0f8a a83c 7b04 9abc c0db a9bc
00000030: c8eb 93bc 11d8 86bc ee4b c6bc 14aa 7f3c
00000040: f51e a13c e556 7d3c 2792 b8bc 686c eb3c
00000050: 6b81 0d3c b4af 03bb 89be 9fbb f825 1fbc
00000060: 6de5 11bd a424 233d 9130 adbb b01d ebbc
00000070: cf20 c6bc c640 053b 5b6a dfbc 8c36 14bd
00000080: 1618 83bb 2242 303d 7053 043d 9d62 0c3d
00000090: 1d89 d4bc 1d18 00bd c692 1fbd 465b 18bd
000000a0: 09dd 4dbc d7ad a63b c249 17bc 29b5 183d
000000b0: b1d5 1abd 7d44 dfbc c6cb 5bbc 6eb1 cabb
000000c0: 987a cfbb 4a7f 653c

MLP3.weight f4 [50, 50]
0.030520452 0.052282427 0.12335138 0.010477603 -0.098804556 -0.10852339 -0.02640155 0.15112925
0.046305384 -0.13684462 -0.14366211 -0.040871885 0.053633716 0.1021257 -0.09306949 -0.13551316
-0.011649296 0.056854114 0.022831727 -0.083930224 0.07050638 0.07035613 0.010064911 0.07787885
-0.1316226 -0.004007575 0.09439208 -0.14086506 0.07436593 -0.10501823 0.031370133 -0.17489034
0.09178022 0.030983415 -0.12628384 -0.10199134 0.120313115 0.0060841595 -0.03853918 -0.096687146
-0.10228443 -0.010370238 -0.081681736 0.13500565 -0.02509833 -0.1181575 0.0011763006 0.112882875
0.05508546 0.07729124 -0.05364916 0.011457076 -0.07159203 -0.08685058 0.041829184 0.02189141
0.006981423 0.057023693 0.1143524 0.095365666 -0.027953312 0.043125767 0.13640791 -0.09026844
-0.054634437 -0.005700331 -0.06209171 0.041243427 0.05483413 0.13263914 -0.09326513 0.06215321
-0.0022084066 -0.083764106 -0.017923087 0.07541837 0.13704897 -0.099395044 -0.06520838 0.014575747
0.08277815 -0.1589906 -0.14005007 -0.005474592 0.102407455 0.12967077 -0.08083657 0.105548
-0.018866364 0.07728586 -0.06536369 0.064853966 0.06027266 0.0176377 0.016524313 -0.095183946
-0.14960901 0.11550129 0.1116487 0.03613222 0.07116503 0.06535053 -0.058695782 0.101669095
-0.075431116 0.16862121 0.13365681 -0.103376605 0.09285537 0.077453144 0.025450777 0.12825371
0.14876457 -0.017524663 0.09760772 0.08229724 -0.10252156 0.05813124 -0.004810101 0.050194595
-0.071489975 0.1191995 -0.19622838 -0.00509737 0.080746755 -0.08755225 -0.12769277 -0.16303262
-0.1393774 0.024845058 0.11553742 -0.13113992 0.02807694 -0.033559218 0.03028594 -0.10634553
-0.024570614 -0.05947995 0.11905855 -0.017137632 0.01156471 0.10943766 0.10823656 0.12501417
-0.049476042 0.095558986 0.035065737 -0.023262171 0.106549 0.002290123 0.05943048 -0.098797925
0.036123734 0.07234646 -0.05664533 -0.034216776 0.03386375 -0.09292238 -0.12317595 -0.0053127804
-0.045658495 0.118530884 0.07089764 0.0050385506 0.054262627 -0.06635766 -0.12282862 -0.1591207
-0.017613536 -0.09940566 -0.06365849 0.0050576706 -0.0646975 0.07505755 -0.06992995 0.15871587
-0.024128135 0.07134833 0.035413776 -0.15717155 -0.059479285 -0.114920035 -0.1951537 0.09161239
-0.14824718 0.08656504 -0.13554521 -0.019661857 -0.016759325 -0.14958976 -0.038049355 0.052115552
-0.049421884 0.007863787 -0.1080941 -0.10369378 0.018643223 0.034212258 -0.08839566 0.15054879
-0.090208955 0.008101491 -0.036012955 -0.08831207 0.045956887 -0.1105914 0.12833363 0.14440057
0.10023548 -0.07295671 -0.040728413 0.02203181 -0.10960231 -0.06373177 0.08505222 -0.065413356
0.024960175 0.121220686 0.025097141 -0.04521164 -0.0068651563 -0.06221395 0.1668977 0.061968714
-0.09996607 -0.028282948 -0.133054 0.11729444 0.11533978 -0.009900148 -0.085871056 -0.12788014
-0.025185341 -0.09591926 0.14352144 -0.057762895 0.047421776 -0.14008959 0.10347581 -0.023161609
0.105225876 0.048070338 -0.12658961 0.08767723 -0.055972856 0.032440268 0.13939065 -0.09775537
-0.07579087 0.12017445 -0.024497893 -0.02545342 -0.046890266 -0.0046467194 0.03651559 -0.050647467
00000000: 0706 fa3c 1926 563d a69f fc3d 41aa 2b3c
00000010: 0b5a cabd 8341 debd 1048 d8bc a0c1 1a3e
00000020: b7aa 3d3d ff20 0cbe 291c 13be 4769 27bd
00000030: 07af 5b3d 4727 d13d 379b bebd f6c3 0abe
00000040: b0dc 3ebc dcdf 683d 9a09 bb3c 9ce3 abbd
00000050: a665 903d e016 903d 4ce7 243c f27e 9f3d
00000060: 13c8 06be fa51 83bb a350 c13d ee3e 10be
00000070: 2a4d 983d cc13 d7bd f87d 003d 7416 33be
00000080: 45f7 bb3d eed0 fd3c 8d50 01be d6e0 d0bd
00000090: b966 f63d a15d c73b 42db 1dbd e903 c6bd
000000a0: 807a d1bd eee7 29bc c148 a7bd ec3e 0a3e
000000b0: 039b cdbc 8ffc f1bd 192e 9a3a 232f e73d
000000c0: 4ba1 613d df4a 9e3d 39bf 5bbd 76b6 3b3c
000000d0: d89e 92bd b8de b1bd 1455 2b3d 9d55 b33c
000000e0: 6cc4 e43b ad91 693d 9731 ea3d 134f c33d
000000f0: 58fe e4bc a5a4 303d 84ae 0b3e a9de b8bd
00000100: 5cc8 5fbd d8c9 babb e053 7ebd deee 283d
00000110: c199 603d 8ed2 073e ca01 bfbd 5d94 7e3d
00000120: eaba 10bb 848c abbd 70d3 92bc f274 9a3d
00000130: 9156 0c3e a18f cbbd f98b 85bd 1dcf 6e3c
00000140: 9787 a93d 6fce 22be 4969 0fbe 3564 b3bb
00000150: 00bb d13d 6ac8 043e a58d a5bd 8d29 d83d
00000160: a28d 9abc 0d48 9e3d 66dd 85bd 28d2 843d
00000170: 77e0 763d f07c 903c ff5d 873c cdef c2bd
00000180: 1b33 19be f18b ec3d 13a8 e43d 61ff 133d
00000190: f9be 913d 80d6 853d fd6a 70bd e337 d03d
000001a0: a17b 9abd 0aab 2c3e 55dd 083e 1db7 d3bd
000001b0: f52a be3d c19f 9e3d 267e d03c f154 033e
000001c0: bd55 183e e28f 8fbc 8ee6 c73d 758b a83d
000001d0: d3f6 d1bd 061b 6e3d 0d9e 9dbb d998 4d3d
000001e0: 5669 92bd de1e f43d 18f0 48be d707 a7bb
000001f0: 8e5e a53d 984e b3bd e5c1 02be 06f2 26be
00000200: f3b8 0ebe dd87 cb3c e29e ec3d 8b49 06be
00000210: 9c01 e63c 6475 09bd 381a f83c afcb d9bd
00000220: 5048 c9bc 40a1 73bd f8d4 f33d 3864 8cbc
00000230: e979 3d3c da20 e03d 21ab dd3d b703 003e
00000240: 64a7 4abd 6eb4 c33d 17a1 0f3d 4f90 bebc
00000250: 5d36 da3d e315 163b 606d 733d 9156 cabd
00000260: 7bf6 133d 612a 943d ef04 68bd e426 0cbd
00000270: b7b4 0a3d 174e bebd ac43 fcbd d516 aebb
00000280: 6704 3bbd 52c0 f23d c832 913d 6d1a a53b
00000290: 7d42 5e3d 86e6 87bd 928d fbbd 89f0 22be
000002a0: 434a 90bc 3295 cbbd 625f 82bd d1ba a53b
000002b0: 1f80 84bd c6b7 993d 6f37 8fbd 6a86 223e
000002c0: 5ea8 c5bc 131f 923d 090e 113d 94f1 20be
000002d0: 8da0 73bd 325b ebbd 5fd6 47be 479f bb3d
000002e0: 1cce 17be 0349 b13d 5dcc 0abe e711 a1bc
000002f0: da4a 89bc 0f2e 19be a4d9 1bbd 1e77 553d
00000300: 9a6e 4abd 1dd7 003c 7160 ddbd 685d d4bd
00000310: acb9 983c 2722 0c3d c908 b5bd 7629 1a3e
00000320: 79bf b8bd 1ebc 043c 5282 13bd f5dc b4bd
00000330: 4a3d 3c3d be7d e2bd e469 033e bedd 133e
00000340: 4248 cd3d 546a 95bd d6d2 26bd 0e7c b43c
00000350: 2d77 e0bd cd85 82bd dc2f ae3d 70f7 85bd
00000360: 4879 cc3c 8d42 f83d 8598 cd3c d72f 39bd
00000370: 1bf5 e0bb 0ed4 7ebd 3be7 2a3e e8d2 7d3d
00000380: 03bb ccbd a4b1 e7bc 4f3f 08be 1138 f03d
00000390: 4337 ec3d 3b34 22bc 2add afbd 03f3 02be
000003a0: 7d51 cebc 5171 c4bd 49f7 123e c998 6cbd
000003b0: 563d 423d a573 0fbe 20eb d33d 6abd bdbc
000003c0: aa80 d73d 67e5 443d b5a0 01be 1f90 b33d
000003d0: cb43 65bd 16e0 043d 6cbc 0e3e f833 c8bd
000003e0: 3e38 9bbd 061e f63d ceaf c8bc b183 d0bc
000003f0: 0210 40bd 8243 98bb 5f91 153d b873 4fbd

MLP3.bias f4 [50]
0.0016304351 0.026424855 0.009683523 0.11642698 -0.053092435 0.024073273 0.07453919 -0.14453802
-0.06373505 0.07247434 0.016881809 0.13207895 -0.13272773 -0.08252065 -0.008328428 0.025070563
0.03145601 -0.049127493 0.1069001 0.11608356 -0.11534685 -0.032904413 -0.10505603 0.07798055
0.023199938 -0.020041881 -0.0053820517 -0.11452546 0.03840745 0.0040467787 -0.004535292 -0.098357655
0.014022181 0.107029974 -0.06532463 0.0858641 0.009848648 0.1524134 0.11041019 0.08093198
-0.10599818 0.024928667 0.13045977 0.113542095 -0.06639086 -0.14806248 -0.104219355 -0.105435684
0.1214842 -0.006212838
00000000: 53b4 d53a f078 d83c a4a7 1e3c 4571 ee3d
00000010: 7477 59bd 5035 c53c 01a8 983d c601 14be
00000020: 8687 82bd 6d6d 943d b84b 8a3c b43f 073e
00000030: c7e9 07be 9600 a9bd f573 08bc c860 cd3c
00000040: 04d8 003d e939 49bd 71ee da3d 38bd ed3d
00000050: f83a ecbd c7c6 06bd 9e27 d7bd 44b4 9f3d
00000060: cc0d be3c df2e a4bc ec5b b0bb 538c eabd
00000070: 2151 1d3d d79a 843b c99c 94bb bd6f c9bd
00000080: 4abd 653c 8832 db3d ebc8 85bd 84d9 af3d
00000090: 395c 213c 4212 1c3e bd1e e23d aabf a53d
000000a0: 9315 d9bd 3437 cc3c 3f97 053e c288 e83d
000000b0: eef7 87bd b19d 17be f570 d5bd aaee d7bd
000000c0: b5cc f83d 1095 cbbb

MLP4.weight f4 [7, 50]
0.03634076 -0.09655624 -0.119089305 0.0140096545 -0.05992424 -0.0061432156 -0.08245061 -0.108048916
0.1308894 -0.14131494 0.016446369 0.028308788 0.090223365 0.1167513 0.14050178 -0.15081164
-0.041193336 -0.07638243 -0.01725358 0.055125386 0.048850246 -0.12676866 0.1004486 0.077130176
-0.026391484 0.15483001 0.10432906 0.029383637 0.039368473 0.008422532 -0.06833636 0.10057352
0.0927481 -0.24374416 -0.11796031 -0.0768862 -0.18006611 0.03028158 -0.03902115 -0.03508888
-0.0011414861 -0.10082261 0.1725743 0.040294804 0.018101433 -0.008967681 -0.087572835 -0.0921418
-0.12127794 0.06483671 -0.11458498 0.0033249392 -0.12272617 0.14480993 0.03914836 -0.12592241
0.2299632 -0.10330143 0.06693695 -0.063268326 -0.03820107 -0.03916094 0.040405948 -0.1065229
-0.115173906 0.016309083 -0.110894874 -0.12302478 -0.022079172 -0.09868011 0.06330135 0.07653933
0.056988057 0.040741112 0.14264056 -0.06674291 0.04133665 -0.05732813 0.15671273 0.008145663
0.06509263 -0.026638445 0.15184638 -0.025147447 0.06870862 0.08005564 -0.15534133 -0.042688705
-0.015593709 -0.045960188 -0.018110886 0.13090205 0.1207979 0.13526343 -0.010659009 -0.05394904
-0.037910387 -0.099081375 0.002620748 -0.14463292 0.06726296 0.056649663 0.003557379 0.066777945
0.04309437 -0.13229324 -0.09470572 -0.02540494 0.17397875 0.09790833 0.10115058 0.026643356
-0.07541616 0.11217865 -0.1831916 0.10780406 0.09869919 0.0639145 0.10667899 0.024843201
0.099084966 0.1425744 0.13405408 -0.07737495 -0.056952275 -0.053857457 -0.007701513 0.008437989
-0.059260987 0.12374682 -0.0020463374 0.054948896 0.15130223 0.06953826 0.1537771 -0.16032606
-0.15465687 -0.034481265 -0.11601027 -0.033058744 -0.11754442 0.0965125 0.08161418 0.00929621
-0.12552892 0.039177455 -0.116728574 0.07822124 0.11791565 0.11601568 0.028002009 0.121371955
-0.047204748 0.11322097 -0.15579246 -0.12183267 0.08389819 -0.08127033 -0.07673819 0.13148719
0.1630121 0.038349483 -0.13104972 0.07427255 -0.13848792 0.0051908004 0.018623851 -0.026440717
-0.08716471 0.11646536 -0.0006450674 -0.13853735 0.1524671 -0.15908235 0.09447462 0.09528521
0.07946922 -0.09231285 0.07149427 -0.06868382 -0.11598374 -0.06475288 -0.0026744097 0.05385028
0.008123224 -0.069300644 0.1212089 0.08773012 -0.13703115 0.10685242 -0.08754061 0.059184402
0.024447005 -0.0014539282 0.013270111 -0.063590676 0.13291866 0.11634862 0.044961438 0.04784211
0.06866582 0.13014804 0.09381517 0.07470206 -0.06727258 -0.06592319 0.18907689 -0.090743735
-0.038765907 -0.09169718 -0.08381019 0.056102216 -0.12572452 0.017287875 -0.07075976 0.025662275
-0.050842483 -0.06900184 0.0606577 -0.15308851 0.011321575 -0.039567202 0.007651385 -0.06890786
0.09396651 -0.13870607 0.07269615 -0.039306875 0.14376421 -0.14450593 -0.08769155 -0.15937427
-0.018161934 -0.123962596 0.017361905 -0.08941357 -0.14743142 0.078658804 0.115067035 0.07712908
0.003625371 -0.112983145 0.14808601 0.000870127 0.1201173 -0.06798418 0.09599763 0.113062814
0.04626336 0.036276966 0.013653531 0.1359215 0.15180904 -0.11990037 -0.08325061 -0.1372687
00000000: 0cda 143d 47bf c5bd 18e5 f3bd c088 653c
00000010: 1f73 75bd 074d c9bb dedb a8bd c048 ddbd
00000020: df07 063e ddb4 10be 89ba 863c d5e7 e73c
00000030: 07c7 b83d 4e1b ef3d b3df 0f3e 5e6e 1abe
00000040: 58ba 28bd 646e 9cbd 6157 8dbc 28cb 613d
00000050: 3217 483d a5cf 01be ffb7 cd3d 6df6 9d3d
00000060: f432 d8bc c28b 1e3e 79aa d53d f4b5 f03c
00000070: d640 213d a9fe 093c eff3 8bbd 7df9 cd3d
00000080: b7f2 bd3d 1298 79be 2d95 f1bd 8376 9dbd
00000090: 4063 38be 1311 f83c a4d4 1fbd 5cb9 0fbd
000000a0: eb9d 95ba 167c cebd 51b7 303e 2a0c 253d
000000b0: 7549 943c 2eed 12bc 6359 b3bd d7b4 bcbd
000000c0: 9260 f8bd 1cc9 843d 88ab eabd 39e7 593b
000000d0: dc57 fbbd 0e49 143e 085a 203d cef1 00be
000000e0: 797b 6b3e b38f d3bd 3d16 893d d392 81bd
000000f0: ba78 1cbd 3967 20bd b580 253d ae28 dabd
00000100: 4ce0 ebbd a09a 853c da1c e3bd 6af4 fbbd
00000110: 61df b4bc cc18 cabd 23a4 813d a7c0 9c3d
00000120: 4f6c 693d 27e0 263d 5e10 123e 82b0 88bd
00000130: 9e50 293d e7d0 6abd 4d79 203e 6375 053c
00000140: 494f 853d de38 dabc 9e7d 1b3e 0502 cebc
00000150: 1bb7 8c3d 36f4 a33d cc11 1fbe 5ada 2ebd
00000160: c27c 7fbc c040 3cbd 485d 94bc 300b 063e
00000170: e464 f73d 7f82 0a3e 20a3 2ebc abf9 5cbd
00000180: ec47 1bbd 2deb cabd dbc0 2b3b a71a 14be
00000190: 2ac1 893d 7a09 683d ea22 693b e0c2 883d
000001a0: b983 303d e177 07be 13f5 c1bd 051e d0bc
000001b0: 7c27 323e 2a84 c83d 0928 cf3d 2b43 da3c
000001c0: ca73 9abd ecbd e53d 9496 3bbe 60c8 dc3d
000001d0: cd22 ca3d 9be5 823d 847a da3d f883 cb3c
000001e0: 0fed ca3d 06ff 113e 7945 093e c276 9ebd
000001f0: ca46 69bd a399 5cbd f95c fcbb 7e3f 0a3c
00000200: a6bb 72bd f96e fd3d d81b 06bb 1812 613d
00000210: f9ee 1a3e 136a 8e3d be77 1d3e 842c 24be
00000220: 5f5e 1ebe 3a3c 0dbd cb96 edbd 9b68 07bd
00000230: 21bb f0bd 58a8 c53d 5625 a73d 214f 183c
00000240: a78a 00be 8a78 203d 640f efbd 7532 a03d
00000250: c37d f13d a199 ed3d 7864 e53c dc91 f83d
00000260: c459 41bd 65e0 e73d 0f88 1fbe 6883 f9bd
00000270: d0d2 ab3d 0f71 a6bd ea28 9dbd 94a4 063e
00000280: a5ec 263e 5914 1d3d e631 06be 351c 983d
00000290: c7cf 0dbe 9717 aa3b 0c91 983c 349a d8bc
000002a0: 6983 b2bd 6485 ee3d be19 29ba bcdc 0dbe
000002b0: 5620 1c3e 7ce6 22be e97b c13d e424 c33d
000002c0: c2c0 a23d 850e bdbd 966b 923d 1aaa 8cbd
000002d0: e288 edbd 289d 84bd 2645 2fbb 1c92 5c3d
000002e0: 4517 053c 7fed 8dbd 5f3c f83d d9ab b33d
000002f0: e551 0cbe 71d5 da3d 7e48 b3bd 586b 723d
00000300: 1645 c83c bc91 beba e16a 593c d43b 82bd
00000310: d41b 083e 2f48 ee3d 7c29 383d 17f6 433d
00000320: aaa0 8c3d 8745 053e 2b22 c03d 65fd 983d
00000330: 35c6 89bd bd02 87bd 5f9d 413e dad7 b9bd
00000340: 00c9 1ebd bbcb bbbd ada4 abbd 70cb 653d
00000350: eebd 00be 4d9f 8d3c 7eea 90bd b139 d23c
00000360: 3540 50bd d650 8dbd 3574 783d 3cc3 1cbe
00000370: 217e 393c 3811 22bd 78b8 fa3b 901f 8dbd
00000380: 8371 c03d f708 0ebe b8e1 943d 3f00 21bd
00000390: ed36 133e 5df9 13be a197 b3bd 0233 23be
000003a0: 56c8 94bc 1ae0 fdbd 8e3a 8e3c 761e b7bd
000003b0: 43f8 16be de17 a13d 44a8 eb3d daf5 9d3d
000003c0: a297 6d3b b563 e7bd dca3 173e 3c19 643a
000003d0: 0f00 f63d 4a3b 8bbd 689a c43d 7a8d e73d
000003e0: a67e 3d3d 2897 143d 0fb3 5f3c 012f 0b3e
000003f0: d473 1b3e 538e f5bd 4c7f aabd 2b90 0cbe

MLP4.bias f4 [7]
-0.0048905564 -0.026926914 0.0258159 -0.083310544 0.11206383 0.06795895 -0.10665899
00000000: f640 a0bb d595 dcbc de7b d33c b89e aabd
00000010: b981 e53d 102e 8b3d 0770 dabd
