DQN/final_dqn_against_random/DQN_AgainstNegaMax_Epochs30000.pth (torch, 493315 bytes, 12 tensors)

conv1.weight f4 [32, 1, 5, 5]
0.08391957 0.22869697 -0.04577516 0.26504982 -0.061080217 0.037950665 -0.08197698 0.05279749
0.21293232 -0.2987602 0.1282333 -0.00090392004 0.21119753 0.10745765 0.26398414 -0.052365296
0.26287228 0.033591762 0.012898145 0.1109593 -0.08856372 -0.05825282 -0.13651253 0.21749686
-0.23421387 -0.06330652 -0.04325275 -0.09822115 0.008853246 -0.24123491 0.15206479 -0.21887913
0.18250914 0.010712009 -0.17261975 0.1670754 0.09921473 0.25966746 0.006389652 -0.09516228
0.16714655 -0.13639347 0.067434125 0.19198194 0.24661471 -0.083778694 0.05856599 0.056770228
0.21868579 -0.19612361 -0.22604191 -0.12266958 -0.21099849 0.28240302 -0.03972135 0.13308373
0.04741597 0.055310056 0.22335297 -0.23933613 0.0028717674 -0.140422 0.10522072 0.0036775747
0.23905128 -0.095061846 0.2823689 -0.19875723 -0.21145543 -0.09556208 0.312668 0.1351984
0.23939852 -0.21415202 -0.27471986 -0.063643135 -0.17563646 0.03890198 0.056894995 0.15448408
-0.063391045 -0.13342656 0.11584733 -0.037028816 0.15158242 -0.11598633 0.12970585 -0.2269733
-0.18023582 0.17474054 0.1543257 0.0019888082 0.091557465 0.28235903 -0.2105711 -0.1399753
0.27686584 -0.105187654 -0.16084367 -0.34933868 -0.18315697 0.025562687 -0.048012957 -0.15771213
0.00837191 -0.17157064 -0.11829485 -0.08241148 -0.22731648 -0.19733472 0.2835604 0.17064697
0.13301219 -0.2897201 -0.21914952 -0.12529674 -0.019333532 -0.29146364 -0.06272087 -0.14747424
0.16494301 -0.065799884 -0.024737868 -0.17913891 -0.24005042 -0.103856124 -0.03414924 -0.0013446591
0.14412855 -0.30381745 0.15936984 0.05161143 -0.23741353 0.2300707 -0.029406166 -0.04825388
-0.20575814 -0.22768195 0.067464285 -0.04188905 0.19614118 -0.37207046 0.17477332 -0.24012475
-0.20244068 0.073977835 0.26595074 0.15041025 0.189913 -0.13171424 0.02112707 -0.03683557
0.03647536 -0.113489 0.3268918 -0.19586225 0.15724146 0.2536643 0.1359165 -0.28239274
0.33272755 0.061218843 0.20317118 -0.24812482 0.10067581 -0.06480392 -0.14918737 0.32351404
-0.026738923 -0.0902288 -0.118875176 -0.12855755 0.22589225 -0.0956573 -0.20512828 -0.022888169
-0.23345345 0.1017488 0.19696353 -0.13277616 0.027567184 0.20634855 0.11305482 -0.04517075
0.13723522 0.10549718 0.12495518 -0.02372841 -0.048678618 0.054216657 -0.15548547 -0.07002807
0.18682662 0.21098061 -0.06841318 0.015796524 -0.024358127 0.047178283 0.0915557 0.09772088
-0.12916267 0.05593517 0.10987397 0.014971383 -0.076016836 -0.12897152 -0.24505983 -0.24907848
-0.12933175 0.113925114 0.26895812 0.010799198 -0.2336797 -0.11692617 -0.143322 0.29591718
0.0049698204 -0.06699822 0.18595947 -0.08398465 -0.22598557 0.14133896 -0.13137993 -0.07808149
-0.21189742 0.118315205 0.20046675 0.06506025 -0.22041915 -0.13457638 -0.31978124 0.21753864
0.11682089 0.23297288 0.1804539 0.10806577 -0.08343153 -0.2862087 -0.17449716 -0.20239496
0.22403276 -0.033711743 -0.14573747 -0.13369982 0.046667296 -0.11678763 -0.04182246 0.07936205
-0.021828244 0.15989114 0.04344469 -0.25918236 -0.07021542 -0.21813652 -0.06638684 -0.27157038
00000000: 06de ab3d 8a2f 6a3e bc7e 3bbd 9cb4 873e
00000010: 402f 7abd 2872 1b3d 8ce3 a7bd 2e42 583d
00000020: ee0a 5a3e 19f7 98be 974f 033e 0cf5 6cba
00000030: 2a44 583e c212 dc3d ee28 873e fe7c 56bd
00000040: 3297 863e 8497 093d be52 533c a13e e33d
00000050: e560 b5bd 829a 6ebd f1c9 0bbe 7fb7 5e3e
00000060: c3d5 6fbe d9a6 81bd cc29 31bd 2c28 c9bd
00000070: 350d 113c 4906 77be dfb6 1b3e da21 60be
00000080: ade3 3a3e 6c81 2f3c 3bc3 30be d015 2b3e
00000090: 1831 cb3d 22f3 843e 4960 d13b 71e4 c2bd
000000a0: 7728 2b3e bbaa 0bbe e71a 8a3d ea96 443e
000000b0: 9188 7c3e 2a94 abbd e4e2 6f3d e687 683d
000000c0: 2bef 5f3e a1d4 48be 8877 67be 303a fbbd
000000d0: fd0f 58be 2197 903e dbb2 22bd 1a47 083e
000000e0: 4037 423d cc8c 623d a4b6 643e 8814 75be
000000f0: 4334 3c3b c9ca 0fbe f67d d73d 7703 713b
00000100: dcc9 743e c9af c2bd a892 903e 0487 4bbe
00000110: c687 58be 0db6 c3bd 0516 a03e 7371 0a3e
00000120: e324 753e ab4a 5bbe 15a8 8cbe 5557 82bd
00000130: 0bda 33be af57 1f3d ba0a 693d 1331 1e3e
00000140: 2ad3 81bd f9a0 08be 5d41 ed3d 87ab 17bd
00000150: 6c38 1b3e 3e8a edbd 9cd1 043e b06b 68be
00000160: bd8f 38be 2fef 323e 8e07 1e3e aa56 023b
00000170: 7b82 bb3d 5d91 903e f39f 57be af55 0fbe
00000180: 5cc1 8d3e a06c d7bd 34b4 24be 85dc b2be
00000190: 808d 3bbe d768 d13c 3ca9 44bd 4a7f 21be
000001a0: 562a 093c 37b0 2fbe 9244 f2bd 5ac7 a8bd
000001b0: a7c5 68be 1d12 4abe d42e 913e 14be 2e3e
000001c0: 5934 083e 3156 94be bb68 60be ca4d 00be
000001d0: 5b61 9ebc b93a 95be cd73 80bd 7d03 17be
000001e0: d2e6 283e 17c2 86bd 12a7 cabc 3170 37be
000001f0: c7cf 75be 85b2 d4bd 13e0 0bbd 463f b0ba
00000200: 6f96 133e f68d 9bbe d931 233e 8266 533d
00000210: 881c 73be a797 6b3e 33e5 f0bc dca5 45bd
00000220: 43b2 52be 7525 69be b72a 8a3d da93 2bbd
00000230: 3cd9 483e 0580 bebe c7f7 323e 43e3 75be
00000240: 9c4c 4fbe b181 973d b22a 883e 2505 1a3e
00000250: 8e78 423e 19e0 06be ad12 ad3c e5e0 16bd
00000260: 3067 153d ec6c e8bd 5d5e a73e 1d90 48be
00000270: e803 213e 4ae0 813e b22d 0b3e c895 90be
00000280: 445b aa3e 9cc0 7a3d 1b0c 503e 6f14 7ebe
00000290: 1e2f ce3d ebb7 84bd 93c4 18be a2a3 a53e
000002a0: 960b dbbc e1c9 b8bd d474 f3bd 97a4 03be
000002b0: 4c50 673e f9e7 c3bd 260d 52be f87f bbbc
000002c0: 6c0e 6fbe ad61 d03d cfb0 493e 79f6 07be
000002d0: 93d4 e13c 094d 533e 4989 e73d f704 39bd
000002e0: 6487 0c3e e80e d83d 80e8 ff3d 1562 c2bc
000002f0: 3b63 47bd 4912 5e3d 9537 1fbe e06a 8fbd
00000300: 7a4f 3f3e 4d0b 583e 361c 8cbd b667 813c
00000310: b28a c7bc 043e 413d 8e81 bb3d e221 c83d
00000320: 3843 04be 471c 653d 9b05 e13d 884a 753c
00000330: b7ae 9bbd 1c11 04be f7f0 7abe 6e0e 7fbe
00000340: 8b6f 04be 9251 e93d e1b4 893e 1fef 303c
00000350: bb49 6fbe fd76 efbd 01c3 12be 7582 973e
00000360: e0d9 a23b 5d36 89bd 296c 3e3e 2500 acbd
00000370: c368 67be 29bb 103e 7688 06be 30e9 9fbd
00000380: a3fb 58be 3e4f f23d 2847 4d3e 4f3e 853d
00000390: 8fb5 61be 64ce 09be 5eba a3be 73c2 5e3e
000003a0: ca3f ef3d 7190 6e3e e8c8 383e 9651 dd3d
000003b0: 26de aabd f289 92be 62af 32be a040 4fbe
000003c0: d868 653e 5315 0abd 343c 15be 9be8 08be
000003d0: 3526 3f3d 5a2e efbd 074e 2bbd 9288 a23d
000003e0: 25d1 b2bc 81ba 233e 0ff3 313d 8db3 84be
000003f0: 1acd 8fbd 2e5f 5fbe d3f5 87bd 460b 8bbe

conv1.bias f4 [32]
-0.017021455 0.11902504 -0.11432574 0.17008743 -0.06803032 -0.14608996 0.048542947 0.13131888
0.21023062 -0.12741284 -0.09167986 0.010103944 0.12005568 0.1357012 0.17584528 -0.022345826
0.14721738 0.17933933 -0.024911486 0.17193761 0.089186 0.1858078 -0.12442687 -0.079027295
-0.038289007 0.004434695 0.188703 -0.09486655 0.16002566 -0.09482685 0.1790279 0.033349708
00000000: 9470 8bbc 66c3 f33d 9d23 eabd 662b 2e3e
00000010: 7b53 8bbd 9b98 15be f8d4 463d 7578 063e
00000020: b246 573e 8378 02be a7c2 bbbd 038b 253c
00000030: c1df f53d 41f5 0a3e c910 343e 980e b7bc
00000040: 27c0 163e bba4 373e 2c13 ccbc 6a10 303e
00000050: 26a7 b63d 6644 3e3e 84d3 febd 10d9 a1bd
00000060: efd4 1cbd eb50 913b 5c3b 413e 6549 c2bd
00000070: c4dd 233e 9434 c2bd 1753 373e b499 083d

conv2.weight f4 [32, 32, 5, 5]
-0.08058749 -0.02369484 -0.082224935 0.055344287 -0.036810864 0.097037286 -0.084454566 -0.0066252607
0.0055082073 -0.11665169 -0.032463554 -0.08825258 0.021963665 -0.018322047 0.09336433 -0.018571213
0.026267719 -0.048615415 0.03635013 0.019978339 -0.029111119 0.056535646 -0.06955461 0.037366215
-0.0015545632 -0.030009214 0.03500256 0.027906848 -0.0068640714 -0.0173076 0.0098489085 -0.032857213
0.034240216 0.05983936 0.046058368 0.007723114 0.018015299 -0.047272034 -0.010975735 0.078964524
-0.027764631 -0.031198587 -0.007853289 -0.03211869 0.02259085 0.02996504 0.027936574 -0.088212945
0.064671785 -0.034119714 -0.009006089 0.05126303 0.08410208 0.005641458 0.060535513 -0.037539817
-0.1432879 -0.095881164 -0.035533924 -0.13628149 0.028235327 0.000603811 0.055844657 -0.0027192344
0.10045211 0.023026546 -0.04196043 -0.027290473 0.020081528 0.03790938 0.075393595 0.018841613
-0.11247488 -0.0022317732 -0.036341745 0.003093192 0.008289426 -0.024352519 -0.015845133 -0.0761263
0.08001567 0.036769237 0.06794041 0.01394007 -0.007859351 0.019418038 -0.02035469 -0.019354861
-0.0212684 -0.07563089 -0.024608312 -0.0045702774 0.069412135 -0.06896647 0.057647042 0.06040419
0.015806438 -0.014641781 0.09724995 -0.048875473 -0.09144043 -0.055006795 -0.061711524 -0.10061536
0.026371384 0.1973137 -0.028816102 -0.026070684 0.019797336 -0.15896712 0.03875457 0.09874052
0.046938963 -0.020291377 0.052773725 -0.07795292 -0.0021406906 0.08798518 -0.047065567 -0.046016
0.14201167 0.028297387 0.13001278 0.06784078 0.020809384 0.010740683 0.11796328 -0.038377903
-0.033307243 0.048622653 -0.038387477 -0.007874577 0.03564454 -0.08229369 0.042633045 0.0120972395
0.03457596 -0.023730295 0.106739484 -0.030037457 -0.07812256 0.11717276 0.05017189 -0.032382917
-0.06405752 -0.015950726 0.011633397 0.1484241 0.05132767 0.0052622696 0.045175623 0.041160516
-0.014214454 -0.041496657 -0.04454863 0.081701405 -0.014047095 0.027598148 -0.014144622 0.020033307
-0.019495996 -0.014672246 0.04616915 0.027456757 0.022713294 -0.027831592 -0.02675002 -0.14069483
0.074491754 0.034669902 0.021603938 -0.017417613 -0.02474963 -0.052394684 0.106787294 0.015825957
-0.025630584 0.00067715073 0.035178035 -0.072879925 -0.058946047 0.07616475 0.014573363 0.052515183
-0.002750876 0.03159467 0.014188553 0.019138318 -0.026594132 -0.010654014 0.0072340486 -0.08225967
0.08812223 -0.041279946 0.06443903 -0.02931576 0.02568581 -0.07321887 -0.0036035888 -0.064759575
0.031431813 -0.025542846 -0.03839712 0.033622306 -0.077857725 0.038206343 0.03304603 0.03000433
0.0058039194 0.01932484 -0.009952714 -0.021177407 0.0087328665 -0.041867882 0.021828707 0.046507772
-0.0063202893 0.015017576 0.0321585 -0.004028626 0.009604128 0.08063851 0.05140842 0.07831618
0.028909437 0.04705607 0.009640551 -0.030372256 -0.053236004 0.035404824 0.010977674 0.07047822
-0.048029575 0.007964693 -0.02969956 -0.069009274 -0.041557007 -0.019117368 -0.081320666 0.0049415478
0.084027946 -0.023458466 -0.021545703 0.08350218 0.0072482945 -0.01805936 -0.0018753527 -0.008981428
0.009643665 0.043171052 -0.0061457646 -0.12555034 -0.02320774 -0.018103618 0.04566157 -0.04122203
00000000: 0e0b a5bd ae1b c2bc 8c65 a8bd b1b0 623d
00000010: fdc6 16bd 7cbb c63d 84f6 acbd b718 d9bb
00000020: 317e b43b 15e7 eebd 81f8 04bd c5bd b4bd
00000030: 25ed b33c 1e18 96bc cc35 bf3d a822 98bc
00000040: 662f d73c f520 47bd e0e3 143d 9da9 a33c
00000050: 717a eebc ec91 673d a672 8ebd 510d 193d
00000060: 7cc2 cbba e2d5 f5bc d85e 0f3d e79c e43c
00000070: 01ec e0bb abc8 8dbc 515d 213c 4995 06bd
00000080: 783f 0c3d 1e1a 753d b3a7 3c3d 2d12 fd3b
00000090: d294 933c 52a0 41bd 92d3 33bc 27b8 a13d
000000a0: a772 e3bc 2e94 ffbc 15ab 00bc e38e 03bd
000000b0: 7210 b93c 3e79 f53c 3edb e43c fda8 b4bd
000000c0: a472 843d 1dc1 0bbd 468e 13bc 2ff9 513d
000000d0: b63d ac3d fbdb b83b 16f4 773d 5ac3 19bd
000000e0: 10ba 12be 585d c4bd 058c 11bd 608d 0bbe
000000f0: c64d e73c 1249 1e3a 5ebd 643d 2f35 32bb
00000100: d6b9 cd3d 2ba2 bc3c b3de 2bbd 4590 dfbc
00000110: 0482 a43c de46 1b3d f567 9a3d ba59 9a3c
00000120: 3b59 e6bd f142 12bb 15db 14bd 26b7 4a3b
00000130: 5fd0 073c ef7e c7bc a7cd 81bc 1be8 9bbd
00000140: 41df a33d 579b 163d 5724 8b3d e464 643c
00000150: 82c4 00bc 9412 9f3c e1be a6bc 168e 9ebc
00000160: 113b aebc 5ee4 9abd 5f97 c9bc 44c2 95bb
00000170: f327 8e3d 4b3e 8dbd 4e1f 6c3d 626a 773d
00000180: 817c 813c 15e4 6fbc fb2a c73d a631 48bd
00000190: 1f45 bbbd ce4e 61bd 39c5 7cbd 6d0f cebd
000001a0: cd08 d83c 9a0c 4a3e bf0f ecbc 3092 d5bc
000001b0: 062e a23c 47c8 22be 1dbd 1e3d 7838 ca3d
000001c0: 1243 403d 1a3a a6bc 4329 583d c8a5 9fbd
000001d0: d44a 0cbb 9331 b43d d3c7 40bd 467b 3cbd
000001e0: 826b 113e eccf e73c 1222 053e 1bf0 8a3d
000001f0: 7178 aa3c b1f9 2f3c bb96 f13d 2632 1dbd
00000200: 2d6d 08bd 8c28 473d 303c 1dbd 5f04 01bc
00000210: 0200 123d 9889 a8bd fd9f 2e3d 8033 463c
00000220: 869f 0d3d 0966 c2bc 3b9a da3d 1d11 f6bc
00000230: b9fe 9fbd 46f8 ef3d 0a81 4d3d f3a3 04bd
00000240: 9730 83bd 19ab 82bc 019a 3e3c 7dfc 173e
00000250: f73c 523d 1e6f ac3b 130a 393d ee97 283d
00000260: bee3 68bc 66f8 29bd a078 36bd 1153 a73d
00000270: c925 66bc 8315 e23c d8be 67bc e41c a43c
00000280: 11b6 9fbc dc63 70bc dd1b 3d3d feec e03c
00000290: 3b11 ba3c 14ff e3bc dc22 dbbc 4e12 10be
000002a0: 228f 983d 0702 0e3d befa b03c 62af 8ebc
000002b0: bcbf cabc cf9b 56bd 4cb3 da3d 70a5 813c
000002c0: 3bf7 d1bc d182 313a d816 103d 1242 95bd
000002d0: 6971 71bd 44fc 9b3d 1dc5 6e3c 291a 573d
000002e0: 0a48 34bb 6a69 013d 1b77 683c f6c7 9c3c
000002f0: f0db d9bc 2c8e 2ebc 990b ed3b c277 a8bd
00000300: 6d79 b43d 2915 29bd 9cf8 833d 9b27 f0bc
00000310: 0c6b d23c c6f3 95bd 302a 6cbb aba0 84bd
00000320: a5be 003d 3b3f d1bc 4c46 1dbd 8bb7 093d
00000330: df73 9fbd 417e 1c3d 465b 073d a4cb f53c
00000340: ce2e be3b 204f 9e3c b510 23bc 3e7c adbc
00000350: 4c14 0f3c a87d 2bbd 1ed2 b23c ef7e 3e3d
00000360: 6e1a cfbb 470c 763c a2b8 033d 9002 84bb
00000370: a25a 1d3c ce25 a53d a391 523d 3c64 a03d
00000380: 7cd3 ec3c debd 403d 67f3 1d3c 3dcf f8bc
00000390: ff0d 5abd a604 113d b4db 333c e356 903d
000003a0: a9ba 44bd 587e 023c 7e4c f3bc bc54 8dbd
000003b0: ae37 2abd 079c 9cbc 738b a6bd b5ec a13b
000003c0: d816 ac3d f82b c0bc 9d80 b0bc 3103 ab3d
000003d0: 1a83 ed3b 39f1 93bc 65ce f5ba d726 13bc
000003e0: 7600 1e3c 21d4 303d 6962 c9bb 4590 00be
000003f0: 291e bebc 0a4e 94bc a007 3b3d 6ed8 28bd

conv2.bias f4 [32]
0.00041729535 0.016011044 -0.036327653 0.046882015 0.04881792 0.049680214 0.02109142 -0.00062660215
0.0031309274 -0.019940022 0.011097269 -0.042809892 0.035576306 0.04479157 0.039135914 0.020741947
-0.019460898 0.04063873 0.049012452 -0.019831253 -0.02745381 0.00736522 -0.02224364 -0.030497797
-0.023126103 0.02980949 -0.006686743 0.020720776 0.06581923 0.008236686 0.02166915 -0.048809618
00000000: 6fc8 da39 9829 833c 4ecc 14bd 5b07 403d
00000010: 4df5 473d 7b7d 4b3d eac7 ac3c 8f42 24ba
00000020: 3f30 4d3b 4259 a3bc 52d1 353c 6d59 2fbd
00000030: 76b8 113d 5e77 373d fb4c 203d 04eb a93c
00000040: 766c 9fbc cc74 263d 48c1 483d 2775 a2bc
00000050: d0e6 e0bc f257 f13b 4b38 b6bc 84d6 f9bc
00000060: f472 bdbc 0833 f43c 771c dbbb 9ebe a93c
00000070: 3ccc 863d 2af3 063c 8083 b13c 98ec 47bd

conv3.weight f4 [32, 32, 5, 5]
0.02252915 0.028300118 -0.010045849 -0.020412944 0.0146211125 0.023900788 0.037443414 -0.028756084
0.014781246 0.0013297873 0.01140366 0.005114062 0.04851199 0.1193462 -0.023498252 -0.026338458
0.032273397 -0.044496424 0.100117184 0.09375311 0.1123526 -0.027246572 0.11863698 -0.09299616
0.08420163 0.037991557 0.013266162 0.032123126 -0.017952459 0.030600237 0.01289388 -0.026490727
0.092673674 0.031677555 0.07557571 0.03831837 0.014057375 0.09039452 0.0011584138 0.070214026
-0.022601703 -0.015662165 0.052174855 0.008406223 -0.15868737 -0.034847945 0.023830075 -0.12604421
-0.019549668 -0.1068374 0.05840475 0.015782954 -0.034513608 -0.0063002612 0.004202236 0.0141473785
-0.024692563 0.027736954 0.030349365 0.030838095 -0.06368374 -0.06070631 0.036871452 0.07800572
0.052323736 0.0018008617 0.0021902716 -0.018174963 0.005835219 -0.038791563 -0.009902028 -0.050291553
-0.0035311359 0.019240871 -0.02527347 -0.050816976 0.050528213 -0.007661382 -0.04131748 -0.1290418
-0.034084395 -0.10112475 0.026756078 -0.003484773 -0.051671844 0.038886994 -0.054210536 0.031097442
-0.026988449 0.012782709 0.10640247 0.011197286 0.05287299 0.16559812 0.0024508652 0.020819627
0.011770076 -0.08714526 0.12252496 -0.05752551 -0.066734746 -0.015328149 -0.0253245 -0.011126707
-0.008981855 0.0015563063 0.036462355 -0.014856495 -0.08308745 -0.012577675 -0.013746664 -0.034708023
0.082871206 0.0505168 0.054251894 0.07293078 0.0015158949 0.083209544 -0.012700483 0.042264763
0.0090890955 0.025936974 -0.017468957 0.12396783 0.026799317 -0.019388486 -0.034351524 0.016562056
0.0038829062 -0.014436171 -0.028114954 0.025380978 0.0152470125 -0.008005387 -0.008651787 0.07213871
-0.03512656 0.034194883 0.044037975 0.10477503 -0.006788268 0.06415479 0.10058212 -0.050962687
0.005517546 -0.050332885 0.018188104 -0.041547287 0.048771173 -0.05159623 -0.02288321 0.03990524
0.014442486 0.017493075 -0.030566543 -0.07380649 -0.034958404 0.065390326 0.053872507 -0.016952135
0.0519939 0.017409129 0.04600802 -0.0013712853 -0.06353023 -0.04544653 0.005452242 0.1324127
-0.011788273 -0.06109903 0.05041379 -0.049095374 0.0014462925 0.004425267 0.018850535 0.084195614
0.009129225 0.03210316 0.023094403 0.020361895 -0.03749348 -0.008615227 0.02872231 0.074958965
0.033697013 -0.013497463 0.09117797 -0.12227231 -0.009239037 0.030511478 -0.018771462 0.049524177
0.090034395 -0.04345577 0.018953633 -0.0133315725 0.011924296 0.057277545 0.010905198 0.075941555
0.039892767 0.07537298 0.02923602 0.10397329 0.0122505715 0.015488908 0.011656142 -0.021518026
-0.009879851 0.059109863 0.104816385 0.06549024 0.028584244 -0.13519438 0.039558075 0.020928223
-0.048658993 -0.033737436 0.10957293 -0.021017237 0.035714712 -0.00521208 0.029032564 0.02710126
0.050883196 0.00921324 0.0073735025 -0.049618896 0.0031945799 0.051897973 0.035741173 0.028042888
0.0154597815 -0.0821424 0.0043466706 -0.0060989093 0.00947604 0.009714943 0.108352676 -0.15162201
-0.05185538 -0.0036787156 0.06008433 -0.040068954 0.0077513307 -0.027088339 -0.11409373 -0.015145618
-0.15585771 -0.028404756 0.0010988031 0.07823492 0.00721808 0.052649956 0.054132897 0.058305062
00000000: 0d8f b83c a6d5 e73c 5897 24bc 0c39 a7bc
00000010: 648d 6f3c 96cb c33c 445e 193d e191 ebbc
00000020: 0a2d 723c 424c ae3a 6bd6 3a3c dd93 a73b
00000030: 82b4 463d c86b f43d 687f c0bc c0c3 d7bc
00000040: 1c31 043d e241 36bd 3d0a cd3d a101 c03d
00000050: 1f19 e63d 3434 dfbc f2f7 f23d c574 bebd
00000060: e771 ac3d 099d 1b3d 515a 593c 8a93 033d
00000070: 0911 93bc 59ad fa3c da40 533c 1503 d9bc
00000080: b2cb bd3d 53c0 013d 70c7 9a3d b9f3 1c3d
00000090: e750 663c c320 b93d ebd5 973a 5fcc 8f3d
000000a0: 3527 b9bc f14d 80bc 4db5 553d 41ba 093c
000000b0: f17e 22be b8bc 0ebd 4a37 c33c bc11 01be
000000c0: a026 a0bc 91cd dabd d239 6f3d 414b 813c
000000d0: 245e 0dbd 6c72 cebb e9b2 893b 68ca 673c
000000e0: 0f48 cabc 9c38 e33c 3b9f f83c 2ca0 fc3c
000000f0: 9f6c 82bd 2ea7 78bd 8506 173d 77c1 9f3d
00000100: 6a51 563d e40a ec3a a98a 0f3b a9e3 94bc
00000110: 5d35 bf3b e7e3 1ebd 1e3c 22bc 84fe 4dbd
00000120: a16a 67bb 089f 9d3c 4f0a cfbc 7625 50bd
00000130: acf6 4e3d 550c fbbb 853c 29bd 8923 04be
00000140: 149c 0bbd 7e1a cfbd 902f db3c ca60 64bb
00000150: dba5 53bd f847 1f3d de0b 5ebd 10c0 fe3c
00000160: e116 ddbc 916e 513c 8ae9 d93d d274 373c
00000170: 5991 583d 8e92 293e b29e 203b ec8d aa3c
00000180: 47d7 403c 3779 b2bd 5eee fa3d df9f 6bbd
00000190: 3aac 88bd eb22 7bbc 5375 cfbc cb4c 36bc
000001a0: a128 13bc f9fc cb3a 8d59 153d a868 73bc
000001b0: c129 aabd 9812 4ebc b039 61bc 002a 0ebd
000001c0: 61b8 a93d b4ea 4e3d 3c37 5e3d bc5c 953d
000001d0: feb0 c63a c469 aa3d b015 50bc d11d 2d3d
000001e0: 6eea 143c c779 d43c 0f1b 8fbc d8e2 fd3d
000001f0: 3e8a db3c 9ad4 9ebc 2fb4 0cbd 26ad 873c
00000200: 5b78 7e3b b185 6cbc 5551 e6bc c5eb cf3c
00000210: 9bce 793c 0729 03bc 3ac0 0dbc 76bd 933d
00000220: dee0 0fbd ef0f 0c3d 2a61 343d 4a94 d63d
00000230: 1f70 debb 9663 833d 00fe cd3d 40be 50bd
00000240: 88cc b43b db29 4ebd 38ff 943c 7d2d 2abd
00000250: 48c4 473d 9256 53bd 9275 bbbc ad73 233d
00000260: 2da0 6c3c a34d 8f3c b066 fabc db27 97bd
00000270: 8b30 0fbd 5deb 853d 6ba9 5c3d 34df 8abc
00000280: 8ef7 543d 979d 8e3c e872 3c3d b3bc b3ba
00000290: 231c 82bd 2426 3abd b9a8 b23b 3297 073e
000002a0: 9a23 41bc fa42 7abd b17e 4e3d 3b18 49bd
000002b0: 8691 bd3a d501 913b 706c 9a3c c06e ac3d
000002c0: bf92 153c 9a7e 033d 7930 bd3c fdcd a63c
000002d0: c392 19bd e226 0dbc 0d4b eb3c 1684 993d
000002e0: e105 0a3d 7724 5dbc 84bb ba3d e869 fabd
000002f0: 545f 17bc 35f3 f93c 9cc6 99bc ddd9 4a3d
00000300: f463 b83d adfe 31bd a644 9b3c ab6c 5abc
00000310: 1f5e 433c dc9b 6a3d b7ab 323c 3f87 9b3d
00000320: 9966 233d 265d 9a3d 6180 ef3c f3ef d43d
00000330: 9fb6 483c 30c5 7d3c 67f9 3e3c 9246 b0bc
00000340: 19df 21bc 2f1d 723d f9a9 d63d bf1f 863d
00000350: 8129 ea3c 6570 0abe a607 223d aa71 ab3c
00000360: a74e 47bd 4430 0abd c667 e03d 572c acbc
00000370: 9749 123d 19ca aabb b3d5 ed3c 7603 de3c
00000380: e66a 503d 21f3 163c 6c9d f13b 2f3d 4bbd
00000390: 285c 513b f892 543d 5665 123d 33ba e53c
000003a0: 064b 7d3c 463a a8bd 846e 8e3b 5cd9 c7bb
000003b0: 6441 1b3c 6d2b 1f3c 02e8 dd3d cd42 1bbe
000003c0: 4f66 54bd 9b16 71bb fd1a 763d 581f 24bd
000003d0: e0fe fd3b 5de8 ddbc f9a9 e9bd 5325 78bc
000003e0: 2a99 1fbe 17b1 e8bc b705 903a a139 a03d
000003f0: a585 ec3b 7ba7 573d 75ba 5d3d 4ad1 6e3d

conv3.bias f4 [32]
0.0486304 0.043055326 -0.028671755 0.04685057 0.026368987 -0.021183375 0.01092093 0.0025265664
0.026004752 -0.005735273 0.00089922576 0.0022129386 0.02304255 0.028745081 0.005613994 0.0287513
0.000591265 0.0067856745 0.018527491 0.03286856 0.0118226465 0.002125977 0.02681486 0.0033082704
0.038758047 0.02477505 0.053516097 0.04595248 0.007538631 0.03164266 -0.0030199527 0.039888557
00000000: ac30 473d c85a 303d 07e1 eabc 62e6 3f3d
00000010: c603 d83c c288 adbc b3ed 323c c094 253b
00000020: eb07 d53c f5ee bbbb 05ba 6b3a f306 113b
00000030: bbc3 bc3c ce7a eb3c 98f5 b73b d987 eb3c
00000040: 1fff 1a3a 5d5a de3b f7c6 973c 2fa1 063d
00000050: c6b3 413c fa53 0b3b d6aa db3c 91cf 583b
00000060: c2c0 1e3d 0cf5 ca3c b233 5b3d ab38 3c3d
00000070: 9f06 f73b bc9b 013d 66ea 45bb 2f62 233d

MLP1.weight f4 [50, 1344]
-0.03488622 0.045160197 0.052927945 0.048173696 -0.047935415 -0.02850883 -0.0071104574 0.0167503
-0.008679853 0.01378779 0.011659941 0.037585627 -0.006366341 0.014128411 0.014775365 -0.0007740555
-0.03516635 0.028525842 -0.046794664 0.036117185 0.021387443 -0.025768181 -0.022692647 0.023792936
0.056265276 -0.0036151344 -0.0025762066 -0.004302724 -0.004173739 0.037683867 -0.0060330285 0.015229084
-0.0055054314 -0.0009606902 0.012551352 -0.085894965 -0.0029270623 -0.01335279 0.018555278 0.025569106
-0.0053896396 -0.038571138 0.030289005 -0.05191848 0.016350644 0.06642874 0.028765451 0.029059075
0.055977892 0.006926556 0.047524348 0.017539 -0.025552655 -0.029213678 -0.028219769 -0.014415142
-0.035075 0.038372345 0.042401377 -0.009957906 0.034664262 -0.017043773 0.005327579 -0.02915871
0.050704118 0.031591803 -0.02572433 0.020213544 -0.004349086 0.048945595 -0.0006492262 0.023810733
0.06506211 -0.0024406558 -0.011757776 0.032693602 0.0027819965 -0.026142413 -0.03600526 0.04163457
-0.035025593 0.041009564 0.019342117 -0.013894131 -0.13618444 -0.07634726 -0.051547825 -0.029380156
-0.04471029 -0.05475819 0.049002044 -0.097632416 -0.019218482 0.0061948914 -0.082448415 -0.018265706
-0.017760877 -0.04458753 -0.014285688 -0.01382422 -0.06245411 -0.028198646 0.036118805 0.078728996
-0.05485036 0.018399797 -0.003389242 0.0120869875 -0.03641324 0.013726496 0.05757545 0.005104408
-0.048312563 0.04267416 0.008750203 -0.012412169 0.009153365 0.03409444 -0.09087954 -0.047908273
-0.056635585 0.047042936 -0.069066845 -0.07941939 0.04176194 -0.027572619 -0.005898038 -0.05132306
-0.037567575 -0.0022992494 0.009988788 0.07636188 -0.008623165 0.022631628 -0.028946066 -0.049724333
0.02138105 0.03327332 0.019138716 0.0025213535 -0.020519504 0.0050003235 -0.001307709 -0.024061576
-0.01993888 -0.011352405 -0.024911532 0.029089795 0.033769995 0.028823953 0.00044468744 0.010302818
-0.016578436 -0.02435148 0.06090311 0.01314221 0.016602857 -0.055331763 -0.022089032 -0.024945576
0.034236964 -0.074935056 0.0019485421 0.011047767 0.037343055 -0.027057108 0.04266467 0.015221772
0.080877066 0.065445304 0.08848945 0.037692245 -0.021503152 -0.034593396 -0.11213622 0.07291044
0.02602918 -0.015486362 0.01651008 0.022981092 0.003374603 -0.06790144 0.017283015 -0.01223181
0.030823965 -0.028783115 -0.03948462 -0.041430578 -0.022333672 0.027401412 -0.026089707 -0.032744866
-0.0030234072 0.041224852 -0.0045366324 0.041951798 0.025791172 0.006832034 -0.007617341 0.022476597
0.024640257 0.012834427 0.031095441 -0.03189965 -0.033427335 0.003047978 0.0029231615 0.01773878
-0.013681818 -0.056381777 -0.01083672 -0.004667732 0.05483013 0.03817704 0.032224532 0.07323097
-0.03111138 0.026354857 0.007211905 0.0031043075 0.02734908 -0.042423096 0.020207254 0.028811866
-0.07310586 0.014874889 0.028250577 0.053901084 0.007219479 -0.013100645 -0.036533903 -0.110586725
-0.02294107 0.045297854 0.028755175 0.044698622 0.043432392 -0.003412071 0.02031114 -0.043527033
0.0112792635 0.039443333 -0.010169904 -0.04133719 -0.027797414 -0.063235015 0.07139531 -0.059345793
0.0360985 0.023596296 0.028802725 -0.025020124 0.047076557 0.06259503 -0.00439727 0.06829426
00000000: dae4 0ebd e6f9 383d f9ca 583d c851 453d
00000010: ed57 44bd 5a8b e9bc d7fe e8bb ed37 893c
00000020: f135 0ebc 2fe6 613c 5609 3f3c 63f3 193d
00000030: bd9c d0bb da7a 673c 5f14 723c fce9 4aba
00000040: 970a 10bd 07af e93c c3ab 3fbd 9def 133d
00000050: b834 af3c cb17 d3bc eee5 b9bc 67e9 c23c
00000060: 6b76 663d e4eb 6cbb 93d5 28bb ddfd 8cbb
00000070: dcc3 88bb 665a 1a3d b6b0 c5bb 6883 793c
00000080: e866 b4bb d4d6 7bba 30a4 4d3c b3e9 afbd
00000090: f5d3 3fbb a9c5 5abc 3d01 983c 4d76 d13c
000000a0: 939b b0bb c5fc 1dbd a620 f83c 79a8 54bd
000000b0: c9f1 853c cb0b 883d 86a5 eb3c 4c0d ee3c
000000c0: 1349 653d 2af8 e23b e4a8 423d f3ad 8f3c
000000d0: cd53 d1bc 8651 efbc 252d e7bc 7d2d 6cbc
000000e0: ceaa 0fbd 522c 1d3d 11ad 2d3d 7c26 23bc
000000f0: 1dfc 0d3d 629f 8bbc f992 ae3b 3fde eebc
00000100: 1faf 4f3d 6866 013d d5bb d2bc e096 a53c
00000110: c782 8ebb 2d7b 483d d530 2aba ba0e c33c
00000120: 493f 853d 69f3 1fbb b0a3 40bc bae9 053d
00000130: 2852 363b 9d28 d6bc 407a 13bd 0389 2a3d
00000140: ff76 0fbd a5f9 273d 5c73 9e3c 36a4 63bc
00000150: ef73 0bbe f45b 9cbd d023 53bd a7ae f0bc
00000160: 2322 37bd 204a 60bd 5eb6 483d 81f3 c7bd
00000170: 1470 9dbc 84fe ca3b b7da a8bd f6a1 95bc
00000180: 427f 91bc 6aa1 36bd 850e 6abc fb7e 62bc
00000190: e1cf 7fbd d900 e7bc 50f1 133d ab3c a13d
000001a0: c5aa 60bd 2cbb 963c 0c1e 5ebb 8008 463c
000001b0: 0d26 15bd 19e5 603c 3cd4 6b3d e142 a73b
000001c0: 65e3 45bd 1acb 2e3d 035d 0f3c 695c 4bbc
000001d0: fff7 153c 9da6 0b3d 0d1f babd 773b 44bd
000001e0: b7fa 67bd 18b0 403d eb72 8dbd a2a6 a2bd
000001f0: 910e 2b3d f9df e1bc 5444 c1bb 2138 52bd
00000200: 75e0 19bd 01af 16bb 03a8 233c 9e63 9c3d
00000210: 2d48 0dbc f765 b93c 4d20 edbc beab 4bbd
00000220: 5027 af3c 9b49 083d ccc8 9c3c 4b3d 253b
00000230: 8518 a8bc c1d9 a33b 6f67 abba c81c c5bc
00000240: dd56 a3bc 70ff 39bc 4513 ccbc b94d ee3c
00000250: 6852 0a3d 3620 ec3c f024 e939 27cd 283c
00000260: 80cf 87bc c17c c7bc 8a75 793d 6d52 573c
00000270: b702 883c 8fa3 62bd 0ff4 b4bc aa5a ccbc
00000280: 0f3c 0c3d 8d77 99bd 3966 ff3a b101 353c
00000290: 08f5 183d dea6 ddbc 26c1 2e3d bd64 793c
000002a0: e0a2 a53d 3008 863d f539 b53d 2f63 1a3d
000002b0: 6127 b0bc ceb1 0dbd ada7 e5bd 1252 953d
000002c0: 263b d53c 83ba 7dbc 2640 873c d842 bc3c
000002d0: 7228 5d3b e90f 8bbd 1c95 8d3c ee67 48bc
000002e0: 8a82 fc3c 91ca ebbc a0ba 21bd 1cb3 29bd
000002f0: 1bf5 b6bc ed78 e03c 15ba d5bc 7b1f 06bd
00000300: 5b24 46bb 64db 283d 08a8 94bb a6d5 2b3d
00000310: 0248 d33c 41df df3b e39a f9bb d720 b83c
00000320: 5dda c93c 7d47 523c debb fe3c 35a9 02bd
00000330: 1aeb 08bd 96c0 473b 8392 3f3b eb50 913c
00000340: b429 60bc 94f0 66bd 7f8c 31bc c6f3 98bb
00000350: 8f95 603d 875f 1c3d dffd 033d 1efa 953d
00000360: 4bdd febc 24e6 d73c d851 ec3b a371 4b3b
00000370: 2e0b e03c d7c3 2dbd af89 a53c dd06 ec3c
00000380: 86b8 95bd ceb5 733c c16d e73c 62c7 5c3d
00000390: 6191 ec3b 16a4 56bc 93a4 15bd 4b7b e2bd
000003a0: e9ee bbbc 3e8a 393d f98f eb3c e715 373d
000003b0: 2ae6 313d 0d9d 5fbb 8c63 a63c 6749 32bd
000003c0: a9cc 383c 558f 213d ab9f 26bc 2f51 29bd
000003d0: 67b7 e3bc 5c81 81bd b437 923d 9314 73bd
000003e0: 05dc 133d 054d c13c b1f3 eb3c 01f7 ccbc
000003f0: 59d3 403d d331 803d f916 90bb dcdd 8b3d

MLP1.bias f4 [50]
0.00495147 -0.012437716 -0.0106073795 0.035887923 0.027947327 0.027064057 0.010229701 -0.021553267
-0.012955901 0.0022565948 -0.010415903 0.001945733 0.006466211 0.015228081 0.0018743107 -0.008196592
0.0037135517 0.050694335 -0.0021651657 -0.028217638 0.025425209 -0.015589254 0.006356234 0.006269361
0.012827638 -0.029956294 0.027588962 0.029348157 0.026412489 0.04321637 -0.03121656 -0.0016686793
-0.018715762 -0.02589507 0.032037646 -0.004919388 -0.026407205 -0.033783834 0.0066200513 -0.014585647
0.012215581 -0.019019552 0.024359526 0.023118323 -0.0018161719 0.03500112 -0.01423271 0.026955469
0.048935108 0.0012360697
00000000: f13f a23b 90c7 4bbc 93ca 2dbc 37ff 123d
00000010: cbf1 e43c 71b5 dd3c 7a9a 273c 7a90 b0bc
00000020: fd44 54bc 61e3 133b 77a7 2abc f707 ff3a
00000030: 82e2 d33b 337f 793c 6eab f53a 004b 06bc
00000040: 0f5f 733b dda4 4f3d 74e5 0dbb ad28 e7bc
00000050: 8748 d03c 126a 7fbc f547 d03b 366f cd3b
00000060: 032b 523c e766 f5bc 3f02 e23c 8c6b f03c
00000070: 015f d83c a603 313d dfb9 ffbc 96b7 daba
00000080: cc51 99bc e621 d4bc e839 033d d132 a1bb
00000090: ec53 d8bc eb60 0abd 04ed d83b a3f8 6ebc
000000a0: dc23 483c e4ce 9bbc a18d c73c a362 bd3c
000000b0: 9e0c eeba 565d 0f3d 5030 69bc b7d1 dc3c
000000c0: 2e70 483d 9e03 a23a

MLP3.weight f4 [50, 50]
-0.048474606 0.13614164 -0.026228735 0.15814997 0.055988617 -0.032327503 0.13238782 0.024600878
0.23681416 0.042175498 -0.111961246 -0.101060286 0.035467856 -0.14700313 -0.084834084 0.020010194
0.050876893 0.015800644 -0.070282385 -0.09342506 0.05095477 -0.07798848 -0.027567515 -0.017188085
0.06253199 -0.039081287 0.07857752 0.023147294 -0.009345029 0.028850365 0.0805108 -0.13486
0.30587822 -0.11269761 0.041695558 0.043518774 -0.079882555 -0.09377531 0.028890712 -0.11290241
0.1724739 0.10423412 -0.21328615 0.13343152 -0.13871948 0.10414281 -0.051079098 -0.046443485
0.14776549 0.12433268 8.6093685e-05 0.16891223 -0.06583409 -0.11545173 0.14726545 0.14711706
-0.10927877 0.08732859 -0.11245987 0.15123594 -0.08107016 -0.09932561 0.017219381 0.07215233
-0.029354224 -0.14247307 0.1296874 -0.1251495 -0.1467606 -0.08266651 0.046498153 0.059370436
-0.0029077232 0.010345246 0.056758188 -0.11729111 0.030639658 0.11228023 0.17352016 0.10984461
-0.11183504 -0.11690643 0.084065825 -0.15632787 -0.09973189 0.049494684 -0.08352299 0.11867272
-0.07065555 0.070410624 -0.057903502 0.14801113 0.06485773 0.058354843 0.09180143 -0.06814184
0.09332403 0.09920444 -0.09429231 0.052287526 0.015390929 0.031721294 -0.12136616 -0.05995466
-0.10263469 0.06870194 0.14094958 -0.096535325 -0.18929042 -0.16830766 -0.11706402 0.112364054
0.11199693 0.14411536 -0.05698477 0.060098488 -0.1361635 0.016782012 0.15985335 0.00025365417
0.09433926 -0.1232231 -0.020447265 -0.12594576 0.18857333 0.049744118 -0.07970782 -0.039031595
-0.08443016 0.01825905 0.31725138 0.041035764 0.08670439 0.13499112 -0.10667382 -0.057242587
0.11991516 -0.08483581 -0.095985696 0.028015964 0.25882533 -0.029024167 -0.02103209 0.17695941
-0.010029224 0.11789171 0.07377161 -0.05529364 0.10271798 -0.019579941 0.033530902 0.027702812
0.021684913 0.108950906 0.013762886 -0.064735696 0.009657305 0.0053904373 0.09020933 0.07879857
0.10378785 -0.15840021 0.12716576 -0.029694697 0.3075365 0.030151023 -0.16258039 -0.07046062
0.02956072 -0.19303985 -0.19638376 -0.07840948 -0.090479165 0.2796092 0.021962628 0.21518494
0.18179874 0.08650669 -0.11802825 0.07142948 0.04984745 0.08606761 -0.19400497 -0.107518725
-0.003622284 0.10629798 -0.10414923 0.07100521 0.06552639 -0.07254814 0.15739013 0.14490314
0.25074112 -0.023232386 0.18427125 -0.017365575 0.30333412 -0.002490329 -0.13166876 -0.018579869
0.16209927 -0.10783547 0.014862578 0.15691485 -0.031789005 0.045398176 -0.02440565 -0.026840506
0.063608296 -0.09586631 -0.22941515 -0.057965107 0.083631344 0.020341702 -0.12434452 -0.12791252
-0.11178151 0.11077081 0.10009091 0.02062172 0.06803319 0.19952728 -0.09392752 -0.1250811
0.1751122 -0.07705654 0.09054337 0.18029161 0.059023138 -0.062066752 0.0079994695 0.10184295
-0.181281 -0.03847196 -0.10055062 -0.06852738 0.15441884 0.102022566 -0.059834596 0.057427246
-0.0114447605 0.05756431 -0.08535909 -0.08261102 0.22135769 0.076221034 -0.17501143 0.0058055115
0.0011710834 -0.007720031 -0.0100021055 0.11367196 -0.06730092 0.028274747 -0.056336164 0.1279592
00000000: 4f8d 46bd b768 0b3e a5dd d6bc 11f2 213e
00000010: 5254 653d d869 04bd ac90 073e c887 c93c
00000020: 697f 723e 37c0 2c3d f04b e5bd b2f8 cebd
00000030: be46 113d fd87 16be 7ebd adbd 6bec a33c
00000040: 4a64 503d 5a70 813c 36f0 8fbd a355 bfbd
00000050: f3b5 503d 6db8 9fbd 45d5 e1bc 07ce 8cbc
00000060: c610 803d b313 20bd 40ed a03d 659f bd3c
00000070: e41b 19bc 9a57 ec3c d9e2 a43d bd18 0abe
00000080: 129c 9c3e 01ce e6bd f6c8 2a3d be40 323d
00000090: 7799 a3bd 450d c0bd 37ac ec3c 6139 e7bd
000000a0: ff9c 303e b378 d53d af67 5abe 46a2 083e
000000b0: 7b0c 0ebe d348 d53d 5138 51bd 863b 3ebd
000000c0: d64f 173e 22a2 fe3d 328d b438 54f7 2c3e
000000d0: 06d4 86bd f571 ecbd c1cc 163e dba5 163e
000000e0: 8ccd dfbd 55d9 b23d 5c51 e6bd 98dd 1a3e
000000f0: 1d08 a6bd 3a6b cbbd a90f 8d3c 9ac4 933d
00000100: 4578 f0bc 76e4 11be c6cc 043e 3127 00be
00000110: 6948 16be 0f4d a9bd d974 3e3d 6a2e 733d
00000120: 808f 3ebb 1b7f 293c 467b 683d 5236 f0bd
00000130: 0500 fb3c 2df3 e53d 45af 313e 36f6 e03d
00000140: c509 e5bd a36c efbd b42a ac3d 6a14 20be
00000150: 3c40 ccbd f0ba 4a3d 1a0e abbd af0a f33d
00000160: dbb3 90bd 7233 903d 392c 6dbd 3b90 173e
00000170: 21d4 843d 7d05 6f3d 6302 bc3d f38d 8bbd
00000180: ab20 bf3d b32b cb3d 541c c1bd 722b 563d
00000190: 3c2a 7c3c 30ee 013d d28e f8bd 0493 75bd
000001a0: 2332 d2bd 9ab3 8c3d 1655 103e 50b4 c5bd
000001b0: 59d5 41be d858 2cbe 43bf efbd 201f e63d
000001c0: a55e e53d fa92 133e dd68 69bd d529 763d
000001d0: 726e 0bbe 6e7a 893c 99b0 233e e3fc 8439
000001e0: f134 c13d 655c fcbd 0681 a7bc edf7 00be
000001f0: 5e19 413e 7dc0 4b3d db3d a3bd 98df 1fbd
00000200: b8e9 acbd 0194 953c c66e a23e 1e15 283d
00000210: 1292 b13d 1d3b 0a3e ce77 dabd 3477 6abd
00000220: 1496 f53d 66be adbd 2694 c4bd bc81 e53c
00000230: c184 843e 17c4 edbc 7d4b acbc d934 353e
00000240: 9d51 24bc 3571 f13d 9215 973d 957b 62bd
00000250: ce5d d23d 1d66 a0bc b357 093d 02f1 e23c
00000260: 8fa4 b13c a721 df3d ba7d 613c 2694 84bd
00000270: ac39 1e3c 44a2 b03b abbf b83d 2561 a13d
00000280: b98e d43d aa33 22be be37 023e 4b42 f3bc
00000290: 6d75 9d3e 47ff f63c 797b 26be a84d 90bd
000002a0: 5329 f23c 3dac 45be d318 49be 2695 a0bd
000002b0: 244d b9bd f028 8f3e f8ea b33c 7159 5c3e
000002c0: 7329 3a3e 6b2a b13d ccb8 f1bd 9f49 923d
000002d0: d72c 4c3d 3744 b03d 3da9 46be c732 dcbd
000002e0: d763 6dbb c1b2 d93d 314c d5bd 2e6b 913d
000002f0: b332 863d 1f94 94bd e12a 213e 7d61 143e
00000300: 2461 803e d851 bebc 9ab1 3c3e 4042 8ebc
00000310: 9c4e 9b3e ca34 23bb 2dd4 06be cf34 98bc
00000320: 5afd 253e d8d8 dcbd 2c82 733c 49ae 203e
00000330: 3035 02bd 70f3 393d 5cee c7bc 9fe0 dbbc
00000340: 1145 823d 8e55 c4bd ceeb 6abe d26c 6dbd
00000350: e946 ab3d a4a3 a63c 57a8 febd 80fb 02be
00000360: b4ed e4bd cedb e23d 77fc cc3d e2ee a83c
00000370: fc54 8b3d e150 4c3e 125d c0bd 4315 00be
00000380: 9d50 333e d2cf 9dbd cd6e b93d 5d9e 383e
00000390: 3fc2 713d b539 7ebd 3510 033c 0993 d03d
000003a0: baa1 39be c694 1dbd 7ced cdbd 1558 8cbd
000003b0: f91f 1e3e 35f1 d03d 1f15 75bd d538 6b3d
000003c0: ce82 3bbc 8ec8 6b3d bfd0 aebd f72f a9bd
000003d0: 97ab 623e c619 9c3d 3236 33be 293c be3b
000003e0: 0a7f 993a 50f8 fcbb dfdf 23bc d8cc e83d
000003f0: 11d5 89bd 71a0 e73c c0c0 66bd bd07 033e

MLP3.bias f4 [50]
-0.068482846 0.013159989 0.03666316 0.13507849 0.11814712 0.08559112 -0.010315497 0.06597364
0.17572437 0.0643216 0.05284015 -0.0044598775 0.06686765 0.037100542 0.06121992 0.04366717
0.040722534 0.063630626 0.113317154 -0.04486212 -0.028953781 -0.035624042 0.05258431 0.00037385547
0.031122103 0.10168295 0.11511192 -0.07718707 0.029049784 0.16510554 -0.03282109 -0.0041963495
-0.0125951525 -0.13723594 0.020675393 -0.10145199 0.12207563 -0.123879224 -0.02155431 -0.05725377
-0.11397947 0.13846615 0.14520258 0.096828416 0.021962067 0.085773095 0.024451958 0.11198616
-0.06905288 0.027592063
00000000: bc40 8cbd ff9c 573c 1c2c 163d 0452 0a3e
00000010: 1ef7 f13d 664a af3d 5502 29bc 301d 873d
00000020: 17f1 333e 0bbb 833d ea6e 583d 2a24 92bb
00000030: e8f1 883d bdf6 173d bdc1 7a3d 59dc 323d
00000040: accc 263d c650 823d d312 e83d 58c1 37bd
00000050: 7b30 edbc 84ea 11bd a562 573d 0802 c439
00000060: c8f3 fe3c 273f d03d ccbf eb3d 4114 9ebd
00000070: d0f9 ed3c 6d11 293e 686f 06bd 8881 89bb
00000080: e65b 4ebc 9487 0cbe 715f a93c 10c6 cfbd
00000090: ca02 fa3d 64b4 fdbd aa92 b0bc ee82 6abd
000000a0: 126e e9bd 12ca 0d3e fcaf 143e fa4d c63d
000000b0: cbe9 b33c cea9 af3d 794f c83c 0059 e53d
000000c0: 996b 8dbd c008 e23c

MLP4.weight f4 [7, 50]
0.09303627 0.12815893 -0.0168221 -0.13208668 -0.16402526 -0.030307228 -0.07537792 0.1066708
-0.09405987 -0.024362195 0.028651105 -0.09501681 -0.18854463 0.21498068 -0.15503547 -0.16285503
0.17560828 0.16057737 -0.033643007 0.17629404 -0.047726646 0.089300014 -0.08178044 -0.029643003
0.07598278 0.31442368 0.1213843 -0.10186864 0.06210495 0.06060659 0.039678413 -0.08540247
0.08954793 -0.052636027 0.057926957 -0.22370921 -0.2225022 -0.11357282 -0.21059072 0.0569823
0.04426163 0.07463789 0.042973872 0.08884722 0.07403057 -0.04037096 0.04367408 0.03523865
-0.012701473 -0.24381195 0.0067962115 -0.010464881 0.051431388 -0.37284106 0.10572181 0.17189112
0.038820494 -0.037114043 0.09130452 0.14272432 0.00787871 -0.15160388 -0.28252494 -0.017532745
-0.29837143 0.14950597 0.20644653 0.13616747 0.0023354983 -0.041227385 0.044991735 0.11571574
-0.22524224 -0.09766856 -0.057862625 0.25579688 -0.13869444 -0.13310324 0.09158771 0.01959291
-0.042351983 -0.18033299 0.10248847 0.032913897 0.08547018 -0.31865254 0.07270033 0.15708505
0.08623047 0.10067391 0.07070108 0.003103158 -0.16503328 0.16391316 -0.073225014 0.072711095
0.18071297 -0.16470571 -0.3269804 -0.29818577 0.17191789 0.046002116 0.054763783 0.079584986
0.17347787 -0.038767 -0.21869458 -0.1333553 0.16573031 -0.13104865 0.11030209 -0.29916176
-0.08619002 0.08494379 -0.27034822 0.0331879 0.16453998 -0.03109601 0.187411 0.114799425
-0.12882166 -0.22618082 -0.1444521 -0.13857377 0.16051942 0.21911398 0.06404086 0.08795088
-0.08356117 0.1138208 -0.10113903 -0.42324638 0.05129967 -0.122510985 0.03812752 -0.18813005
0.1054575 0.178668 -0.12019796 0.16896743 0.06909544 -0.030793253 0.10303233 0.17840426
0.024511114 -0.16328412 0.031713743 0.17223309 0.066290416 -0.32073975 0.16654024 -0.039897773
0.059753954 -0.21419391 -0.039955202 0.13035682 -0.5001409 -0.008172212 0.0037116166 0.04278989
-0.4979654 0.18409301 0.11992508 -0.029476406 -0.22651923 -0.14688623 0.0940384 0.18674183
-0.083763845 0.14810939 0.16379093 -0.2798029 -0.26082635 0.18799992 0.052299257 -0.2067669
0.07934891 -0.0843086 -0.026014376 0.009865719 -0.13095203 -0.27258033 0.096367106 0.060445327
0.13929214 0.1630785 -0.2039548 -0.012808917 -0.26600954 0.040576056 -0.36391577 0.11533321
-0.15043813 0.06489213 -0.029122658 0.019717865 -0.09936878 -0.13072532 -0.105752476 -0.10868022
-0.14082666 -0.21497303 0.05183989 0.1439775 0.018880079 0.1395332 -0.151626 0.15930736
0.103221275 -0.18083684 0.28213307 0.086280376 -0.35860723 -0.045736138 -0.25315785 0.1134273
0.07237566 -0.104741186 -0.19996817 0.06682035 0.024155423 -0.18911357 0.23830934 0.14883795
0.0025356289 0.1274333 0.14466685 0.16655518 0.083814465 0.14993517 0.15449247 0.060257707
-0.18160108 -0.260748 0.13754368 -0.40709534 -0.3146474 -0.33573347 0.025694164 0.09948038
0.10725802 -0.022428282 -0.11427126 -0.114738554 -0.0032153989 -0.15223034 0.15425926 0.048132032
-0.12112946 0.023541624 -0.16498025 0.015884275 -0.18369448 -0.04580004 0.100337155 -0.05942433
00000000: cd89 be3d 183c 033e 80ce 89bc bb41 07be
00000010: 3df6 27be dd46 f8bc bd5f 9abd 3876 da3d
00000020: 76a2 c0bd 3a93 c7bc b9b5 ea3c 2c98 c2bd
00000030: d811 41be e523 5c3e 9ec1 1ebe 78c3 26be
00000040: a8d2 333e 656e 243e 40cd 09bd 6d86 343e
00000050: 047d 43bd ede2 b63d 817c a7bd e2d5 f2bc
00000060: dc9c 9b3d 24fc a03e 5598 f83d 81a0 d0bd
00000070: c361 7e3d 9e3e 783d d585 223d 7de7 aebd
00000080: e864 b73d e098 57bd d144 6d3d 0714 65be
00000090: 9ed7 63be de98 e8bd 18a5 57be 4666 693d
000000a0: af4b 353d c0db 983d 5f05 303d 88f5 b53d
000000b0: 579d 973d 055c 25bd 98e3 323d 6756 103d
000000c0: d719 50bc d7a9 79be c1b2 de3b e474 2bbc
000000d0: b8a9 523d 06e5 bebe ad84 d83d 3a04 303e
000000e0: 3d02 1f3d e504 18bd ddfd ba3d 5326 123e
000000f0: b415 013c 0c3e 1bbe 1ca7 90be d5a0 8fbc
00000100: 24c4 98be 1818 193e b866 533e 7c6f 0b3e
00000110: 290f 193b 0cde 28bd 4149 383d 60fc ec3d
00000120: e7a5 66be 7406 c8bd 5c01 6dbd cff7 823e
00000130: ea05 0ebe 374c 08be 5692 bb3d 4f81 a03c
00000140: 4679 2dbd 36a9 38be 7ae5 d13d b9d0 063d
00000150: fd0a af3d 6d26 a3be e9e3 943d e7da 203e
00000160: 9a99 b03d 1f2e ce3d bacb 903d 5a5e 4b3b
00000170: 7cfe 28be dad8 273e fff6 95bd 8ee9 943d
00000180: d20c 393e 9da8 28be fa69 a7be ceab 98be
00000190: 3e0b 303e b76c 3c3d fd4f 603d 74fd a23d
000001a0: 2fa4 313e 25ca 1ebd 79f1 5fbe 4b8e 08be
000001b0: 35b5 293e 9e31 06be 10e6 e13d bb2b 99be
000001c0: 6584 b0bd 03f7 ad3d 156b 8abe 09f0 073d
000001d0: 2b7d 283e 0fbd febc abe8 3f3e f61b eb3d
000001e0: d3e9 03be f29b 67be 40eb 13be 48e6 0dbe
000001f0: 345f 243e 6a5f 603e db27 833d 971f b43d
00000200: 1e22 abbd e11a e93d fb21 cfbd c0b3 d8be
00000210: 9a1f 523d 0ae7 fabd 9a2b 1c3d 2aa5 40be
00000220: 1afa d73d bff4 363e 592a f6bd cc05 2d3e
00000230: e981 8d3d 2242 fcbc 9d02 d33d 9baf 363e
00000240: 88cb c83c f433 27be 45e6 013d df5d 303e
00000250: 45c3 873d 0038 a4be 8689 2a3e d96b 23bd
00000260: 90c0 743d a655 5bbe 11a8 23bd 427c 053e
00000270: 3c09 00bf bee4 05bc 983e 733b 7444 2f3d
00000280: 52f5 febe e182 3c3e 489b f53d 8178 f1bc
00000290: a8f4 67be 5869 16be 3497 c03d 4039 3f3e
000002a0: 618c abbd fda9 173e cfb8 273e 5342 8fbe
000002b0: 088b 85be 0d83 403e bf37 563d b4ba 53be
000002c0: ae81 a23d fda9 acbd 1a1c d5bc d3a3 213c
000002d0: 4a18 06be a68f 8bbe 1e5c c53d 8595 773d
000002e0: 99a2 0e3e 0dfe 263e 87d9 50be 7edc 51bc
000002f0: 6732 88be 1433 263d 2b53 babe d133 ec3d
00000300: 740c 1abe 2ae6 843d a492 eebc 5c87 a13c
00000310: dc81 cbbd dcdc 05be c194 d8bd bc93 debd
00000320: dd34 10be e421 5cbe 1156 543d d66e 133e
00000330: 65aa 9a3c cbe1 0e3e d943 1bbe 7821 233e
00000340: ad65 d33d 4b2d 39be bf73 903e c4b3 b03d
00000350: 5e9b b7be d155 3bbd e89d 81be 924c e83d
00000360: b139 943d 8c82 d6bd 75c4 4cbe 1cd9 883d
00000370: 98e1 c53c fda6 41be 5d07 743e fa68 183e
00000380: cb2c 263b e07d 023e 8c23 143e 718d 2a3e
00000390: eba6 ab3d 9b88 193e 4633 1e3e c9d0 763d
000003a0: a2f5 39be c380 85be 40d8 0c3e cd6e d0be
000003b0: 7719 a1be 42e5 abbe 917c d23c 5fbc cb3d
000003c0: 18aa db3d 84bb b7bc 0d07 eabd 0cfc eabd
000003d0: 71b9 52bb 45e2 1bbe 24f6 1d3e 1826 453d
000003e0: b912 f8bd 5dda c03c 95f0 28be bd1f 823c
000003f0: 681a 3cbe d398 3bbd 917d cd3d ed66 73bd

MLP4.bias f4 [7]
-0.12973934 0.10696113 0.064447105 -0.0059427964 0.0060155746 0.09053614 0.13030952
00000000: 64da 04be 700e db3d d8fc 833d cabb c2bb
00000010: 4c1e c53b 036b b93d dc6f 053e
